testing/scripts/outputs/DDPG_Env/20221215-160906/models/330actor_checkpoint.pt (torch, 281431 bytes, 5 tensors)

linear1.weight f4 [256, 14]
-0.0011166795 0.24223948 0.19695313 0.10189348 -0.3233806 -0.10400545 0.0075724944 0.0850323
-0.21832405 -0.24573874 0.02312556 0.085396804 0.13466199 0.2229841 0.00816282 -0.3327348
0.10812445 0.17905948 0.15523297 -0.07817637 -0.29806322 -0.17918977 -0.08710749 -0.27332982
-0.1459404 -0.012021077 0.21303053 -0.19542593 -0.20652182 0.31409857 0.22664487 0.03370963
0.16011328 -0.110552736 0.31378898 -0.068335384 -0.12269775 -0.2355499 0.20246547 -0.09087591
-0.08607043 0.068891294 0.038258877 -0.13488732 0.11683614 0.044324566 -0.066574104 0.30659023
0.11340341 0.14703506 -0.18159422 0.23614253 -0.13496366 -0.0675681 -0.06164362 0.16440204
0.14003754 0.11201232 -0.052540507 -0.04927643 -0.2926237 0.005198237 -0.2513781 -0.062137917
-0.22634543 -0.195505 -0.29569468 0.011208369 -0.14917126 -0.022111064 -0.06696145 0.35189146
0.14024098 -0.16561387 0.13733214 0.14822178 -0.15512381 0.26423973 -0.16377036 0.07850045
0.03379582 -0.14532022 -0.24398324 0.12554874 -0.17800175 0.0072119855 -0.2049695 -0.13268904
-0.25221777 -0.15065953 -0.05620791 -0.22509885 0.07512576 -0.07428548 0.29836148 0.07532808
0.23702481 -0.110355906 0.012828741 0.091687776 -0.15278356 0.053173713 -0.43527073 -0.047920328
-0.3076415 -0.06642201 0.17733422 0.023686348 0.18918979 -0.12090237 0.13043252 0.07945144
0.14640617 0.13360538 0.074001566 0.05902981 -0.23773056 0.14099099 0.053696103 0.12578732
-0.109430075 -0.08601114 0.074884035 0.16880108 -0.073261395 -0.06580515 0.00635261 -0.09725256
-0.09609237 0.035094623 0.14192523 0.03877575 -0.24894376 -0.026348174 0.14186412 0.15802039
0.20340034 0.12567565 -0.053494386 0.028259939 -0.18501496 0.20109487 -0.35268018 0.20471333
-0.06267331 -0.123797365 0.23703478 0.02306437 0.0073342607 -0.16009723 0.19214526 0.30363593
-0.106944956 0.3714504 -0.22510195 -0.2160937 -0.30136627 -0.26189756 -0.17295627 0.08600231
-0.06971698 -0.1758326 0.26520663 0.04943299 -0.21077171 -0.2154768 0.2634317 0.09391231
0.17044628 0.2648486 0.32019606 -0.03508603 -0.124228865 0.1887549 0.21737637 0.3778582
0.13874975 -0.05491127 0.13963084 0.18413928 -0.04084218 -0.10678653 -0.15296258 0.25752136
0.20054618 0.048415024 -0.51816195 -0.2947588 -0.15654117 0.09576203 0.061647017 0.27200976
0.13485923 0.1263629 0.22278328 0.18534638 0.13473552 -0.055976287 -0.17811297 -0.33894798
-0.05248346 -0.037541974 -0.04289674 -0.07622121 -0.39734602 -0.051061276 0.018358868 0.08893978
0.052431602 0.1293366 0.059570905 0.07452109 -0.1368989 -0.07870052 -0.008488143 0.26906893
-0.2491328 -0.17421065 0.0627798 -0.11051692 0.29871386 -0.25760207 -0.22570418 0.19100112
-0.060737737 -0.065317005 0.19091207 0.25617826 0.2674373 0.14136855 -0.037989624 -0.2583569
0.20204748 -0.010583634 -0.09906264 -0.023193587 -0.00530876 -0.23210588 0.3044311 0.29406542
0.04015456 0.12836519 -0.12081207 -0.11716053 -0.039053295 -0.14665744 -0.0836242 0.08749274
0.20142217 0.0893035 0.20840026 0.1349431 0.04078951 -0.09204297 0.26774293 -0.1667462
00000000: 8c5d 92ba a00d 783e 15ae 493e 87ad d03d
00000010: 2492 a5be cf00 d5bd b022 f83b 6a25 ae3d
00000020: 5790 5fbe f0a2 7bbe d071 bd3c 85e4 ae3d
00000030: d5e4 093e f255 643e 59bd 053c 375c aabe
00000040: 5a70 dd3d 5e5b 373e 64f5 1e3e ef1a a0bd
00000050: be9b 98be 867d 37be 6965 b2bd e3f1 8bbe
00000060: 6671 15be 0df4 44bc ad24 5a3e bc1d 48be
00000070: 757a 53be 87d1 a03e 9815 683e 1c13 0a3d
00000080: bcf4 233e 7969 e2bd f3a8 a03e 6cf3 8bbd
00000090: f548 fbbd fe33 71be 1c53 4f3e 261d babd
000000a0: b245 b0bd e116 8d3d 57b5 1c3d e71f 0abe
000000b0: c947 ef3d ad8d 353d 0158 88bd 65f9 9c3e
000000c0: 0c40 e83d 5c90 163e d6f3 39be 59cf 713e
000000d0: ea33 0abe 2561 8abd 057e 7cbd 0259 283e
000000e0: 0066 0f3e b766 e53d b734 57bd 15d6 49bd
000000f0: c6d2 95be f955 aa3b a1b4 80be 5484 7ebd
00000100: 19c7 67be 7632 48be 4b65 97be 4fa3 373c
00000110: 5ac0 18be 4322 b5bc 1623 89bd 1e2b b43e
00000120: 559b 0f3e af96 29be cca0 0c3e 73c7 173e
00000130: c7d8 1ebe 6e4a 873e 6bb3 27be d8c4 a03d
00000140: 7c6d 0a3d d3ce 14be bed6 79be d98f 003e
00000150: 1746 36be 8552 ec3b 86e3 51be a3df 07be
00000160: b022 81be 7e46 1abe 443a 66bd 5080 66be
00000170: 89db 993d fc22 98bd d6c2 983e 9c45 9a3d
00000180: a2b6 723e 4702 e2bd a42f 523c cdc6 bb3d
00000190: 4b73 1cbe aecc 593d cedb debe 1b48 44bd
000001a0: 3083 9dbe 4308 88bd 1a97 353e df09 c23c
000001b0: f8ba 413e a99b f7bd 1a90 053e 70b7 a23d
000001c0: 80eb 153e d9cf 083e 228e 973d 3ec9 713d
000001d0: a46f 73be f15f 103e 72f0 5b3d 64ce 003e
000001e0: e01c e0bd 9c26 b0bd cd5c 993d 31da 2c3e
000001f0: 120a 96bd dac4 86bd 8e29 d03b 5a2c c7bd
00000200: 14cc c4bd 61bf 0f3d d954 113e 52d3 1e3d
00000210: 1deb 7ebe 20d8 d7bc d444 113e 19d0 213e
00000220: 2e48 503e 1eb1 003e ee1c 5bbd 6381 e73c
00000230: 9074 3dbe d0eb 4d3e 7f92 b4be 5fa0 513e
00000240: dd5a 80bd 7989 fdbd 3fb9 723e 7df1 bc3c
00000250: 3d54 f03b 87f0 23be bac1 443e 2b76 9b3e
00000260: f505 dbbd bf2e be3e 2081 66be ab47 5dbe
00000270: ae4c 9abe 7017 86be 731b 31be fb21 b03d
00000280: c7c7 8ebd 760d 34be 2ac9 873e 3f7a 4a3d
00000290: 8ad4 57be f3a5 5cbe 85e0 863e 1955 c03d
000002a0: 7889 2e3e 3c9a 873e bdf0 a33e 5eb6 0fbd
000002b0: b46b febd f748 413e e997 5e3e a176 c13e
000002c0: 6a14 0e3e a4ea 60bd 63fb 0e3e 028f 3c3e
000002d0: 214a 27bd e5b2 dabd 39a2 1cbe d7d9 833e
000002e0: fa5b 4d3e d54e 463d 43a6 04bf a0ea 96be
000002f0: 544c 20be e21e c43d 9581 7c3d dd44 8b3e
00000300: 8a18 0a3e 4765 013e 4d21 643e 71cb 3d3e
00000310: 1cf8 093e 6447 65bd 3f63 36be 978a adbe
00000320: e6f8 56bd 9dc5 19bd 7eb4 2fbd de19 9cbd
00000330: f070 cbbe a125 51bd 5665 963c 0f26 b63d
00000340: 85c2 563d d070 043e 9f00 743d 839e 983d
00000350: 3a2f 0cbe bd2d a1bd da11 0bbc 67c3 893e
00000360: ab1c 7fbe 4764 32be b292 803d b256 e2bd
00000370: 06f1 983e 6be4 83be ff1e 67be cc95 433e
00000380: 22c8 78bd ecc4 85bd 747e 433e cc29 833e
00000390: 8bed 883e ebc2 103e 029b 1bbd 5b47 84be
000003a0: 89e5 4e3e fa66 2dbc 5ae1 cabd 7a00 bebc
000003b0: 1bf5 adbb 2aad 6dbe 65de 9b3e be8f 963e
000003c0: 1c79 243d 2a72 033e 526c f7bd dcf1 efbd
000003d0: 59f6 1fbd 5e2d 16be 2a43 abbd 652f b33d
000003e0: 9d41 4e3e c1e4 b63d e166 553e 862e 0a3e
000003f0: e712 273d 0681 bcbd 9a15 893e 84bf 2abe

linear1.bias f4 [256]
0.26251858 -0.29736036 0.16118519 -0.21246994 -0.19630554 -0.17609355 -0.16326305 -0.120836556
0.25856435 0.027261145 -0.14830545 0.19971587 0.13899143 -0.06262428 -0.25067613 0.09064335
0.09930139 0.14782639 0.095857225 -0.05638037 -0.23725173 0.092368275 0.08685546 0.24192984
-0.11419934 0.30360052 -0.026747258 0.104990855 0.28727907 0.14176236 -0.023701664 -0.08882541
0.096216545 -0.17669326 0.114118956 -0.103125915 -0.009639988 -0.24498735 -0.204046 -0.15181054
0.15310617 -0.028741704 0.09469079 0.14786488 -0.1579425 -0.2321466 0.17416933 0.013286435
-0.042834304 0.12250912 0.16628687 0.26812708 0.192487 -0.031117477 0.17551292 0.08951628
0.1027148 0.2719446 0.2729228 0.20782731 0.26679963 -0.222646 -0.10639934 -0.13933979
0.26595485 -0.08599802 0.11218007 0.04820653 0.27600867 0.10367574 0.13287964 0.16205522
0.09070373 0.1873343 0.17961133 0.15927288 0.17687197 -0.078433156 0.22629805 -0.15039267
0.33646598 0.3060716 -0.0074627604 0.23411885 -0.11089739 0.19092876 -0.22392704 0.056388568
-0.11491745 0.13381532 0.29772463 0.28198075 0.25205448 0.1941178 -0.07179422 -0.15153924
0.107107006 -0.1514287 0.08127666 0.17587848 0.1787762 0.09556903 -0.19146845 -0.15426013
-0.14706248 -0.11742039 -0.14318259 -0.11398873 0.07132246 0.25211713 0.13057038 0.06791748
0.25276932 -0.19469056 0.22806756 -0.035684213 0.21361268 0.26462886 0.19255278 -0.22614346
-0.12690052 0.03717324 0.07067976 -0.07556979 -0.03915948 0.26138967 0.3121298 0.124570936
0.26608407 0.29426506 0.16823426 0.20114377 -0.22505794 0.11205896 0.24865872 -0.0030654147
-0.21908356 0.14287183 0.13905334 0.01977984 -0.24015944 -0.23685244 0.22040379 -0.038450256
0.22428143 -0.11849401 -0.19830215 0.1615053 -0.19470693 -0.09444624 -0.040377777 0.26953277
0.026603853 0.0567566 0.00857989 0.07681904 -0.17248558 0.07327276 0.17509456 -0.02548397
-0.103952914 -0.10325411 -0.18973912 0.1683822 0.2734988 0.09508188 0.11635052 0.05668361
0.2575986 0.062405698 0.28587863 -0.026073802 0.1506303 0.1220873 -0.1008569 0.13035966
-0.19810909 -0.07959991 -0.08443322 0.027321557 -0.1382136 -0.09495554 -0.041256227 0.07734136
0.18411058 -0.19474101 -0.043857273 -0.15934512 -0.09215315 0.109674186 0.07566269 0.043609887
-0.07758214 0.004001437 -0.14142103 0.07544197 -0.24693123 0.29192477 0.19236374 0.27485034
-0.05889123 -0.121997744 -0.12594515 0.13997747 0.13852555 0.22105964 0.2440274 -0.08479938
-0.172561 -0.03613728 -0.17089991 0.087066 -0.08589133 -0.18213284 -0.009648045 0.24958445
0.22487259 -0.007784351 0.2779061 0.26123437 -0.2069197 -0.18833748 -0.16455555 0.21847108
-0.078551136 0.11305699 0.11277884 -0.1830529 0.23142385 -0.23201047 0.24801186 0.0715351
0.27019325 -0.16693161 0.09821195 0.23090896 -0.13543078 -0.008879288 0.240587 0.29730964
0.18025514 0.027091205 0.13600446 0.21278606 0.27854076 0.044156272 -0.13111627 0.23974071
-0.09462862 0.13476992 -0.024551399 0.19134729 0.26639193 -0.16317496 -0.06176817 -0.1694694
00000000: d668 863e 9e3f 98be bb0d 253e b891 59be
00000010: 5204 49be de51 34be 6e2e 27be 2879 f7bd
00000020: 8c62 843e c452 df3c 62dd 17be 5182 4c3e
00000030: c553 0e3e 2941 80bd 9f58 80be 38a3 b93d
00000040: 875e cb3d cd5f 173e cb50 c43d 1aef 66bd
00000050: 1ef2 72be 942b bd3d 47e1 b13d 75bc 773e
00000060: 58e1 e9bd 8771 9b3e 111d dbbc 7205 d73d
00000070: 3e16 933e 272a 113e fe29 c2bc 19ea b5bd
00000080: 2e0d c53d 14ef 34be 33b7 e93d ae33 d3bd
00000090: 0af1 1dbc f7dd 7abe 6ff1 50be 3974 1bbe
000000a0: ddc7 1c3e b973 ebbc 3fed c13d e469 173e
000000b0: aebb 21be d7b7 6dbe 7259 323e 59af 593c
000000c0: 0673 2fbd 10e6 fa3d 1b47 2a3e f447 893e
000000d0: 501b 453e 14ea febc a9b9 333e 5054 b73d
000000e0: 235c d23d 533c 8b3e 8abc 8b3e afd0 543e
000000f0: f699 883e 50fd 63be e6e7 d9bd 17af 0ebe
00000100: 3c2b 883e bb1f b0bd aabe e53d 3674 453d
00000110: 0251 8d3e f253 d43d 9a11 083e cef1 253e
00000120: e1c2 b93d 90d4 3f3e 08ec 373e 6e18 233e
00000130: ed1d 353e 90a1 a0bd adba 673e 8900 1abe
00000140: 4545 ac3e 6bb5 9c3e 2c8a f4bb dabc 6f3e
00000150: 2c1e e3bd d482 433e 214d 65be b3f7 663d
00000160: d759 ebbd e206 093e 5d6f 983e c85f 903e
00000170: 490d 813e d1c6 463e d908 93bd 1a2d 1bbe
00000180: eb5a db3d 2010 1bbe 6174 a63d 7d19 343e
00000190: 1c11 373e b2b9 c33d 4e10 44be 5ef6 1dbe
000001a0: 8c97 16be 1a7a f0bd 759e 12be ec72 e9bd
000001b0: 8311 923d 7f15 813e 3eb4 053e 5218 8b3d
000001c0: fb6a 813e f65c 47be 8b8a 693e 9c29 12bd
000001d0: 48bd 5a3e 6f7d 873e 8e2c 453e 2792 67be
000001e0: 36f2 01be f842 183d 8dc0 903d 56c4 9abd
000001f0: b165 20bd ded4 853e 7acf 9f3e 0c1f ff3d
00000200: 2c3c 883e e9a9 963e 9a45 2c3e a2f8 4d3e
00000210: 9775 66be 2b7f e53d 64a0 7e3e 20e5 48bb
00000220: 7157 60be fe4c 123e 0064 0e3e 5509 a23c
00000230: 5bec 75be 7289 72be 88b1 613e 047e 1dbd
00000240: 08aa 653e fdac f2bd b80f 4bbe a561 253e
00000250: 4161 47be 086d c1bd 2b63 25bd 3300 8a3e
00000260: 53f0 d93c 9c79 683d ab92 0c3c 4d53 9d3d
00000270: 0fa0 30be 0710 963d fd4b 333e c2c3 d0bc
00000280: 44e5 d4bd e476 d3bd f94a 42be 626c 2c3e
00000290: 0908 8c3e 4aba c23d 2e49 ee3d 132d 683d
000002a0: f7e3 833e 1e9d 7f3d af5e 923e ba98 d5bc
000002b0: d43e 1a3e e808 fa3d 108e cebd 017d 053e
000002c0: 1cdd 4abe 4705 a3bd 53eb acbd 75d1 df3c
000002d0: de87 0dbe 0d78 c2bd 4afc 28bd 2665 9e3d
000002e0: 7c87 3c3e 306a 47be afa3 33bd 5e2b 23be
000002f0: caba bcbd dc9c e03d 0af5 9a3d 48a0 323d
00000300: 63e3 9ebd 7d1e 833b add0 10be 5281 9a3d
00000310: 8adb 7cbe 2a77 953e 00fb 443e 2fb9 8c3e
00000320: ee37 71bd f4d9 f9bd c4f7 00be 4156 0f3e
00000330: a4d9 0d3e 755d 623e 52e2 793e 4cab adbd
00000340: d5b3 30be af04 14bd 6300 2fbe a94f b23d
00000350: cbe7 afbd 0881 3abe d512 1ebc 1193 7f3e
00000360: 0045 663e de13 ffbb b549 8e3e 83c0 853e
00000370: c2e2 53be 8adb 40be 4081 28be e2b6 5f3e
00000380: 6bdf a0bd 6c8a e73d 98f8 e63d 3872 3bbe
00000390: 60fa 6c3e 2794 6dbe d2f6 7d3e ff80 923d
000003a0: c556 8a3e 1ff0 2abe 5923 c93d 6673 6c3e
000003b0: 5eae 0abe 6f7a 11bc 705c 763e f838 983e
000003c0: ce94 383e 60ee dd3c c144 0b3e 97e4 593e
000003d0: e59c 8e3e 35dd 343d 5843 06be 977e 753e
000003e0: a6cc c1bd 2001 0a3e 0420 c9bc 8bf0 433e
000003f0: 8664 883e 5617 27be 9f00 7dbd 6389 2dbe

linear2.weight f4 [256, 256]
0.13427359 -0.0014620528 0.003441671 0.04380289 0.08136573 0.06122816 -0.027198134 0.008616521
0.041123483 -0.08363369 -0.020217232 -0.18190442 -0.021384697 -0.0637665 0.021879809 -0.019939126
0.04011421 0.04300934 -0.011005041 0.071757294 0.046210572 -0.21755296 0.052615367 0.037581958
0.06379296 -0.031116014 0.06310921 0.05372242 -0.01411144 0.021159096 -0.057851013 0.0235006
0.042601 0.12803973 0.08563256 -0.009128036 -0.091462635 0.13636845 0.02184875 0.10336139
-0.040090993 0.07244182 -0.05522744 0.031834986 -0.02820221 0.055523343 -0.009440235 -0.035684433
0.0046889074 0.009614338 0.027060287 0.027464665 -0.07275704 -0.14205788 0.08858954 -0.12844875
0.008723427 0.03197127 -0.09082311 0.07682448 -0.021486813 -0.07826677 -0.018029962 -0.05075976
-0.036483817 0.14469373 -0.004546679 -0.07968107 -0.011020978 0.058045026 0.0062963767 0.12034158
-0.083312705 0.026856627 0.119387604 -0.009860413 -0.00640167 0.11664935 -0.01584508 -0.06847393
-0.0076920413 -0.034697555 -0.051509723 0.001772542 -0.008408997 -0.008060963 -0.044651058 0.077018894
0.05618458 0.00066888786 0.053062715 -0.0375269 -0.07963599 0.039417807 0.033466753 -0.08992147
-0.12852757 0.065315336 0.034393612 0.01810692 0.00013614816 0.017227933 0.065391265 -0.12630206
0.028354183 0.08856656 0.011907681 -0.011965298 -0.02209585 -0.06117656 0.003938206 -0.0135519365
-0.104598746 -0.03277062 -0.04325769 0.049380805 0.05254722 -0.0009438995 0.17786121 0.0063521294
-0.06850356 -0.014132968 0.046658587 0.012390658 -0.023947544 0.016301583 -0.01778352 -0.014938733
-0.059877045 0.031113435 0.06254383 0.028466424 0.085789524 -0.0722769 0.08326995 0.03445297
-0.0048309956 0.0040265694 0.0048769447 0.008998797 0.033132907 -0.049314275 -0.07120796 -0.013608458
0.0746612 -0.03527773 -0.072247595 -0.0185247 0.004579536 -0.036143236 0.011276851 0.041225795
0.10389297 0.029962996 -0.009882048 -0.05841634 -0.039266374 0.05464172 0.08150183 0.07867965
-0.11985133 0.03508803 -0.091190755 -0.040615976 -0.030176228 0.1086787 0.094920844 -0.055818606
0.007533093 -0.06753054 -0.02840422 -0.033588815 -0.0036237335 -0.14781907 0.1671083 -0.048517946
-0.0005691459 -0.022742514 -0.015136436 -0.027377583 -0.07658653 -0.009139538 -0.014111313 -0.043013725
0.13559408 0.08011672 -0.05914571 0.026926005 -0.033808522 -0.023616228 -0.031361982 -0.09155111
0.15493874 -0.0128155425 -0.0352089 0.013209959 -0.0095796175 0.013469469 0.011845531 0.1265691
0.11682118 -0.046257887 -0.038443454 -0.006767596 -0.021029849 -0.031158194 -0.02052746 -0.075204805
-0.053972643 0.019956678 0.015722102 0.015929267 -0.07027416 0.06434226 0.0809539 0.05057736
0.01789149 -0.22460908 0.028838469 -0.14919505 -0.08070107 0.07159137 -0.07487571 0.032503646
-0.013618225 -0.0139454 0.01936041 -0.03666396 -0.0022113877 -0.0042252 0.04270812 -0.0025074447
0.038300235 0.042280123 0.05203213 -0.17204678 0.13625942 0.011386316 -0.123494 -0.15104416
0.05372994 0.043379065 0.012138265 0.03615413 0.11371035 -0.09509094 0.030587064 -0.006082334
0.05275244 -0.09725367 -0.062355448 -0.0025115209 0.073003046 0.06663097 -0.06865582 0.015665736
00000000: 047f 093e 5aa2 bfba a88d 613b a96a 333d
00000010: 13a3 a63d 61ca 7a3d 9fce debc 4f2c 0d3c
00000020: 1971 283d 2448 abbd 9c9e a5bc 2745 3abe
00000030: f62e afbc 0398 82bd 493d b33c 6157 a3bc
00000040: cc4e 243d 902a 303d 7d4e 34bc 7df5 923d
00000050: 4c47 3d3d 34c6 5ebe 3683 573d 8aef 193d
00000060: e2a5 823d 03e7 febc 673f 813d 0a0c 5c3d
00000070: ab33 67bc d755 ad3c 2ff5 6cbd 5584 c03c
00000080: 637e 2e3d d91c 033e 2060 af3d c28d 15bc
00000090: c350 bbbd 2ca4 0b3e 26fc b23c 23af d33d
000000a0: 7436 24bd 605c 943d 2b36 62bd 6765 023d
000000b0: 5208 e7bc 726c 633d 37ab 1abc d729 12bd
000000c0: 68a5 993b 7585 1d3c 89ad dd3c 94fd e03c
000000d0: a501 95bd 9f77 11be 6f6e b53d 1288 03be
000000e0: b4ec 0e3c 4ef4 023d 7701 babd 2756 9d3d
000000f0: 1d05 b0bc 544a a0bd 92b3 93bc 77e9 4fbd
00000100: 0e70 15bd 982a 143e 4ffc 94bb d42f a3bd
00000110: 5591 34bc 9fc0 6d3d d651 ce3b a575 f63d
00000120: da9f aabd 6e02 dc3c 7d81 f43d 928d 21bc
00000130: 1ac5 d1bb dbe5 ee3d 8bcd 81bc 0f3c 8cbd
00000140: 850d fcbb 061f 0ebd dcfb 52bd a454 e83a
00000150: e4c5 09bc 2112 04bc 07e4 36bd 15bc 9d3d
00000160: cd21 663d 4e58 2f3a 4a58 593d cfb5 19bd
00000170: 3218 a3bd 9174 213d 6f14 093d bf28 b8bd
00000180: bb9c 03be 0cc4 853d 51e0 0c3d f754 943c
00000190: fec2 0e39 9821 8d3c dbeb 853d 5455 01be
000001a0: 0847 e83c 6262 b53d 6f18 433c 190a 44bc
000001b0: 5b02 b5bc 4694 7abd 110c 813b f108 5ebc
000001c0: de37 d6bd 7c3a 06bd fa2e 31bd 8743 4a3d
000001d0: c13b 573d 0670 77ba 4021 363e 8625 d03b
000001e0: 984b 8cbd f78d 67bc 131d 3f3d 3002 4b3c
000001f0: a42d c4bc e68a 853c bfae 91bc 96c1 74bc
00000200: a241 75bd 9ae1 fe3c fb16 803d 6b32 e93c
00000210: 6bb2 af3d e905 94bd 6f89 aa3d 8f1e 0d3d
00000220: 544d 9ebb 50f1 833b c7ce 9f3b b16f 133c
00000230: 5fb6 073d c4fd 49bd 7bd5 91bd 03f6 5ebc
00000240: f9e7 983d 627f 10bd 8cf6 93bd 1dc1 97bc
00000250: ef0f 963b ee0a 14bd 8bc2 383c 61dc 283d
00000260: d6c5 d43d f574 f53c 50e8 21bc f945 6fbd
00000270: c7d5 20bd ffcf 5f3d 6eea a63d cc22 a13d
00000280: 9d74 f5bd 77b8 0f3d 38c2 babd f05c 26bd
00000290: 2334 f7bc f092 de3d dc65 c23d 0da2 64bd
000002a0: 2ad8 f63b 744d 8abd f7af e8bc 6d94 09bd
000002b0: 297c 6dbb e25d 17be 701e 2b3e c1ba 46bd
000002c0: bc32 15ba 824e babc d0fe 77bc f446 e0bc
000002d0: 66d9 9cbd 00be 15bc 2333 67bc 292f 30bd
000002e0: 2dd9 0a3e 3c14 a43d c642 72bd ed93 dc3c
000002f0: ce7a 0abd d276 c1bc 6c75 00bd 267f bbbd
00000300: 43a8 1e3e 48f8 51bc 3537 10bd 956e 583c
00000310: d4f3 1cbc 0caf 5c3c c213 423c 559b 013e
00000320: f13f ef3d e978 3dbd e276 1dbd b6c2 ddbb
00000330: ca46 acbc 783f ffbc 3429 a8bc fa04 9abd
00000340: 6b12 5dbd 307c a33c a3cb 803c 187e 823c
00000350: e6eb 8fbd e0c5 833d 29cb a53d 352a 4f3d
00000360: 2d91 923c ecff 65be a73e ec3c 96c6 18be
00000370: 9a46 a5bd 7f9e 923d 7058 99bd 8b22 053d
00000380: fa1e 5fbc 3f7b 64bc b999 9e3c f32c 16bd
00000390: eeec 10bb 8c73 8abb b6ee 2e3d f153 24bb
000003a0: b5e0 1c3d ec2d 2d3d a51f 553d 082d 30be
000003b0: 9787 0b3e ac8d 3a3c 6cea fcbd 52ab 1abe
000003c0: ed13 5c3d 3fae 313d 93df 463c 5a16 143d
000003d0: f9e0 e83d 0abf c2bd b991 fa3c 514e c7bb
000003e0: f112 583d ef2c c7bd 6d68 7fbd 5498 24bb
000003f0: 9f82 953d d175 883d 6c9b 8cbd 6e55 803c

linear2.bias f4 [256]
0.024453957 0.020073764 -0.03719252 0.04416494 -0.045556117 0.043602336 0.053438608 0.037932936
0.031187296 -0.054364696 -0.034510948 -0.012322155 -0.03208266 0.039796785 -0.027671691 0.009264813
0.02712354 0.05065415 -0.061856236 0.040575728 0.015408096 -0.0376461 0.01627361 -0.026257046
0.0029590107 -0.0052516367 0.02432936 0.0012317294 0.020131843 0.026360758 0.016032744 0.048634015
0.0027927984 0.02282666 0.008330115 0.059296913 -0.06414015 -0.016661135 0.0081124585 -0.018582908
-0.020653365 0.05384939 0.07187952 -0.023552695 -0.014132317 -0.024965988 0.045239307 0.043121755
-0.0646535 0.034376692 0.051788956 -0.008117614 -0.025963178 0.0146373715 -0.07294827 0.05032174
-0.048544236 -0.012823074 -0.026145782 0.03127857 -0.02991164 0.016681185 -0.080095835 0.030614857
0.020957353 0.059952255 -0.00038649797 -0.04059974 0.0033169528 0.026487881 -0.06273301 0.040218476
0.0067214444 -0.051170465 -0.010123747 0.03694815 0.010588784 -0.016528605 0.04079652 -0.03966715
-0.035742935 0.02309761 0.02524029 0.020453483 -0.04017435 -0.03322456 0.0013616806 0.033352457
-0.024605276 0.0017194225 0.026501415 -0.028301416 -0.03415065 -0.0074919774 0.044936035 -0.008001224
-0.04340809 0.0065411637 -0.07034624 0.015527533 -0.06686474 0.0023676893 -0.019188134 -0.005338564
-0.06506944 -0.0586154 -0.009651429 0.034079153 -0.01393865 -0.0269437 -0.03530967 -0.03103406
-0.040297743 0.032449957 0.03544223 -0.047236856 -0.03283556 0.019722475 0.026507344 -0.062019534
0.017489089 0.05541014 -0.061688572 -0.023307217 0.060520653 -0.01023692 -0.026905777 0.072862856
0.06108763 -0.021825137 0.07035482 0.04174406 -0.06559996 -0.010365911 -0.04756139 -0.016386272
-0.043649785 0.06629698 -0.034452684 -0.028681621 -0.06559476 -0.007095316 0.0032786224 -0.05674165
-0.055834632 -0.00855569 0.04571441 -0.03744911 0.025723018 0.0461972 -0.017199732 0.029521177
0.033629972 -0.06484787 0.0021436464 0.03537108 0.023253385 -0.0057167546 0.0028369566 0.016666409
0.025464796 -0.059301276 -0.016194198 -0.059665438 0.0043410985 0.012113424 0.061060283 0.039430097
-0.01052897 -0.0045148125 -0.015257218 0.0070098094 -0.020542132 -0.007392628 0.010137647 0.014891787
0.013199441 0.006357535 -0.03410432 -0.055085123 0.048375156 -0.05715769 0.03807222 -0.02864197
-0.073050305 0.021753458 -0.039251227 0.020341674 0.048173144 -0.045316525 -0.026231976 0.048661508
-0.06472785 0.07345816 0.021468103 -0.05040385 -0.039903093 0.064245895 -0.0036809598 -0.019873036
0.007124454 0.04243033 -0.017366063 -0.056659788 -0.014479327 -0.056413274 -0.006573275 -0.025264319
-0.047020417 -0.06683679 0.035032943 0.018117009 -0.0025886472 0.05028247 -0.051677216 -0.012015373
0.00069194316 -0.022048745 -0.039597888 0.06191763 0.02751918 -0.033894014 0.0321397 -0.027613472
-0.060435575 0.030101141 0.08049627 0.06275718 -0.030859651 0.07238724 0.039233357 0.029301826
-0.05260339 0.035595227 -0.017095044 0.00992881 0.013854667 -0.014623469 0.0060024583 0.01482883
-0.0161102 -0.05307148 0.033418585 -0.04059077 -0.047751952 0.019171977 0.058309693 -0.05968221
-0.020919777 -0.0065516983 -0.02958511 -0.042552076 -0.056484405 0.014169904 0.015843038 0.03555673
00000000: aa53 c83c bc71 a43c 2f57 18bd 4ce6 343d
00000010: 0d99 3abd 5d98 323d 71e2 5a3d 915f 1b3d
00000020: 807c ff3c 84ad 5ebd 5a5b 0dbd dde2 49bc
00000030: 1b69 03bd f401 233d beaf e2bc 71cb 173c
00000040: 3032 de3c ba7a 4f3d f75c 7dbd bc32 263d
00000050: 3d72 7c3c cc32 1abd 3c50 853c 0419 d7bc
00000060: f6eb 413b ec15 acbb 5e4e c73c fb71 a13a
00000070: 89eb a43c 84f2 d73c 1a57 833c 7634 473d
00000080: 6207 373b fafe ba3c 097b 083c 52e1 723d
00000090: e95b 83bd ef7c 88bc 1eea 043c 2f3b 98bc
000000a0: 3f31 a9bc 2e91 5c3d 9235 933d 95f1 c0bc
000000b0: 3c8b 67bc 7985 ccbc da4c 393d 70a0 303d
000000c0: 0e69 84bd 93ce 0c3d a820 543d beff 04bc
000000d0: bbb0 d4bc 96d1 6f3c e765 95bd 2b1e 4e3d
000000e0: 52d6 46bd df17 52bc ae2f d6bc f51d 003d
000000f0: 4109 f5bc fba6 883c 4909 a4bd 02cc fa3c
00000100: c1ae ab3c 7f90 753d e1a2 cab9 ea4b 26bd
00000110: 3c61 593b 1dfd d83c 2a7a 80bd 21bc 243d
00000120: 903f dc3b 1f98 51bd 13de 25bc f156 173d
00000130: 947c 2d3c ff66 87bc 401a 273d 057a 22bd
00000140: 2f67 12bd 3337 bd3c bac4 ce3c 108e a73c
00000150: dc8d 24bd 7a16 08bd 6b7a b23a 969c 083d
00000160: 0191 c9bc 3f5e e13a 7f19 d93c 5fd8 e7bc
00000170: 8de1 0bbd 437f f5bb d90e 383d 9117 03bc
00000180: aecc 31bd 4257 d63b b111 90bd 3267 7e3c
00000190: 61f0 88bd 3c2b 1b3b 6f30 9dbc 1fef aebb
000001a0: 2043 85bd b416 70bd 0721 1ebc 9596 0b3d
000001b0: ef5e 64bc 09b9 dcbc dfa0 10bd 243b febc
000001c0: 3f0f 25bd 3fea 043d df2b 113d 6f7b 41bd
000001d0: 957e 06bd 0791 a13c ee25 d93c 3208 7ebd
000001e0: 4745 8f3c bef5 623d 28ad 7cbd c7ee bebc
000001f0: 81e4 773d c1b8 27bc 8169 dcbc 1f39 953d
00000200: 0637 7a3d a1ca b2bc 3016 903d d2fb 2a3d
00000210: 4659 86bd c8d5 29bc bbcf 42bd 813c 86bc
00000220: 1eca 32bd b6c6 873d 421e 0dbd b8f5 eabc
00000230: 8c56 86bd d37f e8bb 28de 563b ef69 68bd
00000240: dbb2 64bd 2a2d 0cbc 083f 3b3d 3d64 19bd
00000250: 14b9 d23c 4639 3d3d 74e6 8cbc 65d6 f13c
00000260: 95bf 093d f6ce 84bd 6b7c 0c3b 44e1 103d
00000270: e27d be3c 9d53 bbbb 3cec 393b fe87 883c
00000280: 8c9b d03c e5e5 72bd b2a9 84bc bf63 74bd
00000290: c63f 8e3b 6277 463c 591a 7a3d 7481 213d
000002a0: b381 2cbc fef0 93bb 69f9 79bc 8bb2 e53b
000002b0: f947 a8bc dc3d f2bb 6018 263c affc 733c
000002c0: 7842 583c de52 d03b f9b0 0bbd f0a0 61bd
000002d0: 0725 463d 2f1e 6abd 9ef1 1b3d 91a2 eabc
000002e0: 669b 95bd 4f34 b23c e5c5 20bd 95a3 a63c
000002f0: 3451 453d d29d 39bd 71e4 d6bc 4a51 473d
00000300: 0990 84bd 3b71 963d e0dd af3c 4474 4ebd
00000310: 6d71 23bd 5a93 833d 423c 71bb c7cc a2bc
00000320: 4074 e93b 6dcb 2d3d 4643 8ebc 1814 68bd
00000330: b33a 6dbc 9b11 67bd a164 d7bb 1ef7 cebc
00000340: 7b98 40bd bae1 88bd b47e 0f3d 1f6a 943c
00000350: 4ba6 29bb fef4 4d3d 7dab 53bd 21dc 44bc
00000360: 8563 353a 929f b4bc 6531 22bd 579d 7d3d
00000370: e76f e13c 73d4 0abd eba4 033d a635 e2bc
00000380: 4b8b 77bd ab96 f63c 3adb a43d d686 803d
00000390: 61cd fcbc c33f 943d 28b3 203d 620a f03c
000003a0: a776 57bd 4dcc 113d e80a 8cbc 73ac 223c
000003b0: affe 623c 4697 6fbc 45b0 c43b 9ff4 723c
000003c0: 8af9 83bc 7b61 59bd ede1 083d 8242 26bd
000003d0: 8d97 43bd 8d0e 9d3c 25d6 6e3d 5575 74bd
000003e0: f45f abbc a1af d6bb 795c f2bc 164b 2ebd
000003f0: 315c 67bd e328 683c 42c9 813c efa3 113d

linear3.weight f4 [1, 256]
-0.07930271 -0.08447375 -0.081579395 -0.08023975 -0.074430026 0.07772305 0.06252928 -0.08598943
0.079792164 0.07016046 0.06964985 0.06750089 0.073621154 -0.07858227 0.07068272 0.068961665
-0.08136438 0.062706515 0.06973747 0.07066596 -0.07486166 0.075118475 0.06878507 0.06427202
0.057586156 -0.08802797 0.05455994 0.06895976 -0.08202451 0.07128809 -0.081681564 0.057083447
-0.088047326 -0.08506858 -0.070495635 -0.08008826 0.05947895 0.07351113 0.07817525 0.06935886
0.054865453 -0.0802815 -0.081751764 -0.08398124 0.07804382 0.054681588 0.06878539 -0.07742987
0.06778331 0.059245322 0.06676559 0.07478585 0.054270905 -0.07747468 0.0724126 -0.085385844
0.065053515 -0.08161425 -0.08717172 0.07353402 -0.07892052 -0.076098956 0.07321306 -0.077318706
-0.08493048 -0.08019867 -0.07604788 0.058427986 0.07110132 0.06949641 0.056313753 -0.08342429
-0.083285384 0.060627315 0.06547378 -0.06988738 0.070020005 -0.08541699 0.06814146 0.071030594
0.071625724 0.07293884 -0.08308657 -0.07828177 0.07210256 0.061913818 -0.08245213 0.07293247
0.068633884 0.067240655 0.07445461 -0.079616286 0.06993712 0.07134774 -0.07994274 0.076008424
0.0714166 0.06843804 0.07587464 -0.079147786 0.05276373 0.051101077 0.052982967 -0.0871444
0.052662157 0.068516895 0.03581867 -0.0800862 0.060970463 0.06328173 -0.08108949 0.060250387
0.06747072 0.07015425 0.061541066 0.056776077 0.066763155 -0.08282419 -0.07917572 0.06672668
0.075806364 -0.0872318 0.06898796 -0.07657065 0.071429 0.06925481 0.053552803 -0.07023881
-0.08346856 -0.07584129 -0.08658445 -0.0883435 0.063254304 0.06692385 0.073102325 -0.085639104
0.07050617 -0.08225649 -0.07790446 -0.07339339 0.05467152 -0.07895558 0.06164382 0.06670137
0.074161105 -0.08173528 -0.08285971 0.060784142 0.059702773 -0.07503804 -0.077523164 0.052052673
0.07045515 0.07085107 -0.081789024 -0.07976482 0.059869584 0.0757914 0.06988936 0.07475614
-0.076025635 0.06876431 0.06744334 0.06229637 0.053504214 0.064958185 -0.072176956 -0.07819047
0.072249934 0.06955154 0.07502079 0.08069367 0.050324146 -0.07891314 -0.076057814 -0.07716907
-0.080365084 0.06940467 0.07001298 0.07546018 -0.08518913 0.064922675 0.057694312 0.07763147
0.062538 0.067372665 0.05485225 0.068356015 0.0531388 -0.07715576 -0.08485019 0.049711935
0.068120725 -0.082119755 -0.07944165 0.07216468 0.061117146 -0.07952535 0.07112996 0.053569175
0.07847483 0.068919234 0.05992606 0.068517804 -0.08233251 0.06716277 0.06544942 0.06994042
0.07485337 0.06467172 0.06791585 0.053097717 0.06576211 -0.08277362 0.060155515 0.07117146
0.067818835 -0.07536175 0.07112106 -0.076798335 -0.080488585 0.058264684 0.0678632 0.06938333
0.065941826 -0.08081801 -0.083799906 0.05482422 0.07541462 -0.079183914 0.07512303 -0.07417416
0.06831898 -0.073601075 -0.082465924 0.058815133 -0.08455125 0.06282953 0.07317554 0.07218011
0.07003601 0.05932868 -0.08304741 0.06447686 0.049525682 0.06416056 -0.07366887 0.066266716
-0.08939262 0.06404863 0.07542023 0.062426034 0.06414652 -0.08237657 0.062095147 0.061043087
00000000: 7669 a2bd 9300 adbd 1913 a7bd bd54 a4bd
00000010: c56e 98bd 432d 9f3d 5a0f 803d 3a1b b0bd
00000020: 136a a33d 4ab0 8f3d 95a4 8e3d e83d 8a3d
00000030: b0c6 963d beef a0bd 1ac2 903d c63b 8d3d
00000040: 5ea2 a6bd 466c 803d 85d2 8e3d 51b9 903d
00000050: 1251 99bd b7d7 993d 30df 8c3d 0ca1 833d
00000060: 76df 6b3d 0248 b4bd 3e7a 5f3d c63a 8d3d
00000070: 77fc a7bd 7dff 913d aa48 a7bd 55d0 693d
00000080: 2852 b4bd 7038 aebd 0460 90bd 5005 a4bd
00000090: 33a0 733d 018d 963d 581a a03d 050c 8e3d
000000a0: 99ba 603d a16a a4bd 786d a7bd 5bfe abbd
000000b0: 70d5 9f3d cdf9 5f3d 5bdf 8c3d 8d93 9ebd
000000c0: fad1 8a3d 39ab 723d 66bc 883d 5329 993d
000000d0: 2b4b 5e3d 0cab 9ebd 0f4d 943d c6de aebd
000000e0: c73a 853d 5f25 a7bd 1687 b2bd 0199 963d
000000f0: 15a1 a1bd c5d9 9bbd bbf0 953d 4559 9ebd
00000100: 08f0 adbd 333f a4bd febe 9bbd 2f52 6f3d
00000110: 929d 913d 2254 8e3d 40a9 663d 5bda aabd
00000120: 8791 aabd 5954 783d 1e17 863d 1d21 8fbd
00000130: a666 8f3d 1aef aebd c08d 8b3d 7d78 913d
00000140: 82b0 923d f560 953d 4b29 aabd 3152 a0bd
00000150: 82aa 933d 5899 7d3d aadc a8bd 9e5d 953d
00000160: ec8f 8c3d 78b5 893d a97b 983d dd0d a3bd
00000170: 313b 8f3d c41e 923d 05b9 a3bd 4eaa 9b3d
00000180: de42 923d 3e29 8c3d 2a64 9b3d 3c18 a2bd
00000190: c81e 583d 5d4f 513d ab04 593d c378 b2bd
000001a0: 46b4 573d 9652 8c3d 99b6 123d 3c04 a4bd
000001b0: 2abc 793d da99 813d 3f12 a6bd 1cc9 763d
000001c0: 172e 8a3d 08ad 8f3d 7c12 7c3d 088e 683d
000001d0: 1fbb 883d bb9f a9bd e126 a2bd ffa7 883d
000001e0: 5e40 9b3d 96a6 b2bd 8f49 8d3d 13d1 9cbd
000001f0: 5e49 923d 77d5 8d3d 2f5a 5b3d 5dd9 8fbd
00000200: 90f1 aabd ae52 9bbd 3053 b1bd 70ed b4bd
00000210: 798b 813d 5f0f 893d acb6 953d 8e63 afbd
00000220: 8a65 903d 1776 a8bd 608c 9fbd 464f 96bd
00000230: 3eef 5f3d 77b3 a1bd 3b7e 7c3d ba9a 883d
00000240: c7e1 973d d464 a7bd 5ab2 a9bd cbf8 783d
00000250: e58a 743d 8bad 99bd 77c4 9ebd 2f35 553d
00000260: ca4a 903d 5e1a 913d 0181 a7bd bd5b a3bd
00000270: cf39 753d 8638 9b3d 2722 8f3d bf19 993d
00000280: 54b3 9bbd 4dd4 8c3d bc1f 8a3d 7a2a 7f3d
00000290: 3c27 5b3d cc08 853d 83d1 93bd 5322 a0bd
000002a0: c6f7 933d 0a71 8e3d 80a4 993d b942 a53d
000002b0: b120 4e3d 369d a1bd 33c4 9bbd d10a 9ebd
000002c0: 7396 a4bd 0924 8e3d f762 8f3d de8a 9a3d
000002d0: a377 aebd 2ef6 843d df50 6c3d 40fd 9e3d
000002e0: ec13 803d aefa 893d c1ac 603d 3dfe 8b3d
000002f0: 12a8 593d d703 9ebd f0c5 adbd be9e 4b3d
00000300: e182 8b3d 672e a8bd 4eb2 a2bd 13cb 933d
00000310: f955 7a3d 30de a2bd 96ac 913d 5a6b 5b3d
00000320: 69b7 a03d 8725 8d3d 0775 753d 1053 8c3d
00000330: f29d a8bd a28c 893d 580a 863d ec3c 8f3d
00000340: b94c 993d 9b72 843d 7717 8b3d fe7c 593d
00000350: 49ae 863d 3785 a9bd a165 763d 58c2 913d
00000360: 9ae4 8a3d 4357 9abd eba7 913d 7248 9dbd
00000370: 33d7 a4bd f3a6 6e3d ddfb 8a3d d918 8e3d
00000380: 820c 873d ea83 a5bd 499f abbd 5c8f 603d
00000390: fb72 9a3d 2d2b a2bd 1ada 993d 9fe8 97bd
000003a0: d2ea 8b3d 29bc 96bd e5e3 a8bd 23e8 703d
000003b0: 3529 adbd c5ac 803d 0fdd 953d 2ad3 933d
000003c0: 0a6f 8f3d a102 733d c314 aabd 720c 843d
000003d0: 71db 4a3d 9d66 833d b4df 96bd d8b6 873d
000003e0: 7a13 b7bd ee2b 833d ec75 9a3d 71b2 7f3d
000003f0: 405f 833d 0cb5 a8bd 7b57 7e3d 5108 7a3d
