testing/scripts/outputs/DDPG_Env/20221215-160906/models/750actor_checkpoint.pt (torch, 281431 bytes, 5 tensors)

linear1.weight f4 [256, 14]
0	0xb9e6ad46	-0.00043998117
1	0x3e828a12	0.25495964
2	0x3e6891ed	0.22711916
3	0x3e156cf9	0.14592351
4	0xbe8d7b4d	-0.27633134
5	0xbd1fabc5	-0.03898217
6	0x3dfd8a37	0.12379878
7	0x3e69a4eb	0.22816817
8	0xbe465876	-0.19369683
9	0xbe8af8ee	-0.27143043
10	0x3c6cf4f8	0.014462702
11	0x3dcdce50	0.100491166
12	0x3dc4639e	0.09589313
13	0x3e553ca7	0.20823918
14	0x3c8ace72	0.016944144
15	0xbeaa23bd	-0.3323039
16	0x3dc5d83e	0.096603855
17	0x3e17adc4	0.1481238
18	0x3e026014	0.12731963
19	0xbdcbc2be	-0.099492535
20	0xbe8a5386	-0.27016848
21	0xbd6a9379	-0.057269547
22	0x3d983fe4	0.07434061
23	0xbe4bc534	-0.19899446
24	0xbe3fcb4f	-0.187299
25	0x3d00915c	0.031388626
26	0x3e896814	0.26837218
27	0xbdb11f6a	-0.0864857
28	0xbe71f4ff	-0.23628615
29	0x3ea75d57	0.326884
30	0x3e81c6f5	0.25347105
31	0x3d9cd357	0.076574974
32	0x3e422dbd	0.1896276
33	0xbdc9839c	-0.098395556
34	0x3ebf3056	0.37341565
35	0x3d1ae42c	0.037815258
36	0xbe063583	-0.1310635
37	0xbeadd7d6	-0.33953732
38	0x3e0f8002	0.14013675
39	0xbdfcead3	-0.12349477
40	0xbdcb7607	-0.09934621
41	0x3d7d6c77	0.06187102
42	0x3caf1049	0.02137007
43	0xbdd29303	-0.102819465
44	0x3e134150	0.14380383
45	0x3d03ca52	0.03217537
46	0xbd6bff98	-0.0576168
47	0x3ea6ac2f	0.3255324
48	0x3e0bef56	0.13665518
49	0x3e451ad9	0.19248523
50	0xbe2a5eb0	-0.16637683
51	0x3e531f8b	0.20617501
52	0xbdc7c31a	-0.097540095
53	0xbc1bf03b	-0.009517725
54	0xbd82e2f4	-0.06390944
55	0x3e4e85e1	0.20168258
56	0x3e19c2e3	0.1501575
57	0x3e183cff	0.14867018
58	0x3ca0bf49	0.019622462
59	0x3bbcfea6	0.005767661
60	0xbe93fd52	-0.28904206
61	0xbd54b0d9	-0.051926468
62	0xbea80da9	-0.32822922
63	0xbe074c21	-0.13212635
64	0xbe91238c	-0.28347433
65	0xbe4dd692	-0.20101383
66	0xbea9f59b	-0.33195195
67	0x3cf1fa1c	0.029538207
68	0xbdc5efad	-0.09664855
69	0xbd78e124	-0.060761586
70	0xbe11a54c	-0.14223212
71	0x3eb1915f	0.34681222
72	0x3e58f086	0.21185502
73	0xbd8b2e9c	-0.067959994
74	0x3e66cfe0	0.22540236
75	0x3e583c95	0.2111686
76	0xbd3ea484	-0.046543613
77	0x3ed5715f	0.41688058
78	0xbe1f03a8	-0.15528738
79	0xbca90018	-0.020629928
80	0xbc6ee865	-0.014581774
81	0xbe30f4cd	-0.17280884
82	0xbe7316ee	-0.23739216
83	0x3ddfbd7d	0.10924814
84	0xbe459a34	-0.19297105
85	0xbd2375ca	-0.039907254
86	0xbe602361	-0.21888496
87	0xbdf18c16	-0.117942974
88	0xbe51cbce	-0.20487902
89	0xbd966e33	-0.073452376
90	0x3cb5975f	0.022166906
91	0xbe01ce41	-0.12676336
92	0x3e3f9a94	0.1871131
93	0xbd6dd1ca	-0.0580614
94	0x3eb30dc5	0.34971443
95	0x3cb1d637	0.02170859
96	0x3e5b11d9	0.21393527
97	0xbdcac8a4	-0.099015504
98	0xbc736948	-0.014856644
99	0x3d9f2e17	0.07772463
100	0xbd8d0ca3	-0.06887176
101	0x3e333ff3	0.17504863
102	0xbeacf2ec	-0.33779085
103	0x3c5ae362	0.013359876
104	0xbe8c2289	-0.27370098
105	0xbd0bea94	-0.034159258
106	0x3e63852e	0.22218773
107	0x3c8df46e	0.017328467
108	0x3e5b1cec	0.21397752
109	0xbe1e4ddd	-0.1545939
110	0x3e209af8	0.15684116
111	0x3e2405a3	0.16017775
112	0x3e279048	0.16363633
113	0x3e1fee9e	0.15618369
114	0x3dced24c	0.10098705
115	0x3db129e7	0.0865057
116	0xbe7678b0	-0.24069476
117	0x3dff671d	0.12470839
118	0x3da4c7c8	0.08045918
119	0x3e35088b	0.1767904
120	0xbe20f667	-0.15718995
121	0xbdeaa15b	-0.11456557
122	0x3d81c5d3	0.0633656
123	0x3e2e8b7d	0.17045398
124	0xbd75ad1b	-0.05997954
125	0xbd7cd6b5	-0.061728198
126	0xbc8e0c00	-0.017339706
127	0xbde6ca25	-0.11269025
128	0xbd901102	-0.07034494
129	0x3d9ff61b	0.07810613
130	0x3e4007a5	0.18752916
131	0x3d7900f5	0.06079193
132	0xbe8c3255	-0.2738215
133	0xbd8d9593	-0.06913295
134	0x3e33621d	0.17517896
135	0x3e363424	0.17793328
136	0x3e4b15b8	0.19832504
137	0x3e27790c	0.1635477
138	0xbd9f6986	-0.07783799
139	0x3c08dc72	0.0083533395
140	0xbe08b539	-0.13350381
141	0x3e6e1cf4	0.23253232
142	0xbeab4543	-0.3345128
143	0x3e632b7a	0.22184554
144	0xbda7fd30	-0.082025886
145	0xbe546b69	-0.20744099
146	0x3d90113b	0.070345365
147	0xbe5ae149	-0.21375002
148	0xbe0e0ab1	-0.13871266
149	0xbe0d1b6c	-0.13779992
150	0x3e528f84	0.2056256
151	0x3ea3dc27	0.320039
152	0xbdf95ace	-0.12175523
153	0x3eb21fd2	0.34789902
154	0xbe4a2e7d	-0.19744296
155	0xbe51d4fe	-0.20491406
156	0xbe92619d	-0.28590098
157	0xbe4757c3	-0.19467072
158	0xbcf8d40e	-0.030374553
159	0x3e3d2347	0.18470488
160	0xbd435811	-0.04769141
161	0xbe28029f	-0.1640725
162	0x3eb25bc7	0.34835646
163	0x3dd1cf34	0.10244599
164	0xbe5e9c11	-0.21739222
165	0xbe7c13d8	-0.24616945
166	0x3e9fca86	0.312092
167	0x3ddf2cca	0.10897215
168	0x3e404435	0.18776019
169	0x3e931c38	0.28732467
170	0x3eb11e28	0.3459332
171	0xbc07acca	-0.008280942
172	0xbe031704	-0.12801749
173	0x3e2ff885	0.17184646
174	0x3e79d7bd	0.24398704
175	0x3edbdca0	0.4294176
176	0x3dbbc5ac	0.09168562
177	0xbdaa7102	-0.08322336
178	0x3e043186	0.12909517
179	0x3e3d97ed	0.18514986
180	0xbd022b02	-0.031779297
181	0xbdd5f8af	-0.10447823
182	0xbe217778	-0.1576823
183	0x3e982880	0.297184
184	0x3e998bd3	0.2998949
185	0x3e296eb7	0.1654614
186	0xbeff88d5	-0.49909082
187	0xbedecb60	-0.43514538
188	0xbe98c8da	-0.29840738
189	0x3d852d6c	0.06502804
190	0x3dfd220b	0.12360009
191	0x3e90f5ee	0.2831263
192	0x3daf9d1a	0.085748866
193	0x3e27642d	0.16346808
194	0x3e134468	0.14381564
195	0x3e507a92	0.20359257
196	0x3e218ed7	0.15777145
197	0xbd154c9f	-0.036450025
198	0xbe314f9b	-0.17315523
199	0xbeabfe79	-0.33592585
200	0xbd1f0203	-0.038820278
201	0xbab4a626	-0.0013782426
202	0xbb1ecfb6	-0.0024232692
203	0xbd0cad46	-0.034344934
204	0xbeba159a	-0.36344606
205	0xbcf580be	-0.029968616
206	0xbc3d82e5	-0.011566852
207	0x3df218a9	0.1182111
208	0x3d825096	0.06363027
209	0x3e2057f8	0.15658557
210	0xbc0dc9ac	-0.008654039
211	0x3d44eccf	0.0480774
212	0xbdf034ab	-0.117287956
213	0xbd898124	-0.06714085
214	0xbd06c73f	-0.03290486
215	0x3e5c1bae	0.21494934
216	0xbe8215d5	-0.25407282
217	0xbe06135a	-0.1309332
218	0x3cccfc38	0.025022611
219	0xbe5561be	-0.20838067
220	0x3e95f333	0.2928711
221	0xbe969ff4	-0.2941891
222	0xbe8b6739	-0.2722719
223	0x3e344a8a	0.1760656
224	0xbe04c650	-0.12966275
225	0xbe04ae56	-0.12957129
226	0x3e1c52b8	0.1526593
227	0x3e6ca7ac	0.23110837
228	0x3e92d51b	0.28678212
229	0x3e579405	0.21052559
230	0x3d77bfc2	0.06048561
231	0xbe0fa4d3	-0.14027719
232	0x3ead354e	0.3382973
233	0xba57ea3e	-0.0008236504
234	0xbd948d37	-0.07253497
235	0xbcda148e	-0.02662113
236	0x3be6ef5f	0.007047578
237	0xbe5be1c0	-0.21472836
238	0x3ea4e07f	0.32202527
239	0x3e91b031	0.28454736
240	0x3aa1aca7	0.001233478
241	0x3d9cc61f	0.07654976
242	0xbe5211df	-0.2051463
243	0xbe4e616e	-0.20154354
244	0xbda3b78b	-0.079939924
245	0xbe2eac96	-0.17058024
246	0xbe1a614d	-0.1507618
247	0x3d97e4ca	0.07416685
248	0x3e51e00f	0.20495628
249	0x3d6db466	0.05803337
250	0x3e6018a3	0.21884398
251	0x3dd46e2e	0.103725776
252	0x3c34c219	0.011032605
253	0xbdf20634	-0.118175894
254	0x3e8392ee	0.25698036
255	0xbe45a2fa	-0.19300452

linear1.bias f4 [256]
0	0x3e9350d8	0.28772616
1	0xbe9901ea	-0.29884273
2	0x3e12b30f	0.14326118
3	0xbe50c2f3	-0.20386867
4	0xbe3a03a9	-0.18165459
5	0xbe2322c0	-0.15931225
6	0xbe0945ac	-0.13405484
7	0xbd944a2e	-0.07240711
8	0x3e83bd27	0.2573025
9	0x3d56ec0c	0.052471206
10	0xbe04a587	-0.12953769
11	0x3e837409	0.25674465
12	0x3e0ba0e9	0.13635601
13	0xbb1daf52	-0.0024060798
14	0xbe605921	-0.21909
15	0x3c93b0c2	0.01802862
16	0x3de26941	0.11055232
17	0x3dd01093	0.10159411
18	0x3d98206a	0.074280575
19	0xbd71a9ba	-0.058999754
20	0xbe631dd9	-0.22179355
21	0x3dfa1dcb	0.12212714
22	0x3db1c676	0.086804315
23	0x3e67fbe6	0.22654685
24	0xbdb4cc57	-0.08828037
25	0x3eb44b38	0.35213637
26	0xbd000290	-0.031252444
27	0x3dda2324	0.10651234
28	0x3eaf398e	0.34223598
29	0x3e212158	0.15735376
30	0xbc93ee64	-0.01805801
31	0xbe18e857	-0.1493238
32	0x3e03b78b	0.12862985
33	0xbe0638f7	-0.13107668
34	0x3dd502b9	0.1040091
35	0xbe05df47	-0.13073455
36	0x3bbda48c	0.005787438
37	0xbe80fecb	-0.25194392
38	0xbe9aadb0	-0.30210638
39	0xbe1157d0	-0.14193654
40	0x3e47e3a3	0.1952043
41	0xbc581c7f	-0.013190388
42	0x3d9f254d	0.077707864
43	0x3e098755	0.13430531
44	0xbe22b688	-0.15889943
45	0xbe65e34d	-0.2244999
46	0x3e22d1fe	0.15900418
47	0x3aae4ae0	0.0013297461
48	0xbd758e47	-0.05995014
49	0x3d7f94d1	0.06239778
50	0x3df81a81	0.1211443
51	0x3e915fea	0.2839349
52	0x3e2e8918	0.17044485
53	0xbc8b4fe8	-0.017005876
54	0x3e1afd20	0.15135622
55	0x3de72be5	0.11287669
56	0x3e26cd5b	0.16289274
57	0x3e8d73f7	0.27627537
58	0x3e865f04	0.26244366
59	0x3e60b73e	0.21944901
60	0x3e8d6b79	0.27621058
61	0xbe3bac59	-0.18327464
62	0xbe1d59a4	-0.15366226
63	0xbe1e8b38	-0.15482795
64	0x3e876521	0.26444343
65	0xbdb902c6	-0.09033732
66	0x3deff9b7	0.11717551
67	0x3db75857	0.08952396
68	0x3e8fad1c	0.2806176
69	0x3d7f4842	0.06232477
70	0x3e015449	0.12629808
71	0x3e3422ac	0.17591351
72	0x3d95ac5a	0.07308264
73	0x3e16efba	0.14739886
74	0x3e6e186f	0.23251508
75	0x3e0ba017	0.13635288
76	0x3e38453a	0.17995158
77	0xbdd5cd61	-0.104395635
78	0x3e899a2e	0.26875442
79	0xbdd1eb3b	-0.10249945
80	0x3ebc20be	0.3674373
81	0x3e967ea8	0.29393506
82	0x3b64e783	0.003492803
83	0x3e6ac48b	0.22926538
84	0xbd5b88c1	-0.053597216
85	0x3e60852d	0.21925803
86	0xbe7e2a8f	-0.24820922
87	0x3d6682d4	0.05627711
88	0xbe1e1833	-0.15438919
89	0x3d7a4fbc	0.061111197
90	0x3ea653cd	0.3248581
91	0x3e95c3c2	0.29250914
92	0x3e83f6ea	0.25774318
93	0x3e43b57e	0.19112203
94	0xbdb6e29f	-0.08929943
95	0xbdd6bc53	-0.10485139
96	0x3df1f67c	0.11814591
97	0xbe24be93	-0.16088323
98	0x3dae50ed	0.08511529
99	0x3e3ce408	0.18446362
100	0x3e46d61f	0.19417618
101	0x3dbbdf6b	0.09173473
102	0xbe524d51	-0.20537306
103	0xbdee846d	-0.11646352
104	0xbe114643	-0.14186959
105	0xbe05bbf2	-0.13059977
106	0xbe2491ca	-0.16071239
107	0xbd86c56b	-0.06580623
108	0x3d911bd8	0.07085389
109	0x3e5cf7a8	0.21578848
110	0x3e0f52e9	0.13996471
111	0x3db32752	0.08747734
112	0x3ea983ff	0.33108518
113	0xbe84b21b	-0.25917134
114	0x3e58f364	0.21186596
115	0xbd26dd75	-0.04073854
116	0x3e6421f5	0.22278579
117	0x3e6e508b	0.23272912
118	0x3e4191f2	0.1890333
119	0xbe8d2af8	-0.27571845
120	0xbdc2c1b4	-0.09509602
121	0x3d15ba51	0.03655464
122	0x3d5b54a6	0.053547524
123	0xbd9b7025	-0.07589749
124	0xbd262eb8	-0.0405719
125	0x3e82fbb4	0.2558266
126	0x3ea1c7b9	0.3159769
127	0x3e47af09	0.19500364
128	0x3e906000	0.28198242
129	0x3e9c04d7	0.30472443
130	0x3e268438	0.16261375
131	0x3e533fb9	0.20629777
132	0xbe40716d	-0.18793269
133	0x3dc71e86	0.09722619
134	0x3e7513cb	0.23933332
135	0x3cd226b6	0.025653224
136	0xbe5a006b	-0.21289222
137	0x3e09b847	0.13449202
138	0x3de853bb	0.11344095
139	0x3d4ee8e5	0.050515074
140	0xbe3fd960	-0.18735266
141	0xbe941bae	-0.28927368
142	0x3e7d444c	0.24733084
143	0xbd5185ec	-0.05115311
144	0x3e6487c9	0.22317423
145	0xbe11d6fe	-0.1424217
146	0xbe3b21f7	-0.18274675
147	0x3e2e8292	0.17041996
148	0xbe38d9b6	-0.180518
149	0xbdc8b0ff	-0.09799384
150	0xbcdfdcff	-0.027327059
151	0x3e8b3954	0.27192175
152	0x3d14f832	0.03636951
153	0x3d2f596f	0.0428099
154	0xbbc20c12	-0.005921849
155	0xb9db32a9	-0.0004180868
156	0xbe37388d	-0.17892666
157	0x3c73f609	0.014890202
158	0x3e3dc28d	0.18531246
159	0xbd072b70	-0.03300041
160	0xbe084886	-0.13308915
161	0xbdbaf2ed	-0.09128366
162	0xbe27dc66	-0.16392669
163	0x3e25a110	0.16174722
164	0x3e71e257	0.23621498
165	0x3dae26e9	0.08503515
166	0x3de60011	0.112304814
167	0x3d795116	0.060868345
168	0x3e897fc7	0.268553
169	0x3d329ff9	0.043609593
170	0x3e9596cc	0.2921661
171	0xbd1ebf41	-0.038756613
172	0x3e1ed4dd	0.15510888
173	0x3df5945c	0.11991188
174	0xbdd31cfe	-0.10308264
175	0x3e124c56	0.14286932
176	0xbe499b31	-0.19688107
177	0xbd76f270	-0.0602898
178	0xbdb528a0	-0.08845639
179	0x3dacdbc2	0.08440353
180	0xbd9d447f	-0.0767908
181	0xbe032ef1	-0.12810875
182	0xbc8818e9	-0.01661344
183	0x3d837c67	0.06420212
184	0x3e844f64	0.2584182
185	0xbe45b058	-0.19305551
186	0xbc6e0d29	-0.014529505
187	0xbe1e80e4	-0.15478855
188	0xbdf11475	-0.1177148
189	0x3de0e853	0.10981812
190	0x3db6811f	0.08911347
191	0x3d4c1767	0.049827006
192	0xbaa63f4a	-0.0012683657
193	0x3c27c6dc	0.010240283
194	0xbe4ac00e	-0.19799826
195	0x3dabec9d	0.0839474
196	0xbe857bdc	-0.2607106
197	0x3e9887dc	0.29791152
198	0x3e60a87e	0.21939275
199	0x3e9286e1	0.2861853
200	0xbd801616	-0.062542126
201	0xbdcbb0de	-0.09945844
202	0xbe11d325	-0.14240701
203	0x3e0e54c1	0.13899519
204	0x3e2e5d1d	0.17027707
205	0x3e60dfaa	0.21960321
206	0x3e85e41b	0.26150593
207	0xbddb4692	-0.107068196
208	0xbe36f291	-0.17865969
209	0xbd219229	-0.03944603
210	0xbe0d3b0f	-0.1379206
211	0x3db257cb	0.087081514
212	0xbda112ad	-0.0786489
213	0xbe4d4ae7	-0.20048104
214	0x3bb3fd1d	0.00549282
215	0x3e6791f3	0.22614269
216	0x3e4a1931	0.19736172
217	0x3d107f42	0.035277613
218	0x3e80450c	0.2505268
219	0x3e9d5d4b	0.3073524
220	0xbe640d6e	-0.22270748
221	0xbe32ae36	-0.17449269
222	0xbe0b8695	-0.13625558
223	0x3e45624f	0.19275783
224	0xbe02fcc4	-0.12791735
225	0x3de35e74	0.11102
226	0x3e023bfd	0.12718196
227	0xbe358631	-0.17726971
228	0x3e80eea4	0.25182068
229	0xbe800dcb	-0.25010523
230	0x3e92526e	0.28578514
231	0x3d6c4317	0.05768117
232	0x3e7544b1	0.23951985
233	0xbe4bdafb	-0.19907753
234	0x3d978b2d	0.073995925
235	0x3e806f3d	0.25084868
236	0xbe220f59	-0.15826167
237	0xbc31164f	-0.010808541
238	0x3e93c518	0.28861308
239	0x3ea4901a	0.3214119
240	0x3e017dd1	0.12645651
241	0x3d2cc9c8	0.04218462
242	0x3de7a10e	0.113100156
243	0x3e17ce4d	0.14824791
244	0x3e8db57b	0.2767752
245	0x3dacfd36	0.08446734
246	0xbe2837e2	-0.16427568
247	0x3e66c333	0.225354
248	0xbda4ea5f	-0.08052515
249	0x3e2b1d1f	0.16710328
250	0xbae20203	-0.0017243031
251	0x3e245a2f	0.16050027
252	0x3e8e6f67	0.27819368
253	0xbe74917a	-0.2388362
254	0xbd86622d	-0.06561694
255	0xbe4a0da3	-0.19731764

linear2.weight f4 [256, 256]
0	0x3e1a056f	0.15041135
1	0xbbcd233e	-0.0062603047
2	0x3d38e4d2	0.045140095
3	0x3d5ad6b6	0.05342742
4	0x3df94abb	0.12172457
5	0x3de22bb8	0.11043495
6	0xbd64102e	-0.055679493
7	0xbd455272	-0.04817433
8	0x3d527c3a	0.051388003
9	0xbdde4e95	-0.10854832
10	0xbc0fe901	-0.00878358
11	0xbe8d0df1	-0.275497
12	0xbc6c54fc	-0.014424559
13	0xbda7f184	-0.08200362
14	0xbcee0844	-0.029056676
15	0x3cfcbedc	0.030852728
16	0x3c8220d3	0.015884792
17	0x3d55abcc	0.05216579
18	0xbaff8324	-0.0019494039
19	0x3de21a36	0.110401556
20	0x3cab7987	0.020931972
21	0xbe880224	-0.26564133
22	0x3d833307	0.06406217
23	0x3cb79493	0.022409713
24	0x3d9e4b0a	0.07729156
25	0xbd456643	-0.048193227
26	0x3d650236	0.05591031
27	0x3d8095f2	0.062786
28	0xbd7344cd	-0.059391785
29	0x3bafb9bf	0.005362719
30	0xbda31c06	-0.079643294
31	0x3db88617	0.090099506
32	0x3d32287f	0.04349565
33	0x3e168966	0.14700851
34	0x3d9ff295	0.07809941
35	0x3d0f6692	0.035009928
36	0xbdd1b452	-0.102394715
37	0x3e31fea0	0.17382288
38	0x3e09f913	0.1347392
39	0x3db04fde	0.086089835
40	0xbdc0390e	-0.09385882
41	0x3da44d7e	0.08022593
42	0xbdefac2d	-0.11702762
43	0x3cedcb5b	0.029027632
44	0xbc1f2e21	-0.009715588
45	0x3e1d7504	0.15376669
46	0x3b19f836	0.0023493893
47	0xbd7214b9	-0.059101794
48	0xbd32b3da	-0.04362855
49	0x3bd8ed4d	0.0066200853
50	0x3d0c4dbe	0.03425383
51	0x3c005289	0.007832178
52	0xbdc093cb	-0.09403189
53	0xbddd2e4c	-0.10799846
54	0x3e118b04	0.14213187
55	0xbe18133a	-0.14851084
56	0xbcab07e1	-0.02087778
57	0x3d51c25a	0.05121074
58	0xbdd0ee74	-0.10201731
59	0x3da3b7a7	0.07994013
60	0xbcd9d069	-0.026588636
61	0xbe24b269	-0.16083683
62	0x3d629728	0.055319935
63	0x3d0b92e5	0.034075636
64	0xbd6e8b2b	-0.05823819
65	0x3dbd2206	0.09235005
66	0xbc7ca2d5	-0.015419682
67	0xbe2eef81	-0.17083551
68	0xbcf6a594	-0.03010825
69	0x3ce98911	0.028507741
70	0xbbd1a251	-0.0063975235
71	0x3e106912	0.14102581
72	0xbddea974	-0.10872164
73	0x3d43696f	0.04770797
74	0x3e0882b7	0.13331114
75	0xbd74fd4b	-0.05981187
76	0xbcb8965c	-0.022532634
77	0x3e102bc8	0.14079201
78	0xbd7bec61	-0.061504725
79	0xbdbd1bd9	-0.09233827
80	0xbd572fe4	-0.052535906
81	0xbb1d4e10	-0.0024002828
82	0xbdde553a	-0.108560994
83	0xbb8ac8c3	-0.0042353584
84	0xbc0d3957	-0.008619628
85	0x3ba9d0b3	0.0051823496
86	0xbdcad759	-0.099043556
87	0x3e08124a	0.13288227
88	0x3d64eed5	0.05589183
89	0x3dabb67a	0.08384414
90	0x3cd782c0	0.026307464
91	0xbd307d76	-0.0430884
92	0xbdd41db4	-0.10357228
93	0x3deb54d4	0.11490789
94	0x3dbf4e25	0.09341077
95	0xbe012e53	-0.12615328
96	0xbe1b4d04	-0.15166098
97	0x3d8f711c	0.07003996
98	0x3dc5a3e6	0.09650402
99	0xbd587a4f	-0.052851018
100	0xbcc6f868	-0.024288371
101	0x3cc45cd3	0.023970043
102	0x3dc6937e	0.09696101
103	0xbe54d601	-0.20784761
104	0x3d21dc3a	0.039516665
105	0x3e1bcb57	0.15214287
106	0x3dd1ecf4	0.10250273
107	0x3d00d69c	0.031454667
108	0xbce8c376	-0.028413516
109	0xbcf8b0c8	-0.030357733
110	0xbc04a043	-0.00809485
111	0xbd80d427	-0.06290465
112	0xbe01cd7d	-0.12676044
113	0x3c79c375	0.0152443545
114	0xbdb11b3a	-0.08647771
115	0x3caadb5b	0.02085655
116	0x3d8cd376	0.068762705
117	0xbcd15633	-0.025553798
118	0x3e5d962d	0.21639319
119	0xbbca8181	-0.006179989
120	0xbdafacd8	-0.08577889
121	0xbd0d42cc	-0.03448753
122	0x3ccd1db0	0.02503857
123	0x3ce2cbec	0.027685128
124	0xbc30be32	-0.010787534
125	0x3b719760	0.0036863908
126	0xbcd93e74	-0.026519038
127	0xbc8859ed	-0.016644442
128	0xbd98f042	-0.074677005
129	0x3dc59a66	0.0964859
130	0x3d8d2efd	0.06893728
131	0x3d0a1b93	0.033717703
132	0x3e17efd1	0.14837576
133	0xbdab4a5b	-0.083637916
134	0x3d9db67b	0.07700821
135	0x3cb69952	0.022289906
136	0xbd9dc7dc	-0.07704136
137	0x3d3dd872	0.046348996
138	0x3c787223	0.015163931
139	0xbd16aec1	-0.036787752
140	0x3df71c97	0.12066
141	0xbdd32bf9	-0.103111215
142	0xbdbd3825	-0.09239224
143	0x3dce1b0c	0.100637525
144	0x3d9d60a5	0.07684449
145	0x3d9f62d3	0.07782521
146	0xbdf91c9f	-0.12163662
147	0xbd055985	-0.032556076
148	0xbcc0b9da	-0.02352612
149	0x3c0ae367	0.0084770685
150	0x3c30c066	0.010788059
151	0x3d278d8e	0.04090648
152	0x3dc15bf3	0.09441366
153	0x3cc707fd	0.024295801
154	0x3d4456a9	0.047934208
155	0xbe7ca1eb	-0.24671142
156	0xbd0caf4e	-0.03434687
157	0x3ddea641	0.10871554
158	0x3d88f77e	0.066878304
159	0x3dc90244	0.09814885
160	0xbe26da5a	-0.16294232
161	0x3cccccc0	0.024999976
162	0xbd28287b	-0.04105423
163	0xbd880de5	-0.06643275
164	0x3beb2fbf	0.0071773226
165	0x3de8c922	0.11366488
166	0x3dc93850	0.09825194
167	0xbd8cdf8e	-0.06878577
168	0xbc529f90	-0.0128554255
169	0xbdd3eeb5	-0.10348264
170	0xbd438cee	-0.047741823
171	0xbd6b33d5	-0.057422478
172	0xbd8ba46a	-0.06818469
173	0xbe4ca9fa	-0.19986716
174	0x3e4af649	0.19820513
175	0xbd6c9929	-0.057763252
176	0xbd8566a6	-0.06513719
177	0xbdc4f0e2	-0.09616257
178	0xbc9bea8a	-0.019032735
179	0xbc8f2e82	-0.017478231
180	0xbe0a612b	-0.13513629
181	0xbe52596d	-0.20541926
182	0x3b6e3f2b	0.003635357
183	0xbd3529a3	-0.04422916
184	0x3e783ff5	0.24243148
185	0x3db946ad	0.090466835
186	0xbd884471	-0.06653679
187	0x3de43755	0.11143366
188	0xbe023ba5	-0.12718065
189	0xbd8b250f	-0.06794178
190	0xbc84542f	-0.016153423
191	0xbdd5cb76	-0.10439198
192	0x3e8c55e2	0.27409273
193	0x3d1de5ff	0.03854942
194	0xbdbb4835	-0.09144632
195	0x3d291cab	0.041287106
196	0x3ddfa198	0.109194934
197	0xbc4457df	-0.011983841
198	0x3cfb5ded	0.030684436
199	0x3e03f43f	0.12886141
200	0x3dcb4644	0.099255115
201	0xbd89e054	-0.0673224
202	0xbce48d06	-0.027899276
203	0xbd304603	-0.04303552
204	0xbcff4718	-0.03116183
205	0xbcb5a45f	-0.022173105
206	0xbca37c44	-0.019956715
207	0xbde81b41	-0.11333323
208	0xbd6706e9	-0.056403074
209	0x3ad78584	0.0016442989
210	0x3dd69d66	0.1047924
211	0x3c71ffbe	0.014770446
212	0xbe0c1138	-0.13678443
213	0x3d9e0d7d	0.077174164
214	0x3e0f3e8d	0.13988705
215	0x3d535700	0.05159664
216	0x3c9b0d6a	0.018927295
217	0xbe893abe	-0.2680263
218	0x3d370334	0.04468079
219	0xbe1022a6	-0.14075717
220	0xbc947e7c	-0.018126719
221	0x3db69ae8	0.08916265
222	0xbdc214af	-0.09476601
223	0x3d214413	0.03937156
224	0xbd984ea0	-0.074368715
225	0xbca1b4f3	-0.019739604
226	0x3d132031	0.035919372
227	0xbd87d61d	-0.06632636
228	0xbb5169d4	-0.0031953948
229	0xbc6a42f5	-0.01429819
230	0x3d41721b	0.04722796
231	0x3c044d0b	0.008075009
232	0x3d1aef00	0.037825584
233	0x3d4114a8	0.04713884
234	0x3da81513	0.082071446
235	0xbe3d77b6	-0.18502697
236	0x3e267a27	0.16257535
237	0x3cccbac6	0.024991404
238	0xbde95e19	-0.11394901
239	0xbe3a59ea	-0.18198362
240	0x3cea5836	0.028606515
241	0x3d9ba274	0.07599345
242	0xbb1ce9df	-0.002394311
243	0x3daf4fa6	0.085601136
244	0x3df59287	0.119908385
245	0xbde8bfb1	-0.11364687
246	0x3d077e56	0.033079468
247	0xbccd74ca	-0.025080103
248	0x3d8d497a	0.0689878
249	0xbe582ac6	-0.21110067
250	0xbe025baa	-0.1273028
251	0xbd1a6798	-0.03769645
252	0x3d92c5e8	0.07166654
253	0x3ded1b47	0.11577468
254	0xbd9964a2	-0.07489897
255	0xbd7b5acf	-0.0613659

linear2.bias f4 [256]
0	0x3c4521b6	0.012031963
1	0x3b991962	0.0046722153
2	0xbd29213a	-0.041291453
3	0x3d1258c0	0.03572917
4	0xbd405041	-0.046951536
5	0x3d48383f	0.048881765
6	0x3d45a6b4	0.048254684
7	0x3cd195e3	0.025584167
8	0x3d003324	0.03129877
9	0xbd50454d	-0.05084734
10	0xbd1d0b48	-0.038340837
11	0xbc6caa43	-0.01444489
12	0xbcf67b2e	-0.030088034
13	0x3d0a123c	0.033708796
14	0xbcb3927a	-0.021920431
15	0x3c301043	0.010746065
16	0x3c9f9618	0.01948075
17	0x3d4daa7c	0.050211415
18	0xbd78af25	-0.060713906
19	0x3d22bd6c	0.039731428
20	0xbaf8629a	-0.0018950284
21	0xbd03db42	-0.032191522
22	0x3c8557d5	0.016277233
23	0xbcf18a98	-0.029485032
24	0x3b53b7ee	0.0032305676
25	0xbc80a912	-0.015705619
26	0x3cbf4661	0.023348989
27	0x3ab84b3c	0.0014060508
28	0x3c606017	0.013694785
29	0x3cd20749	0.02563824
30	0x3b8d4544	0.0043112356
31	0x3d3911b5	0.045182902
32	0xbae9d868	-0.0017840983
33	0x3c0e6350	0.00869067
34	0xbb0a8553	-0.0021136596
35	0x3d4344df	0.047673102
36	0xbd867eb0	-0.065671325
37	0xbc695f20	-0.014243871
38	0x3bd33ab8	0.006446209
39	0xbc9d674f	-0.0192143
40	0xbca60564	-0.020266242
41	0x3d4d7a4f	0.05016547
42	0x3d941c5a	0.0723197
43	0xbcea7ef7	-0.028624995
44	0xbc4f58ba	-0.012655431
45	0xbccdfe25	-0.0251456
46	0x3d2b7d3f	0.04186749
47	0x3ce0b6ae	0.027430858
48	0xbd79e535	-0.061009604
49	0x3d0aba30	0.03386897
50	0x3d4e859c	0.05042039
51	0xbbcbe393	-0.0062221973
52	0xbce48725	-0.027896473
53	0x3c1b4315	0.009476443
54	0xbd97d542	-0.074137226
55	0x3d1e1882	0.03859759
56	0xbd401b5b	-0.04690109
57	0xbccb3f80	-0.024810553
58	0xbd2f1dcc	-0.042753026
59	0x3d094e27	0.033521798
60	0xbd358ca0	-0.044323564
61	0x3c02b078	0.007976644
62	0xbd9cb935	-0.07652513
63	0x3c95f857	0.018306894
64	0x3bc91882	0.0061369548
65	0x3d42d031	0.047561828
66	0xbb826645	-0.0039794766
67	0xbd362266	-0.0444664
68	0x3b586196	0.003301715
69	0x3cd8b245	0.026452193
70	0xbd8602b1	-0.06543482
71	0x3cd6e0e2	0.02623028
72	0xbb9700ee	-0.004608265
73	0xbd465fe6	-0.0484313
74	0xbc5fae1b	-0.01365235
75	0x3cc0b209	0.023522394
76	0x3c0f30e4	0.008739684
77	0xbceec578	-0.029146895
78	0x3d215d58	0.03939566
79	0xbd24fa27	-0.040277626
80	0xbd20a1d6	-0.03921684
81	0x3cbfc233	0.023408031
82	0x3c0c5c8d	0.008566988
83	0x3c052587	0.008126623
84	0xbd20ed3f	-0.039288756
85	0xbd1477d7	-0.0362471
86	0xbc016cf0	-0.007899508
87	0x3d025164	0.0318159
88	0xbc976234	-0.018479444
89	0x39875536	0.00025812694
90	0x3cc5f9e3	0.024167007
91	0xbd0e928f	-0.034807738
92	0xbd09cb53	-0.03364117
93	0xbbff6f7d	-0.007795273
94	0x3d13c8e4	0.036080256
95	0xbc068bd6	-0.00821205
96	0xbd34b7d4	-0.044120625
97	0x3b6c0241	0.0036012086
98	0xbd8ffa03	-0.07030108
99	0xba6b73ab	-0.00089817744
100	0xbd8af8f0	-0.06785762
101	0x3995031f	0.0002842182
102	0xbcab6833	-0.02092371
103	0xbc8c9da0	-0.017165005
104	0xbd848983	-0.06471541
105	0xbd7ee0a1	-0.06222594
106	0xbc32b714	-0.010907907
107	0x3cc41217	0.023934407
108	0xbc637f44	-0.013885323
109	0xbce73a22	-0.028225962
110	0xbd1a985d	-0.03774296
111	0xbd0261cb	-0.031831544
112	0xbd236916	-0.03989514
113	0x3d211653	0.03932793
114	0x3d150c33	0.036388587
115	0xbd3c6430	-0.045993984
116	0xbce78e55	-0.028266111
117	0x3c842781	0.016132118
118	0x3c411b19	0.011786246
119	0xbd7b6158	-0.06137213
120	0x3caed9b9	0.021344053
121	0x3d486d36	0.048932277
122	0xbd80d3d7	-0.06290405
123	0xbd2db8ae	-0.042412452
124	0x3d751fa8	0.059844643
125	0xbc704e7a	-0.014667148
126	0xbcd7b61b	-0.026331952
127	0x3d63874d	0.055548955
128	0x3d36d8e8	0.04464045
129	0xbcfa8f3f	-0.030585883
130	0x3d7816f5	0.06056877
131	0x3ce1eb11	0.027577909
132	0xbd7baf2e	-0.06144636
133	0xbc01ca91	-0.007921831
134	0xbd384da5	-0.044995923
135	0xbc77a484	-0.015114907
136	0xbd2d4dfc	-0.0423107
137	0x3d63b213	0.055589747
138	0xbd29f204	-0.04149057
139	0xbd220bad	-0.039561916
140	0xbd8353c9	-0.06412465
141	0xbcbb276e	-0.02284595
142	0x3b8bdb63	0.0042680963
143	0xbd6855bc	-0.056722388
144	0xbd6b8103	-0.057496082
145	0xbc803a66	-0.015652847
146	0x3d0425f7	0.03226277
147	0xbd199040	-0.037491083
148	0x3cc26415	0.023729363
149	0x3d061963	0.032739054
150	0xbd03321b	-0.032030206
151	0x3cdf4469	0.0272543
152	0x3d0b8585	0.03406288
153	0xbd871432	-0.06595649
154	0xbc4f3c38	-0.012648635
155	0x3cb2798f	0.02178648
156	0x3cbaff46	0.022826802
157	0xbb76e689	-0.003767403
158	0x3b9d2a9f	0.0047963406
159	0x3ca87545	0.020563731
160	0x3c0b92c7	0.008518881
161	0xbd70876a	-0.05872289
162	0xbc85314a	-0.016258854
163	0xbd6524b8	-0.05594322
164	0x3ba2c790	0.0049676374
165	0x3c53087e	0.012880443
166	0x3d630315	0.05542286
167	0x3cb461e6	0.022019338
168	0xbbcff7aa	-0.0063466625
169	0xbbcc210d	-0.006229526
170	0xbc8d969a	-0.017283726
171	0x3b92a48b	0.0044751815
172	0xbcb54882	-0.022129301
173	0xbca41f1b	-0.020034363
174	0xbba078e4	-0.004897224
175	0xbab15bcc	-0.0013531386
176	0xbb25f8ad	-0.0025325224
177	0x3c2b3377	0.010449282
178	0xbd123a19	-0.035699937
179	0xbd60ea2f	-0.054910835
180	0x3d217b39	0.039424155
181	0xbd75b058	-0.059982628
182	0x3d295f63	0.041350733
183	0xbce60466	-0.02807827
184	0xbd99c5e2	-0.07508446
185	0x3cc9909a	0.024605084
186	0xbd28a3ac	-0.041171715
187	0x3cb11249	0.021615164
188	0x3d3dbad9	0.04632077
189	0xbd580df7	-0.052747693
190	0xbd155dbc	-0.036466345
191	0x3d433160	0.04765451
192	0xbd85f1b6	-0.06540243
193	0x3d8f3d40	0.069941044
194	0x3bf40e2d	0.007447979
195	0xbd3c0b27	-0.045909073
196	0xbd2ed37a	-0.04268215
197	0x3d867fca	0.065673426
198	0xbbcc4f0a	-0.006235008
199	0xbc9ef161	-0.019402208
200	0x3c5860c3	0.013206664
201	0x3d2f7516	0.04283627
202	0xbc8d2094	-0.017227449
203	0xbd6f0b71	-0.05836052
204	0xbcb88b7a	-0.022527445
205	0xbd69fc53	-0.0571254
206	0xbbb27c7c	-0.0054469686
207	0xbcc88d4c	-0.024481438
208	0xbd36f935	-0.044671256
209	0xbd88e8d8	-0.066850364
210	0x3d05c929	0.032662544
211	0x3c85baf8	0.016324505
212	0xbbee31a9	-0.0072691035
213	0x3d1c02cf	0.038088616
214	0xbd608b58	-0.05482039
215	0xbc01896f	-0.007906302
216	0xb91fb094	-0.00015229202
217	0xbcf969fe	-0.030446049
218	0xbd26da77	-0.040735688
219	0x3d364a95	0.04450472
220	0x3c74ee25	0.014949356
221	0xbd16e3a5	-0.036838192
222	0x3cf9538c	0.030435346
223	0xbcb8fcd3	-0.022581493
224	0xbd781e6c	-0.060575888
225	0x3c837253	0.016045725
226	0x3d90abb7	0.07064002
227	0x3d74eb46	0.059794687
228	0xbce3c8d7	-0.027805729
229	0x3d7e4e7f	0.06208658
230	0x3d1a43b2	0.037662216
231	0x3c50a202	0.012733938
232	0xbd5adf35	-0.053435523
233	0x3caf27aa	0.021381218
234	0xbcf5a070	-0.02998373
235	0x3c0adb4f	0.008475139
236	0x3a5ed438	0.0008500251
237	0xbc1de3f9	-0.009636872
238	0x3bb655c2	0.0055644223
239	0x3c692575	0.014230122
240	0xbc964e33	-0.018347835
241	0xbd5dadcd	-0.054120827
242	0x3c64373b	0.013929184
243	0xbd28fb88	-0.041255504
244	0xbd4d68a4	-0.05014862
245	0x3c7c3fb0	0.015396044
246	0x3d26bac7	0.04070547
247	0xbd7a6771	-0.061133806
248	0xbceb8fc2	-0.028755073
249	0xbbe93b0e	-0.0071176356
250	0xbcee40c6	-0.02908362
251	0xbd39709f	-0.04527342
252	0xbd5e159c	-0.054219827
253	0x3bf1333e	0.007360845
254	0x3c8fb649	0.017542975
255	0x3d09ff1e	0.033690564

linear3.weight f4 [1, 256]
0	0xbe22c2f0	-0.15894675
1	0xbe2668a7	-0.16250859
2	0xbe24294a	-0.16031376
3	0xbe1ffb87	-0.15623294
4	0xbe200d96	-0.15630183
5	0x3e1fa26b	0.15589301
6	0x3dfe4af6	0.124166414
7	0xbe2d61ec	-0.16931885
8	0x3e22980c	0.15878314
9	0x3e12e05a	0.14343396
10	0x3e0a71d7	0.13519989
11	0x3e06db1a	0.13169518
12	0x3e130b5d	0.14359803
13	0xbe210990	-0.15726304
14	0x3e0e5c59	0.13902415
15	0x3e0d0ed1	0.13775183
16	0xbe24333d	-0.16035171
17	0x3dfe2fdb	0.124114715
18	0x3e0aaa13	0.1354144
19	0x3e1427b7	0.14468275
20	0xbe1aa44d	-0.15101738
21	0x3e184f15	0.14873917
22	0x3e0dff05	0.13866813
23	0x3e0971b3	0.13422279
24	0x3e0623d3	0.13099603
25	0xbe2be693	-0.16787176
26	0x3df29f21	0.11846758
27	0x3e0910a5	0.13385256
28	0xbe243ee1	-0.16039611
29	0x3e07a950	0.13248181
30	0xbe23d3c0	-0.15998745
31	0x3df4b0a1	0.11947752
32	0xbe27c024	-0.1638189
33	0xbe29b089	-0.16571249
34	0xbe13757b	-0.14400284
35	0xbe23a569	-0.15981068
36	0x3df17d79	0.1179151
37	0x3e17bc93	0.14818029
38	0x3e17f45f	0.14839314
39	0x3e0ecf01	0.13946153
40	0x3defb917	0.11705225
41	0xbe255c5a	-0.1614851
42	0xbe22abed	-0.15885897
43	0xbe2c9882	-0.16855052
44	0x3e1a08fc	0.1504249
45	0x3dea3ab7	0.1143698
46	0x3e093cdd	0.13402124
47	0xbe22e304	-0.15906912
48	0x3e11e894	0.14248878
49	0x3df53aad	0.11974082
50	0x3e029575	0.12752326
51	0x3e151a39	0.14560784
52	0x3de51225	0.111851014
53	0xbe1ffe4c	-0.1562435
54	0x3e15a232	0.14612654
55	0xbe2a90b6	-0.16656765
56	0x3e048c7f	0.1294422
57	0xbe23ccd4	-0.15996104
58	0xbe282027	-0.16418515
59	0x3e16691d	0.14688535
60	0xbe1a9dcd	-0.15099259
61	0xbe1fb6bf	-0.15597056
62	0x3e1a6962	0.15079263
63	0xbe2371d5	-0.15961392
64	0xbe2411f8	-0.1602248
65	0xbe1df496	-0.15425333
66	0xbe19d7df	-0.15023755
67	0x3df291d5	0.118442215
68	0x3e12f610	0.14351678
69	0x3e045d29	0.12926163
70	0x3df0c5ad	0.11756454
71	0xbe231a7b	-0.1592807
72	0xbe269f77	-0.16271769
73	0x3e070357	0.13184868
74	0x3e079ab0	0.13242602
75	0xbe177c7a	-0.14793578
76	0x3e09cb25	0.134564
77	0xbe2ce91f	-0.16885804
78	0x3e08ca6b	0.13358466
79	0x3e0e3037	0.1388558
80	0x3e0abef4	0.13549405
81	0x3e16b0ea	0.14715925
82	0xbe22ad25	-0.15886362
83	0xbe1d2b6b	-0.15348594
84	0x3e14305a	0.1447157
85	0x3dfa4df7	0.12221902
86	0xbe26de83	-0.16295819
87	0x3e0f3ace	0.13987276
88	0x3e12de57	0.14342628
89	0x3e077de2	0.13231614
90	0x3e0c0cad	0.1367671
91	0xbe1f993f	-0.15585802
92	0x3e152b30	0.14567256
93	0x3e163a2e	0.14670631
94	0xbe1cb0f8	-0.15301883
95	0x3e1246df	0.14284848
96	0x3e118ca5	0.14213808
97	0x3e031b5d	0.12803407
98	0x3e18f01f	0.14935349
99	0xbe1ef03f	-0.15521334
100	0x3de8b7e1	0.11363197
101	0x3ded3adc	0.11583492
102	0x3deba535	0.1150612
103	0xbe2e533e	-0.17023942
104	0x3de3e64e	0.111279115
105	0x3e09c312	0.1345332
106	0x3dbebdda	0.09313555
107	0xbe25cbfe	-0.16191098
108	0x3df554e7	0.119790845
109	0x3e074878	0.13211238
110	0xbe28de54	-0.16491061
111	0x3e00b8f9	0.12570561
112	0x3e086c7f	0.13322638
113	0x3e16deb0	0.14733386
114	0x3e0bd213	0.13654356
115	0x3dfdd62e	0.12394367
116	0x3e0f1900	0.1397438
117	0xbe2520ff	-0.16125868
118	0xbe1faec7	-0.15594016
119	0x3e02b9cb	0.12766187
120	0x3e13d498	0.14436567
121	0xbe326a5e	-0.17423388
122	0x3e184751	0.14870955
123	0xbe1dbdce	-0.15404436
124	0x3e0caaa4	0.13736969
125	0x3e077689	0.13228811
126	0x3de433a0	0.11142659
127	0xbe0e8250	-0.13916898
128	0xbe26c369	-0.1628548
129	0xbe1a6eaf	-0.15081285
130	0xbe30b5b9	-0.17256822
131	0xbe2b5564	-0.16731793
132	0x3e0f1cdc	0.13975853
133	0x3e0c9f98	0.13732755
134	0x3e1bceb2	0.15215567
135	0xbe27fcb0	-0.16404986
136	0x3e13e673	0.14443378
137	0xbe236381	-0.15955926
138	0xbe1a71e2	-0.15082505
139	0xbe1663b9	-0.14686479
140	0x3df60aec	0.12013802
141	0xbe1acaaf	-0.1511638
142	0x3e079e6c	0.13244027
143	0x3e0ca350	0.13734174
144	0x3e150f52	0.14556625
145	0xbe25d38e	-0.16193983
146	0xbe20ea1c	-0.15714306
147	0x3dfad43f	0.12247514
148	0x3dfe5c3f	0.12419938
149	0xbe19b44a	-0.15010181
150	0xbe230a6a	-0.15921941
151	0x3dd7b33d	0.10532234
152	0x3e0dd248	0.13849747
153	0x3e19c94e	0.15018198
154	0xbe29840e	-0.16554281
155	0xbe22481e	-0.15847823
156	0x3e03bdea	0.12865415
157	0x3e1a129e	0.15046164
158	0x3e0c5b58	0.1370672
159	0x3e218312	0.15772656
160	0xbe18dbc1	-0.1492758
161	0x3e0af1fe	0.13568875
162	0x3e0ea30f	0.1392939
163	0x3e08fa35	0.13376696
164	0x3e0240eb	0.12720077
165	0x3e10d019	0.14141883
166	0xbe1ef50c	-0.15523165
167	0xbe2239b0	-0.15842319
168	0x3e135a70	0.14389968
169	0x3e0a88c2	0.13528731
170	0x3e0ee68c	0.13955134
171	0x3e253171	0.16132142
172	0x3de4fcd7	0.11181038
173	0xbe1ccf68	-0.15313494
174	0xbe199d54	-0.15001422
175	0xbe201974	-0.1563471
176	0xbe20eeab	-0.15716045
177	0x3e1791c3	0.14801697
178	0x3e0cdc71	0.13755967
179	0x3e16173b	0.14657299
180	0xbe257190	-0.16156602
181	0x3e06e3f2	0.13172892
182	0x3e051cad	0.1299922
183	0x3e1b782e	0.15182564
184	0x3e070360	0.13184881
185	0x3e1b8157	0.15186058
186	0x3df75c56	0.120781586
187	0x3e0ef481	0.13960458
188	0x3df1e2a5	0.11810807
189	0xbe2280f8	-0.1586951
190	0xbe24bf08	-0.16088498
191	0x3ddc109d	0.10745356
192	0x3e092db4	0.1339634
193	0xbe234397	-0.15943752
194	0xbe1aec32	-0.15129164
195	0x3e1e2919	0.15445365
196	0x3df8e21e	0.121525034
197	0xbe1cf18a	-0.15326515
198	0x3e09c1ff	0.1345291
199	0x3df9b352	0.12192406
200	0x3e1900b3	0.14941673
201	0x3e0f1f39	0.13976754
202	0x3df694f7	0.120401315
203	0x3e1002f3	0.14063625
204	0xbe2799a3	-0.16367202
205	0x3e0d2d57	0.13786827
206	0x3e07e0d2	0.13269356
207	0x3e11e7ce	0.14248583
208	0x3e21114a	0.15729252
209	0x3e04d9bc	0.12973684
210	0x3e066c51	0.13127257
211	0x3df275eb	0.11838897
212	0x3e05cc67	0.13066255
213	0xbe2605cb	-0.16213147
214	0x3df6f195	0.12057797
215	0x3e122e29	0.14275421
216	0x3e0c0371	0.13673188
217	0xbe18f6ad	-0.1493785
218	0x3e0ca71b	0.1373562
219	0xbe1b4d27	-0.1516615
220	0xbe255347	-0.16145049
221	0x3deae785	0.1146994
222	0x3e0ac7dc	0.13552803
223	0x3e0fe5fd	0.14052577
224	0x3e09f5cc	0.1347267
225	0xbe1f6808	-0.15567029
226	0xbe276338	-0.16346443
227	0x3dee9de7	0.11651211
228	0x3e12c7a5	0.14333971
229	0xbe1a3191	-0.1505797
230	0x3e14a2d5	0.1451524
231	0xbe19c44d	-0.15016289
232	0x3e1248cf	0.14285587
233	0xbe1f71b0	-0.15570712
234	0xbe272115	-0.16321214
235	0x3e05bae1	0.1305957
236	0xbe29ec20	-0.16593981
237	0x3e097986	0.13425264
238	0x3e159197	0.1460632
239	0x3e187fb7	0.1489247
240	0x3e0ff93c	0.14059919
241	0x3e01ccdb	0.12675802
242	0xbe2391ab	-0.15973537
243	0x3e045c2c	0.12925786
244	0x3de0bdd6	0.10973708
245	0x3e032d27	0.12810193
246	0xbe1c348f	-0.15254425
247	0x3e082a3e	0.13297364
248	0xbe2d38b5	-0.16916163
249	0x3e064cfa	0.13115302
250	0x3e1301f9	0.14356221
251	0x3e02d4bc	0.12776464
252	0x3e09dbbc	0.13462728
253	0xbe248751	-0.16067244
254	0x3e0436f2	0.12911585
255	0x3e076ba0	0.1322465
