testing/scripts/outputs/DDPG_Env/20221215-160906/models/780actor_checkpoint.pt (torch, 281431 bytes, 5 tensors)

linear1.weight f4 [256, 14]
0	0xbb8d78d1	-0.004317381
1	0x3e7cb575	0.24678595
2	0x3e6067de	0.21914622
3	0x3e13cc69	0.14433445
4	0xbe8b6b31	-0.27230218
5	0xbd2d9173	-0.04237504
6	0x3de9a08f	0.11407577
7	0x3e68b980	0.22727013
8	0xbe402dcf	-0.18767475
9	0xbe8b16ef	-0.27165934
10	0x3c3e8cc6	0.011630243
11	0x3dcf9463	0.101357244
12	0x3dce1805	0.10063175
13	0x3e5bad1a	0.21452752
14	0x3ccfd797	0.025371356
15	0xbea53ccf	-0.32272956
16	0x3dc81c2b	0.097709976
17	0x3e0e4408	0.1389314
18	0x3de8a9b5	0.11360494
19	0xbdd0f777	-0.1020345
20	0xbe83dbe3	-0.25753698
21	0xbd4ca02c	-0.04995744
22	0x3d9a38c3	0.07530358
23	0xbe485e6d	-0.1956727
24	0xbe40ada0	-0.18816233
25	0x3d38826b	0.04504625
26	0x3e8cd17d	0.27503577
27	0xbda9df43	-0.08294537
28	0xbe6cbfd2	-0.23120049
29	0x3ea51fe2	0.32250887
30	0x3e7dea10	0.24796319
31	0x3d9b53be	0.07584332
32	0x3e46be86	0.19408616
33	0xbdcb8f53	-0.09939446
34	0x3ebd3f8e	0.3696255
35	0x3d3b1996	0.045678698
36	0xbde953a0	-0.11392903
37	0xbea51448	-0.32242036
38	0x3e0a89fd	0.13529201
39	0xbdf2d9de	-0.11857961
40	0xbdc04051	-0.093872674
41	0x3d8ae1e6	0.06781368
42	0x3cec2299	0.028825091
43	0xbdc42b38	-0.09578556
44	0x3e16a94c	0.14713019
45	0x3cf38291	0.029725345
46	0xbd81bb6f	-0.06334578
47	0x3ea7d1ff	0.32777402
48	0x3e1484eb	0.14503829
49	0x3e46da79	0.19419278
50	0xbe2c880b	-0.16848771
51	0x3e58ad8d	0.21159954
52	0xbdcb4cd0	-0.0992676
53	0xbc300fc5	-0.010745947
54	0xbd84ed97	-0.06490629
55	0x3e56573e	0.20931718
56	0x3e192379	0.14954938
57	0x3e18376d	0.14864893
58	0x3cbeb340	0.023278832
59	0x3c67f590	0.014157668
60	0xbe8eac4a	-0.2786582
61	0xbd5650a8	-0.052323014
62	0xbeb16f98	-0.34655452
63	0xbe22c2e2	-0.15894654
64	0xbe9c2a71	-0.3050113
65	0xbe53161d	-0.20613904
66	0xbea7f194	-0.32801497
67	0x3d12b868	0.035820395
68	0xbdbaf5fc	-0.09128949
69	0xbd660f6f	-0.056167062
70	0xbe101564	-0.1407066
71	0x3eaf1900	0.3419876
72	0x3e50b533	0.20381622
73	0xbd930d90	-0.07180321
74	0x3e65e6ac	0.22451276
75	0x3e4fa33d	0.20277114
76	0xbd773e15	-0.06036194
77	0x3ed1ca17	0.40974495
78	0xbe20625f	-0.15662526
79	0xbc9c797a	-0.019100893
80	0xbcd4cc95	-0.025976459
81	0xbe3118fa	-0.17294684
82	0xbe7551cd	-0.23956986
83	0x3de07713	0.109602116
84	0xbe394a3f	-0.18094729
85	0xbd041c8c	-0.032253787
86	0xbe5bb623	-0.21456198
87	0xbdeb562a	-0.11491044
88	0xbe51f565	-0.20503767
89	0xbd9bce6d	-0.07607732
90	0x3c53e71b	0.012933518
91	0xbe1a4711	-0.15066172
92	0x3e1cbe12	0.15306881
93	0xbdad6ee6	-0.08468418
94	0x3eb0a252	0.3449884
95	0x3c92a5dd	0.017901355
96	0x3e4db014	0.200867
97	0xbde3e681	-0.111279495
98	0xbc91a7be	-0.017780181
99	0x3d909a19	0.07060642
100	0xbd9b8f6a	-0.075957134
101	0x3e2cbca1	0.16868831
102	0xbeb1145e	-0.3458585
103	0x3b3724fa	0.0027945624
104	0xbe960be9	-0.29305962
105	0xbd8a24b6	-0.06745283
106	0x3e3aec02	0.18254092
107	0xbc49a7fb	-0.012308116
108	0x3e4df063	0.20111232
109	0xbe2a9637	-0.16658865
110	0x3e129266	0.14313659
111	0x3e1ca547	0.15297423
112	0x3e24f841	0.16110326
113	0x3e18a475	0.14906485
114	0x3dc0d8f0	0.094163775
115	0x3db11f48	0.086485445
116	0xbe70811e	-0.23486754
117	0x3dfbfa11	0.12303556
118	0x3d94297f	0.07234477
119	0x3e36306d	0.1779191
120	0xbe17b6ae	-0.1481578
121	0xbde4715e	-0.111544356
122	0x3d833fd2	0.06408657
123	0x3e2fce10	0.1716845
124	0xbd6c36f8	-0.05766961
125	0xbd6eb7fc	-0.05828093
126	0xbcb8be3a	-0.022551645
127	0xbdea4532	-0.11438979
128	0xbd89f292	-0.0673572
129	0x3da439a2	0.08018805
130	0x3e3e5fd7	0.18591247
131	0x3d8061e9	0.06268675
132	0xbe89f09c	-0.26941383
133	0xbd96edd8	-0.07369584
134	0x3e270b75	0.16312964
135	0x3e2c7206	0.16840371
136	0x3e50e853	0.20401125
137	0x3e21c7a4	0.15798813
138	0xbda7e549	-0.081980295
139	0x3ae47a48	0.0017431462
140	0xbe0aa709	-0.13540281
141	0x3e698ecd	0.2280838
142	0xbead38bc	-0.33832347
143	0x3e63f405	0.22261055
144	0xbd9d17b9	-0.0767054
145	0xbe48beb0	-0.19603992
146	0x3dac3ea3	0.084103845
147	0xbe58afd5	-0.21160825
148	0xbe19ce15	-0.1502002
149	0xbe131958	-0.14365137
150	0x3e532eb1	0.2062328
151	0x3ea1b595	0.3158385
152	0xbdf6c5ec	-0.12049469
153	0x3eb506ff	0.353569
154	0xbe3462d3	-0.17615823
155	0xbe4b0d3e	-0.1982927
156	0xbe9ae520	-0.30252934
157	0xbe645c29	-0.22300781
158	0xbd6f90c2	-0.05848766
159	0x3e2f7928	0.17136061
160	0xbd56673d	-0.05234455
161	0xbe388703	-0.18020253
162	0x3ea5cf2d	0.32384625
163	0x3dce0591	0.100596555
164	0xbe736591	-0.23769213
165	0xbe746f7f	-0.23870657
166	0x3e9ab2fa	0.30214673
167	0x3ddccac6	0.107808635
168	0x3e3db157	0.18524681
169	0x3e8f7997	0.28022453
170	0x3eada1c1	0.3391247
171	0xbc07e46d	-0.008294207
172	0xbdfa47ca	-0.12220724
173	0x3e2e35e6	0.17012748
174	0x3e7178bd	0.23581214
175	0x3edc68e5	0.43048778
176	0x3dce3014	0.10067764
177	0xbda441de	-0.08020376
178	0x3e050419	0.12989844
179	0x3e3ed81a	0.18637124
180	0xbcf0d575	-0.02939866
181	0xbdcf06b3	-0.101087
182	0xbe1ecd1c	-0.1550793
183	0x3e997fa7	0.29980204
184	0x3e98dd7f	0.29856488
185	0x3e217c25	0.15770014
186	0xbf03f096	-0.5153898
187	0xbee50550	-0.44730616
188	0xbe99d5ae	-0.30045837
189	0x3d7463db	0.059665542
190	0x3debb674	0.115094095
191	0x3e90457e	0.28178018
192	0x3d981164	0.07425192
193	0x3e24e789	0.16103949
194	0x3e143b6d	0.14475794
195	0x3e430b04	0.19047171
196	0x3e24d9a2	0.16098645
197	0xbd09ca7f	-0.03364038
198	0xbe2f137d	-0.17097278
199	0xbeab43e2	-0.33450228
200	0xbd14ca05	-0.036325473
201	0x3bd21f28	0.0064124055
202	0x3c212e17	0.009837649
203	0xbca6c5da	-0.020358015
204	0xbeb5b12c	-0.35486734
205	0xbccc3b71	-0.024930688
206	0xbc884573	-0.016634678
207	0x3df7185f	0.12065195
208	0x3d8726c8	0.06599194
209	0x3e24a4fd	0.16078563
210	0xbc230a37	-0.009951166
211	0x3d40e380	0.04709196
212	0xbdf16cd1	-0.11788333
213	0xbd8e7cf3	-0.06957426
214	0xbd1e62b5	-0.038668353
215	0x3e50b5d8	0.20381868
216	0xbe874220	-0.26417637
217	0xbe025274	-0.12726766
218	0x3d236baf	0.039897617
219	0xbe49ba1e	-0.19699904
220	0x3e98313b	0.2972506
221	0xbe9de6b4	-0.30840075
222	0xbe944e85	-0.28966156
223	0x3e2d924b	0.16950338
224	0xbdff3c80	-0.12462711
225	0xbdf5b4f3	-0.11997404
226	0x3e2387bf	0.15969752
227	0x3e6cc718	0.23122823
228	0x3e8fde2e	0.28099197
229	0x3e591681	0.21199991
230	0x3d8b9c58	0.068169296
231	0xbe11010e	-0.14160559
232	0x3ea879ef	0.32905528
233	0xbbb78c1a	-0.005601418
234	0xbd92faee	-0.07176767
235	0xbcdd4c55	-0.027013937
236	0x3b5e4b2a	0.0033919313
237	0xbe613ab5	-0.21995051
238	0x3ea325b3	0.318647
239	0x3e8f7637	0.28019878
240	0xbaea08a3	-0.0017855357
241	0x3d9d557e	0.07682322
242	0xbe4e2ad4	-0.20133525
243	0xbe4f02b4	-0.20215875
244	0xbdaab5b8	-0.08335441
245	0xbe27f2c6	-0.16401204
246	0xbe0bf763	-0.1366859
247	0x3d9c991e	0.07646392
248	0x3e570ccb	0.21000974
249	0x3d685e69	0.05673066
250	0x3e68de55	0.22741063
251	0x3dcef01b	0.1010439
252	0x3c09c10c	0.008407842
253	0xbdf0dd51	-0.11760963
254	0x3e86a763	0.2629958
255	0xbe3a070b	-0.18166749

linear1.bias f4 [256]
0	0x3e92aba3	0.28646573
1	0xbe9adb4f	-0.30245444
2	0x3e16607b	0.14685242
3	0xbe51a1e2	-0.2047191
4	0xbe363c2d	-0.17796393
5	0xbe256c5d	-0.16154619
6	0xbe0c91f3	-0.1372755
7	0xbdb5c1d0	-0.088748574
8	0x3e842509	0.25809506
9	0x3d46107d	0.04835557
10	0xbe072570	-0.13197875
11	0x3e77c84f	0.24197505
12	0x3e0c6eaa	0.1371409
13	0xbc0a7817	-0.008451483
14	0xbe5c8108	-0.21533597
15	0x3ca56188	0.020188108
16	0x3de129cb	0.109942995
17	0x3dd02681	0.10163594
18	0x3d9fa207	0.07794576
19	0xbd76e21c	-0.06027423
20	0xbe5bba3e	-0.21457765
21	0x3dfdba89	0.123890944
22	0x3dac4e4f	0.08413374
23	0x3e698f52	0.22808579
24	0xbdae3241	-0.08505679
25	0x3eb142a2	0.3462115
26	0xbc75fe18	-0.015014194
27	0x3dd2c0b1	0.10290659
28	0x3eb37c6a	0.35055858
29	0x3e226e6b	0.15862434
30	0xbcd4857f	-0.025942562
31	0xbe14c8b7	-0.14529692
32	0x3e035e43	0.12828927
33	0xbe022dd1	-0.1271279
34	0x3dd5bc12	0.10436262
35	0xbe00e386	-0.12586793
36	0x3bbd12d2	0.005770066
37	0xbe7bd456	-0.24592718
38	0xbe9e7d1c	-0.30954826
39	0xbe15707a	-0.14593688
40	0x3e4aa1c1	0.19788267
41	0xbc475516	-0.012166282
42	0x3d93a959	0.07210035
43	0x3e0b4da7	0.13603841
44	0xbe216e05	-0.15764625
45	0xbe5e0e91	-0.21685244
46	0x3e21a04e	0.15783808
47	0x396f0ac5	0.00022796828
48	0xbd7d1ee7	-0.06179705
49	0x3d7c29a6	0.061563157
50	0x3dfcdbb4	0.123465925
51	0x3e8ffacd	0.28121033
52	0x3e326c66	0.17424163
53	0xbc717add	-0.014738766
54	0x3e1a8d65	0.15093
55	0x3df34dd0	0.11880076
56	0x3e2115df	0.15731
57	0x3e8650a8	0.2623341
58	0x3e86ad22	0.26303965
59	0x3e60009e	0.21875235
60	0x3e8fff01	0.2812424
61	0xbe382888	-0.17984211
62	0xbe1f82d9	-0.15577258
63	0xbe15e352	-0.14637497
64	0x3e86ce8c	0.26329458
65	0xbdb10693	-0.08643832
66	0x3de69111	0.11258138
67	0x3d9d8e50	0.076931596
68	0x3e8e201b	0.2775887
69	0x3d66b6ee	0.0563268
70	0x3dfff86c	0.124985546
71	0x3e335d09	0.17515959
72	0x3d8d8a69	0.06911165
73	0x3e1989d8	0.1499399
74	0x3e68075d	0.22659059
75	0x3e0d1834	0.13778764
76	0x3e3919ce	0.1807625
77	0xbdd3bb35	-0.10338441
78	0x3e8bfb42	0.27340132
79	0xbde5ce7d	-0.11221025
80	0x3ebb2e23	0.36558637
81	0x3e956aff	0.29183194
82	0xbb0004db	-0.0019534144
83	0x3e6b9a9b	0.23008196
84	0xbd447295	-0.047960836
85	0x3e5f5538	0.21809852
86	0xbe7ebe09	-0.2487718
87	0x3d813607	0.06309133
88	0xbe1abd19	-0.15111198
89	0x3d586c11	0.052837435
90	0x3ea4bfc6	0.32177562
91	0x3e989a17	0.2980506
92	0x3e838ed3	0.25694904
93	0x3e461a42	0.19345954
94	0xbdb9c4f6	-0.090707704
95	0xbdcb1d51	-0.09917701
96	0x3df00538	0.117197454
97	0xbe262536	-0.16225132
98	0x3da6fa3a	0.08153196
99	0x3e395344	0.1809817
100	0x3e4427c0	0.19155788
101	0x3dc20464	0.09473494
102	0xbe50b800	-0.2038269
103	0xbdf53274	-0.11972514
104	0xbe13bf5b	-0.14428465
105	0xbe0766d2	-0.13222817
106	0xbe2f6ff5	-0.17132552
107	0xbd8e8c9b	-0.06960412
108	0x3d936757	0.07197445
109	0x3e65dd7a	0.22447768
110	0x3e0df37f	0.13862418
111	0x3da902f5	0.08252517
112	0x3ea7a578	0.3274343
113	0xbe8354ff	-0.25650784
114	0x3e4be4fc	0.1991157
115	0xbd434b88	-0.047679454
116	0x3e6cbf36	0.23119816
117	0x3e64ed8e	0.22356245
118	0x3e40dde8	0.1883465
119	0xbe8ef5d8	-0.2792194
120	0xbdbb1611	-0.09135068
121	0x3cec8f2c	0.028876863
122	0x3d68f7da	0.056876995
123	0xbda0711b	-0.07834073
124	0xbd19362c	-0.037405178
125	0x3e7f18f9	0.2491187
126	0x3e9fde0f	0.31224105
127	0x3e4be601	0.19911958
128	0x3e8f9656	0.28044385
129	0x3e9c233c	0.30495632
130	0x3e21d883	0.15805249
131	0x3e4f78b8	0.20260894
132	0xbe4176b1	-0.18892933
133	0x3db07d21	0.086176164
134	0x3e76262d	0.24038
135	0x3ccd5061	0.025062742
136	0xbe62777b	-0.2211589
137	0x3e0920bd	0.13391395
138	0x3deb16a9	0.114789315
139	0x3d6692c9	0.05629233
140	0xbe2da74f	-0.16958354
141	0xbe95c5d0	-0.2925248
142	0x3e7c3c14	0.24632293
143	0xbd2328a8	-0.039833695
144	0x3e657ebc	0.22411627
145	0xbe11ce4f	-0.14238857
146	0xbe405bb6	-0.18784985
147	0x3e2dbb61	0.1696601
148	0xbe34005c	-0.17578262
149	0xbdcd6184	-0.10028365
150	0xbcd7c22c	-0.026337706
151	0x3e8aeb20	0.2713251
152	0x3d1573e0	0.03648746
153	0x3d44a925	0.04801287
154	0xbb76e058	-0.003767034
155	0xbc6c6f03	-0.014430764
156	0xbe33a67a	-0.17543975
157	0x3c63db27	0.01390723
158	0x3e38b24d	0.18036766
159	0xbd1504a2	-0.03638137
160	0xbe0c716b	-0.1371514
161	0xbdb949ff	-0.09047317
162	0xbe2bda57	-0.16782509
163	0x3e2354a0	0.1595025
164	0x3e641225	0.22272547
165	0x3daaf58b	0.08347615
166	0x3de755dd	0.11295674
167	0x3d854a1a	0.065082744
168	0x3e8afe47	0.27147123
169	0x3d14790b	0.036248248
170	0x3e94d6e9	0.29070213
171	0xbd20c053	-0.039245915
172	0x3e1ed4b2	0.15510824
173	0x3dfb578b	0.12272557
174	0xbdd369ba	-0.103229
175	0x3e0e40cf	0.1389191
176	0xbe4743b0	-0.19459414
177	0xbd5cb16c	-0.05388014
178	0xbdc54591	-0.09632409
179	0x3dab392e	0.083605155
180	0xbd90c704	-0.07069209
181	0xbe060ae6	-0.13090095
182	0xbc5cebe7	-0.013483978
183	0x3d84a58c	0.06476888
184	0x3e84023a	0.2578295
185	0xbe41fbfd	-0.18943782
186	0xbbed2658	-0.007237237
187	0xbe19aa7c	-0.15006441
188	0xbe01eb67	-0.12687455
189	0x3de05b95	0.10954968
190	0x3dbd2154	0.092348725
191	0x3d378be6	0.044811152
192	0x3b8ae65a	0.004238886
193	0x3caf9f06	0.021438133
194	0xbe5284d5	-0.20558484
195	0x3daabcb8	0.083367765
196	0xbe8012c4	-0.25014317
197	0x3e9860b7	0.29761288
198	0x3e5d8700	0.2163353
199	0x3e92e31c	0.28688896
200	0xbd81a22d	-0.06329761
201	0xbddccc27	-0.107811265
202	0xbe170b12	-0.14750317
203	0x3e050901	0.12991716
204	0x3e336772	0.1751993
205	0x3e684116	0.22681078
206	0x3e83b78e	0.2572598
207	0xbdd1cc05	-0.10243992
208	0xbe3a50f1	-0.18194939
209	0xbd192399	-0.037387464
210	0xbe0b1793	-0.13583212
211	0x3db6c2d7	0.089238815
212	0xbda50e4d	-0.08059368
213	0xbe4b0dae	-0.19829437
214	0x3c41d05d	0.011829463
215	0x3e64363e	0.22286317
216	0x3e47e5af	0.19521211
217	0x3d110452	0.03540451
218	0x3e7c8d3e	0.24663255
219	0x3e991eb9	0.29906252
220	0xbe5f2938	-0.21793067
221	0xbe3094ad	-0.17244215
222	0xbe078af9	-0.13236608
223	0x3e460aec	0.19340104
224	0xbe0aa9b4	-0.13541299
225	0x3dd7b483	0.10532477
226	0x3e03c3a2	0.12867597
227	0xbe37649f	-0.17909478
228	0x3e813c1c	0.25241172
229	0xbe7f1702	-0.2491112
230	0x3e910b47	0.28328916
231	0x3d5e840e	0.054325156
232	0x3e776aac	0.24161786
233	0xbe41cd6d	-0.1892602
234	0x3da3c7d4	0.079970986
235	0x3e8225cf	0.2541947
236	0xbe221e32	-0.15831831
237	0xbc319f98	-0.010841273
238	0x3e94b79d	0.29046336
239	0x3ea6c4d5	0.32572046
240	0x3dff1193	0.12454524
241	0x3d2e1177	0.042497125
242	0x3de9f28d	0.11423216
243	0x3e1921c8	0.14954293
244	0x3e8ca77f	0.2747154
245	0x3db3cd16	0.087793514
246	0xbe2bbe27	-0.16771756
247	0x3e67610f	0.22595619
248	0xbda88915	-0.08229271
249	0x3e26f0dd	0.1630282
250	0x3b4d41ef	0.0031319817
251	0x3e215cbe	0.15758035
252	0x3e8d1f65	0.27563015
253	0xbe7259b8	-0.23667037
254	0xbd9328d9	-0.071855254
255	0xbe4fbe79	-0.20287503

linear2.weight f4 [256, 256]
0	0x3e16f857	0.14743172
1	0xbbe689d5	-0.007035474
2	0x3d0d641d	0.034519304
3	0x3d3b2bbf	0.045696016
4	0x3dfa4003	0.122192405
5	0x3ddb0ec3	0.10696175
6	0xbd262d19	-0.040570352
7	0xbce5a7df	-0.028034149
8	0x3d474c29	0.048656616
9	0xbdd5b084	-0.10434058
10	0xbbeff06e	-0.0073223626
11	0xbe8cafc9	-0.27477863
12	0xbc89b338	-0.016809091
13	0xbda418fa	-0.080125764
14	0xbd06838b	-0.032840293
15	0x3d582c1b	0.052776437
16	0x3c904648	0.017611638
17	0x3d6568d8	0.05600819
18	0xbb41da4b	-0.0029579576
19	0x3de63557	0.112406425
20	0x3cbfb339	0.02340089
21	0xbe88468b	-0.2661632
22	0x3d7d35aa	0.061818756
23	0x3cd0a71f	0.025470315
24	0x3d9d2586	0.07673173
25	0xbd572c1e	-0.052532308
26	0x3d84bd98	0.06481475
27	0x3d788ace	0.06067925
28	0xbd5fcb83	-0.054637443
29	0x3bff28e2	0.007786856
30	0xbd9815ac	-0.074260086
31	0x3dd11e27	0.10210829
32	0x3d4bce50	0.0497573
33	0x3e13f1d2	0.14447716
34	0x3d979619	0.07401676
35	0x3d2180d1	0.03942949
36	0xbdcbc63d	-0.0994992
37	0x3e40a88c	0.18814296
38	0x3e1b13fb	0.1514434
39	0x3da8295e	0.08211015
40	0xbdc5efd6	-0.09664886
41	0x3da10183	0.078616165
42	0xbe07d08b	-0.13263147
43	0x3ce2f726	0.02770574
44	0x3a4cd486	0.0007813651
45	0x3e2ce1a4	0.1688295
46	0xba648e27	-0.0008718692
47	0xbd62016d	-0.05517714
48	0xbd189846	-0.037254594
49	0x3c0a37f9	0.0084361965
50	0x3d13d0c1	0.036087755
51	0x3c2ed98f	0.010671987
52	0xbdbacc3a	-0.091209844
53	0xbdb5d601	-0.08878709
54	0x3e122407	0.14271556
55	0xbe13e2f6	-0.14442047
56	0xbb8a8e57	-0.004228394
57	0x3d438902	0.047738083
58	0xbdcdb471	-0.10044182
59	0x3da1dca0	0.07903409
60	0xbce13230	-0.027489752
61	0xbe40308a	-0.18768516
62	0x3d5ff213	0.05467422
63	0x3d4dd0f9	0.05024812
64	0xbd5335c4	-0.051564947
65	0x3dd1368b	0.10215481
66	0xbc596d1b	-0.013270642
67	0xbe32a7f6	-0.17446885
68	0xbcab3bb6	-0.020902496
69	0x3ceb4f08	0.028724208
70	0xbbdf48df	-0.006814107
71	0x3e14977e	0.14510915
72	0xbddad008	-0.1068421
73	0x3d3cc6b0	0.04608792
74	0x3e0069b4	0.12540323
75	0xbd5aa795	-0.053382475
76	0xbcc027d5	-0.023456493
77	0x3e0ce96a	0.13760915
78	0xbd6f9d9c	-0.058499917
79	0xbd87554b	-0.06608065
80	0xbd63cbac	-0.05561416
81	0xbc73f811	-0.014890687
82	0xbdf89c02	-0.12139131
83	0xbc0187db	-0.007905926
84	0xbc25fbe7	-0.010130859
85	0x3bf2b7e1	0.007407174
86	0xbde27199	-0.11056823
87	0x3e0f0aff	0.13969038
88	0x3d7b48a8	0.061348587
89	0x3dab874b	0.083754145
90	0x3cb69593	0.02228812
91	0xbd1a7b4b	-0.037715238
92	0xbdcb3e2d	-0.099239685
93	0x3dfad98e	0.122485265
94	0x3dc44a74	0.09584513
95	0xbddb1ecc	-0.106992334
96	0xbe16803d	-0.14697357
97	0x3d78eefa	0.06077478
98	0x3dbd6c45	0.092491664
99	0xbd41ad0e	-0.04728418
100	0xbcb82c6e	-0.022482123
101	0x3d1dc65e	0.038519256
102	0x3dbe8739	0.093031354
103	0xbe6d41f6	-0.23169693
104	0x3d35b29d	0.044359792
105	0x3e174771	0.14773346
106	0x3dd27c2c	0.1027759
107	0x3cdd48d7	0.027012272
108	0xbcd61f06	-0.02613784
109	0xbd010910	-0.031502783
110	0xbb4ede16	-0.003156548
111	0xbd8170c8	-0.063203394
112	0xbdf98198	-0.12182921
113	0x3c8c14e6	0.017099809
114	0xbda2a4c7	-0.07941585
115	0x3c893d8b	0.016752979
116	0x3da58427	0.08081847
117	0xbc93ef7a	-0.018058527
118	0x3e568df4	0.20952588
119	0xbc1bdbe1	-0.009512872
120	0xbdab9a4d	-0.0837904
121	0xbd0c0dab	-0.034192722
122	0x3cd4dd2c	0.02598437
123	0x3cc57d65	0.024107644
124	0xbc47f114	-0.012203474
125	0xbba9b815	-0.005179415
126	0xbcab6292	-0.020921025
127	0xbc901ae2	-0.017590944
128	0xbd98f3ee	-0.07468401
129	0x3dd5d2aa	0.104405716
130	0x3d8a8e18	0.067653835
131	0x3d0f4130	0.034974277
132	0x3e18eec2	0.14934829
133	0xbda26a4f	-0.07930433
134	0x3d9663d9	0.07343263
135	0x3cc5bf52	0.02413908
136	0xbdb870b7	-0.09005874
137	0x3d4a55c6	0.049398206
138	0x3c4ab176	0.012371412
139	0xbccb3ccc	-0.024809264
140	0x3e0884c6	0.13331899
141	0xbdc8bedd	-0.09802029
142	0xbdb75021	-0.0895083
143	0x3de17102	0.11007883
144	0x3d99f443	0.07517292
145	0x3d8f1937	0.06987231
146	0xbdff072c	-0.1245254
147	0xbcebe5ec	-0.028796159
148	0xbccace05	-0.02475644
149	0x3bdf0bac	0.0068068113
150	0x3c104a1b	0.008806731
151	0x3d315b83	0.043300163
152	0x3dbef974	0.09324923
153	0x3cfc9f16	0.030837577
154	0x3d52a972	0.051431127
155	0xbe819e60	-0.25316143
156	0xbd02ac2a	-0.03190247
157	0x3de8cb7e	0.11366938
158	0x3d8a399b	0.067492686
159	0x3dc31d4e	0.09527074
160	0xbe1dc793	-0.15408163
161	0x3cd818e4	0.026379056
162	0xbd3fda6b	-0.04683916
163	0xbd7926c8	-0.060828
164	0x3ac1ad03	0.0014776293
165	0x3dedb50f	0.116068
166	0x3dc5800c	0.09643564
167	0xbd83537b	-0.06412407
168	0xbc383cbd	-0.01124495
169	0xbdd66ac6	-0.10469584
170	0xbd358f19	-0.04432592
171	0xbd58f1b5	-0.052964885
172	0xbd7cb56c	-0.061696455
173	0xbe3e66db	-0.18593924
174	0x3e414929	0.18875565
175	0xbd5de7fe	-0.054176323
176	0xbd87e689	-0.06635768
177	0xbdc075f1	-0.093974955
178	0xbc6843b5	-0.014176299
179	0xbc733428	-0.014843978
180	0xbe087cda	-0.13328877
181	0xbe4cd30d	-0.20002384
182	0x3b4dc83c	0.0031399867
183	0xbd16c681	-0.0368104
184	0x3e777587	0.24165927
185	0x3db5b157	0.088717155
186	0xbd80c556	-0.06287639
187	0x3de93df9	0.113887735
188	0xbdf408ac	-0.119157165
189	0xbd8b38b1	-0.067979224
190	0xbc620619	-0.013795399
191	0xbdcad584	-0.09904006
192	0x3e9336cf	0.28752753
193	0x3d3d21a3	0.046174657
194	0xbdb031db	-0.08603259
195	0x3d403616	0.04692658
196	0x3dfec4b6	0.124398634
197	0xbc22dd56	-0.009940466
198	0x3cff010e	0.031128433
199	0x3e016275	0.12635215
200	0x3dc37c88	0.09545237
201	0xbd9bc917	-0.07606714
202	0xbd27baf0	-0.040949762
203	0xbd1235ef	-0.035695966
204	0xbcee0199	-0.029053496
205	0xbcdd52e1	-0.027017059
206	0xbc905521	-0.017618718
207	0xbdfc9bb9	-0.12334389
208	0xbd648503	-0.055790912
209	0x3ba6caef	0.0050901095
210	0x3de2a120	0.110658884
211	0x3c99b672	0.018763755
212	0xbe120533	-0.14259796
213	0x3da7df2c	0.081968635
214	0x3e16b176	0.14716133
215	0x3d5b23f9	0.053501103
216	0x3c8e30c5	0.01735724
217	0xbe91c8da	-0.2847355
218	0x3d2cffe8	0.04223624
219	0xbe0dfd2a	-0.13866106
220	0x3b3e7e68	0.0029067043
221	0x3dc2a3a3	0.095038675
222	0xbdb9b75d	-0.09068177
223	0x3d1a2f43	0.03764273
224	0xbd8da04e	-0.06915341
225	0xbc0219db	-0.007940735
226	0x3d14727c	0.036241993
227	0xbd97185e	-0.073776945
228	0xbb911694	-0.0044277404
229	0xbc1d127c	-0.009586927
230	0x3d3615fa	0.044454552
231	0x3c2bdd49	0.01048977
232	0x3d2dc086	0.042419933
233	0x3d550b46	0.052012704
234	0x3dd1c99d	0.10243533
235	0xbe412c39	-0.18864526
236	0x3e30755d	0.1723227
237	0x3ccf2574	0.025286414
238	0xbde3ee5f	-0.1112945
239	0xbe34d43b	-0.17659084
240	0x3ce7bd83	0.028288608
241	0x3d98f26b	0.074681126
242	0xbb22efbe	-0.0024862136
243	0x3dae3cf8	0.085077226
244	0x3df61a7a	0.12016769
245	0xbde7b76d	-0.113142826
246	0x3cf10ad0	0.029424101
247	0xbcb94380	-0.022615194
248	0x3d83e564	0.06440237
249	0xbe587c88	-0.21141255
250	0xbe0616d1	-0.13094641
251	0xbd300194	-0.042970255
252	0x3d9142ca	0.07092817
253	0x3e0e31e6	0.13886222
254	0xbd99b081	-0.075043686
255	0xbd72bfa3	-0.05926479

linear2.bias f4 [256]
0	0x3c5d9880	0.013525128
1	0x3bab6cec	0.0052314904
2	0xbd2642d2	-0.04059107
3	0x3d158414	0.036502913
4	0xbd3da7e4	-0.04630269
5	0x3d4391fb	0.04774664
6	0x3d44178b	0.047874015
7	0x3cdcc736	0.02695046
8	0x3cf4deec	0.029891454
9	0xbd520bb9	-0.05128071
10	0xbd240c85	-0.040051002
11	0xbc7ea70d	-0.015542758
12	0xbcf97682	-0.030452017
13	0x3d0d12ec	0.034441873
14	0xbcb8ddb1	-0.022566648
15	0x3c25a6cf	0.010110571
16	0x3cac3c5f	0.02102488
17	0x3d4946b3	0.04913969
18	0xbd7a737d	-0.061145294
19	0x3d20de88	0.039274722
20	0xba4875a4	-0.00076469244
21	0xbd04a4f7	-0.032383885
22	0x3c7fac1b	0.015604998
23	0xbcfcb423	-0.030847615
24	0x3b4e68a4	0.0031495476
25	0xbc75d159	-0.015003526
26	0x3cb9e03d	0.022689933
27	0x3a843878	0.001008763
28	0x3c65bb45	0.014021699
29	0x3cc94634	0.024569608
30	0x3b96f4f4	0.0046068374
31	0x3d37287b	0.04471634
32	0xba8d7e2f	-0.0010795052
33	0x3c1f71ab	0.00973169
34	0xba8541c2	-0.0010166692
35	0x3d4855d5	0.04890998
36	0xbd86d365	-0.06583289
37	0xbc77d3d5	-0.015126188
38	0x3baebc7f	0.005332529
39	0xbca47edd	-0.020080024
40	0xbcaf602e	-0.021408167
41	0x3d4e6c30	0.050396144
42	0x3d95b338	0.07309574
43	0xbce11437	-0.02747546
44	0xbc642ed0	-0.013927177
45	0xbcd4ee57	-0.025992556
46	0x3d260123	0.040528428
47	0x3ce863da	0.028367925
48	0xbd7bfac2	-0.06151844
49	0x3d050446	0.03247478
50	0x3d4d7b77	0.050166573
51	0xbbef85ee	-0.007309667
52	0xbce918ec	-0.028454266
53	0x3c277ae4	0.0102221705
54	0xbd9a07f5	-0.07521049
55	0x3d1f52c0	0.038897276
56	0xbd442905	-0.04789068
57	0xbcc31510	-0.023813754
58	0xbd309484	-0.043110386
59	0x3d03ca8f	0.032175597
60	0xbd33071b	-0.04370795
61	0x3c102602	0.008798124
62	0xbd9e0c90	-0.0771724
63	0x3c9922a8	0.018693283
64	0x3bde83f9	0.0067906347
65	0x3d457122	0.048203595
66	0xbb4770a1	-0.0030432122
67	0xbd3a7abd	-0.04552721
68	0x3b18e9ce	0.0023332718
69	0x3cd022bd	0.02540719
70	0xbd87d3ff	-0.06632232
71	0x3cdb56f1	0.026774855
72	0xbb819977	-0.003955062
73	0xbd491ab7	-0.049097743
74	0xbc69902b	-0.014255564
75	0x3cc3b28f	0.023888854
76	0x3bf9bd8d	0.007621473
77	0xbce49cb8	-0.02790676
78	0x3d1dcbc5	0.038524408
79	0xbd29eeeb	-0.041487616
80	0xbd2731ad	-0.04081886
81	0x3cb522b1	0.022111269
82	0x3c10ec17	0.008845351
83	0x3c0eba2c	0.008711379
84	0xbd23ec42	-0.040020235
85	0xbd17346e	-0.036915235
86	0xbbfb3150	-0.0076657906
87	0x3cfb6974	0.030689932
88	0xbc9ef7aa	-0.019405205
89	0xba82bf14	-0.0009975159
90	0x3cc27e68	0.023741916
91	0xbd0b0a60	-0.03394544
92	0xbd0d0e75	-0.034437615
93	0xbc0e8330	-0.00869827
94	0x3d182c19	0.03715143
95	0xbc108b97	-0.008822343
96	0xbd3823e6	-0.04495611
97	0x3b057623	0.0020364604
98	0xbd917868	-0.07103044
99	0x3881251c	6.1581115e-05
100	0xbd8cdb64	-0.06877783
101	0x39424b97	0.00018529441
102	0xbcb4b64a	-0.022059578
103	0xbc86e8be	-0.016468402
104	0xbd873d67	-0.066035084
105	0xbd811abc	-0.06303927
106	0xbc3f77b5	-0.011686255
107	0x3cd022ea	0.025407273
108	0xbc6a72d7	-0.0143096065
109	0xbce7d6a8	-0.028300598
110	0xbd146a44	-0.036234155
111	0xbd05f318	-0.032702535
112	0xbd2594e3	-0.040425193
113	0x3d1f5951	0.03890354
114	0x3d12dc20	0.03585446
115	0xbd3db8f0	-0.04631895
116	0xbcf31626	-0.029673647
117	0x3c8cfc03	0.017210012
118	0x3c4acbd4	0.012377698
119	0xbd7f7001	-0.062362675
120	0x3ca545f9	0.020174967
121	0x3d4e315d	0.050340045
122	0xbd81f859	-0.06346197
123	0xbd2ba180	-0.041902065
124	0x3d7391d4	0.059465244
125	0xbc7bafb7	-0.015361718
126	0xbce02268	-0.027360156
127	0x3d630163	0.055421244
128	0x3d3cf298	0.046129793
129	0xbcefe945	-0.029286036
130	0x3d7c4653	0.061590504
131	0x3cec02a4	0.028809853
132	0xbd7bf75b	-0.061515193
133	0xbc0a016e	-0.008423192
134	0xbd3989aa	-0.045297302
135	0xbc647856	-0.013944706
136	0xbd32c942	-0.043648966
137	0x3d66f857	0.05638918
138	0xbd287157	-0.041123714
139	0xbd216f21	-0.03941262
140	0xbd8491e3	-0.06473138
141	0xbcb80f18	-0.022468135
142	0x3b7ad8a1	0.0038276094
143	0xbd7038c3	-0.058647882
144	0xbd70371b	-0.058646303
145	0xbc7201f2	-0.014770972
146	0x3d085931	0.033288185
147	0xbd1ba27e	-0.03799676
148	0x3cb9d2e3	0.022683566
149	0x3d0c0550	0.034184754
150	0xbd02374f	-0.031791028
151	0x3cdbb21c	0.026818328
152	0x3d06ae67	0.032881167
153	0xbd87fb0b	-0.066396795
154	0xbc4b715c	-0.012417164
155	0x3cba2220	0.02272135
156	0x3cb7103c	0.022346608
157	0xbba29c24	-0.004962461
158	0x3b862cdb	0.0040947027
159	0x3ca1e173	0.019760823
160	0x3c17b45f	0.009259312
161	0xbd737479	-0.05943725
162	0xbc858dac	-0.016302906
163	0xbd67010f	-0.056397494
164	0x3b832cde	0.0040031513
165	0x3c48f733	0.012265968
166	0x3d63cf14	0.055617407
167	0x3caf9390	0.021432668
168	0xbbe803f0	-0.0070805475
169	0xbbe7be06	-0.007072213
170	0xbc92d97c	-0.01792597
171	0x3b4c21c9	0.0031148067
172	0xbcbebae5	-0.023282478
173	0xbc9e0fa7	-0.019294573
174	0xbb840f92	-0.0040301764
175	0xb964f7ba	-0.0002183606
176	0xbaf379a0	-0.0018575676
177	0x3c28bba4	0.010298643
178	0xbd15a58a	-0.036534823
179	0xbd63cddb	-0.05561624
180	0x3d26465f	0.040594455
181	0xbd7ad441	-0.061237577
182	0x3d2694b3	0.040669154
183	0xbce8c4f0	-0.02841422
184	0xbd9cab3f	-0.0764985
185	0x3ccaedde	0.024771627
186	0xbd2d6fe6	-0.042343043
187	0x3cab5668	0.020915225
188	0x3d39f512	0.045399733
189	0xbd55da79	-0.052210305
190	0xbd100545	-0.035161275
191	0x3d3f5a64	0.046717063
192	0xbd882d9c	-0.06649324
193	0x3d9072c6	0.07053141
194	0x3c092c64	0.0083724
195	0xbd3d690c	-0.04624276
196	0xbd33f8a7	-0.043938305
197	0x3d8999c0	0.067187786
198	0xbbe3473f	-0.0069359834
199	0xbca7d4d1	-0.020487221
200	0x3c4b7d7f	0.012420057
201	0x3d2b589b	0.041832548
202	0xbc8e1f21	-0.017348828
203	0xbd757a6e	-0.05993121
204	0xbcb49744	-0.022044785
205	0xbd6ea4c1	-0.05826259
206	0xbbbd79eb	-0.005782356
207	0xbccfb061	-0.025352659
208	0xbd3a28b6	-0.04544898
209	0xbd8ae13c	-0.06781241
210	0x3d0596c6	0.032614492
211	0x3c7c36e8	0.01539395
212	0xbc0c3cf4	-0.008559454
213	0x3d1f0e36	0.038831912
214	0xbd618844	-0.055061594
215	0xbc0f5438	-0.008748107
216	0xba795600	-0.0009511411
217	0xbcf06911	-0.029346975
218	0xbd2a3c4c	-0.04156141
219	0x3d3656f9	0.044516537
220	0x3c7cbde5	0.015426134
221	0xbd19dab8	-0.037562102
222	0x3cf554dd	0.029947693
223	0xbcc0acae	-0.02351984
224	0xbd796214	-0.06088455
225	0x3c89bb9f	0.016813098
226	0x3d920526	0.07129888
227	0x3d73e74e	0.05954676
228	0xbcec0f41	-0.028815867
229	0x3d801692	0.06254305
230	0x3d17db1d	0.037074197
231	0x3c638c98	0.013888501
232	0xbd6036b1	-0.054739658
233	0x3cb6ebc0	0.022329211
234	0xbcf17524	-0.029474802
235	0x3bfdc726	0.0077446876
236	0x3b04ab7a	0.002024381
237	0xbc245764	-0.010030601
238	0x3ba291a9	0.0049612117
239	0x3c5bfa19	0.013426327
240	0xbc9ec209	-0.019379633
241	0xbd60ecf6	-0.054913484
242	0x3c6eecb9	0.014582806
243	0xbd2dc742	-0.042426355
244	0xbd4f2aa6	-0.050577782
245	0x3c6fcf82	0.014636876
246	0x3d28f1a1	0.04124606
247	0xbd8178f4	-0.06321898
248	0xbce730f3	-0.028221583
249	0xbbfee39b	-0.0077785975
250	0xbcf4696b	-0.029835423
251	0xbd3cbcfa	-0.04607866
252	0xbd600a2a	-0.054697193
253	0x3bffb8a6	0.007803994
254	0x3c8d2435	0.017229179
255	0x3d0651d5	0.032792885

linear3.weight f4 [1, 256]
0	0xbe215414	-0.1575473
1	0xbe2571d9	-0.1615671
2	0xbe2400f2	-0.16015986
3	0xbe1fc4f5	-0.15602477
4	0xbe1ffec5	-0.1562453
5	0x3e1d6a08	0.15372479
6	0x3dfd5e4f	0.123715036
7	0xbe2c37c3	-0.16818146
8	0x3e20561c	0.15657848
9	0x3e11a64c	0.14223593
10	0x3e074e39	0.13213433
11	0x3e052428	0.13002074
12	0x3e127b91	0.1430495
13	0xbe20de84	-0.15709883
14	0x3e0d225d	0.1378264
15	0x3e0bc01f	0.13647507
16	0xbe22adc2	-0.15886596
17	0x3df9bf25	0.12194661
18	0x3e09c9f0	0.1345594
19	0x3e130609	0.14357771
20	0xbe198973	-0.14993839
21	0x3e183f26	0.14867839
22	0x3e0c9a6a	0.1373078
23	0x3e06c695	0.1316169
24	0x3e04a671	0.12954117
25	0xbe2b20dd	-0.16711755
26	0x3df07207	0.11740499
27	0x3e08cb9f	0.13358925
28	0xbe247580	-0.16060448
29	0x3e05b90f	0.13058876
30	0xbe22cb98	-0.15897977
31	0x3df26fd0	0.11837733
32	0xbe27665a	-0.16347638
33	0xbe27f391	-0.16401507
34	0xbe12e1f9	-0.14344014
35	0xbe22f374	-0.15913182
36	0x3df11ef2	0.117734805
37	0x3e157043	0.14593606
38	0x3e14dee7	0.14538155
39	0x3e0d1dd9	0.13780917
40	0x3deb71b6	0.11496298
41	0xbe2574ad	-0.1615779
42	0xbe2229c7	-0.1583625
43	0xbe2b62ed	-0.16736956
44	0x3e177855	0.14791997
45	0x3de7131b	0.11282941
46	0x3e066524	0.1312452
47	0xbe212a77	-0.15738855
48	0x3e10a5ec	0.14125794
49	0x3deec7a6	0.11659174
50	0x3e023018	0.12713659
51	0x3e13d629	0.14437164
52	0x3de2965d	0.11063836
53	0xbe1fd39d	-0.15608068
54	0x3e13046f	0.1435716
55	0xbe2aa684	-0.16665083
56	0x3e02adc1	0.12761594
57	0xbe229deb	-0.15880553
58	0xbe2762c9	-0.16346277
59	0x3e142509	0.14467253
60	0xbe1a47a6	-0.15066394
61	0xbe1f553c	-0.15559858
62	0x3e196d21	0.14983036
63	0xbe2347b3	-0.1594532
64	0xbe237bfb	-0.15965264
65	0xbe1d9a24	-0.15390831
66	0xbe1955fd	-0.14974208
67	0x3dee2b21	0.1162932
68	0x3e10fddd	0.14159341
69	0x3e02bd0a	0.12767425
70	0x3ded9c55	0.116020836
71	0xbe22e2a8	-0.15906775
72	0xbe25bdfa	-0.16185752
73	0x3e05e9f6	0.1307753
74	0x3e06490a	0.131138
75	0xbe16e289	-0.14734854
76	0x3e07c453	0.13258485
77	0xbe2c092d	-0.16800375
78	0x3e06f87d	0.13180728
79	0x3e0bdc88	0.13658345
80	0x3e08064e	0.13283655
81	0x3e13ca17	0.1443256
82	0xbe215320	-0.15754366
83	0xbe1d4266	-0.1535736
84	0x3e129bce	0.14317247
85	0x3df8b36b	0.12143596
86	0xbe27dec4	-0.16393572
87	0x3e0cbf51	0.13744856
88	0x3e114e26	0.14189968
89	0x3e050a33	0.12992172
90	0x3e0b726b	0.13617866
91	0xbe1e912a	-0.15485063
92	0x3e13f611	0.14449336
93	0x3e140f44	0.14458948
94	0xbe1bcc9c	-0.15214771
95	0x3e116f45	0.14202602
96	0x3e0feeb9	0.14055909
97	0x3dfff4a8	0.12497836
98	0x3e16ea0c	0.1473772
99	0xbe1d83d5	-0.15382321
100	0x3de67391	0.11252511
101	0x3dec7456	0.11545627
102	0x3de73ddc	0.112910956
103	0xbe2e1bf4	-0.17002851
104	0x3ddfa102	0.10919382
105	0x3e07a619	0.13246955
106	0x3dbaf730	0.091291785
107	0xbe24cc5e	-0.16093585
108	0x3df3efa6	0.11910944
109	0x3e07acba	0.13249484
110	0xbe2826a6	-0.16420993
111	0x3dfea977	0.124346666
112	0x3e07aee3	0.13250308
113	0x3e15390a	0.1457254
114	0x3e0ab4b8	0.13545501
115	0x3dfc30e4	0.12314013
116	0x3e0cb662	0.13741449
117	0xbe24523c	-0.16046995
118	0xbe1ec656	-0.15505347
119	0x3e00f6be	0.12594125
120	0x3e11dcff	0.1424446
121	0xbe314179	-0.17310132
122	0x3e16f314	0.14741164
123	0xbe1cddb7	-0.15318953
124	0x3e0c9703	0.13729481
125	0x3e059f69	0.13049091
126	0x3de101aa	0.109866455
127	0xbe0f1194	-0.1397155
128	0xbe24641e	-0.16053817
129	0xbe19ae19	-0.15007819
130	0xbe30200e	-0.17199728
131	0xbe2a687f	-0.16641425
132	0x3e0f1ec2	0.13976577
133	0x3e0baf05	0.13640983
134	0x3e1ac4eb	0.1511418
135	0xbe276758	-0.16348016
136	0x3e1197b5	0.14218028
137	0xbe22627f	-0.15857886
138	0xbe1aac48	-0.15104783
139	0xbe16a1b6	-0.14710125
140	0x3df4f5c0	0.119609356
141	0xbe1a5e7c	-0.15075105
142	0x3e067133	0.1312912
143	0x3e099c84	0.13438612
144	0x3e132584	0.1436978
145	0xbe253b23	-0.1613584
146	0xbe201e29	-0.15636505
147	0x3df887dd	0.12135289
148	0x3dfa6cf3	0.12227812
149	0xbe18be8f	-0.14916442
150	0xbe232715	-0.15932877
151	0x3dd59768	0.10429269
152	0x3e0bbb65	0.13645704
153	0x3e1892af	0.14899705
154	0xbe28c19c	-0.16480106
155	0xbe219f77	-0.15783487
156	0x3e028988	0.12747777
157	0x3e17f9b3	0.14841346
158	0x3e0b1b19	0.13584556
159	0x3e1fdd49	0.15611757
160	0xbe1701f6	-0.14746842
161	0x3e098b50	0.1343205
162	0x3e0edc52	0.13951233
163	0x3e084442	0.13307288
164	0x3e001d01	0.12511064
165	0x3e0f3ade	0.139873
166	0xbe1ea2b9	-0.15491761
167	0xbe2143ff	-0.15748595
168	0x3e1208c5	0.14261158
169	0x3e08e775	0.13369544
170	0x3e0db3f4	0.13838178
171	0x3e22bd62	0.15892556
172	0x3de1021f	0.10986733
173	0xbe1cabad	-0.15299864
174	0xbe199b90	-0.15000749
175	0xbe1ea861	-0.15493919
176	0xbe1fc1ff	-0.15601347
177	0x3e1697f8	0.14706409
178	0x3e0b260d	0.13588734
179	0x3e14ca7c	0.14530367
180	0xbe24529f	-0.16047142
181	0x3e04d9c2	0.12973693
182	0x3e04375a	0.1291174
183	0x3e1abdaf	0.15111421
184	0x3e042a37	0.12906729
185	0x3e1b03c8	0.15138161
186	0x3df32cc8	0.11873776
187	0x3e0d2f76	0.13787636
188	0x3def655b	0.11689254
189	0xbe223d38	-0.15843666
190	0xbe23e726	-0.16006145
191	0x3dd7bd43	0.10534146
192	0x3e07153e	0.13191697
193	0xbe2337bc	-0.1593923
194	0xbe1a4001	-0.15063478
195	0x3e1d959f	0.15389107
196	0x3df46945	0.11934141
197	0xbe1c18ce	-0.15243837
198	0x3e088ad5	0.1333421
199	0x3df6376a	0.12022288
200	0x3e173c5e	0.14769122
201	0x3e0ce626	0.1375967
202	0x3df35fce	0.11883508
203	0x3e0d28c4	0.13785082
204	0xbe27657a	-0.16347304
205	0x3e0b881d	0.13626142
206	0x3e0722e1	0.13196899
207	0x3e103fc1	0.1408682
208	0x3e1faee5	0.1559406
209	0x3e025444	0.12727457
210	0x3e06643a	0.13124171
211	0x3dedc99f	0.11610722
212	0x3e039660	0.12850332
213	0xbe259135	-0.16168673
214	0x3df530ab	0.11972173
215	0x3e1049c9	0.14090647
216	0x3e09fa77	0.13474451
217	0xbe187ebc	-0.14892095
218	0x3e0b739e	0.13618323
219	0xbe1b74f4	-0.15181333
220	0xbe24d113	-0.1609538
221	0x3de7b1a4	0.11313179
222	0x3e09732e	0.13422844
223	0x3e0ef924	0.13962227
224	0x3e096d56	0.13420615
225	0xbe1e3ed4	-0.15453655
226	0xbe27743c	-0.16352934
227	0x3dec7e60	0.115475416
228	0x3e108624	0.1411367
229	0xbe1a1534	-0.15047151
230	0x3e136ff6	0.14398178
231	0xbe18fd53	-0.14940386
232	0x3e0f7833	0.14010696
233	0xbe1eeb29	-0.15519394
234	0xbe262e11	-0.1622851
235	0x3e046a88	0.12931263
236	0xbe28c6b7	-0.16482054
237	0x3e085eaa	0.13317361
238	0x3e14f6ac	0.14547223
239	0x3e174e7b	0.14776032
240	0x3e0d6130	0.13806605
241	0x3e0015ba	0.12508288
242	0xbe224093	-0.15844946
243	0x3e019a64	0.12656552
244	0x3ddd6308	0.10809904
245	0x3e01a05f	0.12658833
246	0xbe1bb2e2	-0.15204957
247	0x3e0568a2	0.13028196
248	0xbe2d39b0	-0.16916537
249	0x3e05227a	0.13001433
250	0x3e118a46	0.14212903
251	0x3e01d253	0.12677889
252	0x3e092314	0.13392287
253	0xbe24a170	-0.16077209
254	0x3e037d3c	0.12840742
255	0x3e063f1b	0.1311001
