testing/scripts/outputs/DDPG_Env/20221215-160906/models/960critic_checkpoint.pt (torch, 282455 bytes, 5 tensors)

linear1.weight f4 [256, 15]
0	0x3f4ef782	0.80846417
1	0x3ec39eb7	0.38207027
2	0xbf43d042	-0.7648965
3	0xbf270fa6	-0.6525825
4	0x3cde8de3	0.027167266
5	0x3e424c35	0.18974383
6	0xbc4210bb	-0.011844809
7	0xbeb85f05	-0.36009994
8	0xbeca5a93	-0.39522228
9	0x3f3904de	0.7227305
10	0x3d1c2a2e	0.038126163
11	0x3f04e5d5	0.51913196
12	0xbd68c5d9	-0.056829307
13	0x3d373ef8	0.044737786
14	0x3d2b0fc6	0.04176309
15	0xbec2ade2	-0.38023287
16	0x3df5def0	0.120054126
17	0x3ee24d78	0.4419973
18	0xbf45ac9e	-0.7721652
19	0xbfb7f696	-1.4372127
20	0xbfa37038	-1.2768621
21	0xbfb2bb58	-1.3963423
22	0xbf85266f	-1.0402354
23	0xbf638337	-0.8887209
24	0xbf4166fd	-0.7554777
25	0x3e0a7faa	0.13525262
26	0x3d4e31bf	0.05034041
27	0x3da2d8e3	0.07951524
28	0x3d5a5876	0.05330702
29	0x3dbe7193	0.09299006
30	0x3ee6d953	0.4508768
31	0x3e9be329	0.30446747
32	0x3e978025	0.29589954
33	0x3ea1ff2b	0.3163999
34	0x3f099029	0.53735596
35	0x3ebb2113	0.3654867
36	0x3f0700c7	0.5273556
37	0x3f4f6ada	0.8102242
38	0x3f830863	1.0236934
39	0x3e002d8a	0.12517372
40	0x3e5246fa	0.20534888
41	0x3e7c5339	0.24641122
42	0x3eb1c2cd	0.34718934
43	0xbeba4fae	-0.36388916
44	0xbe928b5c	-0.28621948
45	0xbf470e2b	-0.77755994
46	0xbe296745	-0.165433
47	0x3e6ad127	0.22931348
48	0xbf135a5f	-0.5755977
49	0xbf5399e9	-0.82656723
50	0xbfa60f40	-1.2973404
51	0xbfd06036	-1.6279361
52	0xbf724f24	-0.9465201
53	0xbe6058ec	-0.21908921
54	0xbe291c29	-0.16514648
55	0xbc5c2963	-0.013437602
56	0xbeccccfd	-0.40000144
57	0x3ba2609b	0.004955364
58	0xbe4ec008	-0.20190442
59	0x3e0446d1	0.1291764
60	0x3d907650	0.07053816
61	0xbecb88cd	-0.39752808
62	0xbea574a6	-0.32315558
63	0xbd4317a3	-0.047629964
64	0x3e4230f1	0.18963982
65	0x3f19a782	0.6002122
66	0x3e55dfe4	0.20886189
67	0x3cdcd380	0.02695632
68	0xbcc84010	-0.02444461
69	0x3e8db217	0.27674934
70	0x3de97842	0.113998905
71	0xbecd58d4	-0.40106833
72	0x3e077cac	0.13231152
73	0xbd2e5b71	-0.042567674
74	0xbe8b9040	-0.27258492
75	0xbf18ac83	-0.5963823
76	0xbf0b6fca	-0.5446745
77	0xbce9a798	-0.028522298
78	0xbf2d9c81	-0.6781693
79	0xbf79c4d7	-0.9756598
80	0xbe95c296	-0.2925002
81	0xbee6ead2	-0.4510103
82	0xbf68f04a	-0.9099165
83	0xbef05167	-0.46937105
84	0xbeae656f	-0.34061763
85	0x3f1d809e	0.6152438
86	0xbe2aaa6a	-0.1666657
87	0xbf204ab6	-0.62614
88	0xbd34ca80	-0.04413843
89	0xbe01b5e5	-0.12667044
90	0x3d9837be	0.07432507
91	0x3dc4eaaf	0.09615075
92	0xbe2324b9	-0.15931977
93	0xbdc2f356	-0.09519069
94	0xbf0acd36	-0.5421938
95	0xbf14bc88	-0.58100176
96	0x3f00578b	0.5013358
97	0xbe394f3e	-0.18096635
98	0xbeb05ef0	-0.34447432
99	0x3c844263	0.016144937
100	0xbcbe2c4f	-0.023214487
101	0x3dd85e6c	0.105648845
102	0xbe22e409	-0.15907301
103	0x3da1695d	0.078814246
104	0xba96b039	-0.001149661
105	0x3efabdd1	0.48972943
106	0x3cbbbd9a	0.022917558
107	0xbf92e3ab	-1.1475729
108	0xbf5f4e97	-0.87229294
109	0x3e26dc90	0.16295075
110	0x3f154271	0.58304507
111	0x3f01394f	0.5047807
112	0xbea1f8e3	-0.31635198
113	0xbef7da2b	-0.48408636
114	0x3c999dff	0.018752096
115	0xbc347fc8	-0.011016794
116	0x3e1a7ad8	0.15085924
117	0xbe1fb7c8	-0.1559745
118	0xbd6aa270	-0.05728382
119	0x3c577625	0.013150726
120	0x3ef8f42c	0.48623788
121	0x3f0879de	0.53310955
122	0x3f2bcfdd	0.6711405
123	0x3f034ab2	0.5128585
124	0x3f76302c	0.96167254
125	0x3f571e22	0.84030354
126	0x3f0bbbb7	0.54583305
127	0x3f73884d	0.95129853
128	0x3f56ccb3	0.83906096
129	0x3e77628f	0.24158691
130	0x3d9bbba2	0.076041475
131	0x3e5cf027	0.21575986
132	0x3d48d237	0.0490286
133	0x3cc871ca	0.024468321
134	0xbe2d5303	-0.16926198
135	0xbe0afb43	-0.13572411
136	0xbe878284	-0.26466763
137	0xbfeb6f4b	-1.8393339
138	0xbf5a9f46	-0.8539928
139	0x3eafed58	0.34360766
140	0x3ee2a3a0	0.4426546
141	0x3e8769e1	0.26447967
142	0xbe5ced8a	-0.21574989
143	0xbf038483	-0.5137407
144	0x3e60e6ef	0.21963094
145	0x3deff2db	0.11716243
146	0xbd531976	-0.051537953
147	0x3c8cdbbb	0.01719462
148	0x3ce3098f	0.027714519
149	0x3cb77961	0.022396745
150	0xbfafcc7b	-1.3734277
151	0xbdda7723	-0.10667255
152	0x3e76ac3c	0.2408914
153	0x3e0e06ac	0.13869733
154	0xbe979e1b	-0.29612812
155	0xbf1153b3	-0.5676834
156	0xbf4d4209	-0.80178887
157	0xbf8bd9ec	-1.092588
158	0xbfacd2cd	-1.3501831
159	0xbf9bde5d	-1.2177235
160	0xbe243720	-0.16036654
161	0xbd9c0ab1	-0.07619227
162	0x3dd4a2f3	0.103826426
163	0x3e8875ae	0.26652282
164	0x3ce8e80e	0.028430965
165	0x3eb87eb8	0.3603418
166	0x3f1de704	0.61680627
167	0x3e76cfa7	0.2410265
168	0xbf3a0225	-0.7265952
169	0xbe202908	-0.15640652
170	0x3e95cd7b	0.29258332
171	0xbe27033e	-0.1630983
172	0xbf603627	-0.8758263
173	0xbf3db71c	-0.7410753
174	0xbe4d3e2f	-0.20043252
175	0x3cc33c9c	0.023832612
176	0x3d9a2fc5	0.075286426
177	0x3ce53191	0.027977737
178	0x3c3b3ea5	0.01142851
179	0xbe601011	-0.21881129
180	0x3f1c5de9	0.61080796
181	0x3ef209eb	0.47273192
182	0xbd618113	-0.055054735
183	0xbf1057c1	-0.563839
184	0xbec3ce67	-0.3824341
185	0x3dabebe9	0.08394606
186	0x3f102ffb	0.5632321
187	0xbf6821cd	-0.90676576
188	0xbf12a304	-0.5727999
189	0x3e9c0872	0.30475193
190	0xbda9e811	-0.08296216
191	0x3d8131cc	0.06308326
192	0x3e125d33	0.14293365
193	0xbe046b6c	-0.12931603
194	0xbcbe73a7	-0.023248507
195	0xbf925480	-1.1432037
196	0xbf42bceb	-0.76069516
197	0x3dba0517	0.09083002
198	0x3de65d88	0.112483084
199	0xbe95ee4f	-0.29283378
200	0xbf34658e	-0.7046746
201	0xbf713976	-0.94228303
202	0xbf8d568c	-1.1042037
203	0xc0096150	-2.1465645
204	0xbfc25f90	-1.5185413
205	0xbb87129c	-0.0041220915
206	0xbd48f5dd	-0.0490626
207	0xbdb66f91	-0.08907998
208	0x3e8d4d0e	0.2759785
209	0x3e93a501	0.28836825
210	0xbf01aef5	-0.5065759
211	0x3eed0798	0.46294856
212	0xbdcb3c5c	-0.09923622
213	0xbf290699	-0.6602569
214	0xbf3032fb	-0.6882779
215	0xbfac4774	-1.3459306
216	0xc00a4c82	-2.1609197
217	0xbf9c5d6d	-1.2216011
218	0xbf28278a	-0.6568533
219	0xbfae44a5	-1.3614699
220	0x3cbef571	0.023310395
221	0x3c038281	0.00802672
222	0x3d79a618	0.060949415
223	0xbbafc481	-0.0053640013
224	0xbe0400f2	-0.12890986
225	0xbf1a34c1	-0.60236746
226	0x3e9d2772	0.30694157
227	0x3ecba039	0.39770678
228	0x3d2d4dc9	0.04231051
229	0xbd97ed7e	-0.07418345
230	0xbf26b0aa	-0.6511332
231	0xbf352f3d	-0.70775205
232	0xbf7434f5	-0.95393306
233	0xbf4dc3c6	-0.8037685
234	0xbf144bfc	-0.5792844
235	0xbed1b721	-0.4096003
236	0x3d54846f	0.05188411
237	0xbe2c28d5	-0.16812451
238	0xbe69a062	-0.22815087
239	0xbdfe6bd3	-0.124229096
240	0xbed9c1a1	-0.4253054
241	0xbdad3286	-0.08456902
242	0xbda94023	-0.08264186
243	0xbf6d9614	-0.92807126
244	0xbfdb95f9	-1.7155143
245	0xc0057e02	-2.085816
246	0xbfdeca63	-1.7405514
247	0xbf8b7d1a	-1.0897553
248	0xbe75b224	-0.23993737
249	0xbea9e7f5	-0.33184782
250	0x3e850f39	0.25988176
251	0xbe9879c7	-0.2978041
252	0xbd13becb	-0.036070626
253	0xbde4ef88	-0.111784995
254	0x3dee84a6	0.116463944
255	0xbe6571d0	-0.22406697

linear1.bias f4 [256]
0	0x3e6b0263	0.22950129
1	0x3f297662	0.6619626
2	0xbec17565	-0.37784877
3	0x3f03c18c	0.51467204
4	0x3f535557	0.82552093
5	0x3e60db0b	0.21958558
6	0x3f33cf0a	0.7023779
7	0x3f2253b0	0.63408947
8	0xbec9763f	-0.39348027
9	0x3f152fe9	0.5827623
10	0x3eef5565	0.46744838
11	0x3ebe300d	0.37146035
12	0x3ec1935d	0.37807742
13	0x3d389b8f	0.045070227
14	0x3ee03d47	0.4379675
15	0x3e8995ff	0.2687225
16	0x3d18cff7	0.037307706
17	0x3e124fc2	0.14288238
18	0x3ed6ded9	0.41966894
19	0x3e37bae3	0.17942385
20	0x3f13b6ed	0.57701
21	0xbe7d8193	-0.2475646
22	0x3f08d97e	0.53456867
23	0x3f30f1b3	0.69118804
24	0x3f6450fa	0.8918606
25	0x3e37eb92	0.17960957
26	0xbeb7f7f3	-0.35931358
27	0x3f0bccff	0.54609674
28	0x3e30bec7	0.17260276
29	0x3f0e3688	0.5555196
30	0x3f095c1d	0.5365618
31	0x3eb87dfd	0.3603362
32	0x3fd27b46	1.644387
33	0x3f11a75b	0.5689599
34	0x3f470685	0.77744323
35	0x3ea1a7e4	0.31573403
36	0x3e91bc28	0.28463864
37	0x3eb29ce5	0.34885326
38	0xbc7ad8cf	-0.01531048
39	0x3e23406f	0.15942548
40	0x3cd6c377	0.026216252
41	0x3f301c65	0.68793327
42	0xbe6431ef	-0.22284673
43	0x3ecab1c8	0.3958876
44	0x3ee3b19e	0.4447145
45	0x3f09d8e4	0.53846574
46	0x3e54fce8	0.20799601
47	0x3f12f1df	0.57400316
48	0x3e987430	0.29776144
49	0x3f5286a8	0.8223672
50	0x3f46b15a	0.77614367
51	0x3f049cde	0.5180186
52	0xbdf4434b	-0.119268976
53	0x3d543972	0.051812597
54	0x3d27fb89	0.041011367
55	0x3f01d269	0.50711685
56	0x3eb269bc	0.34846294
57	0x3dca6a33	0.09883537
58	0x3e0341d7	0.12818085
59	0x3e14fc5a	0.1454939
60	0x3e0e014c	0.13867682
61	0xbe9a1393	-0.3009306
62	0x3e13acb4	0.1442135
63	0x3f1ee9f4	0.62075734
64	0x3f25c4ab	0.64753217
65	0x3f0c2704	0.54747033
66	0x3e9d0534	0.30668032
67	0x3f3e8e12	0.7443553
68	0x3e4dcd34	0.2009781
69	0x3f41311e	0.7546557
70	0x3f815c86	1.0106361
71	0xbb1688c8	-0.0022969712
72	0x3f38c9cf	0.72182935
73	0x3d91741d	0.07102225
74	0x3f041704	0.5159762
75	0x3e8a9adc	0.27071273
76	0x3f2e37df	0.68054
77	0x3f1c6f5e	0.6110743
78	0x3e9766e0	0.29570675
79	0x3f322e66	0.6960205
80	0x3dba8399	0.091071315
81	0xbd564a56	-0.052316986
82	0x3f2ac8ed	0.6671284
83	0x3f41e140	0.7573433
84	0x3eccf47c	0.40030277
85	0x3f0849f2	0.5323783
86	0x3ecbf157	0.39832565
87	0x3ea24d6e	0.316997
88	0x3f30737a	0.68926203
89	0x3f5baf4e	0.8581437
90	0x3f0d469f	0.55185884
91	0x3ebf2180	0.37330246
92	0x3ed95a9c	0.42451942
93	0x3e8167a5	0.25274387
94	0x3f4899e2	0.78359807
95	0x3ef98077	0.48730823
96	0x3ef86cd4	0.4852053
97	0x3e4540af	0.19262956
98	0x3f0f1ae7	0.55900425
99	0xbe60f893	-0.21969824
100	0x3f1da978	0.61586714
101	0xbef1e501	-0.4724503
102	0xbe8f89ea	-0.28034908
103	0xbe9409b6	-0.2891366
104	0x3f2e4ee2	0.68089116
105	0x3f82f1be	1.0230024
106	0x3ee51709	0.44744137
107	0x3f6b3889	0.9188314
108	0x3c3c48c2	0.011491956
109	0x3edb4de8	0.42832875
110	0x3ebd199f	0.3693361
111	0xbe8e1137	-0.2774751
112	0x3f3ab3c8	0.72930574
113	0x3e9a4255	0.30128732
114	0x3e8a3738	0.26995254
115	0x3e4057e2	0.18783525
116	0xbe88555c	-0.26627624
117	0x3f3214bc	0.6956289
118	0x3e9e7957	0.3095195
119	0x3f296eaf	0.66184515
120	0x3d918be3	0.071067594
121	0x3e6b5995	0.22983392
122	0xbcfc2aca	-0.030782122
123	0x3f1a5ecc	0.603009
124	0x3f39b74e	0.72545326
125	0x3e536545	0.206441
126	0x3f0e2e06	0.55538976
127	0x3f2f007e	0.68360126
128	0x3f50df42	0.81590664
129	0x3e4de36e	0.20106289
130	0x3ea56b8f	0.32308623
131	0x3ee45289	0.4459422
132	0x3ec87052	0.39148194
133	0x3f14b25a	0.5808464
134	0x3f273db2	0.65328515
135	0xbf29d67b	-0.66342896
136	0x3f224a62	0.6339475
137	0x3e5421d2	0.20716026
138	0x3f07e5e0	0.53085136
139	0x3f3c39f3	0.73525923
140	0x3f19db66	0.601004
141	0xbdb6aed7	-0.08920067
142	0x3e55ee01	0.20891573
143	0xbe96e806	-0.29473895
144	0x3ec4185a	0.3829983
145	0x3fca1cae	1.5790002
146	0x3e983d4a	0.2973426
147	0x3e90e101	0.28296664
148	0x3f32ba0e	0.69815147
149	0x3dd08da9	0.101832695
150	0x3e490ddc	0.19634193
151	0x3ed280fe	0.41114038
152	0xbeb242ff	-0.3481674
153	0xbec32817	-0.38116524
154	0x3f6ace6a	0.9172121
155	0x3ea4e852	0.32208496
156	0x3f3b61a6	0.73195875
157	0x3deb9ea8	0.11504871
158	0x3eadd0de	0.33948416
159	0x3f3266da	0.6968819
160	0x3f0b7f39	0.54491
161	0x3ece9395	0.4034697
162	0x3f17d0cc	0.59302974
163	0xbeaad362	-0.33364397
164	0x3ebff176	0.37488908
165	0x3e14622a	0.14490572
166	0x3e720f82	0.23638728
167	0x3e809aec	0.25118196
168	0x3f65fb77	0.8983683
169	0x3f36105c	0.7111871
170	0x3efbb037	0.4915788
171	0x3f238076	0.6386789
172	0x3e5ab3c6	0.2135764
173	0x3f845288	1.0337687
174	0x3b262515	0.0025351692
175	0x3d648b94	0.055797175
176	0x3e7885b9	0.24269761
177	0x3ef105e6	0.47074813
178	0x3e7f83ba	0.24952593
179	0x3f3cf3a3	0.7380926
180	0x3e62d4dc	0.22151512
181	0x3ee0144d	0.43765488
182	0x3f2e2807	0.68029827
183	0x3f69b59b	0.9129273
184	0xbda562c6	-0.0807548
185	0x3f0de298	0.5542388
186	0x3f28fdec	0.66012454
187	0xbdf1374c	-0.11778125
188	0x3faba2b2	1.3409026
189	0x3ee3ceb9	0.44493654
190	0x3f344690	0.7042017
191	0xbe7c6ad1	-0.24650122
192	0xbe02aa98	-0.12760389
193	0x3f09a47e	0.5376662
194	0x3f4db3b1	0.8035231
195	0x3f0ad40c	0.5422981
196	0x3f0d73e4	0.5525496
197	0x3efda703	0.49541482
198	0x3e30f262	0.17279962
199	0x3f2f15ad	0.6839245
200	0x3f3541ba	0.70803416
201	0x3fb27770	1.39427
202	0x3f196f83	0.5993578
203	0x3f51a052	0.81885254
204	0x3f24d068	0.643805
205	0x3d928003	0.071533225
206	0xbdebc031	-0.11511267
207	0x3f23518c	0.63796306
208	0x3e44d4ea	0.19221845
209	0x3eac10da	0.33606607
210	0x3ec13e65	0.37742916
211	0x3f98f22e	1.1948907
212	0x3f38a4ea	0.7212664
213	0xbeb4b048	-0.35290742
214	0x3e9113e5	0.2833549
215	0x3eb4e4cf	0.35330817
216	0x3f2b31e3	0.66872996
217	0x3ea5e9bb	0.32404885
218	0x3e130206	0.1435624
219	0xbe0e0215	-0.13867982
220	0x3f328af3	0.6974327
221	0xbe907158	-0.28211474
222	0x3da64fb5	0.08120672
223	0x3f3835b5	0.7195695
224	0x3f3aa105	0.72901946
225	0x3e2ae6c0	0.16689587
226	0xbdf5cb0c	-0.12001619
227	0xbe103da5	-0.14086016
228	0x3f1b95f8	0.6077571
229	0x3e9b1055	0.30285898
230	0x3f1e5145	0.6184276
231	0x3eebf974	0.46088755
232	0x3ea78f66	0.32726592
233	0x3ea2a6c1	0.31767848
234	0x3dd311c7	0.10306125
235	0x3e95cd17	0.29258034
236	0x3e4c646b	0.19960181
237	0x3f28c63a	0.6592747
238	0x3e8a439c	0.27004707
239	0x3f3e3456	0.7429861
240	0x3f0c3e32	0.547824
241	0x3f3f5d75	0.7475198
242	0x3ee26979	0.44221094
243	0xbe86ae71	-0.26304963
244	0xbe39f39e	-0.18159339
245	0xbe0c3d20	-0.13695192
246	0xbedeab94	-0.4349028
247	0x3f34c7e7	0.70617527
248	0x3f17f736	0.5936159
249	0xbec58b06	-0.3858263
250	0x3f23076b	0.63683194
251	0x3f1b3162	0.6062223
252	0x3f3bdde0	0.7338543
253	0x3f2eda0b	0.6830146
254	0x3ef09312	0.46987206
255	0x3f4a1bf5	0.7894891

linear2.weight f4 [256, 256]
0	0x3e58ab7c	0.21159166
1	0x3f10b0bb	0.5651967
2	0xbf2a8215	-0.6660474
3	0x3f30b9a7	0.69033283
4	0xbe513e81	-0.20434
5	0x3e96b033	0.29431304
6	0x3eae67e1	0.34063628
7	0x3edc19e7	0.42988512
8	0xbf177390	-0.5916071
9	0x3f58a673	0.8462898
10	0x3edf3349	0.43593815
11	0x3e83538a	0.25649673
12	0x3c3e9aba	0.011633569
13	0x3eef2734	0.46709597
14	0x3f37dccd	0.7182129
15	0x3e83fc57	0.25778458
16	0x3ed687d2	0.41900498
17	0x3ee0fae7	0.43941423
18	0x3f91b79d	1.1384159
19	0x3f07ce00	0.53048706
20	0x3e6fc528	0.23415053
21	0xbf7e89b3	-0.9942886
22	0x3f412e81	0.75461584
23	0x3e837f29	0.25682953
24	0x3e15c1fa	0.14624777
25	0x3ef37855	0.47552744
26	0xbf34b19c	-0.7058351
27	0x3e48604a	0.19567981
28	0x3ef9d04f	0.4879174
29	0x3e23490d	0.15945835
30	0x3edd4375	0.43215528
31	0x3e40640e	0.18788168
32	0x3d5e1249	0.054216657
33	0x3ebc4091	0.3676801
34	0x3ec89d3a	0.39182454
35	0x3ee91c77	0.4552953
36	0x3e215581	0.15755273
37	0x3eedd7e5	0.46453777
38	0x3f0b0a97	0.54313034
39	0x3f13c2e9	0.57719284
40	0x3efed83b	0.49774346
41	0x3e28e4cd	0.1649353
42	0xbf83dc40	-1.030159
43	0xbdaf3aa3	-0.08556106
44	0x3ed2c019	0.41162184
45	0x3e55ce30	0.20879436
46	0xbf7bf4c1	-0.9842034
47	0x3f223559	0.6336265
48	0x3de158f7	0.11003297
49	0x3e92c4c8	0.28665757
50	0x3f23a89a	0.6392914
51	0xbdab230b	-0.08356293
52	0xbf040f5b	-0.5158593
53	0x3eff3ed8	0.49852633
54	0x3b9c4b4e	0.004769719
55	0x3ed10e06	0.40831012
56	0x3ec74f80	0.3892784
57	0xbf912fc9	-1.1342708
58	0x3ed6e457	0.41971084
59	0x3ed49a3a	0.41523916
60	0x3e7dc875	0.247835
61	0xbf2925f0	-0.66073513
62	0x3eb85e77	0.3600957
63	0xbf88cb01	-1.0686952
64	0x3dd5e1de	0.10443471
65	0x3e0f1dec	0.13976258
66	0x3f5f6345	0.8726085
67	0x3e93963b	0.28825554
68	0x3f853ef8	1.0409842
69	0x3ebfecb8	0.3748529
70	0xbd71d62e	-0.05904215
71	0x3d889957	0.06669872
72	0x3ede3430	0.4339919
73	0x3ed537af	0.41644046
74	0x3f227359	0.63457257
75	0x3eaf7b55	0.34273782
76	0x3e7e7431	0.24849011
77	0x3e5ce82f	0.21572946
78	0x3e654828	0.22390807
79	0x3ebaf69c	0.36516273
80	0x3f71f514	0.94514585
81	0x3dea2efb	0.11434742
82	0x3e49529d	0.1966042
83	0x3e4a9516	0.19783434
84	0x3ea68dcc	0.32530057
85	0x3e40ab11	0.18815257
86	0x3c901edb	0.017592838
87	0x3e926797	0.28594658
88	0xbf0392bc	-0.51395774
89	0x3efa3553	0.48868808
90	0x3e8ed1ec	0.27894533
91	0x3ddec307	0.10877042
92	0x3f1bdf93	0.6088802
93	0x3f82d7c6	1.0222099
94	0x3e8349f9	0.25642374
95	0x3e861f15	0.2619559
96	0x3e47aa1a	0.19498482
97	0x3d911865	0.07084731
98	0x3e698b93	0.2280715
99	0xbf1fd574	-0.6243508
100	0x3ed89310	0.422997
101	0xbf7952f4	-0.973922
102	0xbf86a06c	-1.0517707
103	0xbf74d733	-0.9564087
104	0x3ee9a5b9	0.4563425
105	0x3ca1d0dc	0.019752912
106	0x3e2f0d86	0.17095003
107	0x3ee252b4	0.44203722
108	0x3f2821ce	0.6567658
109	0x3ed5766e	0.41691917
110	0x3ec0077a	0.37505704
111	0xbf88ad95	-1.0677973
112	0x3e59f6e8	0.21285594
113	0x3eb28337	0.34865734
114	0x3ec04035	0.37548986
115	0x3eb6efb9	0.3572977
116	0xbf3fd66a	-0.74936545
117	0x3e38d6e0	0.18050718
118	0x3efe7951	0.49701932
119	0x3ece1399	0.40249327
120	0x3f0be5fa	0.5464779
121	0x3ecd4936	0.40094918
122	0xbe780526	-0.24220714
123	0x3f69d63f	0.9134254
124	0xbcbdf494	-0.023187913
125	0x3e1383cf	0.1440575
126	0x3e134a6e	0.14383861
127	0x3f2e93d7	0.68194336
128	0x3eb4afbd	0.35290328
129	0x3e9eda2d	0.3102583
130	0x3f041c5f	0.5160579
131	0x3e338c65	0.17534025
132	0xbf78be2a	-0.9716517
133	0x3f582bea	0.8444201
134	0x3e363217	0.17792545
135	0xbf4611e2	-0.77371037
136	0x3d5419c9	0.051782403
137	0x3eba64cc	0.36405027
138	0x3e179d97	0.1480621
139	0x3e37afc6	0.17938146
140	0x3ee98bb7	0.45614406
141	0xbf70cba7	-0.9406075
142	0xbc9ea8e8	-0.01936765
143	0xbf4f2c1c	-0.8092668
144	0x3ece2bad	0.40267697
145	0xbc827725	-0.015925953
146	0x3e73bf8a	0.23803535
147	0x3f04e982	0.51918805
148	0x3eaebc98	0.3412826
149	0x3e84ef20	0.25963688
150	0x3ef73bd6	0.4828784
151	0x3e8a01e2	0.2695456
152	0xbf04e69c	-0.5191438
153	0xbfaee2e1	-1.3662988
154	0xbd4d0f9c	-0.050063714
155	0x3f285b61	0.65764433
156	0x3f0f651e	0.5601367
157	0x3dafff09	0.08593566
158	0x3fb9d5b5	1.4518343
159	0x3f89542a	1.072881
160	0x3ec899d6	0.39179868
161	0x3e6b701b	0.22991984
162	0x3e333146	0.17499265
163	0xba7825bc	-0.0009466072
164	0x3f20cf20	0.6281605
165	0x3f0745f9	0.52841145
166	0x3eb29049	0.34875706
167	0x3f9f3e8b	1.2440962
168	0x3f4d4a23	0.8019125
169	0x3f3783fb	0.7168576
170	0x3faaf3fd	1.3355709
171	0x3efb9f26	0.49144858
172	0x3f025663	0.50913066
173	0x3ddaed49	0.1068979
174	0xbf1a6b6c	-0.6032016
175	0x3f80486d	1.0022103
176	0x3f4476d9	0.7674385
177	0x3e42ddfc	0.19029993
178	0x3f1d0c1b	0.61346596
179	0x3f46b044	0.7761271
180	0x3e840f14	0.25792754
181	0x3f7e6f7b	0.99388856
182	0x3e13ff12	0.1445277
183	0x3cc76c85	0.024343738
184	0x3de242dd	0.110479094
185	0x3f14a7bb	0.58068436
186	0x3ee8c722	0.45464426
187	0xbec1649c	-0.3777207
188	0x3e1f0183	0.1552792
189	0x3f51eab1	0.81998736
190	0x3e8af8d7	0.27142975
191	0xbc6e0be0	-0.014529198
192	0x3e46f7d3	0.19430475
193	0x3f86395f	1.0486258
194	0x3ecc433d	0.3989505
195	0xbe31b596	-0.17354426
196	0x3f017609	0.5057073
197	0x3e1d5633	0.15364914
198	0x3e88ff35	0.26757208
199	0x3f097496	0.5369352
200	0x3d9d0478	0.07666868
201	0x3e785019	0.24249305
202	0x3f2c0af6	0.67204225
203	0xbe0092e8	-0.1255604
204	0x3e587d0e	0.21141455
205	0x3f361891	0.71131235
206	0xbf8a7ebf	-1.081993
207	0x3f56b421	0.83868605
208	0x3e6744a7	0.22584783
209	0x3e3bb149	0.18329348
210	0x3ee19be1	0.4406424
211	0x3e8c0609	0.27348354
212	0x3f0372bb	0.5134694
213	0xbf0b004b	-0.5429732
214	0x3ec1d670	0.37858915
215	0x3f04f356	0.519338
216	0x3f19bee3	0.60056895
217	0x3f2f35e5	0.6844161
218	0x3effb8dd	0.49945727
219	0xbf055488	-0.5208211
220	0x3f2aaba8	0.66668177
221	0xbe955b90	-0.2917142
222	0x3deea6af	0.11652886
223	0x3f0be5dc	0.5464761
224	0x3f90bdaf	1.1307887
225	0x3f2bb0aa	0.6706644
226	0xbedd2d01	-0.43198398
227	0x3eed367a	0.46330625
228	0x3e786cf7	0.24260317
229	0x3d90aa82	0.07063772
230	0x3dec3440	0.115334034
231	0x3ea4267c	0.3206061
232	0x3eafc375	0.3432881
233	0x3c34257e	0.010995267
234	0x3ede2ec0	0.43395042
235	0x3f490287	0.7851948
236	0x3e74b877	0.23898493
237	0x3ea8caab	0.32967123
238	0x3ee7a76e	0.45244926
239	0x3f72410b	0.946305
240	0x3eb789d0	0.3584733
241	0x3f6214e3	0.8831312
242	0x3eeac072	0.4584995
243	0xbfda5dce	-1.7059877
244	0xbe86dd05	-0.263405
245	0xbf8ef520	-1.1168556
246	0xbf36a498	-0.713449
247	0xbbf268c1	-0.0073977415
248	0x3f007c5c	0.5018976
249	0xbf14872a	-0.58018744
250	0x3ef9d2c8	0.48793626
251	0x3f35363a	0.7078587
252	0x3f1d3bb3	0.6141922
253	0x3e756fab	0.23968379
254	0x3e663cc9	0.22484125
255	0x3d8b94fa	0.068155244

linear2.bias f4 [256]
0	0x3e99e6c1	0.30058864
1	0x3ec74102	0.38916785
2	0x3ecf1b19	0.4045036
3	0x3eaea615	0.34111086
4	0x3eb83a60	0.35982037
5	0x3ebc30f6	0.36756104
6	0x3ec4452a	0.38334018
7	0x3e99a857	0.30011246
8	0x3eb3f549	0.35148075
9	0x3ecc198b	0.39863238
10	0x3ec0f370	0.37685728
11	0x3eb1d526	0.34732932
12	0x3eff5052	0.49865967
13	0x3f003c85	0.50092345
14	0x3e9bca76	0.30427903
15	0x3eb70da4	0.35752594
16	0x3e9f7b74	0.31148875
17	0x3e95a3a4	0.2922641
18	0x3ecadc00	0.39620972
19	0x3ea195af	0.31559512
20	0x3ee13810	0.43988085
21	0x3eaedfb4	0.34155047
22	0x3eb11cac	0.34592187
23	0x3ec1f644	0.37883198
24	0x3eb6724a	0.3563407
25	0x3eccbdd1	0.39988568
26	0x3ee7a393	0.45241985
27	0xbd98f337	-0.074682645
28	0x3ea6665d	0.32499972
29	0x3eb5871f	0.35454652
30	0x3eb7309c	0.35779274
31	0x3eb78e11	0.35850576
32	0x3ec666a5	0.38750187
33	0x3ec65824	0.3873912
34	0x3eece18c	0.4626583
35	0x3ec256bc	0.37956798
36	0x3ebf5783	0.37371454
37	0x3eb8cbc5	0.36092964
38	0x3f09a42b	0.53766125
39	0x3efb93bc	0.4913615
40	0x3ecf4603	0.40483102
41	0x3eb70f8b	0.35754046
42	0x3eb181b0	0.34669256
43	0x3ebcf4fb	0.36905655
44	0x3eb6d894	0.3571211
45	0x3ea5a17f	0.32349774
46	0x3ec91e5f	0.39280984
47	0x3eafef7a	0.34362394
48	0x3ebad1a0	0.36488056
49	0x3e8fc9ab	0.28083548
50	0x3ec4bb43	0.3842412
51	0x3eb826c8	0.35967088
52	0x3ebf8384	0.37405026
53	0x3f074655	0.52841693
54	0x3f184b6f	0.594901
55	0x3ea12747	0.3147528
56	0x3ec7338f	0.38906524
57	0x3eb3a9dc	0.3509053
58	0x3ecd2e22	0.4007426
59	0x3e9fdf53	0.3122507
60	0x3eb152be	0.3463344
61	0x3ea3fd35	0.3202912
62	0x3edb73f1	0.42861894
63	0x3ec0d50e	0.37662548
64	0x3eb42eb7	0.3519189
65	0x3f07c121	0.53029066
66	0x3ee35a00	0.44404602
67	0x3ec59ba4	0.38595307
68	0x3ea1328e	0.31483883
69	0x3f00d5b1	0.5032607
70	0x3e98ad6f	0.2981982
71	0x3e94eb01	0.29085544
72	0x3e9679b5	0.2938973
73	0x3e8bd760	0.27312756
74	0x3ecbaea5	0.3978168
75	0x3ecbbe13	0.39793453
76	0x3ed23c6e	0.4106173
77	0x3d4ca047	0.04995754
78	0x3edc5de6	0.4304039
79	0x3ead7d02	0.33884436
80	0x3f061caf	0.5238752
81	0x3eb8872b	0.36040625
82	0x3eb945f6	0.36186188
83	0x3ea483a8	0.32131696
84	0x3eae4ce6	0.34043044
85	0x3ed6e91e	0.4197473
86	0x3e9a27c7	0.30108473
87	0x3e466393	0.19373922
88	0x3ec4e7f9	0.3845823
89	0x3e9d628e	0.30739254
90	0x3eba9be6	0.36447066
91	0x3ef26fb6	0.47350854
92	0x3e93aa09	0.28840664
93	0x3edc399a	0.43012697
94	0x3ebbf1a4	0.36707795
95	0x3ecee7ef	0.40411326
96	0x3f09ed04	0.5387728
97	0x3ecf1504	0.4044572
98	0x3e9fc5da	0.31205636
99	0x3ec8a517	0.39188454
100	0x3e9634d5	0.29337183
101	0x3ebac4f2	0.36478382
102	0x3e9241e0	0.28565884
103	0x3ebed375	0.37270704
104	0x3ec79193	0.38978252
105	0xbce3a0f9	-0.027786719
106	0x3ef71811	0.4826055
107	0x3ec30dd2	0.38096482
108	0xbc3f7456	-0.0116854515
109	0x3ec346b7	0.3813989
110	0x3ea83fc4	0.3286115
111	0x3ea9437b	0.33059296
112	0x3eae4ced	0.34043065
113	0x3c28507e	0.010273097
114	0x3ec560f4	0.38550532
115	0x3eb98192	0.36231667
116	0x3ea22c27	0.3167431
117	0x3ebd3aa2	0.36958796
118	0x3eb525e7	0.3538048
119	0x3eaf27df	0.34210107
120	0x3ee42774	0.4456135
121	0x3ec158d0	0.3776307
122	0x3ec8a4e3	0.391883
123	0x3f29a9c4	0.66274667
124	0x3e9f03bc	0.31057537
125	0x3eb11059	0.34582785
126	0x3ebec36c	0.3725847
127	0x3ecdab76	0.40169877
128	0x3eb24c12	0.34823662
129	0x3ed0e649	0.40800694
130	0x3ed71caf	0.4201407
131	0x3efc5564	0.49283898
132	0x3f26c697	0.65146774
133	0x3d73ac69	0.059490595
134	0x3b8638ce	0.004096127
135	0x3ef84e29	0.4849713
136	0x3eb8ab5a	0.3606823
137	0x3ea25fd0	0.31713724
138	0xba841c4d	-0.0010079235
139	0x3ee0261d	0.43779078
140	0x3ebaf77f	0.3651695
141	0x3ea0e9ce	0.3142838
142	0x3e929a73	0.2863346
143	0x3f0412fe	0.5159148
144	0x3ed9f67a	0.4257086
145	0x3f148740	0.58018875
146	0x3eb46e97	0.35240623
147	0x3f027b23	0.5096914
148	0x3ec65d4c	0.38743055
149	0x3eb1cc46	0.3472616
150	0x3ec069c7	0.37580702
151	0x3eb61225	0.35560718
152	0x3e9c7504	0.30558026
153	0x3ec9db21	0.39424995
154	0x3ea3644f	0.31912467
155	0x3ebf77bd	0.3739604
156	0x3ee8d5bc	0.45475566
157	0x3eefce9f	0.46837327
158	0x3ec44a2a	0.38337833
159	0xbd6d939c	-0.0580021
160	0x3eb03153	0.3441263
161	0x3ec48e2b	0.38389716
162	0x3ed96f45	0.42467704
163	0x3ea95727	0.33074304
164	0x3eba494f	0.36384055
165	0x3ec71343	0.38881883
166	0x3ee9af2b	0.45641455
167	0x3ecbbfa8	0.3979466
168	0x3eb4f588	0.35343575
169	0x3ecee18a	0.40406448
170	0x3eb1767a	0.34660703
171	0x3e9a541b	0.30142292
172	0x3ec4b5a5	0.38419834
173	0x3eca5183	0.39515314
174	0x3ebc72c0	0.36806297
175	0x3f1c8306	0.61137426
176	0x3ed52211	0.41627553
177	0x3f023b8c	0.5087211
178	0x3e91a94a	0.2844947
179	0x3eb34e5c	0.3502072
180	0x3ebbed5f	0.36704537
181	0x3ed20b38	0.41024184
182	0x3eadb466	0.33926696
183	0x3eb27bdc	0.34860122
184	0x3f060370	0.52348995
185	0x3ec15122	0.37757212
186	0x3e9dfbc8	0.30856156
187	0x3eed3293	0.46327648
188	0x3ea25c98	0.31711268
189	0x3eb7af1c	0.35875785
190	0x3ea409ec	0.3203882
191	0x3ead945d	0.33902255
192	0x3e9ab658	0.30217242
193	0x3f11e443	0.56988925
194	0x3eed0898	0.4629562
195	0x3ea97b75	0.33102003
196	0x3ec9509c	0.39319313
197	0x3eaace18	0.33360362
198	0x3e88cf7e	0.26720804
199	0x3ec25a1b	0.3795937
200	0x3f1519f8	0.5824275
201	0x3f0af550	0.5428057
202	0x3eabe54b	0.33573374
203	0x3e98cc06	0.29843158
204	0x3e9cf52e	0.30655807
205	0x3f006c3b	0.50165147
206	0x3ebb9cd8	0.366431
207	0x3eba70b9	0.36414126
208	0x3e8f4d68	0.27988744
209	0x3ec668a0	0.38751698
210	0x3ed10679	0.4082525
211	0x3ec72945	0.38898674
212	0x3f14298e	0.5787591
213	0x3ebf80d6	0.37402982
214	0x3eae6f5c	0.34069335
215	0x3e91ce9c	0.28477943
216	0x3ecd4820	0.4009409
217	0x3ec668a1	0.387517
218	0x3ebc0295	0.3672072
219	0x3eb67a8e	0.35640377
220	0x3eb3ef98	0.35143733
221	0x3ebd3b96	0.36959523
222	0x3ea9ef56	0.3319041
223	0x3e9862b3	0.29762802
224	0x3ec554bb	0.38541207
225	0x3ebf6ba0	0.373868
226	0x3ec8448f	0.39114806
227	0x3ec7a146	0.3899023
228	0x3e923fda	0.2856434
229	0x3eb6862f	0.3564925
230	0x3eeaabd7	0.45834228
231	0x3b484888	0.003056081
232	0x3ecd9aab	0.40157065
233	0x3ed888c9	0.4229186
234	0x3e9dea1c	0.30842674
235	0x3e9e7683	0.30949792
236	0x3ee62bf0	0.44955397
237	0x3e7da263	0.24768977
238	0x3ea8f878	0.33002067
239	0x3f102c43	0.5631754
240	0x3e99d0a4	0.30041993
241	0x3ef167d5	0.4714953
242	0x3f2b2575	0.6685403
243	0x3ec902e5	0.3926002
244	0x3ea53e40	0.32274055
245	0x3ecdb050	0.40173578
246	0x3e984bbe	0.29745287
247	0x3ec41d2a	0.383035
248	0x3ec42a5f	0.38313577
249	0x3e9e37ed	0.30902043
250	0x3e917d95	0.28416124
251	0x3ed6c3eb	0.4194635
252	0x3eb2bcad	0.34909573
253	0x3e850304	0.25978863
254	0x3ed0461f	0.40678498
255	0x3eade719	0.33965376

linear3.weight f4 [1, 256]
0	0xbfa9a02d	-1.3252007
1	0xbfbfd12a	-1.4985707
2	0xbfae66bc	-1.3625102
3	0xbfaba26a	-1.340894
4	0xbfbddfda	-1.4833939
5	0xbfbb155c	-1.4615893
6	0xbf9c1a49	-1.2195522
7	0xbfa4f7a9	-1.288808
8	0xbfbd5ec3	-1.4794544
9	0xbfb603ff	-1.421997
10	0xbfb33e51	-1.4003392
11	0x3ff25a17	1.8933743
12	0xbf983498	-1.189105
13	0xbf95b0ef	-1.1694621
14	0xbfb78114	-1.4336267
15	0xbf9cde04	-1.2255254
16	0xbfc25e39	-1.5185004
17	0xbfb419fb	-1.4070429
18	0xbfa1fe15	-1.2655665
19	0xbfa6f106	-1.3042305
20	0x404470da	3.069388
21	0xbfc1a766	-1.5129211
22	0xbfb66d19	-1.4252044
23	0xbfa99ec7	-1.325158
24	0xbfa732db	-1.3062395
25	0xbfc369d6	-1.5266674
26	0xbf9e675b	-1.2375292
27	0xb9017d35	-0.00012349042
28	0xbfa2ca6b	-1.2718023
29	0xbfb727b8	-1.4308996
30	0xbfa07d5d	-1.2538258
31	0xbfa4204c	-1.2822356
32	0xbfbfa2ee	-1.4971597
33	0xbfbf1c9c	-1.4930606
34	0xbf98e3a2	-1.1944468
35	0xbf9c2576	-1.2198932
36	0xbfb5e2b0	-1.4209805
37	0xbf9b0f90	-1.2114124
38	0xbf9347fd	-1.1506344
39	0xbf8f0e21	-1.1176187
40	0xbfc1f34f	-1.5152377
41	0xbfba4061	-1.4550897
42	0xc00efab5	-2.234052
43	0x402407b3	2.56297
44	0xbf9d577d	-1.2292324
45	0x3ff4be07	1.9120492
46	0x4000c361	2.011925
47	0xbfb6cde8	-1.4281588
48	0xbfc44969	-1.5334903
49	0xbfb2a8d7	-1.3957776
50	0xbf9eed40	-1.2416153
51	0xbfa10b67	-1.2581605
52	0xbf9ec844	-1.2404866
53	0xbf93775d	-1.1520802
54	0xbf925100	-1.1430969
55	0xbfb6a7e9	-1.4269992
56	0xbf9ac1c2	-1.209038
57	0xbfc2c572	-1.5216506
58	0xbfa89a4d	-1.3172089
59	0xbf9d1ec6	-1.2275016
60	0x3ffc7742	1.9723895
61	0xbfa35ff6	-1.276366
62	0xbfc6fafb	-1.5545343
63	0xbfb75691	-1.4323293
64	0xbfa2f4b5	-1.2730929
65	0xbf939e16	-1.1532619
66	0xbf9e76e8	-1.2380037
67	0xbfc2b989	-1.5212871
68	0xbfa35c31	-1.276251
69	0xbf995472	-1.1978896
70	0xbfa64c12	-1.2991965
71	0xbfa82644	-1.3136678
72	0xc00e7e6f	-2.226467
73	0xbfa72a84	-1.305985
74	0xbf9cbfc2	-1.224602
75	0xbfbb40e8	-1.4629183
76	0x401f879f	2.4926527
77	0xc03d1c26	-2.954843
78	0xbf9f1277	-1.242751
79	0x40088113	2.132878
80	0xbf93d298	-1.1548643
81	0xbfc21eef	-1.516569
82	0xbfbfeba1	-1.4993783
83	0xbfb4829c	-1.4102359
84	0xbfc24cd8	-1.5179701
85	0xbfbef882	-1.4919589
86	0xbfbf9755	-1.4968058
87	0xbff20835	-1.8908755
88	0xbfa7c017	-1.3105496
89	0xbfc174fb	-1.5113825
90	0x4008bf30	2.1366692
91	0xbf998ae0	-1.1995506
92	0xc00e81b8	-2.2266674
93	0xbf9dfe20	-1.2343178
94	0xbfa5ffde	-1.296871
95	0xbfa04241	-1.2520219
96	0xbf9188ac	-1.1369834
97	0xbfbb70f6	-1.4643848
98	0x3ff763e2	1.9327357
99	0xbfc345be	-1.5255659
100	0xbfb54075	-1.4160296
101	0x4059a5c5	3.4007428
102	0xbfb9b97f	-1.4509734
103	0xbfc22b2d	-1.5169426
104	0xbfb6a4cd	-1.4269043
105	0xc04dc7a3	-3.2153099
106	0x40829c39	4.08157
107	0xbfad7f1c	-1.3554416
108	0xbb2dafe0	-0.0026502535
109	0xbfb92880	-1.4465485
110	0xbfb960ae	-1.4482629
111	0xbfb16191	-1.38579
112	0xbfa84bdd	-1.3148152
113	0x3b1ee707	0.002424659
114	0xbfbecea8	-1.4906816
115	0xbfa8edad	-1.3197533
116	0xc00e80d2	-2.2266126
117	0xbf9e674e	-1.2375276
118	0xbf9dfc2c	-1.2342582
119	0xbfbe7bad	-1.4881493
120	0xbf9205c1	-1.1408006
121	0xbfa90baa	-1.3206685
122	0xbfa41b60	-1.2820854
123	0xbf8ce257	-1.1006573
124	0xbfb6dce9	-1.4286166
125	0xbfb60072	-1.4218886
126	0xbfacfb9b	-1.3514284
127	0xbf950f54	-1.1645303
128	0xc00d0c9a	-2.2038941
129	0xbfc1c0de	-1.5136983
130	0xbfabe262	-1.3428462
131	0xbf94b898	-1.1618834
132	0xbf8e30bb	-1.1108621
133	0xba03bca3	-0.00050253625
134	0xc0258bb2	-2.5866513
135	0xbf976b40	-1.1829605
136	0xbfa07eb0	-1.2538662
137	0xbfa94a5a	-1.3225815
138	0xba6c5eea	-0.0009016829
139	0xbf9ace26	-1.2094162
140	0xbfa62bc3	-1.2982105
141	0xbfa5f37b	-1.2964929
142	0xbfaebf01	-1.365204
143	0xbf925204	-1.1431279
144	0xbf9db103	-1.2319645
145	0xbf8ece08	-1.1156626
146	0xbfb1131b	-1.3833956
147	0xbf9b2072	-1.2119277
148	0xbfa701b8	-1.30474
149	0x40037faf	2.0546682
150	0xbfa91510	-1.3209553
151	0xbfa10fce	-1.2582948
152	0xbfc42d08	-1.5326242
153	0xbfad34a1	-1.3531686
154	0xbfc2a59a	-1.5206788
155	0xbfb3847d	-1.4024807
156	0xbf975d60	-1.1825371
157	0xbf993adf	-1.1971091
158	0x3ff4bc4e	1.9119966
159	0xba466978	-0.00075688167
160	0xbfc5927a	-1.5435326
161	0xbfa85346	-1.3150413
162	0xbfbd0239	-1.4766303
163	0xbfbf9186	-1.4966285
164	0xc00caa5e	-2.1978984
165	0xbf9f4433	-1.2442688
166	0xbf9b398e	-1.2126939
167	0x3ff97a91	1.9490529
168	0xbfa5c984	-1.2952123
169	0xbfa332f3	-1.2749923
170	0xbfa48210	-1.2852192
171	0xbfb5af33	-1.4194092
172	0xbfb2025e	-1.3906972
173	0xbfb8ba44	-1.4431844
174	0xbfc5b51e	-1.5445898
175	0xbf8f081b	-1.1174349
176	0xbf9f43a4	-1.2442517
177	0xbf98cb8d	-1.1937119
178	0xc00e3cce	-2.2224612
179	0xbfb720a3	-1.4306835
180	0xbfb22680	-1.3917999
181	0xbfb58e1b	-1.4183992
182	0xbfae347d	-1.3609768
183	0x3ff84350	1.9395542
184	0xbf922d65	-1.1420103
185	0xc00f6a22	-2.2408528
186	0xbfbe15c7	-1.4850396
187	0xbf98d20e	-1.1939104
188	0xbfc1f50a	-1.5152905
189	0xbf9ebf6d	-1.2402169
190	0xbfacb848	-1.3493738
191	0xbfaf0a27	-1.3674973
192	0xbfb9aded	-1.4506203
193	0xbf900bd8	-1.1253614
194	0xbf92c37e	-1.146591
195	0xbfa053cb	-1.2525572
196	0xbfa0ec8b	-1.2572187
197	0xbfa9feb5	-1.3280855
198	0xc0107351	-2.2570384
199	0xbfb92925	-1.4465681
200	0xbf902b51	-1.1263219
201	0xbf96f399	-1.179309
202	0xbfa69146	-1.3013084
203	0xbfb04a53	-1.3772682
204	0xbfa12e28	-1.2592211
205	0xbf9580ac	-1.1679893
206	0xbfbf2796	-1.4933956
207	0xbfb7d50c	-1.4361892
208	0xbfbb095f	-1.4612235
209	0xbfa081c8	-1.2539606
210	0xbfb9d7bd	-1.4518963
211	0xbfa83097	-1.3139828
212	0x400e087f	2.2192686
213	0xbfb4f273	-1.413649
214	0xbfa4f188	-1.288621
215	0xbfb0fe9f	-1.3827704
216	0xbf9aeb73	-1.2103103
217	0xbfa0a505	-1.255036
218	0xbfb52958	-1.4153242
219	0xbfc26ccd	-1.5189453
220	0xbfa276f8	-1.2692556
221	0xbfbdc43f	-1.4825515
222	0xbfb9c875	-1.45143
223	0xbfb538d7	-1.4157971
224	0xbfb5bc8d	-1.4198166
225	0xbf9f6056	-1.2451274
226	0xbf9d7028	-1.2299852
227	0xbfa12ec8	-1.2592402
228	0xbfa43c4c	-1.2830901
229	0xbfb29efe	-1.395477
230	0xbfa0e254	-1.256907
231	0xc060aed6	-3.5106711
232	0xbf9e7b67	-1.238141
233	0xbfa020b4	-1.250998
234	0xbfc37156	-1.5268962
235	0xbfbfdcd6	-1.4989269
236	0xbf9b9433	-1.2154602
237	0xc00d39d9	-2.2066557
238	0xbfb3d1af	-1.4048365
239	0xbf90b520	-1.1305275
240	0xbfb7a98b	-1.4348615
241	0x403da73d	2.9633324
242	0xbf8fc2fe	-1.1231382
243	0xbf9ea640	-1.2394485
244	0xbfbe3704	-1.486054
245	0xbfb29379	-1.3951255
246	0xbfbe3742	-1.4860613
247	0xbf9e9f02	-1.2392275
248	0xbf9b5427	-1.2135056
249	0xbfa678d5	-1.3005625
250	0xbfb60b6a	-1.4222233
251	0xbf9e98e8	-1.2390413
252	0xbfb48706	-1.4103706
253	0xc00e8174	-2.2266512
254	0xbf9fc42a	-1.248174
255	0xbfc5a924	-1.5442243
