real_test/scripts/outputs/DDPG_Env/20221216-051603/models/730critic_checkpoint.pt (torch, 282455 bytes, 5 tensors)

linear1.weight f4 [256, 15]
0	0x3e883e4f	0.26610038
1	0x3d3568e5	0.04428949
2	0xbe96bcae	-0.29440826
3	0xbf0b1142	-0.5432321
4	0xbeea7212	-0.45790154
5	0xbef96f86	-0.48717898
6	0x3dcbe7de	0.099563345
7	0xbe09d5d1	-0.1346047
8	0xbeef2b81	-0.46712878
9	0xbf12ccc6	-0.5734371
10	0x3ec41732	0.38298947
11	0x3dbb33ce	0.0914074
12	0xbe8b0d39	-0.27158526
13	0x3b987e06	0.004653695
14	0xbe13108f	-0.14361785
15	0x3f0ad7cc	0.5423553
16	0x3e2b42ab	0.1672465
17	0xbe9f927a	-0.3116644
18	0xbd84e388	-0.06488711
19	0x3e196732	0.14980772
20	0x3f1397b0	0.5765333
21	0x3d3c8394	0.04602392
22	0xbe77674a	-0.24160495
23	0xbea54b0c	-0.3228382
24	0x3e42babc	0.19016546
25	0x3eabfe90	0.33592653
26	0xbbb7dc9a	-0.0056110146
27	0x3e333797	0.17501675
28	0xbd0dfb52	-0.034663506
29	0x3d3793a8	0.04481855
30	0x3e8c1350	0.27358484
31	0xbedb4ba5	-0.4283115
32	0xbedccdcb	-0.43125758
33	0xbf2aa742	-0.66661465
34	0xbee6630d	-0.44997445
35	0x3da81707	0.08207517
36	0x3ec5c14e	0.38624042
37	0x3eee0ed3	0.46495685
38	0x3e5cc56e	0.21559688
39	0xbe195d7f	-0.14977072
40	0x3d5976b7	0.05309173
41	0xbed267f9	-0.4109495
42	0xbe3cb77f	-0.18429373
43	0x3d087d84	0.033322826
44	0xbdb64e1b	-0.08901616
45	0x3e009556	0.12556967
46	0xbe873654	-0.26408637
47	0xbf0e3c15	-0.5556043
48	0xbec8561c	-0.39128196
49	0x3c5c9016	0.013462087
50	0x3d8e99dc	0.0696294
51	0x3e11bdf8	0.14232624
52	0x3e2cab85	0.16862305
53	0x3edb1483	0.42789087
54	0xbdee01f1	-0.11621464
55	0xbb1cc550	-0.0023921318
56	0xbe1219fe	-0.14267728
57	0x3e429f1e	0.19006011
58	0x3c946653	0.018115198
59	0xbe44b05a	-0.19207898
60	0xbdb2b582	-0.08726026
61	0xbe56234b	-0.209119
62	0x3e8f41c7	0.27979872
63	0xbf1aa8c9	-0.60413796
64	0xbfc5ee1f	-1.5463294
65	0xc00c0317	-2.1876886
66	0xbf964509	-1.1739818
67	0xbef74666	-0.48295897
68	0xbfa33123	-1.274937
69	0x3e0e13e9	0.13874783
70	0x3e0a69a2	0.13516858
71	0xbdc6418a	-0.09680469
72	0xbdb2f7a6	-0.087386414
73	0xbd81d3a0	-0.063391924
74	0xbb599400	-0.0033199787
75	0xbd9fd39b	-0.078040324
76	0x3ea189a6	0.3155033
77	0x3dd01ff2	0.10162343
78	0xbf4010bc	-0.75025535
79	0xbf4f5d91	-0.81002146
80	0xbf74f905	-0.95692474
81	0xbf2d58cb	-0.6771361
82	0xbef32091	-0.47485784
83	0xbf1248a3	-0.57142085
84	0xbecac383	-0.3960229
85	0x3e7a5d93	0.24449758
86	0xbce3d537	-0.02781163
87	0xbd91861d	-0.07105658
88	0xbe1f716a	-0.15570608
89	0xbe0e668c	-0.13906306
90	0xbd325e5e	-0.043547027
91	0x3e3e30d2	0.18573311
92	0xbd6baa4e	-0.057535462
93	0xbf284f09	-0.657456
94	0xbf9d713a	-1.2300179
95	0xbf81e5ac	-1.0148215
96	0xbf530e84	-0.82444024
97	0xbedda940	-0.4329319
98	0xbf898f08	-1.0746775
99	0x3e1012cf	0.14069675
100	0x3e7aeb5f	0.2450385
101	0xbe2f3c44	-0.17112833
102	0xbdb3229b	-0.08746835
103	0xbd54886e	-0.051887922
104	0xbe576c09	-0.21037306
105	0x3e83c12c	0.25733316
106	0x3f28da80	0.65958405
107	0x3e6beab5	0.23038752
108	0x3e8bc86e	0.27301353
109	0xbe6c7537	-0.23091589
110	0xbf61041e	-0.8789691
111	0xbf9ff433	-1.2496399
112	0xbe19fee4	-0.1503864
113	0xbe3ad4e6	-0.18245277
114	0x3e993b77	0.2992818
115	0x3d81f6e3	0.06345918
116	0xbec2b8c3	-0.38031587
117	0x3e91e378	0.28493857
118	0xbe76b872	-0.24093798
119	0xbdf6a2bf	-0.1204276
120	0x3c25acc3	0.01011199
121	0x3e12767e	0.14303014
122	0xbe5667bb	-0.20938008
123	0xbf61a527	-0.8814263
124	0x3e9a45ff	0.30131528
125	0x3f270c47	0.6525311
126	0x3f00ce37	0.5031466
127	0xbda67038	-0.08126873
128	0xbe8b9725	-0.27263752
129	0xbd86c577	-0.06580632
130	0xbee97761	-0.4559889
131	0xbe189fa5	-0.1490465
132	0x3f06a404	0.5259402
133	0x3dceaf80	0.10092068
134	0x3d94b0aa	0.072602585
135	0x3e267f5f	0.16259526
136	0x3da98b23	0.08278491
137	0xbed8638e	-0.42263454
138	0xbed997c7	-0.4249861
139	0xbf8b0d98	-1.0863523
140	0xbf994d74	-1.1976762
141	0xbf07a8d7	-0.52992004
142	0xbe4bfb59	-0.199201
143	0xbf93908b	-1.1528486
144	0x3d894718	0.06703013
145	0x3d229777	0.03969523
146	0xbdab6a76	-0.08369915
147	0xbdcf8a25	-0.10133771
148	0xbdf7ef96	-0.12106244
149	0x3cc3e276	0.023911696
150	0xbe9de60a	-0.30839568
151	0x3cff6cec	0.031179868
152	0x3ecd3819	0.40081862
153	0x3eecdab3	0.46260604
154	0x3e40d6be	0.18831918
155	0x3eb9e940	0.36310768
156	0x3e01456f	0.12624143
157	0x3edd627a	0.43239194
158	0x3f022510	0.508378
159	0xbc64a49b	-0.013955261
160	0xbdb1b4b3	-0.08677044
161	0xc035343d	-2.8313134
162	0xbece61a4	-0.4030887
163	0xbcbaa696	-0.022784512
164	0xbbbb68c3	-0.0057192757
165	0x3da6f2f5	0.08151809
166	0xbd30c5a4	-0.043157235
167	0xbf03d1c7	-0.5149197
168	0xbdc5097b	-0.09620949
169	0xbecb42e2	-0.39699465
170	0xbd2c7d5d	-0.042111743
171	0x3e0e55d7	0.13899933
172	0xbe2f5799	-0.1712326
173	0x3e5bedae	0.21477386
174	0x3e11a302	0.14222339
175	0xbe3c90fe	-0.18414685
176	0x3df2ca41	0.11854983
177	0x3e2ca21d	0.16858716
178	0xbd8d9352	-0.06912865
179	0x3d55b1dc	0.052171573
180	0x3e27c9a2	0.1638551
181	0x3e491ed3	0.19640665
182	0xbd58fcfc	-0.05297564
183	0xbde8469f	-0.11341595
184	0x3f1c72ef	0.61112875
185	0x3f1c5e9d	0.6108187
186	0x3e1352bb	0.14387028
187	0xbe50a997	-0.20377193
188	0x3e83d9f0	0.2575221
189	0x3e8f7ae4	0.28023446
190	0x3c7a1972	0.015264856
191	0xbd85d945	-0.065355815
192	0xbcd2cfad	-0.025733793
193	0xbec2e52d	-0.38065472
194	0xbe85b275	-0.26112714
195	0x3d1dae18	0.038496107
196	0xbdcd1e38	-0.100155294
197	0xbec9b44e	-0.39395374
198	0xbef26db8	-0.47349334
199	0x3e5d7d66	0.21629867
200	0x3e54c064	0.20776516
201	0x3d6d6718	0.057959646
202	0x3ce6f65d	0.028193647
203	0x3e188873	0.14895801
204	0xbe533649	-0.20626177
205	0xbeea7889	-0.45795086
206	0x3df9a1b1	0.12189043
207	0x3eff9cc6	0.49924296
208	0x3e056be1	0.13029434
209	0x3d8fe48f	0.07026016
210	0xbe78954e	-0.24275705
211	0x3e1eb463	0.154985
212	0xbe2586b1	-0.16164662
213	0xbdc2896c	-0.094988674
214	0xbf878d80	-1.0590057
215	0xbf7ecd27	-0.9953179
216	0xbe68434c	-0.22681922
217	0xbeffb08e	-0.49939388
218	0xbbd33692	-0.0064457143
219	0xbe444055	-0.19165166
220	0x3eab2a4e	0.33430713
221	0x3e574b01	0.21024705
222	0xbe86c6ec	-0.2632364
223	0x3d5227bb	0.05130742
224	0x3d9e6ca8	0.07735568
225	0xbe8af7f3	-0.27142295
226	0xbf5c0d18	-0.8595748
227	0x3e810d26	0.25205344
228	0x3ee0b3ce	0.4388718
229	0x3b48555b	0.0030568454
230	0xbfa29ea9	-1.2704669
231	0xbf836a7e	-1.0266874
232	0xbf9c9d25	-1.2235457
233	0x3ddf4cda	0.1090333
234	0x3e9d8c6a	0.3077119
235	0xbd47941c	-0.048725232
236	0x3ebf8cc6	0.3741209
237	0xbd97406e	-0.07385336
238	0xbe8cbc67	-0.2748749
239	0xbd657593	-0.05602033
240	0xbdea4282	-0.114384666
241	0xbf15b1d5	-0.58474475
242	0xbe155856	-0.14584479
243	0xbde5e370	-0.11225021
244	0xbe6a0150	-0.22852063
245	0xbf0c886d	-0.5489567
246	0x3e528a53	0.20560579
247	0x3e842838	0.25811934
248	0x3e0e7eb0	0.13915515
249	0xbe823c82	-0.2543679
250	0x3ecc4111	0.39893392
251	0x3e012c30	0.12614512
252	0xbe99e8c1	-0.3006039
253	0x3d867fa8	0.06567317
254	0x3d73b77b	0.059501152
255	0xbef410eb	-0.47669157

linear1.bias f4 [256]
0	0x3e905ba1	0.28194907
1	0x3ecec7e1	0.4038687
2	0x3f744131	0.95411974
3	0x3f74448c	0.95417094
4	0x3f02af6f	0.5104894
5	0x3f0ec435	0.5576814
6	0x3ec6b088	0.38806558
7	0xbdcdd407	-0.10050207
8	0x3e847add	0.25874987
9	0x3ecc5529	0.39908722
10	0x3f3e893b	0.7442815
11	0x3f76c003	0.96386737
12	0x3f505d87	0.8139271
13	0x3e869915	0.26288667
14	0x3eb22a76	0.3479802
15	0x3f6fa46f	0.9361028
16	0x3f13bb67	0.5770783
17	0x3ed650cf	0.41858527
18	0x3f17b3b9	0.5925861
19	0x3ecf8fe0	0.40539455
20	0xbe6360c4	-0.22204882
21	0x3e1f7805	0.15573128
22	0x3f02fff3	0.511718
23	0x3f075631	0.5286589
24	0x3f4efc7c	0.8085401
25	0xbed7b3ec	-0.42129457
26	0x3f38466f	0.71982473
27	0x3edc71d2	0.43055588
28	0x3f478ffe	0.7795409
29	0xbea2f35f	-0.31826302
30	0x3e49916d	0.19684382
31	0x3d6397fa	0.055564858
32	0xbf1e1df5	-0.6176446
33	0x3f22218a	0.63332427
34	0xbf1e8bd2	-0.619321
35	0x3f5ff0e3	0.8747694
36	0x3f554c88	0.833199
37	0x3ed2e148	0.411875
38	0x3f1a7b2d	0.603442
39	0xbd8c0832	-0.06837501
40	0x3e8db781	0.27679065
41	0x3f511313	0.8166973
42	0x3f46e491	0.77692515
43	0x3f08d45d	0.5344904
44	0x3e02bd45	0.12767513
45	0x3efc9c3d	0.4933795
46	0x3f0c0022	0.546877
47	0xbdfa663e	-0.122265324
48	0x3e96eb4c	0.29476392
49	0x3bd09956	0.0063659353
50	0x3fa4d64d	1.28779
51	0x3f2fe4ea	0.6870867
52	0x3e865f22	0.26244456
53	0x3f0cb7b9	0.5496784
54	0x3eebbb6f	0.46041438
55	0x3f52a5d1	0.82284266
56	0x3eeb1583	0.4591485
57	0xbe8947a9	-0.26812485
58	0x3ee6805c	0.45019805
59	0xbe5fcb6b	-0.21854942
60	0x3ee2d412	0.44302422
61	0xbeb3c6be	-0.35112566
62	0x3ec828a0	0.39093494
63	0xbe654231	-0.22388531
64	0xbf25c702	-0.64756787
65	0x3fa4a024	1.2861371
66	0x3f03456a	0.5127779
67	0x3ee4d336	0.4469239
68	0xbe95f92f	-0.29291674
69	0xbf36620c	-0.7124336
70	0x3f1a6964	0.60317063
71	0x3f04889a	0.5177094
72	0xbe964a95	-0.29353777
73	0x3f2ce900	0.6754303
74	0xbd9498e2	-0.072557226
75	0x3f5a6a43	0.8531839
76	0x3f0d3b50	0.5516863
77	0x3f2f9f6f	0.6860265
78	0xbf2f4f01	-0.68479925
79	0x3ef274f7	0.47354862
80	0xbe8f03f3	-0.279327
81	0x3f1dca0e	0.61636436
82	0xbf3c54d4	-0.7356694
83	0xbda50940	-0.08058405
84	0x3f8317be	1.024162
85	0xbe5334e7	-0.2062565
86	0xbec3720a	-0.38172942
87	0x3eb48073	0.3525425
88	0xbe6934b0	-0.22774005
89	0xbea2bfe5	-0.3178703
90	0x3f1ef02f	0.6208524
91	0x3ea8b6d4	0.32951987
92	0x3e792293	0.24329595
93	0x3e9aa79b	0.30205998
94	0xbf112537	-0.5669741
95	0x3e23ebba	0.16007891
96	0x3f9b2b8b	1.2122663
97	0x3f3de703	0.7418062
98	0x3ead8f77	0.33898517
99	0x3eacb3f4	0.33731043
100	0x3f390c81	0.72284704
101	0x3f0d899c	0.552881
102	0x3ed2b41d	0.4115304
103	0x3f1e7a02	0.6190492
104	0x3f357bd9	0.708921
105	0x3f25d6b1	0.6478072
106	0x3f065db2	0.5248672
107	0x3f3f9c8a	0.74848235
108	0x3f3b4971	0.7315894
109	0x3eb6e46a	0.3572114
110	0x3f3d8aff	0.74040216
111	0x3f0a000f	0.5390634
112	0x3f314f4b	0.69261616
113	0x3f153f32	0.58299553
114	0xbdc9a76c	-0.09846386
115	0xbf147be3	-0.58001536
116	0x3f4b8979	0.7950664
117	0xbce0d292	-0.027444158
118	0xbed67602	-0.41886908
119	0x3e2acfea	0.16680875
120	0x3f4ff8c4	0.8123896
121	0x3f2da176	0.67824495
122	0x3f8895cf	1.0670718
123	0x3f1e064d	0.61728364
124	0xbf27d31e	-0.65556514
125	0x3f3c10c5	0.7346309
126	0x3e67c1db	0.22632544
127	0x3f01e2b7	0.50736564
128	0xbede81e8	-0.43458486
129	0x3ee8e7eb	0.4548944
130	0x3eea96e0	0.45818233
131	0x3e92d0fc	0.28675067
132	0xbe7b2a5c	-0.24527878
133	0x3f5ee2a8	0.870646
134	0x3efa396a	0.48871928
135	0x3ebc2b85	0.36751953
136	0xbdd78baf	-0.105246894
137	0x3f8879ea	1.0662205
138	0x3ef3e996	0.4763915
139	0x3ece70dd	0.40320483
140	0x3eb3784c	0.35052717
141	0xbd318e30	-0.04334849
142	0x3e7c87c4	0.24661165
143	0x3e5769b9	0.21036424
144	0x3f107d62	0.5644132
145	0x3e28e999	0.1649536
146	0x3f5b5dcc	0.8569
147	0x3ec2a13f	0.38013646
148	0x3f0e0285	0.55472594
149	0x3ee0c17b	0.43897614
150	0x3edc4e6b	0.43028578
151	0x3e87df87	0.26537725
152	0x3e709327	0.23493634
153	0x3f2431f7	0.6413874
154	0x3f887a1b	1.0662264
155	0x3f36799f	0.7127933
156	0x3ea0f3cc	0.31436002
157	0x3ec522cf	0.3850312
158	0xbd35aa97	-0.04435214
159	0x3e68d4f3	0.22737484
160	0x3f1c8111	0.6113444
161	0x3ebda458	0.37039447
162	0xbf2c85d8	-0.6739173
163	0x3f14405a	0.5791069
164	0x3f91746e	1.1363657
165	0x3f19874d	0.5997208
166	0x3f47b4e2	0.7801038
167	0x3e772057	0.2413343
168	0x3f34dead	0.70652276
169	0x3f46f7d7	0.77721924
170	0x3f3057a0	0.68883705
171	0x3f15100d	0.58227617
172	0x3e852a09	0.26008633
173	0xbe7d8486	-0.24757585
174	0x3f08e3c7	0.5347256
175	0x3d8d57c4	0.069015056
176	0x3f639806	0.88903844
177	0x3ebde382	0.37087637
178	0x3f18231d	0.5942858
179	0x3f2b3891	0.6688319
180	0x3f1d8425	0.6152976
181	0x3f055447	0.5208172
182	0x3f435f7f	0.7631759
183	0xbf029275	-0.51004726
184	0x3ee3d7af	0.4450049
185	0x3ef3d174	0.47620738
186	0x3f4466c0	0.76719284
187	0x3e167317	0.14692341
188	0x3eeb5b8e	0.45968288
189	0x3f3cd5c7	0.737637
190	0x3f2f766e	0.68540084
191	0x3f45942b	0.7717921
192	0xbeb86972	-0.36017948
193	0x3d6d9aa3	0.0580088
194	0x3f289e01	0.65866095
195	0x3f49f942	0.7889596
196	0x3eb96a77	0.3621404
197	0x3f651458	0.8948417
198	0x3e9050a9	0.2818654
199	0xbde81cb3	-0.11333599
200	0x3f025d75	0.50923854
201	0x3f4dec71	0.80438906
202	0xbe8c5095	-0.2740523
203	0x3ec07196	0.3758666
204	0x3e99b516	0.3002097
205	0xbe2e68f8	-0.1703223
206	0x3f349838	0.7054477
207	0x3ea492ef	0.3214335
208	0x3eaf0ab2	0.34187847
209	0x3f47055b	0.77742547
210	0x3e5c9060	0.2153945
211	0x3f154763	0.5831205
212	0x3e935869	0.2877839
213	0x3f84a3f1	1.0362531
214	0x3f3227ac	0.69591784
215	0x3efbd76c	0.4918779
216	0x3f88f4a3	1.0699657
217	0xbdd7d6ee	-0.105390415
218	0x3f2905a4	0.6602423
219	0x3f31bd0a	0.69429076
220	0x3ea5ec7f	0.32406995
221	0x3eb9ce04	0.3628999
222	0x3f3f7539	0.7478824
223	0xbe209221	-0.15680744
224	0x3ef7329d	0.48280802
225	0x3ef474cc	0.4774536
226	0x3f12b856	0.57312524
227	0x3e60e96d	0.21964045
228	0x3eab2f68	0.33434606
229	0x3f3139a9	0.6922861
230	0x3f06c5c9	0.52645546
231	0x3eef982e	0.4679579
232	0x3ec42c31	0.38314965
233	0x3eef5639	0.4674547
234	0xbe36edda	-0.1786417
235	0x3ea5ef15	0.32408968
236	0x3ece46a8	0.4028828
237	0xbe7c05df	-0.24611615
238	0x3f15b74d	0.5848282
239	0x3f1a6102	0.6030427
240	0x3f2fc7ed	0.6866444
241	0xbc1a0e52	-0.009402828
242	0x3f373c74	0.7157662
243	0x3f1ef069	0.62085587
244	0xbe8a9b8d	-0.270718
245	0x3f04a094	0.5180752
246	0x3f053aef	0.5204305
247	0x3d01f99f	0.031732198
248	0x3f197523	0.5994436
249	0xbf0e5661	-0.55600554
250	0x3f11df1c	0.5698106
251	0x3efa4481	0.4888039
252	0x3e92dd0e	0.28684276
253	0x3f03cf7b	0.51488465
254	0x3ee1ae43	0.44078264
255	0x3e847414	0.2586981

linear2.weight f4 [256, 256]
0	0x3e658bb5	0.22416575
1	0x3ed53e85	0.4164926
2	0x3ebf1613	0.3732153
3	0x3ea7b627	0.3275616
4	0x3f350ca2	0.707224
5	0x3e9c620a	0.30543548
6	0x3ebfb97a	0.37446195
7	0xbf4d67d2	-0.8023654
8	0x3e8bfa6d	0.27339497
9	0x3ef93f48	0.48681092
10	0xbf567256	-0.8376821
11	0x3e56cccf	0.20976566
12	0x3e439fbd	0.19103904
13	0x3ee76bb8	0.4519937
14	0x3e857ef1	0.2607341
15	0x3f835a22	1.0261881
16	0x3e35bbf6	0.17747483
17	0x3f0675a0	0.5252323
18	0x3eb4b67c	0.35295475
19	0x3e88dd06	0.26731128
20	0xbf73d00f	-0.9523935
21	0xbfa3ec91	-1.2806569
22	0x3ecd47dc	0.40093887
23	0x3efe9704	0.4972459
24	0x3e2aee8a	0.16692558
25	0xbf12126d	-0.57059366
26	0x3dea1ec4	0.11431649
27	0x3eb56f19	0.35436323
28	0x3e41605d	0.18884416
29	0xbfbf4d73	-1.4945511
30	0x3ea62f16	0.324578
31	0x3e92c709	0.28667477
32	0xbf397580	-0.72444916
33	0x3f1c746a	0.61115134
34	0xbf1618b5	-0.5863145
35	0x3e784919	0.24246635
36	0x3e895e8f	0.26829955
37	0x3ee504ef	0.44730327
38	0x3db2d288	0.08731562
39	0xbf917476	-1.1363666
40	0x3ebf52bf	0.37367818
41	0x3eb18c96	0.3467757
42	0xbf4b36f4	-0.79380727
43	0x3eec3cce	0.4614014
44	0x3d9ce9b1	0.076617606
45	0x3f410382	0.7539598
46	0x3e69158a	0.22762123
47	0xbed06b93	-0.40707073
48	0x3eb00824	0.3438121
49	0x3e237707	0.15963374
50	0x3e15cbbf	0.14628504
51	0x3eabaf93	0.3353239
52	0x3e9b9184	0.30384457
53	0x3f011c70	0.5043402
54	0x3e825fc4	0.25463688
55	0x3eb64998	0.35603023
56	0x3f320694	0.6954129
57	0xbfafc87c	-1.3733058
58	0x3f0540f4	0.52052236
59	0xbfa45add	-1.2840229
60	0x3e8f5c7f	0.28000256
61	0xbfb81efe	-1.4384458
62	0x3f896493	1.0733818
63	0xbe957215	-0.291886
64	0xbf73e1c0	-0.9526634
65	0x3eab5a5a	0.3346737
66	0x3ee265c5	0.4421827
67	0x3f13a1f3	0.5766899
68	0xbf3041c4	-0.6885035
69	0xbe8066b5	-0.2507836
70	0x3e5be58f	0.21474288
71	0x3f31f4c3	0.695141
72	0xbf24c20a	-0.6435858
73	0x3f207cb8	0.62690306
74	0x3e266d74	0.1625269
75	0x3e6a200d	0.22863789
76	0x3e82bd02	0.25534827
77	0x3e9def3a	0.30846578
78	0xbf4ab3f6	-0.7918085
79	0x3ea0da12	0.31416374
80	0xbfd50523	-1.6642193
81	0x3f33187a	0.69959223
82	0xbeef4022	-0.46728617
83	0xbf85cb9c	-1.0452762
84	0x3e1683d6	0.14698729
85	0xbf6e4e32	-0.93088067
86	0xbec80de8	-0.3907311
87	0x3de1a31c	0.11017439
88	0xbecc6fa8	-0.39928937
89	0xbfbaf36e	-1.4605539
90	0x3ec1f04c	0.37878644
91	0x3ea95a2a	0.33076602
92	0x3f0a4ec7	0.54026455
93	0x3f04063a	0.51572
94	0xbec3061d	-0.38090602
95	0x3ecc800d	0.39941445
96	0x3e911dcc	0.28343046
97	0x3ebc1742	0.36736494
98	0x3f0157c8	0.5052457
99	0x3ec02210	0.37525988
100	0x3ed78189	0.42091015
101	0x3eac8ac2	0.33699614
102	0x3f0cb895	0.5496915
103	0x3f1db0f5	0.6159814
104	0x3e1ffa8e	0.15622923
105	0x3ef1c9b3	0.47224197
106	0x3e86b055	0.26306406
107	0x3e96b2d8	0.29433322
108	0x3dfe3991	0.12413324
109	0x3ee6cda0	0.45078754
110	0x3ebec194	0.37257063
111	0x3e9975b6	0.2997262
112	0x3e822942	0.25422102
113	0x3e99b12c	0.30017984
114	0xbfc78a31	-1.5589048
115	0xbfceabe4	-1.6146207
116	0x3ec610db	0.38684735
117	0x3e12eb7b	0.14347641
118	0xbf45365f	-0.7703609
119	0xbf854625	-1.0412031
120	0x3f8660fe	1.049835
121	0x3e6c9d30	0.23106837
122	0x3e28b313	0.16474561
123	0x3ec9d724	0.39421952
124	0xbf9659da	-1.174617
125	0x3eea96c4	0.4581815
126	0x3eb3cd24	0.35117447
127	0xbf13322e	-0.57498443
128	0xbf1d16b5	-0.61362773
129	0x3ec47299	0.3836868
130	0x3f4833f5	0.7820428
131	0x3e4ce44f	0.20008968
132	0xbea9ef04	-0.33190167
133	0x3e41bd37	0.18919836
134	0xbf9b5e22	-1.2138102
135	0x3f7f7aad	0.99796563
136	0xbf417ef9	-0.7558437
137	0x3e0d9928	0.13827956
138	0x3ef4f8e3	0.47846135
139	0x3f399d65	0.7250579
140	0x3f11b132	0.56911004
141	0xbf5793bf	-0.8420982
142	0x3e96af59	0.29430655
143	0x3f810998	1.0081053
144	0x3eba7434	0.3641678
145	0xbd2f177d	-0.04274701
146	0x3ddf059d	0.108897425
147	0x3e9d10cb	0.30676875
148	0x3ef89269	0.48549202
149	0x3ebc18a0	0.36737537
150	0x3e991458	0.29898334
151	0x3eec877e	0.46197122
152	0x3e3a7a5c	0.18210739
153	0x3f9b19a9	1.2117206
154	0x3e3e3513	0.18574934
155	0x3e9390d6	0.2882144
156	0x3ec6fbe4	0.38864052
157	0x3f2b4667	0.669043
158	0xbf25705e	-0.64624584
159	0x3ec7bfff	0.3901367
160	0x3e8dcd3a	0.27695638
161	0x3ed9a7a7	0.4251072
162	0xbf923fb7	-1.1425694
163	0x3eec5991	0.46162084
164	0x3dbf6a97	0.09346502
165	0x3ec029c9	0.3753188
166	0x3e60263f	0.2188959
167	0x3e6a03b7	0.2285298
168	0x3e7c1d90	0.24620652
169	0xbf559c86	-0.8344196
170	0x3f11b608	0.5691838
171	0x3e6f6348	0.23377717
172	0x3f18b91b	0.5965745
173	0xbec060a8	-0.37573743
174	0x3f665edf	0.8998851
175	0x3d376b93	0.044780325
176	0x3e957575	0.29191175
177	0x3f31d78e	0.69469535
178	0x3f0cc5b6	0.5498918
179	0x3ee97c78	0.45602775
180	0x3eaf806f	0.34277675
181	0x3e76e176	0.24109444
182	0x3f3b19cb	0.7308623
183	0xbec789a5	-0.38972202
184	0x3eef647a	0.46756345
185	0x3f1e6635	0.61874706
186	0x3e382f4c	0.17986792
187	0xbf50aef8	-0.8151698
188	0x3f82f3c8	1.0230646
189	0x3e506ba3	0.2035356
190	0x3ed1d76b	0.40984663
191	0x3ef779d8	0.48335147
192	0xbed927a3	-0.42413053
193	0x3e2a3397	0.16621242
194	0xbf57d1e3	-0.84304637
195	0x3e259e79	0.16173734
196	0xbf069567	-0.5257172
197	0x3ea1d712	0.31609398
198	0x3e27eada	0.16398183
199	0xbf7228fe	-0.945938
200	0x3eb6168b	0.35564074
201	0x3ebfcec5	0.3746244
202	0xbf381210	-0.7190256
203	0x3f7edb5d	0.9955347
204	0x3e877cd5	0.26462427
205	0xbf85e61a	-1.0460846
206	0x3ecd9b38	0.40157485
207	0x3ee48ca8	0.44638562
208	0x3e9c663e	0.30546755
209	0x3ee09733	0.43865356
210	0x3eecffcb	0.46288905
211	0x3ea2f8b3	0.31830367
212	0x3ee870b3	0.45398483
213	0x3e9603d7	0.29299805
214	0x3eea712d	0.4578947
215	0x3eb2b6ef	0.34905192
216	0x3e99c285	0.3003122
217	0xbf6fa9c8	-0.9361844
218	0x3f0392e1	0.51395994
219	0xbd12b498	-0.03581676
220	0x3f283e23	0.65719813
221	0x3eee7e90	0.46580935
222	0x3e61c87c	0.22049135
223	0xbff5adf7	-1.9193715
224	0x3df71317	0.12064188
225	0x3ef3d3a5	0.4762241
226	0x3e7936eb	0.24337356
227	0xbf4ad812	-0.7923595
228	0x3f2f055d	0.6836756
229	0x3f69f214	0.91385007
230	0x3f9e8d52	1.2386878
231	0x3ebe10e0	0.3712225
232	0x3e3fe0a4	0.18738037
233	0x3e38e11c	0.18054622
234	0xbf0c959f	-0.54915804
235	0x3e24781a	0.1606144
236	0x3e414a3d	0.18875976
237	0xbefc440e	-0.49270672
238	0x3f15d0b7	0.585216
239	0x3ee61e97	0.44945213
240	0x3d2d0535	0.042241294
241	0x3e33047e	0.17482182
242	0x3edd06b9	0.4316919
243	0x3ef29546	0.47379512
244	0xbf94b8ba	-1.1618874
245	0x3e540be6	0.20707664
246	0xbc38d9cf	-0.011282398
247	0xbf2f4541	-0.6846505
248	0x3eb634f6	0.3558728
249	0xbf30ff90	-0.6913996
250	0x3eac1add	0.33614245
251	0x3ea58a81	0.32332233
252	0x3f3a38a2	0.72742665
253	0x3f165cac	0.58735156
254	0x3ebe750d	0.37198678
255	0x3ec46756	0.3836009

linear2.bias f4 [256]
0	0x3efc1764	0.49236596
1	0x3ee9d577	0.45670673
2	0x3f5d2fb7	0.8640093
3	0x3ee7b184	0.4525262
4	0x3ee99ce1	0.45627502
5	0x3eb300d0	0.34961557
6	0x3ecfc54f	0.40580222
7	0x3ed169a3	0.40900907
8	0x3ebc21c5	0.36744514
9	0x3eea3cc6	0.4574949
10	0x3eb59e97	0.35472557
11	0x3efee26d	0.49782124
12	0x3ebaef0c	0.36510503
13	0x3ed41f60	0.41430187
14	0x3eb8bded	0.36082402
15	0x3f003a0b	0.50088567
16	0x3ebdf701	0.37102512
17	0x3f078fbb	0.5295369
18	0x3ee5f735	0.44915166
19	0x3eb912dc	0.361472
20	0x3ebfb92b	0.3744596
21	0x3eb4ada9	0.35288742
22	0x3eb84716	0.35991734
23	0x3e4c6053	0.1995862
24	0x3ec00102	0.3750077
25	0x3eac5808	0.33660913
26	0x3f57a5e0	0.8423748
27	0x3eba6dc9	0.36411884
28	0x3efb60c9	0.4909728
29	0x3ee848fe	0.4536819
30	0x3ee33e5b	0.4438351
31	0x3eea43b3	0.45754775
32	0x3ed202d1	0.41017774
33	0x3ef287be	0.47369188
34	0x3ed6fa06	0.41987628
35	0x3ee6e451	0.45096067
36	0x3edf756f	0.43644282
37	0x3ee59bce	0.44845432
38	0x3f0326a5	0.5123084
39	0x3ef696e5	0.48161998
40	0x3ef63ba3	0.48092374
41	0x3ec6293e	0.3870334
42	0x3ec4a5f2	0.38407856
43	0x3ec6ae6a	0.38804942
44	0x3f01aaab	0.50651044
45	0x3eeea59e	0.4661073
46	0x3edd33a8	0.43203473
47	0x3ee995bb	0.45622048
48	0x3ec0fb91	0.3769193
49	0x3ec9670f	0.3933644
50	0x3efdd343	0.49575242
51	0x3edd6a3b	0.4324511
52	0x3f842a3e	1.0325391
53	0x3ed84e21	0.42247108
54	0x3e6b9fa0	0.23010111
55	0x3f55c8d3	0.8350956
56	0x3eaabf65	0.33349147
57	0x3ed8acc6	0.42319316
58	0x3ee95cdd	0.45578662
59	0x3ee6cca4	0.45078003
60	0x3ef6471b	0.48101124
61	0x3ec92263	0.39284047
62	0x3d047de9	0.03234664
63	0x3edce2d2	0.431418
64	0x3f00e2e6	0.5034622
65	0x3efd36cc	0.4945587
66	0x3ecaa0dc	0.3957585
67	0x3ed0b13e	0.40760225
68	0x3f06930b	0.5256812
69	0x3f2a7bc1	0.66595083
70	0x3e86996b	0.26288924
71	0x3ea29d04	0.31760418
72	0x3ed99c3b	0.42502007
73	0x3ed13d35	0.4086701
74	0x3eb59134	0.35462344
75	0x3ec7470a	0.38921386
76	0xbc5bbbfe	-0.01341152
77	0x3ef54197	0.47901604
78	0x3ef677d3	0.48138294
79	0x3ec11763	0.37713155
80	0x3ed56f0a	0.4168628
81	0x3ef64b85	0.48104492
82	0x3f5488e1	0.8302136
83	0x3ee413a5	0.44546238
84	0xbc7b17bc	-0.015325483
85	0x3eddc5db	0.43315014
86	0x3eae642a	0.34060794
87	0x3eedcaaf	0.46443698
88	0x3f03b296	0.51444376
89	0x3ed1362b	0.4086164
90	0x3ee207ea	0.44146663
91	0x3f0f3cc3	0.5595209
92	0x3ecccd78	0.4000051
93	0x3f0049dc	0.501127
94	0x3ec7d1c5	0.3902723
95	0x3ecb291f	0.3967981
96	0x3f07596d	0.5287083
97	0x3f078efa	0.5295254
98	0x3eac1fd9	0.33618048
99	0x3ebf169a	0.3732193
100	0x3eea5f50	0.45775843
101	0x3ed70f01	0.42003635
102	0x3ebf3657	0.37346146
103	0x3f0bfb80	0.54680634
104	0x3eb746e1	0.35796264
105	0x3eb6a009	0.35668972
106	0x3ee603e4	0.44924843
107	0x3ec492ef	0.3839335
108	0x3eac54da	0.33658487
109	0x3ed0f2e4	0.4081031
110	0x3ef6aa6f	0.48176906
111	0x3ed34860	0.41266155
112	0x3f04e512	0.51912034
113	0x3effb1b8	0.49940276
114	0x3ef8f2f2	0.48622853
115	0x3ed62926	0.4182827
116	0x3edb6a77	0.42854664
117	0x3f1683cc	0.58794856
118	0x3f750394	0.95708585
119	0x3edceae7	0.43147966
120	0x3ecfc5bb	0.40580544
121	0x3eb8d296	0.36098164
122	0x3f11459d	0.56746846
123	0x3eaa8878	0.33307242
124	0x3edeceac	0.43517053
125	0x3ec674bc	0.38760936
126	0x3ed3718a	0.4129756
127	0x3ed49f20	0.41527653
128	0x3ef8b25b	0.48573574
129	0x3edd5449	0.43228367
130	0x3ed122f6	0.40846986
131	0x3eafe5b0	0.34354925
132	0x3ec02788	0.3753016
133	0x3f1ad900	0.60487366
134	0x3ea8d433	0.32974395
135	0x3ed78b76	0.42098588
136	0x3ed420bb	0.4143122
137	0x3edf1827	0.43573114
138	0x3ec5a5a8	0.38602948
139	0x3eb73e82	0.35789877
140	0x3eec68ed	0.46173802
141	0x3f2976cc	0.66196895
142	0x3ed01e33	0.4064804
143	0x3ec367c8	0.38165116
144	0x3ede6096	0.43433064
145	0x3ec12a0f	0.377274
146	0x3ec29149	0.3800147
147	0x3f04d28d	0.51883775
148	0x3ee6a345	0.4504644
149	0x3ecb04ab	0.39652
150	0x3eb0ae2b	0.3450788
151	0x3f67836a	0.90434897
152	0x3ee117be	0.43963426
153	0x3ec54f79	0.38537195
154	0x3f00e407	0.5034794
155	0x3edfd803	0.4371949
156	0x3eabc525	0.33548847
157	0x3f64a9e6	0.89321744
158	0x3eba9942	0.3644505
159	0x3ebd27f2	0.36944538
160	0x3f58c65e	0.84677684
161	0x3edb90b3	0.42883834
162	0x3eeaa050	0.45825434
163	0x3ee40788	0.44536996
164	0x3e67fa36	0.22654042
165	0x3ecc3e61	0.3989134
166	0x3ef183b3	0.4717079
167	0x3eea335e	0.45742315
168	0x3ebd26ea	0.36943752
169	0x3f1d6a2d	0.61490136
170	0x3ed42165	0.41431728
171	0x3ecd3864	0.40082085
172	0x3eed5974	0.4635731
173	0x3f031fbc	0.512203
174	0x3ee23f3c	0.4418887
175	0x3ec4da71	0.38447908
176	0x3e79bac6	0.24387655
177	0x3ed55ec9	0.41673878
178	0x3ee752df	0.45180413
179	0x3edf6821	0.43634132
180	0x3ee34954	0.44391882
181	0x3f53c73c	0.8272588
182	0x3f0d94d6	0.5530523
183	0x3ed2993d	0.41132537
184	0x3f262153	0.648946
185	0x3ecb97b4	0.39764178
186	0x3f2ef2c2	0.6833917
187	0x3f59c94e	0.8507279
188	0x3eb4c606	0.3530733
189	0x3f62d47a	0.88605464
190	0x3ebcaa26	0.36848563
191	0x3eb592cb	0.35463557
192	0x3ed4de4b	0.41575846
193	0x3ef5712c	0.47937906
194	0x3ec6ea56	0.3885066
195	0x3eceac12	0.40365654
196	0x3eb109ba	0.34577733
197	0x3eb5661c	0.35429466
198	0x3ec31e2d	0.3810896
199	0x3ebe25b5	0.37138143
200	0x3eb9cf21	0.3629084
201	0x3ecde19f	0.40211198
202	0x3ecc1388	0.3985865
203	0x3eb4458f	0.3520932
204	0x3ebad9c9	0.36494282
205	0x3eb5c007	0.35498068
206	0x3efe2215	0.49635378
207	0x3ed116e3	0.40837774
208	0x3ee159f7	0.4401395
209	0x3ef856c1	0.48503688
210	0x3ebf2a56	0.37336987
211	0x3ed99761	0.42498305
212	0x3ec3bb39	0.38228777
213	0x3eb98b6f	0.36239192
214	0x3ee57918	0.4481895
215	0x3f4c5260	0.79813194
216	0x3eb91292	0.3614698
217	0x3ed91689	0.42400005
218	0x3f03003a	0.5117222
219	0x3eaa69d8	0.33283877
220	0x3ec1e51d	0.37870112
221	0x3e69b4db	0.22822897
222	0x3ee53611	0.44767812
223	0x3ed4b854	0.4154688
224	0x3ea886bc	0.32915294
225	0x3eedfdb4	0.46482623
226	0x3f48d165	0.7844451
227	0x3ed40025	0.4140636
228	0x3ed96df7	0.4246671
229	0x3ec7cd31	0.39023736
230	0x3eb73b8f	0.35787627
231	0x3efe3e56	0.49656934
232	0x3ef38d32	0.4756866
233	0x3eea3262	0.45741564
234	0x3edcb0e4	0.43103707
235	0x3f424af3	0.75895613
236	0x3eb393a3	0.35073575
237	0x3eda7666	0.42668456
238	0x3ee5110b	0.44739565
239	0x3ebd5235	0.3697678
240	0x3ee231a9	0.44178513
241	0x3eb132e1	0.3460913
242	0x3edbff27	0.42968103
243	0x3edbdc25	0.42941394
244	0x3eca9d67	0.39573213
245	0x3ed3abab	0.4134191
246	0x3f0a8531	0.54109484
247	0x3ed00475	0.406284
248	0x3eca57a6	0.39519995
249	0x3f01c3a3	0.5068914
250	0x3eaf5eef	0.34252116
251	0x3efbf73d	0.49212065
252	0x3f043612	0.51645005
253	0x3ee4795f	0.4462385
254	0x3ec95b55	0.39327493
255	0x3ef07f23	0.46971998

linear3.weight f4 [1, 256]
0	0xbfa7e295	-1.3116022
1	0xbfa72fcd	-1.3061463
2	0xbfac905b	-1.3481554
3	0xbf9c4810	-1.2209492
4	0xbfbe65c8	-1.4874811
5	0xbfb79446	-1.4342124
6	0xbfaefe7d	-1.3671414
7	0xbfbb9e15	-1.4657618
8	0xbfb8154c	-1.4381499
9	0xbfab34cc	-1.3375487
10	0xbfb6f011	-1.4292012
11	0xbf9c27c8	-1.219964
12	0xbfbd6d73	-1.4799026
13	0xbfbecc2e	-1.4906061
14	0xbfb368ae	-1.4016321
15	0x4026050e	2.5940585
16	0xbfaf239b	-1.3682741
17	0x40278b9d	2.6178963
18	0xbfb377fb	-1.402099
19	0xbfc03dba	-1.5018837
20	0xbfbcead8	-1.4759169
21	0xbfbadea8	-1.4599199
22	0xbfbaef05	-1.4604193
23	0xc038e8d3	-2.8892105
24	0xbfbced70	-1.475996
25	0xbfba26b6	-1.4543064
26	0xbfab094d	-1.3362213
27	0xbfb571d5	-1.4175364
28	0xbfbf9864	-1.4968381
29	0xbfbdcb66	-1.4827697
30	0xbfbd1431	-1.4771787
31	0xbfbbb1fb	-1.466369
32	0xbfa6ab4a	-1.3021023
33	0xbf9ebd10	-1.2401447
34	0xbfbb1c5c	-1.461803
35	0xbfb1f9ff	-1.3904418
36	0xbfa00f8e	-1.2504747
37	0xbf9df1ae	-1.233938
38	0xbf9d6b6c	-1.2298408
39	0xbfa768cd	-1.3078858
40	0xbfa69a7c	-1.3015895
41	0x4071e04d	3.7793152
42	0xbfb3fd6c	-1.4061713
43	0xbfb8a58f	-1.4425524
44	0xbfa03122	-1.2514994
45	0xbf9fc098	-1.248065
46	0xbfb7ac92	-1.4349539
47	0xbfa4f53c	-1.288734
48	0xbfb17874	-1.3864884
49	0xbfafc15e	-1.3730886
50	0x4026769f	2.60099
51	0xbfa9b2a6	-1.3257644
52	0xbfc89458	-1.5670271
53	0xbfb90261	-1.4453851
54	0xc02a936c	-2.665248
55	0xbfcc45d5	-1.5958811
56	0x4064a5fb	3.5726306
57	0xbfba836b	-1.4571356
58	0xbf9afed0	-1.2109013
59	0xbfbe8fc7	-1.4887627
60	0xbfac7e8f	-1.3476123
61	0xbfb2a741	-1.3957292
62	0xbb364af5	-0.0027815674
63	0xbfbb69dd	-1.4641682
64	0xbfa47afa	-1.285003
65	0xbf9e512b	-1.236852
66	0xbfb3501b	-1.4008821
67	0xbfbda8d3	-1.4817146
68	0xbfbb4947	-1.4631737
69	0xbf9ebc97	-1.2401303
70	0xc02355af	-2.5521047
71	0xc02a80d2	-2.6641126
72	0xbfbb0409	-1.4610606
73	0xbfb8cd0b	-1.4437574
74	0xbfb6fe63	-1.4296383
75	0xbfb9e89f	-1.4524115
76	0x3b455ca3	0.003011503
77	0xbfa5a044	-1.2939534
78	0xbfa851f4	-1.315001
79	0xbfbc4cd8	-1.4710951
80	0xbfba26e3	-1.4543117
81	0xbfa68ea3	-1.3012279
82	0xbfa47b8b	-1.2850202
83	0xbfa7e450	-1.311655
84	0x3a4140f1	0.0007372043
85	0xbfa366fc	-1.2765803
86	0xbfa76679	-1.3078147
87	0xbf9ed2a1	-1.2408029
88	0xbfbe7391	-1.4879018
89	0xbfbc6ee2	-1.4721339
90	0xbfb95257	-1.4478253
91	0xbfa18c73	-1.2620987
92	0xbfabc232	-1.3418639
93	0xbfa63df8	-1.2987661
94	0xbfbeb1f6	-1.4898059
95	0xbf9ba303	-1.2159122
96	0xbfac3d48	-1.3456202
97	0xbf9dbd60	-1.2323418
98	0xbfb781a4	-1.4336438
99	0xbfbf81fd	-1.4961544
100	0xbfbe3ab5	-1.4861666
101	0xbfaef5d0	-1.3668766
102	0xbfbebdfa	-1.4901726
103	0xbf9d38ef	-1.2283
104	0xbfb27227	-1.3941087
105	0xbfb91340	-1.4459
106	0xbfba3de7	-1.4550141
107	0xbfba3606	-1.4547737
108	0xbfb77bfe	-1.4334714
109	0xbfb43bf3	-1.4080795
110	0xbfa8cd85	-1.318772
111	0xbfbe3bb2	-1.4861968
112	0xbfa685f9	-1.3009635
113	0xbfaacb06	-1.3343208
114	0xbfa616f3	-1.2975754
115	0xbfacf0da	-1.3511002
116	0xbfb2b500	-1.3961487
117	0x4026dcd5	2.6072285
118	0xbfc7f26e	-1.5620859
119	0xbfbd50a9	-1.479024
120	0xbfa08edd	-1.2543598
121	0xbfafae53	-1.3725075
122	0xbf9c51ef	-1.2212504
123	0xbfb3b52c	-1.4039664
124	0xbfba0e5d	-1.4535633
125	0xbfb6efd6	-1.4291942
126	0xbfbcdf22	-1.4755595
127	0xbfb70394	-1.4297967
128	0x4020d8ac	2.5132246
129	0xbfb0b5aa	-1.380544
130	0xbfba75e4	-1.4567227
131	0xbfb4b823	-1.4118694
132	0xbfae9bab	-1.3641256
133	0xbf9ae62f	-1.2101496
134	0xbfb80bbe	-1.4378583
135	0xbf9d2677	-1.2277364
136	0xbfc0d8c2	-1.5066149
137	0xbfbc245a	-1.4698594
138	0xbfb01a1c	-1.3757968
139	0xbfab17cd	-1.3366638
140	0xbf9b513b	-1.2134165
141	0xbf99aa82	-1.200516
142	0xbfb1733a	-1.3863289
143	0xbfb6dc86	-1.4286048
144	0xbfae576e	-1.3620431
145	0xbfb9d41d	-1.4517857
146	0xbfbab93d	-1.458778
147	0xbf991a27	-1.1961106
148	0xbfb8e986	-1.4446266
149	0xbfb6b170	-1.42729
150	0xbfb9da41	-1.4519731
151	0xbfc17909	-1.5115062
152	0xbf995654	-1.197947
153	0xbfb6f603	-1.4293827
154	0xbfc01d6e	-1.5008981
155	0xbfb82467	-1.4386109
156	0xbfb152be	-1.3853376
157	0xbfa5f5fb	-1.2965692
158	0x4068704d	3.6318543
159	0xbfb2869a	-1.3947327
160	0xbfc7d76d	-1.5612618
161	0xbfc00712	-1.5002158
162	0xbfa72e25	-1.3060957
163	0xbf9e0276	-1.2344501
164	0xc02ad1ed	-2.6690629
165	0xbfa1dfe8	-1.2646456
166	0xbf9af7fe	-1.2106931
167	0xbfbce75c	-1.4758105
168	0xbfbaecbe	-1.4603498
169	0xbf9d672c	-1.229711
170	0xbfb79dc4	-1.4345021
171	0xbfb8a1cd	-1.4424378
172	0xbf9eb2b8	-1.2398291
173	0xbf9e0759	-1.2345992
174	0xbfb31417	-1.3990506
175	0xbfb2c831	-1.3967344
176	0xc01f4203	-2.488404
177	0xbfbce32a	-1.4756825
178	0xbfa5c6ae	-1.2951257
179	0xbfbd1903	-1.4773258
180	0xbfabf49c	-1.3434024
181	0xbfb82a63	-1.4387935
182	0xbfa7962c	-1.3092704
183	0xbfb4371e	-1.407932
184	0xbfa330b5	-1.2749239
185	0xbfbc88d4	-1.4729257
186	0xbf9adc72	-1.2098525
187	0xbfb89966	-1.4421813
188	0xbfba94f4	-1.4576707
189	0xbfcf8208	-1.6211557
190	0xbfac1ef8	-1.3446951
191	0xbfbe1763	-1.4850887
192	0xbfa64619	-1.2990142
193	0xbfbfdb50	-1.4988804
194	0xbfbaf0b0	-1.4604702
195	0xbfbc1be9	-1.4696018
196	0xbfb8c5c2	-1.4435351
197	0xbfb595a3	-1.418629
198	0xbfb8f049	-1.4448329
199	0xbfbc0f97	-1.4692258
200	0xbfbe7d92	-1.4882071
201	0xbfbd31c5	-1.4780813
202	0xbfbd89d8	-1.4807692
203	0xbfbd2128	-1.4775743
204	0xbfb687ca	-1.426019
205	0xbfbe3383	-1.485947
206	0xbfa783ed	-1.3087136
207	0xbfa4bf9e	-1.2870977
208	0xbfbbf195	-1.46831
209	0xbfa8a158	-1.3174238
210	0xbfb33044	-1.3999104
211	0xbfbc63a7	-1.4717911
212	0xbfbe0dc3	-1.484795
213	0xbfbdca10	-1.482729
214	0xbfac6608	-1.3468637
215	0x4046d946	3.1070113
216	0xbfae6d2e	-1.3627069
217	0xbfb8017d	-1.4375454
218	0xbfab2b61	-1.3372613
219	0xbfafb876	-1.3728168
220	0xbfbb5365	-1.4634825
221	0xc02b7582	-2.679047
222	0xbf9b3c8d	-1.2127854
223	0xbfb4bfcc	-1.4121032
224	0xbfb6098c	-1.4221663
225	0xbfbd7271	-1.480055
226	0x403fa93b	2.994704
227	0xbfbe041e	-1.4845006
228	0xbfc07c85	-1.5038
229	0xbfb8bf58	-1.4433393
230	0xbfb9ca8a	-1.4514935
231	0xbfbfa4d6	-1.4972179
232	0xbf9b3dc3	-1.2128223
233	0xbfc118b5	-1.5085665
234	0xbfb16ce7	-1.3861359
235	0x405f5ab0	3.4899101
236	0xbfc0f3be	-1.5074384
237	0xbfbfea75	-1.4993426
238	0xbfbf1739	-1.4928962
239	0xbfb1c6a0	-1.388874
240	0xbfb7a036	-1.4345767
241	0xbfb5616d	-1.4170357
242	0xbfba3eb8	-1.455039
243	0xbfbefc30	-1.4920712
244	0xbfba6dc4	-1.4564748
245	0xbfb2b84f	-1.3962497
246	0xbfa95017	-1.3227566
247	0xbfaa9ae6	-1.3328521
248	0xbfb429b6	-1.4075229
249	0xbfbec912	-1.4905112
250	0xbfbc1d8f	-1.469652
251	0xbf9e5ca2	-1.2372019
252	0xbf9d6bfd	-1.229858
253	0xbfb5aca2	-1.4193308
254	0xbfb85c4e	-1.4403169
255	0xbf9d43f2	-1.228636
