testing/scripts/outputs/DDPG_Env/20221214-123050/models/1350actor_checkpoint.pt (torch, 281431 bytes, 5 tensors)

linear1.weight f4 [256, 14]
000000 9a 6e 9d 3e 34 51 b6 3d a2 c0 22 bd 09 cb 2b be
       0.30748445 0.08902207 -0.03973449 -0.1677667
000010 4e 27 46 3d 2d 26 b9 3d 77 87 83 be 40 10 be be
       0.048377328 0.090404846 -0.2568929 -0.37121773
000020 7b 34 23 3d 90 d6 eb 3c 4e c7 b8 ba fb d9 8d be
       0.03984497 0.028788835 -0.0014097483 -0.27705368
000030 f9 15 83 ba 9a ec 40 be 90 62 a2 be e8 15 7d be
       -0.0010001055 -0.18840256 -0.31715822 -0.24715388
000040 f9 c8 18 3c eb 37 3f 3e 5c 8d a5 3e af 47 5f be
       0.009325259 0.18673675 0.3233441 -0.21804689
000050 5d 8a 20 be ae bd 42 3e 82 e4 dd 3d 8c fa 71 bd
       -0.15677781 0.1901767 0.108346 -0.05907683
000060 cb 0b 36 be 86 7f 54 be 2f 3f 5e be fa 4f dd 3c
       -0.17777936 -0.20751771 -0.2170379 0.027015675
000070 d2 4b 8a be 0b 64 f8 bc 86 fc 59 bc 5a c6 4d 3e
       -0.2701097 -0.030321142 -0.013304835 0.20095196
000080 94 1d 9e 3d 50 c1 0f be c3 4f be bd 2a 6a cb 39
       0.07720485 -0.14038587 -0.09292557 0.00038798276
000090 9c 3d ad 3d 8b 4e 07 3e 67 65 cc bd 1f de 83 3e
       0.08459017 0.13213556 -0.099802785 0.25755402
0000a0 ba 52 72 bc 9a 86 8b be 22 f2 b1 3d b2 02 15 be
       -0.014790231 -0.2725113 0.08688761 -0.1455181
0000b0 76 24 d4 be 4e 94 3d 3e 74 76 8b 3e 42 12 3b 3e
       -0.41434067 0.18513605 0.2723881 0.18268684
0000c0 9a 90 9b 3d a5 32 b5 bc 97 ca a8 3d 18 48 aa bd
       0.0759594 -0.022118876 0.08241766 -0.08314532
0000d0 b9 90 d0 3d 5a b4 5c be 8e 1c 93 3d 93 e6 40 3e
       0.10183854 -0.21553174 0.07183181 0.18837957
0000e0 2f 84 a1 3d 6b 39 21 3e 0c 10 8e bd 4b b3 9d 3e
       0.0788654 0.1574456 -0.069366544 0.30800852
0000f0 41 cf da 3b 2e 79 b8 3c 66 0d 54 bd b6 ae 93 bd
       0.0066775386 0.02251872 -0.05177059 -0.07211058
000100 25 45 a0 bd db 7d 85 3e 45 c5 63 3e b1 df 40 3e
       -0.07825688 0.26072583 0.22243221 0.18835331
000110 44 95 92 be d7 40 0e 3e b4 75 11 3e 29 f5 25 3e
       -0.28629506 0.13891922 0.14205056 0.16206802
000120 ba ac 54 be 67 1e b9 3e 4a 11 b9 3e 32 35 99 3e
       -0.20769015 0.36156008 0.36146003 0.29923397
000130 4d 6f 12 be b9 e8 5f bd e4 eb 1f 3e d5 21 32 be
       -0.1430027 -0.0546653 0.15617329 -0.17395718
000140 35 40 93 bd 31 17 bc 3d 90 66 f9 3c 1c 93 26 be
       -0.07189981 0.09184111 0.030444413 -0.16267055
000150 2c 2f e5 3e 82 84 32 be f5 ef d2 39 11 5c e2 3d
       0.44762552 -0.1743336 0.00040233103 0.110527165
000160 fd 42 3b 3c 0e d8 f1 3d cb 3d af bc d6 d3 ab 3d
       0.0114295455 0.11808787 -0.02139177 0.08390014
000170 b5 8a a4 bd 3e ed 78 3e bd d5 56 3e b0 7e 5a be
       -0.08034269 0.2430925 0.20979972 -0.2133739
000180 4a c3 5e 3e b9 03 fd 3d ed 95 1b bd f7 ed 6b 3e
       0.21754184 0.12354226 -0.037984777 0.23039995
000190 7d 83 00 3e 30 12 a6 bd b8 de fc 3d 14 fb 21 be
       0.12550159 -0.08108938 0.12347168 -0.15818435
0001a0 c9 20 f7 3d 3a 65 62 be 22 0e c4 3d bc 82 3e be
       0.120668 -0.22108927 0.09573008 -0.18604559
0001b0 9c ea 6a 3e 05 f4 04 3e 5c 67 60 3e b3 90 92 3d
       0.22941059 0.12983711 0.21914428 0.071565054
0001c0 48 0c f6 bd 8d 53 cd bd 6a 2f 48 3e 4b f4 d1 3c
       -0.12014061 -0.10025702 0.19549337 0.025629183
0001d0 56 13 98 be 59 c0 6c be 32 de 88 3a 1a 07 7b 3e
       -0.29702252 -0.2312025 0.0010442196 0.24514428
0001e0 0c a4 a5 3e 7c 6b 48 3e 93 c7 4f bd fe e3 12 be
       0.3235172 0.19572252 -0.05072744 -0.14344785
0001f0 28 4f 80 3e 9a 24 47 3e 03 84 20 bd ac 63 a2 3e
       0.2506039 0.19447556 -0.039188396 0.3171667
000200 d0 af 2f be f6 ea 7c 3d d2 28 6a be 6c 36 31 be
       -0.17156911 0.061747514 -0.22867134 -0.17305917
000210 97 51 ad 3e bd 10 30 3c fa 80 ab 3d bf 4c 52 3c
       0.3385131 0.010746178 0.0837421 0.0128356805
000220 70 e0 19 be f8 7a 63 3d d9 d1 2d 3e 94 f3 21 bd
       -0.15027022 0.055537194 0.16974582 -0.039538935
000230 46 8c 6d 3d 75 a6 05 be 68 cc 6c bc 20 44 1f 3d
       0.057995103 -0.1305178 -0.014453031 0.03888333
000240 ba 4d 4f 3e 3e d6 b3 3e fa 76 cd 3d 09 81 69 3e
       0.20244494 0.3512439 0.100324586 0.2280313
000250 3e db a3 3d f9 08 6b 3c 0e ac 58 bd db dd 4c be
       0.080008015 0.014345401 -0.05289846 -0.20006506
000260 4e 93 55 3e 5a 19 0b be ee e1 51 3e 63 2c 14 3e
       0.20856974 -0.1358389 0.20496342 0.14470057
000270 7f f0 6f 3e 6a df 43 be 39 bd b8 3d 67 1f e6 bc
       0.23431586 -0.19128194 0.09020466 -0.028091146
000280 f2 fd d0 3c 8e 71 11 bc a4 5c 63 bd 49 67 74 b9
       0.025511716 -0.008877171 -0.05550827 -0.0002330813
000290 f6 8d df bd 9c 12 a9 bd ed c6 99 be 6c 5c 13 3e
       -0.10915749 -0.082555026 -0.3003458 0.14390725
0002a0 b6 4b 86 3d 90 08 5e be 8b 97 49 3e ea 75 dd bd
       0.065574095 -0.21682954 0.19686715 -0.10813506
0002b0 93 2b 51 be f5 11 b5 be ab 95 21 be 73 5e c0 bd
       -0.20426778 -0.35365263 -0.1577975 -0.09393015
0002c0 19 5d 90 bc 96 e9 4e 3e 15 0f 38 be e5 af ac bd
       -0.017622517 0.20206293 -0.17974503 -0.08431987
0002d0 78 1f d2 bc b9 2c dc 3d b3 9d 2a 3d b0 90 d0 3d
       -0.025649771 0.10750718 0.0416543 0.10183847
0002e0 25 18 84 3e 6f 6e 16 3e 4e 57 c7 3d be 6d 89 3e
       0.2579967 0.14690565 0.09733449 0.2684154
0002f0 b0 f0 e4 3e 3d e0 64 bd 42 6d 1a be 71 97 be bd
       0.4471488 -0.055877913 -0.15080741 -0.09306229
000300 86 3a 80 be df e1 9c 3d 54 cb 94 be 74 1a a2 3e
       -0.2504465 0.07660269 -0.29061377 0.31660807
000310 c1 8d cd bd 5a 27 9a 3e ce 1e 25 3e 37 7b 60 be
       -0.10036803 0.30108148 0.16125032 -0.21922003
000320 6b 79 a3 be 40 7a 70 3d eb e8 84 3b 1f 6b 83 3e
       -0.31928572 0.058710337 0.0040560863 0.25667664
000330 20 ac 3a 3e 10 1f 83 3e 40 bc 76 bd bf e2 a9 3c
       0.18229723 0.25609636 -0.060238123 0.020738004
000340 a4 a8 d4 3d 04 40 a2 3e e8 70 f0 3c e0 36 23 bc
       0.10383728 0.31689465 0.029350713 -0.009961814
000350 8c 4d f3 bd 89 0d 6b be 48 03 9b be c7 2c 21 be
       -0.11880025 -0.22954382 -0.3027594 -0.15739737
000360 37 40 61 be 2f a3 42 bc a0 d6 94 3c 04 1f 45 bc
       -0.21997152 -0.011879726 0.018168747 -0.0120313205
000370 23 78 12 bd af 5c 2f 3e 19 41 60 be 63 aa 40 3e
       -0.035759103 0.171252 -0.21899833 0.18814997
000380 fa bb b6 bd 85 8e 92 be 78 ae 7c 3e 3e 3d 3a be
       -0.089225724 -0.2862436 0.2467593 -0.18187425
000390 fa 5d 60 bd 80 ae 04 be 34 61 9f be 04 31 0c 3c
       -0.054777123 -0.12957191 -0.31128848 0.008556608
0003a0 87 56 e3 bd 88 17 05 3d 88 ac 3d 3d 54 ac 39 bc
       -0.11100488 0.032493144 0.046307117 -0.01133259
0003b0 24 6a b7 bd fc 38 5e be e2 b9 d7 3c 42 b1 59 be
       -0.089557916 -0.21701425 0.026333753 -0.21259025
0003c0 e6 32 a6 3d 2a 47 ea 3d ed ed b3 3e 86 7f 25 3d
       0.08115177 0.11439355 0.3514246 0.04040482
0003d0 42 64 29 be 53 58 13 be 6e 17 b2 3e 49 d2 bd 3e
       -0.16542152 -0.14389162 0.347835 0.37074497
0003e0 ff e1 1c bc 1d 02 69 bd 7e 56 ab bb 51 98 bd 3d
       -0.009575366 -0.05688678 -0.0052288165 0.09257568
0003f0 c9 89 38 3e 27 22 51 be dc f5 69 3d be 3c 61 be
       0.18021311 -0.20423184 0.057119235 -0.21995828

linear1.bias f4 [256]
000000 a4 ff ba bb 10 df a6 3d c3 01 52 3d fe 13 83 bd
       -0.0057067443 0.081480145 0.05127121 -0.064002976
000010 b3 3e fb 3d ae ea dc bd 99 73 32 be 3b ee b0 3d
       0.12267818 -0.10786949 -0.1742691 0.08639189
000020 29 c2 00 3d 4f 81 de 3d f2 26 8d 3e 6c 8a 49 3c
       0.031435166 0.108645074 0.27568775 0.012301069
000030 49 58 dc bd 8e 5b d1 3d bf 7a ff bc 5b 84 45 be
       -0.107590266 0.10222541 -0.03118646 -0.19288771
000040 9e 24 47 be 90 a7 75 3d 10 ec 18 3c 3e 5e 97 3d
       -0.19447562 0.059974253 0.009333625 0.07391022
000050 9a 75 51 3d 3a 20 33 be ee 7c 71 3e 34 28 88 3e
       0.051137544 -0.17492762 0.23582813 0.26593173
000060 3d a5 1d 3d e6 22 7e 3e 9e dc da 3b 6f 06 bf bd
       0.03848766 0.24818 0.0066791316 -0.09327399
000070 41 a5 5b 3d 00 a3 9e bd 68 16 e1 3d a7 f7 87 3e
       0.053624395 -0.077459335 0.10990602 0.2655613
000080 bc b7 0e be a7 2f df 3d 9e 74 5a 3d 25 80 e5 3d
       -0.13937277 0.10897761 0.05333387 0.11206082
000090 f2 b9 78 bd c8 8e 77 3e 10 e7 0d 3e 01 97 d8 bd
       -0.060724206 0.2417556 0.13857675 -0.10575677
0000a0 70 4c 91 3e cb cc b2 3d d3 b4 bc 3d 19 54 37 3e
       0.2837863 0.087304674 0.09214177 0.17903174
0000b0 ee 53 24 3d d9 ee bc bd a3 0f 31 be 5b 07 53 bd
       0.040119104 -0.09225244 -0.17291121 -0.051520687
0000c0 49 1d 8d 3e f7 5a f7 3c 84 a9 6c bc e8 6f 88 3e
       0.27561405 0.030194743 -0.014444713 0.26647878
0000d0 24 5b 0d 3e 8a 30 08 be c6 5c 61 3d 4a cd bb bd
       0.13804299 -0.13299766 0.055020116 -0.09170015
0000e0 5e f6 a3 bc f8 84 23 3e 8b 2c f7 bd f2 04 31 3e
       -0.020014938 0.15968692 -0.12069043 0.17287043
0000f0 a7 02 92 3d 99 97 66 be ae eb 90 3d d6 7e 23 bd
       0.07129412 -0.22518767 0.07076202 -0.039915882
000100 ac a4 74 bd 85 02 89 3e 3a 49 32 be 37 fe 64 be
       -0.059727356 0.26759735 -0.17410746 -0.223626
000110 51 d9 d3 3a bf 8e 5c 3e bc 32 aa 3e f8 9a 86 3d
       0.0016162788 0.21538828 0.33241832 0.06572527
000120 c2 b4 95 be bd f2 7c 3e 24 d6 fe 3c 3b f0 40 be
       -0.2923947 0.24701972 0.03110797 -0.1884164
000130 29 90 80 3e 96 36 c3 3d f6 f7 fd 3d b1 e4 cb 3d
       0.25109985 0.09531896 0.124008104 0.09955729
000140 14 66 24 3e 10 28 79 be 19 86 84 3e a0 d3 99 bc
       0.16054565 -0.24331689 0.25883558 -0.018777668
000150 57 54 a8 3c 89 22 ea 3b ab 74 34 3e b2 57 0c 3d
       0.020548029 0.00714523 0.1762263 0.03426332
000160 7f a9 a9 3d 4b 89 2e be a0 e0 7d 3c 28 9e 4d bd
       0.08284282 -0.1704456 0.015495449 -0.050199658
000170 42 cd 35 3e a8 36 50 3e 48 d4 8c 3d 2e 35 cf 3d
       0.17754081 0.2033335 0.06876427 0.10117565
000180 f3 29 7d 3e a1 60 8b bd cd a9 83 bd aa 04 b4 3d
       0.24723034 -0.0680554 -0.06428871 0.08789952
000190 fa e0 1f 3e 50 39 03 be 48 61 83 3e bf 28 d0 3d
       0.15613165 -0.12814832 0.25660157 0.10164022
0001a0 94 18 29 be 11 e8 77 be a0 ec a1 3d ca 39 71 3e
       -0.16513282 -0.2420962 0.07906461 0.23557201
0001b0 58 07 8c 3d 65 5c 38 bc e2 32 a1 bd 49 49 d0 3d
       0.06837338 -0.011252497 -0.07871033 0.10170228
0001c0 16 a3 0f bd 0f 32 52 3e 7c 13 4d bd e1 51 1a 3e
       -0.03506764 0.20526908 -0.05006741 0.15070297
0001d0 74 be 1c 3e 30 a5 cf bd b6 1c 2c be 10 81 88 3c
       0.15307027 -0.10138929 -0.16807827 0.016663104
0001e0 bc ae 9f bc 12 61 3c bd a2 e6 6a 3b 84 86 9b 3d
       -0.0194925 -0.04599101 0.0035843034 0.07594016
0001f0 e5 a2 38 bb 49 c5 02 bd 43 af a5 bd f7 1a 12 3d
       -0.0028173265 -0.031926427 -0.08090069 0.035670247
000200 33 7a 73 3e 6a d5 62 bd 9f a4 80 bd 70 f3 91 bd
       0.23777084 -0.05537931 -0.06281399 -0.0712651
000210 cb 7b 93 3d 12 71 86 3e 2b 60 bb 3d 8a 74 0e be
       0.07201346 0.2625814 0.09149202 -0.13911644
000220 af d3 c4 3d 00 36 8c 3e ae c6 96 3e 50 e0 8a be
       0.09610688 0.2738495 0.29448456 -0.27124262
000230 e4 61 8e 3e 5b 0b 63 be f8 fe 5f 3e 6f da 33 3e
       0.2780906 -0.221723 0.21874607 0.17563795
000240 f0 04 5a be 43 7f 57 3d ae 85 a2 bd cc 70 a3 be
       -0.21290946 0.0526116 -0.079356536 -0.31921995
000250 16 ae 90 bd ec b1 48 be 2f 15 2a 3e e8 c0 16 3e
       -0.07064454 -0.19599122 0.16609643 0.14722025
000260 38 cb 4f bd dc d3 08 be ef d9 50 be 1b 49 67 be
       -0.050730914 -0.13362068 -0.20395635 -0.22586481
000270 14 fd 4e 3e 1a 5e 68 3e 70 8a 08 be 27 d3 9f 3e
       0.20213729 0.22692147 -0.1333406 0.31215784
000280 4f 96 af 3e 1e 9a be bd 7a 00 81 3e 1f cf 81 3d
       0.34294364 -0.09306739 0.25195676 0.06338333
000290 df af 8c 3e 6a fd 92 3e 84 4d 5c 3e 5c a3 55 bd
       0.2747793 0.28708965 0.21513945 -0.052157745
0002a0 50 f4 62 3e b6 ef 50 3d b3 9a fc bb fa 59 b2 3d
       0.2216351 0.051009856 -0.0077088713 0.08708568
0002b0 08 7f 78 3e d1 ab 45 be 97 67 57 bd 5a 16 1e 3d
       0.24267209 -0.19303824 -0.052589025 0.038595535
0002c0 64 d0 e9 bd 80 57 03 3e e9 ef c8 3d dc ad 84 3e
       -0.114167005 0.12826347 0.09811384 0.25913894
0002d0 aa a8 b0 3d 98 a3 79 3d 34 f2 a1 bd 66 a9 34 3e
       0.0862592 0.06094703 -0.07907525 0.17642745
0002e0 e0 6a 21 be 4b 0f 1e 3d 23 88 67 bd 28 de 99 3e
       -0.15763426 0.038588803 -0.056526314 0.30052304
0002f0 70 dc 5b bd 6d e0 6c bc 48 55 89 be cd 11 50 3e
       -0.053677022 -0.014457804 -0.26822877 0.2031929
000300 1a 97 6b 3e c1 2a 5f 3e 8c 13 84 be d1 0c 92 3d
       0.2300686 0.21793653 -0.25796163 0.07131351
000310 f4 f0 63 3e 40 c2 39 3e dc 23 0e 3e 9c 9f 27 be
       0.22259885 0.18140507 0.13880867 -0.1636948
000320 8d f6 d9 bd 6b 05 ee 3a ff 51 2f 3d 9a 2b 5f be
       -0.10642729 0.0018159574 0.042802807 -0.21793976
000330 cb 4b 62 3e ed d6 cd bd cf 1c b2 3e 57 31 83 be
       0.22099225 -0.100507595 0.34787604 -0.2562358
000340 2f 52 99 3e f7 a2 cd bd ab c7 37 3e da 99 98 bd
       0.29945514 -0.10040849 0.17947261 -0.0745122
000350 5d ca 30 3e 3a 6f 3f bd d4 5b 1d be 79 a5 14 be
       0.17264695 -0.046736933 -0.15367061 -0.14516248
000360 ab df 8e 3e 26 aa 85 3e 34 51 01 be d4 b6 68 3e
       0.2790502 0.26106375 -0.12628633 0.22725993
000370 69 68 22 be c0 fc 74 3d da 69 ba bd c9 ff 5f be
       -0.15860142 0.059811354 -0.09102221 -0.21874918
000380 42 5a 74 bd dc db 86 3d 25 9b 91 3e af b8 3b 3e
       -0.05965639 0.065849036 0.28438678 0.1833217
000390 db 31 88 3e 7e 3c 8d bd fb bb 1e 3e f2 f7 c0 3d
       0.26600537 -0.068963036 0.15501396 0.09422292
0003a0 38 84 2e 3e c5 e3 88 3e 53 bd e8 bc 97 5e 49 3e
       0.17042625 0.26736274 -0.02841059 0.1966499
0003b0 18 64 2c be f5 8c c7 3c ba 6c 8b be 06 10 48 3d
       -0.16835058 0.024359206 -0.2723139 0.048843406
0003c0 64 5c c7 3d 6d 5d 04 be 9c 66 34 be 88 24 11 be
       0.09734419 -0.12926264 -0.17617267 -0.14174092
0003d0 b7 78 c2 3d ea 41 55 3e 7b d4 99 3d 3e 71 41 3e
       0.09495681 0.20825925 0.075112306 0.18890855
0003e0 80 27 20 3d 62 71 2f 3e 22 63 1a 3d 1c b8 56 be
       0.03910017 0.17133096 0.037692197 -0.2096867
0003f0 b4 8a 90 3c 48 29 64 3e d8 4d 66 3e f4 38 22 3e
       0.017644264 0.22281373 0.22490633 0.15842038

linear2.weight f4 [256, 256]
000000 91 bc 92 be f0 12 d2 3d 09 56 ae 3c c7 ec 8b 3d
       -0.2865949 0.10257518 0.02128126 0.06832271
000010 c8 92 63 3d cb 6f 55 3d d9 2c c8 3c f7 37 75 bd
       0.055559903 0.052108567 0.024435448 -0.059867825
000020 d5 95 3c bd e0 fb 91 bd b0 e0 a8 3d 55 a8 8d bd
       -0.04604133 -0.071281195 0.08245981 -0.069168724
000030 f8 31 fe bd d7 ae 38 bc aa a8 3a be ca 1f 06 be
       -0.124118745 -0.011272154 -0.18228403 -0.13098064
000040 1a c8 b4 bb 7e 0a 3f 3e 60 75 8c bd 7f 32 70 3d
       -0.005517018 0.18656346 -0.06858325 0.058641907
000050 49 11 e3 3d d1 5e 25 3e 6d 5d 09 3e f3 18 8e 3b
       0.11087281 0.16149451 0.13414545 0.0043364703
000060 cf 62 e5 3d 35 71 de bd 86 f2 90 3d 29 f3 af 3c
       0.11200487 -0.10861436 0.07077508 0.021478252
000070 cc e5 78 bd 31 f2 21 be 39 b6 1b be cd 6c 70 3d
       -0.060766026 -0.15815045 -0.15206231 0.05869751
000080 bf cd 02 be 5f 21 26 b9 cf 4e 22 be 72 13 85 3d
       -0.12773798 -0.00015843425 -0.15850376 0.064978495
000090 23 12 7e bd a4 76 dc bc c1 45 97 3c 8f a9 67 bd
       -0.062029015 -0.026912041 0.018465878 -0.056558188
0000a0 21 a5 ea bc 52 c8 97 bd c2 96 08 3d 3a fb 13 bb
       -0.028643193 -0.07411255 0.0333469 -0.0022580163
0000b0 f5 60 a3 3d 69 55 b9 3d 74 54 0c 3e 3e 76 87 be
       0.079774775 0.09049494 0.13704091 -0.264574
0000c0 64 10 5a 3e cd e3 43 3e 07 87 84 3e fd 7c 09 be
       0.21295315 0.19129868 0.25884268 -0.13426585
0000d0 31 c5 1e 3e ca 3f 47 3e 19 98 b4 3d d1 24 8f bc
       0.1550491 0.19457927 0.08818073 -0.01747361
0000e0 ad c2 3d be 63 fc 1f bd 5f 4b 9e 3d 5c fd 05 3d
       -0.18531294 -0.039059054 0.0772922 0.032712325
0000f0 90 9a 9e bc 91 47 fe 3d a3 39 fb 3d 88 e4 d5 3d
       -0.01936081 0.12415994 0.12266853 0.104439795
000100 ce ef 10 3e 84 27 a3 3c 97 06 c5 3d bf 9a 34 3e
       0.14153978 0.019916303 0.096203975 0.17637156
000110 cb 41 93 3d c0 47 c2 bc 5e 39 1f 3e 66 95 d2 3d
       0.071902834 -0.023715854 0.15549228 0.10282402
000120 6e de 80 bd e2 07 c2 bd 70 e6 ab 3d 19 99 02 3d
       -0.06292425 -0.0947416 0.08393562 0.031884287
000130 2e 7f 0c 3e 91 02 f2 bc 7a 40 8b 3d d1 db 8c bd
       0.1372039 -0.02954224 0.06799407 -0.06877864
000140 89 01 6b bd e7 02 a4 3d 47 42 f9 3d 82 37 c3 bd
       -0.05737451 0.08008366 0.121708445 -0.09532072
000150 f0 b4 a3 3d 10 4d e3 3d 45 74 15 3e 74 78 49 3e
       0.079934955 0.11098683 0.14595135 0.19674855
000160 a9 80 c1 bd b5 3d ef 3c 84 24 8c 3d 37 1e 6a bb
       -0.09448368 0.029204229 0.06842902 -0.0035723576
000170 bf 96 10 3e 49 e1 d2 3c 9a 02 2d 3d 0b 1a 07 bd
       0.14120005 0.02574219 0.04223881 -0.03298382
000180 db 04 ae 3d c9 3a c6 bd aa 6d 27 be ef ff d4 bd
       0.0849702 -0.09679181 -0.16350427 -0.10400378
000190 37 35 60 3d e2 22 01 3e 94 0c f6 3d 5d ce 14 bd
       0.05473825 0.12610963 0.12014118 -0.036329616
0001a0 5d 1a 94 bb 6b 1f bd 3d af 8f 82 3e a4 02 8e bd
       -0.0045197443 0.09234508 0.25500247 -0.069340974
0001b0 fc 81 93 bc 1a e7 d0 3d 42 e1 cb bc 88 5a 81 bd
       -0.018006317 0.10200329 -0.024887685 -0.063160956
0001c0 5d bf ed 3d 06 e0 53 3c 98 29 d7 bd dc b9 ac 3d
       0.11608765 0.012931829 -0.1050598 0.08433887
0001d0 ef 97 fe bd c4 9c e6 3d 83 86 6a bc d5 d8 4b 3d
       -0.12431323 0.112603694 -0.014314297 0.049767334
0001e0 96 a5 02 be bb 9f ba bc b6 bf f7 bd 82 6d 0b be
       -0.12758479 -0.022781244 -0.12097113 -0.13615993
0001f0 fd de 9c 3e fd bc 4d 3e f8 e6 10 be 2f 79 bf bc
       0.30638877 0.20091625 -0.14150608 -0.023373215
000200 6d 9f 4d 3c 57 d2 80 3e 8c f8 b5 bd 6b 94 71 be
       0.012550217 0.25160477 -0.08885297 -0.23591773
000210 26 0d 81 bd b9 a7 ad bd 47 6e 16 3e e5 2c fa bd
       -0.06301336 -0.08479256 0.14690505 -0.12215594
000220 cf c0 09 3e 24 3a 15 3e 0e c0 09 bd 74 24 a5 bd
       0.13452457 0.1457296 -0.033630423 -0.080635935
000230 61 d6 aa 3c 50 7f 66 3c 77 9b 07 bd ca 96 62 3b
       0.020854177 0.01406844 -0.033107247 0.003457474
000240 4d dc 40 3d d4 c9 4a 3d 08 31 d3 3c 8f b4 75 3e
       0.047085095 0.049508885 0.025780216 0.23994659
000250 94 95 29 3e 9a 24 4e 3e ee a9 47 3d 1e 96 ae 3d
       0.16560966 0.2013115 0.048746042 0.08524726
000260 60 31 fb bd 40 a9 da bd 98 69 36 3d 0e 70 ec bc
       -0.12265277 -0.10676813 0.044534296 -0.028862026
000270 ee f8 05 3d c6 2e 20 be 8d b9 f3 bd 27 a5 b7 bd
       0.0327081 -0.15642843 -0.119006254 -0.08967047
000280 ff 29 bf 3c 62 a2 41 3d 4b f6 32 3d 1a c6 3e be
       0.023335455 0.047274 0.043691915 -0.18630257
000290 f3 1a 97 3d 52 6f 05 bd 59 e6 a8 3b 16 af 46 bc
       0.07378187 -0.032576866 0.0051544127 -0.012126705
0002a0 63 a3 c3 bd e2 14 84 be da b2 0c be f1 87 9e 3d
       -0.09552648 -0.25797182 -0.13740101 0.077407725
0002b0 7f e8 f5 3d 3f 9d 43 3e b8 b2 93 bc 3a 28 9a bd
       0.12007236 0.19102953 -0.018029556 -0.07527204
0002c0 af a8 ca bd 9e 06 0d be f7 da 28 3d 1c 29 3d be
       -0.09895455 -0.13772056 0.041224446 -0.18472713
0002d0 d2 d3 a7 3d f6 8f 34 3e 93 2b 0f be 81 71 0b bd
       0.081946984 0.17633042 -0.13981466 -0.034043793
0002e0 02 31 56 3e 2e 7b 8d 3c 67 2f a6 3d 24 d0 21 3d
       0.20917132 0.01727065 0.0811451 0.03950514
0002f0 76 33 91 3d 64 58 5b bd 3b 88 cb bc 06 e1 0e bd
       0.070898935 -0.053551093 -0.024845233 -0.034882568
000300 8d aa 28 3c 0b 47 71 3d 56 ad 96 3c 90 14 f3 3b
       0.010294569 0.058905642 0.0183932 0.0074182227
000310 11 84 03 be e8 9b c0 3d 73 bf d5 bc a1 3a cb bc
       -0.12843348 0.09404737 -0.026092267 -0.02480823
000320 7d fd 0d 3e b0 c0 fd 3e a7 7a 48 3d 42 d8 69 bd
       0.1386623 0.4956107 0.048945095 -0.057091005
000330 a5 03 ff 3c 68 66 a2 3d 84 0b 45 bc 60 1f 1e 3b
       0.031129668 0.07929689 -0.012026671 0.0024127588
000340 af 19 23 be 56 fa b3 3d 6f c4 ce 3d 74 8e fc bd
       -0.15927766 0.08787982 0.100960605 -0.12331858
000350 e8 8e 9f bd 2f 46 10 3c 75 98 31 3e 49 3b fb bb
       -0.07790929 0.008805796 0.17343314 -0.0076669795
000360 c7 b8 2d bd 0f 49 94 bd 54 d6 6c bd 69 c1 b6 bc
       -0.042412546 -0.07240497 -0.057821587 -0.022309022
000370 7b 73 65 3a a9 37 1f 3c 3b 30 e5 bd c2 7e 84 bc
       0.00087528647 0.00971786 -0.1119084 -0.016173724
000380 24 da d4 3c 4f 27 0a be db d7 7a 3d d4 ae 38 3d
       0.025982924 -0.13491558 0.061241012 0.045088604
000390 3a 5d ef 3c 5f b7 29 be 0e 4c e2 bd 82 7d 89 bc
       0.029219259 -0.16573857 -0.110496625 -0.01678348
0003a0 47 42 94 bb c5 13 1f 3e 3d 0c f2 bd 13 6e 2c 3d
       -0.0045245024 0.15534885 -0.118187405 0.042097162
0003b0 fd f1 c0 bd 20 13 69 3e 29 ee d6 3d 13 63 7d 3d
       -0.094211556 0.22761202 0.10494644 0.061862063
0003c0 a5 d5 84 bb 49 66 1a be 77 6b 43 bd 91 e5 1f 3d
       -0.0040537887 -0.15078081 -0.04770991 0.03903729
0003d0 4c 9b 8d be b3 56 47 bd 54 bc 3d 3e 49 1d 89 bd
       -0.27657545 -0.048666667 0.18528873 -0.06695039
0003e0 77 46 2d bd 74 61 8e bd c0 19 97 bc 11 7d 07 3d
       -0.04230353 -0.069521815 -0.018444896 0.033078257
0003f0 8f c0 51 bd b9 5e 02 3d 89 16 c4 3d 84 f5 17 be
       -0.05120903 0.031828616 0.09574611 -0.1483975

linear2.bias f4 [256]
000000 bb 18 90 3c d0 0d 0b bd c9 e5 5d bd 7a 20 bc bc
       0.017589917 -0.03394872 -0.05417422 -0.022964705
000010 45 74 04 ba 5f 84 4b ba 96 4a 70 bd 21 a2 98 bd
       -0.0005052726 -0.000776356 -0.05866488 -0.07452799
000020 c7 eb 66 3c eb f3 81 bd cd 9a a6 3d ce 74 22 3a
       0.0140943 -0.06345352 0.08134995 0.0006197215
000030 ce b2 96 bc 9d ab 02 bd 1f c2 0a bd 5a eb 43 bd
       -0.018395808 -0.031901944 -0.033876535 -0.04783187
000040 cc a8 94 bd ec de 50 3c 5b fc 98 bc 11 61 10 bd
       -0.07258758 0.012748461 -0.01867502 -0.03524882
000050 8f b1 58 bd a2 42 25 bd 35 3e 3f bd ec 28 c2 bc
       -0.052903708 -0.04034675 -0.046690185 -0.023701154
000060 ed f1 5e 3d 14 6d 5a bd 22 08 29 bd 1e 7b f2 3a
       0.054429937 -0.05332668 -0.04126752 0.0018499827
000070 74 62 cf bc 5a 8b 55 ba 2d 4c ea 3c 33 18 8c 3d
       -0.0253155 -0.000814607 0.028600777 0.06840553
000080 d6 86 f4 3c 1f 7a a3 3c db f3 d6 3c d3 68 a8 bd
       0.029849451 0.019955693 0.026239326 -0.08223119
000090 01 5a 1e bd 12 2a 76 3d d0 e9 17 bd 92 e5 7f 3c
       -0.038660053 0.060098715 -0.037088215 0.015618699
0000a0 a1 c0 f5 bc 98 a4 8e bd 59 03 0d 3d bf c6 20 bc
       -0.02999908 -0.069649875 0.03442702 -0.00981301
0000b0 14 c0 90 3c 75 0d 6b 3c a4 fb b1 bd 00 31 9d bd
       0.017669715 0.01434647 -0.08690575 -0.07675362
0000c0 63 3b 01 3c c7 cf bc bc 3e 57 73 3c ae f0 66 3d
       0.007887694 -0.023048295 0.014852343 0.056381874
0000d0 71 4f 83 bd f8 c2 41 3d 8a a2 f9 3c 3d 37 08 3c
       -0.064116366 0.047305077 0.030473012 0.008313951
0000e0 d4 60 93 bc 37 dd 5c bb 88 79 a9 3a 52 df 0d bd
       -0.017990507 -0.003370119 0.0012929896 -0.034636803
0000f0 0d 69 8a bc d9 3f 92 3b 09 82 09 bd 49 de ff bc
       -0.016895795 0.0044631776 -0.033571277 -0.031233924
000100 ce 1e d1 3c 4d 10 38 3d a7 31 06 bd 71 78 b3 bc
       0.025527384 0.04493742 -0.032762196 -0.021908017
000110 09 f9 5e bd 5f bf 8e 3d 60 92 14 3d e8 45 94 bd
       -0.054436717 0.06970095 0.036272407 -0.07239896
000120 10 bb 35 bb b8 44 81 3d d0 f2 a4 3d aa c6 2c 38
       -0.0027729906 0.06311935 0.08054125 4.1193016e-05
000130 dc 5e 97 bc c5 c5 fb bc 8e 25 a1 bd cd 90 93 3d
       -0.01847785 -0.030733952 -0.07868491 0.07205353
000140 38 5e 9e bd 34 1e 2a 3c 91 1b e1 bc f8 ab 59 3c
       -0.077328146 0.010383178 -0.027478965 0.013285629
000150 a7 14 b8 bd 7f 0f 3e ba ee a3 56 bd d7 b3 81 3d
       -0.08988314 -0.0007250234 -0.05240243 0.0633313
000160 ce ab 1f bd b5 dc 7a bd db 83 36 3d 36 29 b9 3c
       -0.038982205 -0.06124564 0.04455934 0.022602659
000170 a4 e5 58 3d fa 31 cb ba 5b 58 25 bc 5c e7 8b 3c
       0.052953377 -0.0015502565 -0.010091866 0.017078094
000180 e0 2a 98 bc 61 0f cd 3c ae 28 9c bb 62 94 a0 3d
       -0.018575132 0.025031747 -0.0047655916 0.07840802
000190 d9 49 72 bd 0a 10 1c 3d ec 4b 25 bd cb 3e 0d bd
       -0.059152458 0.038101234 -0.040355608 -0.034483712
0001a0 fc 88 41 bd e7 09 9e bd 06 e3 a7 3c 09 13 f2 3c
       -0.04724978 -0.077167325 0.020493995 0.029550092
0001b0 b2 4b c7 bc 2e 1a d9 3b a5 2e ee 3c 1e 67 93 3c
       -0.024328087 0.0066254353 0.029074976 0.017993506
0001c0 07 bb 97 bb 84 ff 0d bd bb 2f 74 3d 25 57 bc 3c
       -0.0046304497 -0.034667507 0.05961583 0.022990773
0001d0 50 67 1f 3d 92 80 68 3d 3d ac 24 3d 16 cd 8c 3d
       0.038916886 0.05676324 0.04020332 0.068750545
0001e0 28 e4 4f bd e6 ce a2 3d d0 b6 9c 3c 62 9b 88 bc
       -0.050754696 0.07949619 0.01913014 -0.016675655
0001f0 4f 5c 19 3d dc 65 a3 3d 16 86 ae bc ee 86 cf bc
       0.037441548 0.079784125 -0.021304172 -0.025332894
000200 51 8d 81 bc f7 04 92 ba 56 6e 46 3c 26 a4 a1 3b
       -0.015814455 -0.0011140396 0.012111267 0.004932898
000210 63 ef b9 3c 41 cb f2 3c 61 2b 2b 3d c5 0e a3 bd
       0.022697156 0.029637935 0.041789416 -0.079618014
000220 b0 c4 c4 bb 18 6a c0 bc 85 f9 87 3c bd f8 f2 bc
       -0.0060048923 -0.02348809 0.016598472 -0.029659623
000230 94 69 0a bd 37 6d a4 bb cc 1a 75 bd 54 85 8f 3d
       -0.033792093 -0.0050179022 -0.05984001 0.07007852
000240 4d 83 07 3b a6 db a8 3d 6c 27 a7 3c 05 ff 66 3d
       0.0020677627 0.082450196 0.02040454 0.05639555
000250 c1 69 7e bd 4d 0f 7c 3c 01 36 80 bd 94 f2 ff bc
       -0.062112574 0.015384507 -0.062603004 -0.0312436
000260 06 0a fb bb 61 a0 28 bd 1e 62 81 3b 0f 39 61 3d
       -0.007661107 -0.041168574 0.003948464 0.054986056
000270 20 5b 76 3d 67 5e a6 3c 33 8d ce 3c 33 aa 26 3c
       0.060145497 0.020308686 0.025213813 0.010172415
000280 49 7a 8c 3c 07 33 93 bd 98 92 28 bc 45 2d 19 3d
       0.017148154 -0.07187467 -0.010288857 0.037396688
000290 8a 82 21 bd 20 a9 84 3d 7e f2 90 bd 97 d0 ab 3d
       -0.039431132 0.064775705 -0.07077502 0.08389395
0002a0 c9 e9 c9 bc 9c 6f b6 bc 68 dd f2 bc 64 b8 99 bd
       -0.02464761 -0.022270016 -0.02964659 -0.07505873
0002b0 6c 3d 45 bc 1a 63 e9 3c 21 27 d7 3c ca 07 a5 bd
       -0.01203857 0.028489638 0.026263775 -0.08058126
0002c0 6e 0b 9a bc 4c d0 40 bd f4 44 81 bd 45 dd 8d bd
       -0.018804278 -0.047073647 -0.0631198 -0.069269694
0002d0 22 27 ab 3d 69 c4 1e 3d 60 ae 15 bd 63 69 a3 bc
       0.08357073 0.03876153 -0.03654325 -0.019947713
0002e0 af dd e0 bb 01 6e d9 bc 7c 00 86 38 21 65 ba bc
       -0.0068623642 -0.026541712 6.389708e-05 -0.0227533
0002f0 75 9d b2 38 a6 29 14 3c a7 d2 81 3c 5a 78 a2 bc
       8.51703e-05 0.009043133 0.015847517 -0.019832779
000300 82 8f f3 3c 1d e5 e9 3c b8 31 a3 3c 24 1e bb 3b
       0.029731516 0.028551633 0.019921169 0.00571038
000310 25 bc 86 bb a6 bd 02 3d f2 0a 2a 3b 70 f4 cd 3c
       -0.004111784 0.031919144 0.0025946465 0.025140971
000320 8e de 36 bc a7 41 c4 bb 13 ba 6b 3d 02 be c6 bc
       -0.01116146 -0.0059892717 0.0575505 -0.024260525
000330 65 93 51 bc f9 bb 84 bd e3 57 ba 3c 01 d2 af 3d
       -0.012791489 -0.064811654 0.022746986 0.08584977
000340 8a c0 95 bc e0 0c 62 bc c0 62 19 3d 5a 57 fc bb
       -0.018280286 -0.013797015 0.03744769 -0.007700843
000350 38 01 b8 3c cb dc 4d 3c cb dc 65 3d 3a 6f b1 3d
       0.022461519 0.012564848 0.056118768 0.08663793
000360 53 c2 10 3d 9a 21 57 3c f5 45 5a 3d 40 68 9f bd
       0.035341572 0.01313057 0.053289372 -0.07783556
000370 90 88 43 bd a7 eb aa 3c b0 43 55 bd aa 95 f3 3c
       -0.047737658 0.02086432 -0.052066505 0.029734451
000380 49 8e a7 bd 1a 0a bc 3c a0 b3 a8 3d fe 1a 25 3d
       -0.081814356 0.022954036 0.08237386 0.040308945
000390 dd 43 77 3d a3 06 65 bd fa 33 65 3c d9 1f 3c 3d
       0.060367454 -0.055914532 0.013989443 0.04592881
0003a0 8f 84 92 3d 98 9a 89 bc 3d 68 82 3c 0c 1c 85 3d
       0.0715419 -0.016797349 0.015918845 0.0649949
0003b0 c6 d2 28 bb 1d 99 43 bb a4 a5 bd bc fc f0 18 3b
       -0.0025760396 -0.0029845901 -0.023150273 0.0023336997
0003c0 6a 0e c5 3b f3 df 05 bd 77 fd 93 bd 19 aa dd bc
       0.006013681 -0.032684278 -0.07226079 -0.027058648
0003d0 45 b0 09 3d 15 1c 06 3a 51 84 a1 3c 49 90 94 bb
       0.03361537 0.0005115879 0.019716414 -0.0045338017
0003e0 46 47 b8 bc 56 2d c9 bc 59 78 09 3d 94 9d 8c bd
       -0.022494923 -0.02455775 0.033562038 -0.06865993
0003f0 3f b6 34 ba 4f 99 9c 3c c9 c9 7c bd 59 43 22 bd
       -0.0006893612 0.019116072 -0.061715875 -0.03961501

linear3.weight f4 [1, 256]
000000 ea 6a 6d 3e d6 e2 17 be 1e ef 07 be d2 ef 18 be
       0.23185316 -0.14832625 -0.1327481 -0.14935234
000010 f4 e6 00 be 57 41 22 3e 71 4d 11 be da d7 1c be
       -0.12588102 0.15845238 -0.14189698 -0.15316716
000020 b8 aa 0b be d2 d6 0a be e1 35 54 3e 54 31 1f be
       -0.13639343 -0.1355851 0.20723678 -0.15546161
000030 cc 88 4d 3e 7e d6 11 be 9c f1 04 be cb ac 16 be
       0.20071715 -0.14241979 -0.12982792 -0.14714353
000040 33 4e 05 be c8 e9 00 be 3f ef 54 3e 8a 5f 12 be
       -0.13018112 -0.1258918 0.2079439 -0.14294258
000050 18 d2 1c be f2 2b 01 be 84 43 18 be 97 72 05 be
       -0.1531452 -0.1261442 -0.14869505 -0.13031994
000060 4d ec 41 3e 24 4f 0e be 78 40 18 be cd b7 0b be
       0.18937798 -0.13897377 -0.14868343 -0.13644333
000070 34 8e fe bd 3c 78 3a 3e a9 de 11 be 14 ed 4e 3e
       -0.12429467 0.18209928 -0.14245094 0.20207626
000080 90 50 05 be 9b 8a 12 be af bb 16 be d2 28 13 be
       -0.13019013 -0.14310686 -0.14720033 -0.1437104
000090 95 d9 0d be 47 95 4b 3e a7 75 1b be 52 a9 10 be
       -0.13852532 0.19881164 -0.151816 -0.1412709
0000a0 e6 1c 58 3e 5b ae 15 be c4 c7 1b be 23 54 1e be
       0.21104774 -0.14617293 -0.15212923 -0.15461783
0000b0 70 48 0a be a4 ec 51 3e cd 59 12 be 34 91 13 be
       -0.13504195 0.20500427 -0.14292069 -0.1441086
0000c0 04 c9 62 3e fa 93 0f 3e 3a d4 30 3e 82 c9 1b 3e
       0.22146994 0.14021292 0.17268458 0.15213588
0000d0 48 50 10 be 10 4e 55 3e 58 ed 4a 3e 29 09 07 be
       -0.14093125 0.2083056 0.19817102 -0.13187088
0000e0 b8 42 17 be af 40 56 3e b3 6c 15 be 61 35 0e be
       -0.14771545 0.20923112 -0.14592247 -0.1388755
0000f0 91 0f 43 3e 52 da 05 be 8c 52 03 be fe a6 21 be
       0.19048907 -0.13071564 -0.12824458 -0.15786359
000100 52 dd 06 be 78 c8 0a be db ef 12 be 3a 48 31 3e
       -0.13170364 -0.13553035 -0.1434931 0.17312708
000110 89 50 0d be a2 b8 4e 3e cd 4c 42 3e 37 fc 10 be
       -0.13800253 0.2018762 0.1897461 -0.14158712
000120 56 0d 05 be 30 be 55 3e 33 ab 51 3e 2b fb 0a be
       -0.12993369 0.20873332 0.20475464 -0.13572375
000130 3d 3b 45 3e 7b 90 59 3e 50 11 f6 bd 0b 77 44 3e
       0.19260879 0.21246521 -0.12015021 0.19186036
000140 10 3d 1b be 4f fa 62 3e f9 ae 63 3e ce a6 09 be
       -0.15160012 0.22165798 0.22234716 -0.13442537
000150 e6 df 16 be 16 4f 18 be f1 15 0d be 25 6c 50 3e
       -0.14733848 -0.14873919 -0.13777901 0.20353754
000160 1d 52 17 be 9d 82 1c be ea 79 50 3e 38 97 0b be
       -0.14777417 -0.152842 0.20359007 -0.13631904
000170 27 46 4d 3e dd e4 09 be 49 cd 5e 3e 25 a5 49 3e
       0.20046292 -0.1346621 0.21757998 0.19691904
000180 c6 fc 55 3e 79 d1 0b be 65 84 2e 3e d0 e3 4b 3e
       0.20897207 -0.13654126 0.17042692 0.19911122
000190 77 09 0e be dd 47 31 3e 8b 47 01 be 31 89 18 be
       -0.13870798 0.1731257 -0.12624948 -0.14896084
0001a0 fe 12 24 be 79 50 0f be 64 1f 15 be 0f 44 ff bd
       -0.1602287 -0.13995542 -0.14562756 -0.12464153
0001b0 3d 60 1a be 79 1d 21 be 56 8d 0d be e0 6a 07 be
       -0.15075774 -0.15733899 -0.13823447 -0.13224363
0001c0 7e f3 16 be a7 3f 05 be 89 1a 3c 3e 7b 13 2f 3e
       -0.14741322 -0.13012563 0.18369497 0.17097275
0001d0 33 52 0a be 41 2b 4e 3e a9 66 12 be bc a0 5a 3e
       -0.13507919 0.20133688 -0.14296974 0.21350378
0001e0 82 5b 0d be f0 3d 4a 3e 95 d7 1d be 1e 34 1c be
       -0.13804439 0.1975019 -0.1541427 -0.15254256
0001f0 ba 7d 01 be f3 da 42 3e bd 7d 44 3e 2f 0d 0f be
       -0.12645617 0.19028835 0.1918859 -0.13969873
000200 1a 89 3c 3e 2c 8d 0d be a3 07 15 be bb 69 f3 bd
       0.18411675 -0.13823384 -0.14553694 -0.11885401
000210 23 f8 00 be 50 ac 08 be 34 a6 51 3e 33 67 08 be
       -0.12594657 -0.13346982 0.20473558 -0.13320617
000220 28 28 07 be 01 02 74 3e d3 2a 44 3e 9c b6 15 be
       -0.13198912 0.2382889 0.19156961 -0.14620441
000230 dd 61 00 be 55 b8 15 be da 20 0f be ba 4d 50 3e
       -0.12537332 -0.14621098 -0.13977376 0.2034215
000240 be 85 0b be ad 5d 30 3e bb 87 0e be b3 09 4b 3e
       -0.13625237 0.17223234 -0.13918965 0.19827919
000250 93 e9 0e be d6 72 4c 3e bc 35 16 be 45 3a 01 be
       -0.13956289 0.19965681 -0.14668936 -0.12619884
000260 aa 79 09 be fc ff 0c be 57 19 37 3e 8c 50 46 3e
       -0.13425317 -0.13769525 0.1788076 0.19366664
000270 b3 4c 33 3e 43 8b 1b be b0 ba 55 3e fb 87 12 be
       0.17509727 -0.15189843 0.20871997 -0.14309685
000280 f2 f2 1b be 04 dd 19 be 44 f3 f9 bd 5e 44 0a be
       -0.15229395 -0.15025717 -0.12204602 -0.13502643
000290 df 55 0a be 71 d3 70 3e cb a3 07 be 6f d5 38 3e
       -0.1350932 0.23518158 -0.13246076 0.18050168
0002a0 f7 5a 13 be 27 f2 0a be ea d9 45 3e cd 6f 06 be
       -0.14390169 -0.13568936 0.19321409 -0.13128586
0002b0 50 00 16 be b2 89 54 3e 98 e9 02 be a9 9d 0e be
       -0.14648557 0.20755652 -0.12784421 -0.1392733
0002c0 cd 98 1c be 60 7d 19 be 0f 66 06 be a5 f0 13 be
       -0.15292664 -0.14989233 -0.1312487 -0.14447267
0002d0 a0 c7 4d 3e ea 55 1a be a2 29 16 be a1 3e 12 be
       0.20095682 -0.15071836 -0.14664319 -0.14281704
0002e0 5b 8c ff bd 29 2b 11 be dc 30 06 be 30 a9 16 be
       -0.124779426 -0.1417662 -0.13104576 -0.14712977
0002f0 21 a0 fd bd ff 4a 46 3e ff d9 1c be ce ef 0b be
       -0.12384058 0.19364546 -0.15317534 -0.13665697
000300 89 3c 0c be 7f c7 47 3e 4e 16 10 be 80 5a 15 be
       -0.13694967 0.19509695 -0.14071009 -0.14585304
000310 40 e7 5d 3e 29 ca 1e be fc 4b 13 be 8f b8 11 be
       0.21670246 -0.15506805 -0.14384454 -0.1423056
000320 51 44 21 be 28 a4 56 3e 7b 29 0b be b0 63 0e be
       -0.15748717 0.20961058 -0.13590042 -0.13905215
000330 51 ef 33 3e 0b 87 1a be 7b ce e7 bd b7 d2 37 3e
       0.1757176 -0.15090577 -0.1131868 0.17951475
000340 d8 e2 4a 3e a9 37 5e 3e e0 cf 12 be 18 46 08 be
       0.19813097 0.2170092 -0.1433711 -0.13307989
000350 31 f1 1f be fb d2 62 3e 2f ec 54 3e e8 74 4f 3e
       -0.15619351 0.22150795 0.20793222 0.2025944
000360 7a 20 43 3e f2 94 1a be f0 af 3b 3e e8 f0 0e be
       0.19055358 -0.1509588 0.18328834 -0.13959086
000370 8c 51 1d be a6 48 21 be b6 ba 00 be a7 21 55 3e
       -0.15363139 -0.1575037 -0.12571225 0.20813619
000380 62 ef 1c be 5f b3 1b be df 7c 57 3e dd da 26 3e
       -0.15325692 -0.15205143 0.21043728 0.16294427
000390 67 fc 6d 3e be 2d 14 be 8b ca 50 3e 9f 05 42 3e
       0.23240815 -0.14470574 0.20389764 0.18947457
0003a0 7d 1a 4e 3e 40 96 48 3e da 85 55 3e f6 b1 4d 3e
       0.20127292 0.19588566 0.20851842 0.20087418
0003b0 1a ac 0e be a8 99 43 3e aa 9d 37 3e 4e 8d 0d be
       -0.13932839 0.19101584 0.17931238 -0.13823435
0003c0 f4 86 0e be b8 4a 08 be f7 db 1b be 6c a9 39 3e
       -0.13918668 -0.13309753 -0.15220629 0.18131036
0003d0 b0 dd 31 3e 65 40 3a 3e 3a d7 11 be b1 35 11 be
       0.17369723 0.18188627 -0.14242259 -0.14180638
0003e0 83 4a 1b be 18 33 11 be 20 80 4b 3e 66 73 1c be
       -0.15165143 -0.14179647 0.19873095 -0.15278396
0003f0 5a 8a 08 be cf 84 0a be 5d a3 23 be 2c ab 0e be
       -0.13334027 -0.13527225 -0.15980287 -0.13932484
