testing/scripts/outputs/DDPG_Env/20221214-123050/models/430actor_checkpoint.pt (torch, 281431 bytes, 5 tensors)

linear1.weight f4 [256, 14]
00000000: bc06 5e3e ecd2 ad3c b573 72bd e52b 3abe
00000010: e08f c43c 077b 073e 1e1f 2bbe 26df 99be
00000020: 1154 153b d1d9 4a3c 301c d6bc d2ed 56be
00000030: 98eb 9cbc 01d7 3abe 3a66 53be 79c1 30be
00000040: 893e 5fbd 881b 373e 1aa9 983e d6fd 53be
00000050: 9ff8 0dbe 928c 653e 6e3f 413e 9dcc d0bc
00000060: 2178 19be 28cf 76be f39e 70be ce5a 653d
00000070: 4b23 79be e566 8bbb dc93 0cbe e6fa 283e
00000080: 885b f13c 806b 0fbe 01eb 9bbd 8dfc eb3c
00000090: c402 0e3e 10b1 113e c558 7bbd b5de 813e
000000a0: 1fe4 a73c 5240 96be 91f4 9bbd 0d43 5ebd
000000b0: 2cbe 93be 239c 713e f9a1 8e3e 1b46 323e
000000c0: 487d 403d d485 44bc 1824 403e cace d9bd
000000d0: c8f2 b93d 6016 5bbe b81a 403d 584b 443e
000000e0: ae1a 9abc f3f1 543e 9f90 19be 625f 943e
000000f0: 80df 22bd 943b a63c 0595 25bd d13a 09bd
00000100: b8b9 2c3c e30a 8a3e aad3 373e ca19 463e
00000110: e2c0 91be c6bc 033e ac10 3c3e 87d0 713e
00000120: 9dc7 7dbe 69ef b23e cfdb a03e f756 8f3e
00000130: 29c2 2fbe dcc0 3ebd c919 783e 8c52 29be
00000140: c9d5 93bd 8c17 c43d 3b38 a53d c752 14be
00000150: 332f b43e cd52 f7bd cd42 a43d 984a 123e
00000160: 6d82 1d3c a0ef ac3d 3f1f b9bd 9ae4 563d
00000170: d8fa febc 6bd4 413e 5f20 603e a8b3 2bbe
00000180: dd5a 5a3e edd3 1b3e 2b78 563d 5d7e 4a3e
00000190: 5df4 1c3e 3d1d adbd 2071 133e 4655 18be
000001a0: 800b 0d3e 7b2d 75be 6601 473a 60c4 32be
000001b0: c59e 583e c3f0 e73d 1125 613e c2d6 863d
000001c0: 835e babc ca28 0abe 49fd 263e 6dad 97bb
000001d0: e0fe 97be 0c6d 51be 7d1e 8b3d e9e2 833e
000001e0: 1c98 6e3e fe8a 693e e1fd 9b38 7b22 3ebe
000001f0: f79e 7e3e 886f 1c3e 0dc1 693d 03ec 853e
00000200: 263f 1ebe 5ac8 113d 8b8a 69be a68f 3cbe
00000210: 4779 b03e ca54 52bc 582f 903c b7c2 dd3c
00000220: bc72 22be c0b3 d93c 9859 f33d a962 1dbd
00000230: cd8d 323c b443 b1bd f70f 8cbd b28b e43c
00000240: 76d6 283e 5970 a63e aa36 503d 64a8 573e
00000250: ee5c f53d 6d04 ddbc 906d 4cbd f6e7 2dbe
00000260: 796e 833e b9dd 29be d3f7 373e 9942 983d
00000270: d388 9f3e 77f4 41be 30e2 e03d 2e7f 29bd
00000280: 9422 593c 6d22 26bd 79e4 fabd f89d bfbc
00000290: 98cb ccbd 7f28 ddbc 7f08 9ebe f964 043e
000002a0: 7c0d 03bd 2876 30be 68b1 953e 8796 5cbc
000002b0: 24bf 00be 750a 71be 2b35 e0bc 0a1b f53c
000002c0: 83ac 7cb7 41fa 8b3e 88e0 54be f933 39bd
000002d0: 793e 093c 359a 92bd 786f 8e3d 25f7 623d
000002e0: 8899 ac3e 91ae 223e 2524 063e 3f40 8e3e
000002f0: bb8a ef3e ea68 6ebd 38d7 3dbe 9062 9abd
00000300: 755d 79be 0a8c f53d f605 90be 9ef2 a33e
00000310: dde6 ddbc 6792 6f3e 63f6 e03d 035b 88be
00000320: 8f06 a7be 6934 7f3d 7b30 163d fef2 693e
00000330: 6c42 563d ef08 703e 9207 8fbd cae5 65bd
00000340: 462c 0c3e 2056 823e e19d 973d e992 983d
00000350: 79df c6bc 0e1e c0bd 6587 11be ea12 d5bc
00000360: 0317 0fbe 21df 123d 249f 9cbd 89e6 293d
00000370: 5e43 9fbd d640 833e 294f 68be 414f 7a3e
00000380: af7b 9bbd 7941 a1be 18c2 4e3e 0562 6dbe
00000390: 8884 cbbd 7609 fabd dbab 94be e80b 413c
000003a0: a7a7 dabd 49d7 003d f965 5c3c 9d25 5abd
000003b0: 2751 88bd 15c4 37be d6d2 e3bc 54dd 2abe
000003c0: 08fd e73c a759 d03d 25e9 9d3e fd68 a03c
000003d0: 9543 45be ce49 0dbe 5d64 d83e 9ca4 b23e
000003e0: 8fed 20bc 5621 54bd 3aca 2cbc dba8 d53d
000003f0: e7a5 843e ffa3 e2bd d564 2e3e 71ef aabd
0.21682256 0.02121874 -0.059192378 -0.18180807 0.023994386 0.13230525 -0.16711089 -0.3005306
0.0022785703 0.012381033 -0.026136488 -0.20989159 -0.019155309 -0.1824608 -0.20644465 -0.17261304
-0.054502998 0.17881596 0.29816514 -0.207023 -0.13864373 0.22416905 0.18871853 -0.025488192
-0.14987232 -0.24102461 -0.23498134 0.0559948 -0.2432987 -0.0042542093 -0.13728279 0.1650196
0.02946259 -0.14005852 -0.07613183 0.028806949 0.13868243 0.142277 -0.061363954 0.25365224
0.020494519 -0.29345948 -0.07615007 -0.054263163 -0.28856027 0.23594718 0.2785795 0.17409556
0.046994478 -0.011994798 0.18763769 -0.10635145 0.0907951 -0.21395254 0.04690048 0.19169366
-0.01881155 0.20795421 -0.14996575 0.2897902 -0.039763927 0.020292081 -0.04042532 -0.033503357
0.010542326 0.2696143 0.17951837 0.19345775 -0.2846747 0.1286498 0.18365735 0.23614703
-0.24783178 0.3494828 0.314177 0.27996036 -0.1716391 -0.046570644 0.24228586 -0.16535395
-0.07218511 0.09574804 0.08067366 -0.14484702 0.3519226 -0.1207634 0.08020554 0.14286268
0.009613615 0.08444142 -0.09039163 0.052464105 -0.031125471 0.18928687 0.21887349 -0.16767752
0.21323724 0.15217562 0.052360695 0.19774766 0.15327592 -0.084528424 0.14398623 -0.14876279
0.13773918 -0.2394313 0.0007591456 -0.17457724 0.21154316 0.113252185 0.21986796 0.065839306
-0.022750145 -0.13492122 0.16307558 -0.0046288283 -0.29686642 -0.20451754 0.067929246 0.25759056
0.23300213 0.22806928 7.4382646e-05 -0.18567841 0.24865328 0.15276921 0.057068873 0.26156625
-0.15453777 0.03559146 -0.22806756 -0.18414173 0.34467527 -0.012837598 0.0176007 0.027070386
-0.1586408 0.02657497 0.11882323 -0.038424168 0.010898066 -0.086554915 -0.068389826 0.027898643
0.1648806 0.3250759 0.05083338 0.2106033 0.119806156 -0.02697965 -0.049909174 -0.16983017
0.2567022 -0.16588487 0.17965631 0.074345775 0.31159076 -0.18940912 0.10980642 -0.041381054
0.013252873 -0.040560175 -0.12250609 -0.023390755 -0.0999977 -0.02699685 -0.30865857 0.12929143
-0.03199528 -0.17232573 0.29236913 -0.013463623 -0.12572914 -0.23539145 -0.027369102 0.02992012
-1.50605365e-05 0.27339366 -0.20788777 -0.04521558 0.008376711 -0.07158319 0.06954855 0.055411477
0.33710885 0.15886904 0.13099726 0.2778339 0.4678553 -0.058205523 -0.1853913 -0.075383306
-0.24352057 0.11989601 -0.28129548 0.3202104 -0.027087623 0.23395692 0.109844945 -0.26631936
-0.3262219 0.06230584 0.03666733 0.228466 0.05230944 0.23440908 -0.06983866 -0.056127347
0.13688764 0.25456333 0.0740316 0.07449896 -0.024276482 -0.093807325 -0.14211805 -0.026009995
-0.13973622 0.035857324 -0.07647541 0.04147962 -0.07776521 0.25635403 -0.22686447 0.24444295
-0.0759195 -0.31495264 0.20191228 -0.23181923 -0.09937388 -0.12208836 -0.29037365 0.011782624
-0.106765084 0.031455312 0.013452047 -0.053258527 -0.066561036 -0.17945893 -0.027810495 -0.16685992
0.028318897 0.1017335 0.30841938 0.019581312 -0.19264062 -0.13797686 0.4226407 0.34891212
-0.009822263 -0.051789604 -0.010546261 0.10432597 0.25907823 -0.11066436 0.17030652 -0.08346451

linear1.bias f4 [256]
00000000: ab37 17bd cf07 ce3d 8bbd 983d 6153 3abd
00000010: 6de1 013e 1208 c3bd 554a 32be 21a8 9e3d
00000020: 25c9 ac3c 9efc c13d 6031 883e 64b3 0a3c
00000030: 066f b4bd 57ec fc3d d82a 80bd 4e33 13be
00000040: f9e1 69be 9a53 733d 5221 7d3d 3675 7b3d
00000050: af53 073d 5e74 debd 5eba 853e 36a1 913e
00000060: 6c64 953c f148 703e bf03 8cbb 4279 e0bd
00000070: c8b5 ab3c 2653 06be 3189 2a3e e450 893e
00000080: 6db3 12be d960 cc3d a66e 413d 6e6b 093e
00000090: 0007 92bd 6592 6f3e cdd7 103e 6ee0 bcbd
000000a0: 36ed 893e a163 a43d 4913 aa3d f4c3 363e
000000b0: 78c5 993d b825 a9bd cfe4 b7bd 3081 00be
000000c0: 1de2 693e 681b a73c 5874 a5bd 5f75 8e3e
000000d0: 4fc9 243e 79b6 c1bd 11ee 1f3d ad96 e2bd
000000e0: 4a4c d0bc 18d2 2c3e c948 e3bd 05f8 273e
000000f0: b483 913d 1915 cebd 7a78 203d 70e2 e9bc
00000100: 43cd bebd 46cf 6d3e 14a4 efbd d06e 57be
00000110: bd40 28bc 604d 5c3e f212 a83e 31d2 b63d
00000120: 18bc 6ebe 4894 743e 1a31 813d 8604 34be
00000130: e163 943e cde8 823d c4b8 233e 882c d23d
00000140: 4696 c63d 5828 81be 4859 993e 99bf e6bc
00000150: 81e5 2c3c 46c9 353d 396d 413e 2a7f f73a
00000160: 9b58 9a3d ab5b fcbd 6e25 f23c f45b 74bd
00000170: 7ca2 343e 77ce 693e 2fb7 d53c c827 de3d
00000180: 3e97 613e ca27 eebd 9494 1dbd e900 9c3d
00000190: fc8f 353e b17b 23be 334f 843e e71d b23d
000001a0: a11f 31be ec99 7dbd afa8 1f3e 810a 573e
000001b0: 6360 9e3d d49d a4bc 781d d6bd 3436 f93d
000001c0: b28b a5bd 3608 3c3e e4a2 e3bc 5875 163e
000001d0: 5e7a b53d 6299 babd 3ddb 2abe 38df 753d
000001e0: ed79 21bd 31ff 23bd 3c93 613c 0174 8d3d
000001f0: ce03 1dbc 888f 233d 27cf c4bd d4bf 053d
00000200: eed2 683e fbf6 88bd 72fa 9ebd b67a c7bd
00000210: 1214 b93d 2512 823e 9d83 d73d 5e94 febd
00000220: 1577 dc3d 47b4 9a3e a663 883e c87c 83be
00000230: 800a a23e ccdb 5fbe 4f51 603e 0ea5 3e3e
00000240: 7739 4dbe 6695 7d3d cce5 a2bd 5321 7bbe
00000250: 103d a5bd c6ce 62be 3041 283e 84fd 1e3e
00000260: fcb2 43bd ac79 dcbd fc8f 46be 9694 49be
00000270: ad93 533e bfce 7d3e 1d68 15be 1d7f 8d3e
00000280: 9427 a33e bff2 84bd c81e 6c3e 2089 823d
00000290: 047f 883e c9db 8f3e a248 573e 1d2a 54bd
000002a0: 64b9 533e 3d21 5f3d 03c5 68bc 39ec a33d
000002b0: 65d9 6b3e 4549 35be e8f0 3ebd 53af 043d
000002c0: 3d4c 0abe c85c 2b3e ae1a b93d 24f7 803e
000002d0: 04eb 9b3d 99ab da3d ef46 ccbd d097 3c3e
000002e0: 22cd 09be a913 5f3d bbae b0bc 2648 923e
000002f0: bf95 7abd 7455 bbbc 2ab0 8ebe 4761 553e
00000300: 58f6 553e dd56 6f3e a5bc 6dbe 7d24 a33d
00000310: dc51 6d3e aeb9 563e e3c1 1b3e 186a 39be
00000320: 76eb 02be db8c babd 6149 f83c ffb6 54be
00000330: 092a 6c3e 36a5 b9bd 6315 b23e 80a2 42be
00000340: aa01 9e3e 65f2 c7bd 67b0 313e 080c 9fbd
00000350: 025d 4c3e e24d 69bd 5e07 cabd e856 38be
00000360: aed7 8e3e 1112 7f3e 6f21 26be 2c33 6d3e
00000370: 213f 09be 2f9e c83d e1cc dfbd 0eb1 72be
00000380: 1425 353a c08e 4f3d 362f 963e b6e2 6f3e
00000390: d1d8 8d3e 09bf 4dbd d094 373e e784 a43d
000003a0: c97f 193e 8d7f 8d3e f6f6 32bd cd0d 5f3e
000003b0: 1284 34be 959d 07bd c2e7 38be 9993 c63d
000003c0: 7eaf b63d 1889 05be d4ac 34be da9e 15be
000003d0: c616 283d e55a 3d3e 3d3e 293d bc83 1d3e
000003e0: 01e5 cd3c d564 2f3e 3b3e 663d 8462 38be
000003f0: 1b78 243c ea26 6e3e ff6c 763e 1bff 273e
-0.036918323 0.10060083 0.074580275 -0.045489673 0.1268365 -0.09523024 -0.17411168 0.07746912
0.021092007 0.09472011 0.2660017 0.008465622 -0.088102385 0.12349766 -0.06258172 -0.1437504
-0.22840108 0.0594059 0.061799355 0.061391078 0.03303879 -0.10862039 0.2611875 0.28443307
0.018236361 0.23465325 -0.0042729075 -0.10960628 0.020960703 -0.13117656 0.16653897 0.26819527
-0.14326258 0.0997941 0.047224663 0.13419887 -0.071302414 0.23395689 0.14144821 -0.09222494
0.2693879 0.08026815 0.083044596 0.17848188 0.07508367 -0.082591474 -0.08979189 -0.12549281
0.22840162 0.02039881 -0.080788314 0.27823922 0.16092418 -0.09458632 0.039045397 -0.110638954
-0.025427002 0.1687702 -0.11097867 0.16403206 0.071051985 -0.10062618 0.039177395 -0.028550357
-0.09316494 0.232236 -0.11701217 -0.21038365 -0.010269341 0.21513891 0.32826954 0.089268096
-0.2331394 0.2388469 0.063081935 -0.1757985 0.28982452 0.063920595 0.15988451 0.102624
0.09696631 -0.25226092 0.2995093 -0.028167533 0.010552765 0.044381402 0.18889321 0.0018882502
0.075364314 -0.12322172 0.029558863 -0.059658006 0.17640108 0.22832666 0.026088325 0.108474314
0.2203035 -0.11628683 -0.038471773 0.07617361 0.17730707 -0.15965153 0.25841674 0.0869711
-0.17297222 -0.06191437 0.15591691 0.210001 0.07733228 -0.02009479 -0.104548395 0.121685416
-0.080832854 0.18362507 -0.027787633 0.146932 0.0886123 -0.09111287 -0.16685195 0.06002733
-0.039422918 -0.04003829 0.013768014 0.069068916 -0.009583427 0.039931804 -0.09609824 0.032653645
0.22736713 -0.06687733 -0.077626124 -0.09740202 0.09037031 0.25404468 0.1052315 -0.124306425
0.107649006 0.30215666 0.26638526 -0.25681138 0.31648636 -0.2186119 0.21906017 0.18617651
-0.20041452 0.061910056 -0.079539865 -0.24524431 -0.080682874 -0.2214919 0.16431117 0.15526396
-0.047778115 -0.107653946 -0.19390863 -0.19685587 0.20661803 0.24785899 -0.14590497 0.27636042
0.31866133 -0.06491613 0.23058617 0.06373811 0.26659405 0.2809737 0.21023801 -0.051797975
0.2067619 0.054475058 -0.0142071275 0.0800404 0.23032148 -0.17703731 -0.046616465 0.032393765
-0.13505645 0.16734612 0.09038292 0.25188553 0.07613185 0.10677261 -0.09974467 0.18417287
-0.13457158 0.05446211 -0.021567693 0.2857067 -0.061177965 -0.022867896 -0.27868778 0.2083789
0.20894754 0.2337298 -0.23216493 0.07965944 0.23175758 0.20969269 0.1521068 -0.18106878
-0.12785134 -0.09108897 0.030308427 -0.20772932 0.2306291 -0.090647146 0.34781942 -0.19007301
0.30860645 -0.0976303 0.17352448 -0.07765967 0.19957355 -0.05695904 -0.098646864 -0.18001902
0.27898926 0.24909236 -0.16223691 0.23164052 -0.13402988 0.09795796 -0.109277494 -0.23700354
0.0006910127 0.050673246 0.29332894 0.23426327 0.2770448 -0.050231013 0.17927861 0.080331616
0.14990152 0.27636376 -0.04369255 0.21782608 -0.17628506 -0.033109266 -0.18057159 0.09696121
0.08920191 -0.13040578 -0.17644054 -0.14611378 0.041037343 0.18491705 0.04131912 0.15382284
0.025133612 0.17128308 0.05621169 -0.1800633 0.010038401 0.23257032 0.24065016 0.16405909

linear2.weight f4 [256, 256]
00000000: acc2 e2bd ab71 ed3d 1156 e33c d8de 623c
00000010: b447 d83b 5fde 7d3d 8e7b c9bc 10ba 69bd
00000020: a3ed eabc 638f 65bd 4b2a 763d ebd2 b0bd
00000030: deda 32bd c22a 0bbd 48cc 19be 1ebf 90bd
00000040: aafb 89bd 551f 3f3e c231 70bd 4c8f 253d
00000050: 4fbe a23d a957 a43d a01f 1e3e 4048 953c
00000060: 78ab cc3c bc77 ecbd 3841 783d 6050 733d
00000070: 5d4f babd e5b0 a4bd 4b5d adbd 56ce 343d
00000080: 8627 80bd c500 b7bc 4c92 1abe c125 903d
00000090: a531 c6bd b889 15bd 677e c7bc d995 b8bc
000000a0: 865e 14bd 0359 c7bd c84f 943c 4461 67ba
000000b0: c5e2 6ebc ebe2 c03d b3c0 bf3d ae55 35be
000000c0: 4121 2e3e 4a45 f83d 7924 043e d7ab 10be
000000d0: e092 c43d 3912 c93d 9b41 8a3d ac68 3cbc
000000e0: 5076 26be 3fd6 22bd 8bd0 653d 8484 ee3a
000000f0: d0c9 de3b ef0a 4b3e b753 72bb 9797 c43d
00000100: ab4f a13d 6892 843d 11c2 ce3d b314 053e
00000110: 08ed 6d3d 82f2 663b 0035 383e 693c 823d
00000120: af38 c3bd e31b e4bd 9f45 e23d 741a 94bb
00000130: 4274 e03d 815a 6a3d 36e7 b13d f632 7ebd
00000140: 905e 94bd 9f27 dc3d b5d8 253d b902 7bbd
00000150: ba7a 8f3d 0852 dd3d ec6b c63d 8ec8 773d
00000160: daf1 93bd 86dd 143d 9d61 ec3c 0346 c23b
00000170: c4b2 013e b811 6f3c a532 1b3d a7f2 30bd
00000180: 25bd cb3d 508e 2dbd 6b82 26be 12fe 04be
00000190: d001 833d fd9b 493d 8c23 e53d c45b 16bd
000001a0: 68a5 1ebc d050 803d 5083 be3d 6f91 7cbd
000001b0: a39b 78bd b95c d43d 7fcc 4dbd ce04 a3bd
000001c0: 22d5 c93d a6a9 133b 039a 97bd bdf4 403d
000001d0: f2b2 a8bd 100f 603d 14ec b7bc a415 c43c
000001e0: a1b9 10be f913 fbbb f2c7 27be 67e3 10be
000001f0: 920f 5b3e ffcb d43d b7cf 29be 66ab 2abd
00000200: 881e fdbc 81a4 ed3d ebd5 94bd 737a 94bd
00000210: befc 8abd 5ec8 bfbd 2c46 9a3c 9aa7 03be
00000220: 864f d23d 0417 ab3d f9db 7bbd cc27 9dbd
00000230: 5e1a 783c 60f6 84bd 45c5 09bc 98ff 0dbc
00000240: e0b8 023d 745a 7d3d 9928 ad3b 6cef ff3d
00000250: 381e 873d c01b 223e 14d4 443d 00fa 8a3d
00000260: 59c8 18be bc84 c7bd 1a6d 1f3d a79b 14bd
00000270: e81a d23c 2071 12be d31b babd 7c0f cdbd
00000280: 7ff3 2d3b 8e82 d03b dff6 3e3d c062 57be
00000290: 5d26 4c3d 3018 44bd 4779 533c 80f0 7dbc
000002a0: 196b debd 6307 36be 4b41 e8bd eb19 833d
000002b0: b887 7f3d 4c97 933d 177e ccbc 6419 f0bd
000002c0: ea4b 04be bae9 73bd 672e e83c dfa5 43be
000002d0: 81fc af3d 74b8 c13d fda6 8abd a536 2cbd
000002e0: 2508 b23d 21e0 da3b a239 9a3d ef99 163d
000002f0: fe18 5c3d afe7 b6bc b8ec 893c bdb3 99bd
00000300: f8cf 843c a0fe f5bb e763 11bd d705 073d
00000310: 5494 c1bd 0a96 ac3d 36db cfbb 4069 fbbc
00000320: 9715 013e 2c0b 023e 60d7 433d 1420 48bd
00000330: 77fd d03c c9fb 323d 039e a1bc ab99 88bc
00000340: cb53 0ebe 8493 a23d 82aa c33d 43a0 09be
00000350: 6328 debc 8d03 da3c 5470 423e ad30 3dbb
00000360: be3f a4bd 15de 68bd d41d bb3c 7d77 10bd
00000370: 6608 1f3c e670 32bd 3b08 03be ad43 3dbd
00000380: f57d ccbc 100b 1abe c046 803d 2a13 bd3c
00000390: b958 f13c 12eb 18be d684 38bc c790 4b3c
000003a0: 3886 20bd d0b8 763d bffd 17be cccc 3f3d
000003b0: 2d6d f3bd 13fc ef3d b0e9 d43d 6d6d 4d3d
000003c0: 0590 76bb e47f 12be eb2e 11bd cccf 3d3d
000003d0: e699 97bd c836 32bd c72d 123e 573b 0dbd
000003e0: ba49 23bd e158 cabd 6f8b 44bd 35bf 993d
000003f0: 4a0c 40bd 0b08 dd3c 837e 953c 4479 07be
-0.11072287 0.11593946 0.027751 0.013847075 0.0066003446 0.061979648 -0.024595048 -0.05706221
-0.028677767 -0.056044947 0.060098927 -0.086339794 -0.04366576 -0.033976324 -0.15019333 -0.07067703
-0.06737454 0.18664296 -0.058641203 0.04041986 0.07946455 0.08024532 0.15441751 0.018222928
0.024984106 -0.11546275 0.060609072 0.059402823 -0.090971686 -0.080415525 -0.0846506 0.04414209
-0.062575385 -0.022339234 -0.1509487 0.07038451 -0.09677438 -0.036508292 -0.024352266 -0.02253239
-0.036222957 -0.097337745 0.018104449 -0.00088264444 -0.014580433 0.09418281 0.09362926 -0.17708465
0.17004873 0.12122591 0.12904538 -0.14128052 0.09598327 0.09817929 0.067507945 -0.011499565
-0.1625607 -0.039755102 0.056107085 0.0018197452 0.0067989603 0.1982839 -0.0036976167 0.09599226
0.078765236 0.06473237 0.10095609 0.12996177 0.05808738 0.003523976 0.17988968 0.063591786
-0.09532296 -0.111381315 0.110484354 -0.004519755 0.109596744 0.057215218 0.08686678 -0.06206032
-0.07244599 0.107497446 0.04048987 -0.061281893 0.0700583 0.10806662 0.09688553 0.060494
-0.07223864 0.036344074 0.02885514 0.005928756 0.1266585 0.014591627 0.037890095 -0.04320016
0.09948186 -0.042372048 -0.16260688 -0.12987545 0.0639683 0.049221028 0.11188421 -0.03670861
-0.009682991 0.06265414 0.093023896 -0.061662134 -0.0606953 0.10369248 -0.05024385 -0.07959901
0.09855105 0.0022531538 -0.07402422 0.0471084 -0.08237256 0.054701865 -0.022451438 0.0239361
-0.14133312 -0.007662293 -0.16384867 -0.14149247 0.21392658 0.10390472 -0.16583143 -0.041667365
-0.030898347 0.11603642 -0.07267364 -0.07249918 -0.06786488 -0.09364389 0.018832289 -0.12856904
0.10269074 0.08353999 -0.06148908 -0.07673606 0.015143005 -0.06492305 -0.008408849 -0.008666895
0.03191459 0.06185384 0.0052843806 0.12496838 0.06597561 0.15830898 0.048053816 0.06785965
-0.14920177 -0.09742114 0.038922407 -0.036281254 0.025647596 -0.14300966 -0.09087338 -0.10012719
0.002654284 0.0063632196 0.046622153 -0.21033764 0.049841274 -0.04787463 0.012907333 -0.015499234
-0.10860271 -0.17776255 -0.11340579 0.06401428 0.06238529 0.07206592 -0.024962468 -0.11723593
-0.12919584 -0.05954907 0.028342439 -0.19106244 0.08593083 0.0945901 -0.06770132 -0.0420443
0.0869296 0.0066795503 0.07530524 0.036767896 0.053734772 -0.022327272 0.01683651 -0.075049855
0.016212448 -0.0075071603 -0.035495665 0.032964554 -0.094521195 0.08427055 -0.0063432707 -0.030689836
0.12605892 0.12699574 0.04781282 -0.048858717 0.025511486 0.043697152 -0.019728666 -0.016674837
-0.13899152 0.079382926 0.09554006 -0.13440041 -0.027118867 0.026613021 0.18988162 -0.0028868124
-0.0801997 -0.05685242 0.022841372 -0.035270203 0.009706592 -0.0435647 -0.12796108 -0.04620712
-0.024962405 -0.15043283 0.062634945 0.023080427 0.029461252 -0.14933422 -0.011262139 0.012424654
-0.0391905 0.060234845 -0.1484289 0.04682617 -0.11886058 0.11718001 0.10396135 0.050153185
-0.0037622463 -0.14306599 -0.035445135 0.04634075 -0.07402401 -0.043509275 0.14275275 -0.03448042
-0.039865233 -0.098802336 -0.047984537 0.07507173 -0.04688672 0.026981374 0.018248802 -0.13229853

linear2.bias f4 [256]
00000000: f147 0b3c 59b2 22bd 5923 83bd 516c 01bd
00000010: 432f 40bc 41d9 993c 9891 90bd 43a0 afbd
00000020: a546 f13b 8a94 90bd 784d b33d c23c 0dbc
00000030: 948b 78bc 2e41 3abd f8bd 3ebd d607 76bd
00000040: f6e5 a7bd c8e4 b43a df6b 4dbc 5e33 42bd
00000050: 6802 80bd 0652 48bd 0c15 60bd 3910 0ebd
00000060: 9e66 873d 9d27 7bbd b25b 47bd 1bd6 1abc
00000070: d3ed 0dbd c2ac 303c 90b3 b83c 7ed1 993d
00000080: bb44 953c f48f 563c a2f3 873c 571b b7bd
00000090: d397 4ebd af53 8e3d 2882 43bd 8ed8 ac3b
000000a0: dae5 d8bc f0b1 9dbd 8be7 d03c a7ff abbc
000000b0: 7abc f63b 3e81 bd3c 3c38 c4bd a573 b0bd
000000c0: 0ea5 9e3a 365d c53b 68e7 cd3c 75e7 9d3d
000000d0: 771b 99bd 8e16 5c3d cc4c 243d e819 07bb
000000e0: fe2f f6bc d0c0 013b 95e2 29bc 04dd 31bd
000000f0: bbef afbb 2c81 a8bb 8747 2dbd b3ca 2dbd
00000100: a199 693c 9ea3 043d 2622 3abd 5ce6 14bc
00000110: 5188 81bd 4934 a23d 28e2 3e3d 73ca aabd
00000120: eef9 4ebc bb94 8b3d 1f59 b63d 2b81 5dbc
00000130: c4a1 04bc 3235 07bd 3a80 b6bd 1539 a53d
00000140: b59d afbd 48f2 c13b 5210 e8bc a38f 07bb
00000150: d102 c3bd ce24 2abc ef8a 79bd 45d7 923d
00000160: e0cc 4dbd 7346 8dbd 1bba 4e3d 060e 4f3c
00000170: 988a 6f3d 1f6c 55bc 3d95 29bc fddc a83c
00000180: 34d4 c1bc 9978 743c 5525 2d3c ef40 a03d
00000190: 1237 8cbd ba08 593d 5ba2 45bd f9d2 48bd
000001a0: 768d 59bd b9d1 b1bd 93f8 1a3c ead1 b83c
000001b0: 9093 0cbd 5e7c 5abb ce36 943c 609a f33b
000001c0: 476c 4bbc 19a0 41bd c674 943d 5c7f 173d
000001d0: 831b e23c f918 883d f804 d23c a01c 953d
000001e0: 7829 7abd 69cb b93d 68d5 613c 8054 ddbc
000001f0: 71be e23c 9cd6 b53d f2ea 3fbc ab05 09bd
00000200: fdc1 8ebb f122 1bbc 1047 3e3b 9418 a9bb
00000210: 780f 753c e562 a83c 8cdd 533d e2cf b4bd
00000220: d3f2 4cbc 49e7 1fbd 583f dc3c cdcb 25bd
00000230: 3e4a 24bd 9dc0 81bc 7557 94bd 74f5 a33d
00000240: d100 13bc 41fd bc3d aa06 a33c 6b76 893d
00000250: 3416 90bd 87eb b73c ce41 93bd a7db 2bbd
00000260: 78c6 9fbc 42ae 50bd 329d 973c d7da 823d
00000270: 6804 9a3d 0144 343c 48dd ed3c 8d6e ae38
00000280: 2a26 203c 690e a9bd fc49 9bbc 4f2d e13c
00000290: 96a4 50bd 8392 773d 2602 a0bd 1769 c33d
000002a0: b6e1 06bd 741f e9bc 412c 82bc 12e1 acbd
000002b0: c0d9 cebc 7ff5 0f3d f1d0 a23c bc08 adbd
000002c0: 13fe 05bd 73ab 61bd bb1b 99bd a61f 9fbd
000002d0: 7eb1 be3d fe76 fc3c 7c08 2ebd e271 f3bc
000002e0: 17f9 9abc 9198 1ebd bb54 68bc 90d5 01bd
000002f0: e322 6dbc 3699 933c 12bc 573b 1388 d8bc
00000300: 6a0f 9c3c 582a 1c3d 8b80 113c 4abb 9bbb
00000310: c038 1fb8 40f1 aa3c 8cef a8bb 3e75 863c
00000320: f085 a5bc 5cad fbbb 3e47 053d cfd0 0bbd
00000330: 51f8 a73b cafa 95bd de62 153c 193a c13d
00000340: 388f 19bc 6943 6dbc b988 d63c 19ae 69bc
00000350: 9add 633c b195 823c 2db4 823d dcd1 c13d
00000360: e5aa 393d a76a 753b 06b2 873d 4f54 b4bd
00000370: 45ec 67bd 7083 393c ac36 85bd 2531 0e3d
00000380: d378 b3bd 9131 6c3c 6dd7 a73d cfe1 5d3d
00000390: 2e65 773d 78b8 78bd 4e7f a83c 0775 6b3d
000003a0: c684 a83d 847b debb 3f0f c33c bba3 983d
000003b0: 4ca9 85bc 1140 063c b7b3 37bc c24f acbb
000003c0: 9732 d9bb ec99 36bd 6290 a4bd fc5c 8dbc
000003d0: 8327 403d 2e54 603c 5b17 1e3c 2a75 4cbc
000003e0: bae1 12bd 20ca 09bd bc58 1e3d 3e62 a4bd
000003f0: b4a4 0ebc 5da9 283c bbc0 93bd 9d66 47bd
0.008501039 -0.039720867 -0.064032264 -0.03159744 -0.011730018 0.018780353 -0.0705902 -0.08575489
0.007363158 -0.070595816 0.0875501 -0.008620443 -0.015169997 -0.045472316 -0.046567887 -0.060066067
-0.081981584 0.0013801092 -0.0125379255 -0.04741227 -0.06250459 -0.04890635 -0.054707572 -0.03468344
0.066113696 -0.061317075 -0.04867143 -0.009450461 -0.034650635 0.010783376 0.02254656 0.075106606
0.01822125 0.013095845 0.016595665 -0.089407615 -0.05043776 0.06949555 -0.04773155 0.005274839
-0.02647679 -0.076999545 0.025501033 -0.020995928 0.0075297924 0.023132917 -0.09581038 -0.086158074
0.0012103633 0.0060230745 0.025134757 0.077101626 -0.07475942 0.053732447 0.0401123 -0.0020614807
-0.030052181 0.0019798763 -0.010368963 -0.043423668 -0.0053691543 -0.0051423516 -0.042304542 -0.042429637
0.014257819 0.0323826 -0.045442723 -0.009088125 -0.063248284 0.07920129 0.0466024 -0.083393954
-0.01263283 0.068154775 0.08903717 -0.013519566 -0.008095209 -0.033009715 -0.08911176 0.08067528
-0.08575002 0.0059187748 -0.028328095 -0.002068498 -0.095220216 -0.0103847515 -0.060923513 0.07169966
-0.050244212 -0.06898203 0.050470453 0.012637621 0.058481783 -0.013026266 -0.010350523 0.020613188
-0.023660757 0.014921331 0.010567983 0.07824885 -0.06846441 0.052986838 -0.048250537 -0.049029324
-0.053113423 -0.086825795 0.009458679 0.022561032 -0.034320414 -0.0033338289 0.01809254 0.0074341744
-0.012415952 -0.04727182 0.07248835 0.036986694 0.02760101 0.06645388 0.025637135 0.072808504
-0.061074704 0.090720005 0.01378379 -0.027017832 0.0276787 0.08878824 -0.01171373 -0.03345267
-0.0043566213 -0.00946878 0.0029034056 -0.0051604006 0.014957301 0.02055497 0.051724955 -0.08828713
-0.012509066 -0.03903893 0.026885673 -0.040477563 -0.040109865 -0.015838915 -0.072432436 0.08005801
-0.008972363 0.09227992 0.019900639 0.067120396 -0.07035485 0.022451175 -0.071902856 -0.041957524
-0.019503817 -0.050947435 0.018507574 0.06389397 0.07520372 0.0110025415 0.02903618 8.317558e-05
0.009774724 -0.08254702 -0.018956177 0.027487425 -0.05093821 0.06044246 -0.0781291 0.09541529
-0.0329301 -0.02845738 -0.015890243 -0.08441366 -0.025250316 0.035146233 0.019875022 -0.084489316
-0.032713007 -0.055095147 -0.07475992 -0.07769708 0.09311198 0.030818459 -0.04248856 -0.02971739
-0.018917603 -0.038719717 -0.014180358 -0.03169781 -0.01447365 0.018017393 0.0032918495 -0.026432073
0.019050319 0.03812632 0.008880745 -0.004752551 -3.7961407e-05 0.02086699 -0.0051555093 0.016413327
-0.020205468 -0.007680578 0.032538645 -0.034134682 0.005126037 -0.07323225 0.00911781 0.094349094
-0.009372525 -0.014481404 0.026188241 -0.0142626995 0.013907814 0.015940519 0.06382022 0.094638556
0.045328993 0.0037447603 0.06625752 -0.08805143 -0.05662181 0.011322841 -0.065045685 0.034714837
-0.0876328 0.014416114 0.08195386 0.054170426 0.060399227 -0.060722798 0.020568516 0.057484653
0.082284495 -0.0067896266 0.02381098 0.07453104 -0.016316079 0.008193986 -0.011212281 -0.0052585313
-0.006628345 -0.044580385 -0.08035351 -0.017256252 0.04691268 0.013691945 0.009649123 -0.012479106
-0.0358598 -0.033640027 0.038658842 -0.08026551 -0.0087062605 0.010294286 -0.07214495 -0.048681844

linear3.weight f4 [1, 256]
00000000: 53fd 303e 461a bebd d649 a1bd 5186 bdbd
00000010: aa78 93bd 4bb1 f53d f793 b4bd d587 b9bd
00000020: b21f afbd 53e2 a2bd 5ec9 243e 8186 d5bd
00000030: eb6b 1e3e 81e4 a9bd 84f9 96bd 1a24 b2bd
00000040: e53d 9fbd ce7d 81bd 913f 283e 8483 a8bd
00000050: aa78 c9bd 7088 97bd 686d b8bd e0f6 9dbd
00000060: aef6 133e 583c aabd b514 bdbd 94c0 a7bd
00000070: 48dc 95bd 8eae 0d3e 3108 b3bd ec25 1c3e
00000080: 3f35 97bd e463 bebd dc10 c0bd d54f b9bd
00000090: 605e aabd b1b3 1d3e a488 bfbd 3190 b5bd
000000a0: 04fd 163e 1a92 b7bd 1a77 cbbd 330b b4bd
000000b0: 98e3 a7bd f6f3 233e 7e69 b8bd c253 b8bd
000000c0: 6a47 2f3e 0515 df3d e014 083e eab1 e73d
000000d0: 9ca7 acbd e49d 253e 59b8 1b3e 5666 a7bd
000000e0: 36f8 babd 65d4 243e 145c b3bd cb56 a9bd
000000f0: 6385 153e e03c 9cbd e512 97bd 1841 c4bd
00000100: 555c 9fbd 472f 96bd 8b93 acbd 5151 0a3e
00000110: 1072 a8bd 8bd0 203e e3fd 183e 2cb0 abbd
00000120: b586 97bd de72 2a3e 61ca 203e 7d23 98bd
00000130: ed02 1a3e 1c34 243e aa10 8fbd 1e9c 153e
00000140: 6187 c2bd 080c 2a3e f1f4 2d3e 6692 9bbd
00000150: f55e c8bd 7fc1 b9bd 33cf b3bd 0ab6 243e
00000160: 3dd6 b3bd cc17 c6bd a688 1e3e 4922 a6bd
00000170: 665e 1e3e ad14 a7bd 1d9f 293e 5761 253e
00000180: 75eb 1f3e 174a a8bd d7ac 043e ec9e 203e
00000190: b004 aabd 541a 063e 4c2b 9cbd df13 b9bd
000001a0: a957 d3bd 345b a6bd b05f b4bd 7e5d 90bd
000001b0: 8eac c4bd 32a4 c1bd f625 a6bd 8bea 9dbd
000001c0: 84f9 bcbd a770 95bd 9e1b 103e 5cd7 053e
000001d0: 6de1 9dbd fa99 233e 46f8 9bbd 987b 2b3e
000001e0: fb7d a4bd 9c56 1d3e 97ff 9ebd d717 c3bd
000001f0: 736d 90bd c71d 193e 7db7 0f3e 4f7c 9ebd
00000200: 667a 123e 75eb b0bd 7215 bbbd ed4c 8fbd
00000210: 92ec 9abd e315 a3bd f1f7 213e 9495 a6bd
00000220: 0d1e a9bd 5ac2 283e 4e80 123e 9d2c bdbd
00000230: 2dcf 9abd 92a1 bbbd 499e 9cbd 7922 223e
00000240: aec1 a1bd a32d 073e f496 babd 31d7 1e3e
00000250: b6b4 aebd 3494 233e 4fc9 babd 7e73 97bd
00000260: 0960 a0bd 118c a7bd a881 0e3e a029 193e
00000270: 2d1b 0b3e 3c8c bbbd f985 223e 723d b4bd
00000280: 6fa7 cabd a797 bfbd 3638 8bbd ec4e a8bd
00000290: 2549 a2bd 3e33 363e 294c a3bd cd32 0f3e
000002a0: d85d b8bd cc2e adbd c093 1a3e 400e a4bd
000002b0: e573 b4bd a93b 283e aa19 a3bd c58a babd
000002c0: ea33 b5bd 4e0b c7bd 7f3a a0bd 7bcc b7bd
000002d0: c753 1f3e 7e66 bebd 3804 c2bd d0e1 acbd
000002e0: eacd 8cbd e9d1 afbd 19c0 8abd 797e b0bd
000002f0: 62d6 92bd b3bc 143e 6b68 bebd 3143 92bd
00000300: f12e 9cbd 4498 183e 2c72 a9bd 47cc c1bd
00000310: f923 2a3e a754 c4bd c5dd b5bd ff56 b7bd
00000320: 05da d2bd 87a2 273e 8115 94bd a488 a5bd
00000330: 6b2d 0e3e 6485 c7bd 3097 7cbd 1081 0e3e
00000340: 4c85 1d3e ffff 273e f4b4 afbd d0d3 a9bd
00000350: 68d6 cbbd 74fc 303e 3eb0 263e 256b 1f3e
00000360: 67d2 183e c2a3 c2bd 2d27 193e b732 abbd
00000370: 988e cabd a345 cbbd afd3 89bd a2af 213e
00000380: e531 c0bd 8b19 c2bd a386 283e cfa3 f63d
00000390: 650a 353e 7ee4 bebd 3152 283e 1f0f 1a3e
000003a0: 453a 233e 3e49 183e 4f71 293e 834f 263e
000003b0: 9a3b abbd bf75 133e a465 0f3e dd29 a2bd
000003c0: f07c a0bd 9b5a a0bd 7485 c7bd 64fc 103e
000003d0: 451d 0c3e 6cc3 0d3e 5e09 b6bd 5803 b0bd
000003e0: b95b c1bd 2f12 aabd 4030 1d3e 6a54 b3bd
000003f0: cdd8 a2bd 3302 a7bd 587b cfbd 0e3e b5bd
0.17284136 -0.09282355 -0.07875411 -0.092541344 -0.07200749 0.119967066 -0.088172846 -0.09059111
-0.08550967 -0.07953324 0.1609244 -0.10426045 0.15470855 -0.08295537 -0.0737181 -0.08698292
-0.07775477 -0.063228235 0.16430499 -0.082282096 -0.09837468 -0.0739907 -0.090052426 -0.07713103
0.1444957 -0.08312291 -0.09232465 -0.08191028 -0.07317406 0.13836119 -0.08741797 0.15248841
-0.07383203 -0.092963964 -0.09378216 -0.0904843 -0.08318782 0.15400578 -0.09352234 -0.08865393
0.14744955 -0.089634135 -0.09934826 -0.087911986 -0.08197707 0.16011032 -0.09004496 -0.090003505
0.17117086 0.10892681 0.13289213 0.11313231 -0.084304065 0.16173512 0.15207042 -0.08173816
-0.09129374 0.16096647 -0.08757797 -0.082685076 0.14601664 -0.076287985 -0.07376651 -0.09582728
-0.07781283 -0.07333236 -0.08426579 0.13507582 -0.08224881 0.15704553 0.149406 -0.083832115
-0.0739874 0.16645381 0.15702201 -0.07428644 0.15040179 0.16035503 -0.069856 0.14610335
-0.09498478 0.16606152 0.16987969 -0.07596283 -0.097837366 -0.090701096 -0.087797545 0.16085067
-0.08781097 -0.09672508 0.15481815 -0.08112008 0.15465698 -0.081582405 0.16564603 0.16150413
0.15617163 -0.082172565 0.12956558 0.15685624 -0.08301675 0.13095981 -0.07625446 -0.09036993
-0.10319454 -0.08122864 -0.088073134 -0.07049082 -0.09603225 -0.09455146 -0.08112709 -0.07710751
-0.09227279 -0.07296877 0.14073035 0.13070434 -0.07709012 0.15976706 -0.07615714 0.16746366
-0.08031841 0.1536507 -0.07763594 -0.095260315 -0.07052126 0.14952765 0.14034839 -0.07738554
0.14304504 -0.0863866 -0.0913495 -0.06997094 -0.075646535 -0.07963159 0.15817238 -0.081339985
-0.08257685 0.16480389 0.14306757 -0.09237025 -0.07559047 -0.091616765 -0.07647378 0.15833463
-0.078982696 0.13201003 -0.09110823 0.15511777 -0.085305616 0.15974504 -0.09120428 -0.07395075
-0.07830817 -0.081810124 0.13916647 0.14957285 0.13584585 -0.09157607 0.15871419 -0.08800782
-0.09895217 -0.09355097 -0.06797831 -0.08218178 -0.079241075 0.17792985 -0.07973511 0.13984223
-0.09002274 -0.084561914 0.15095425 -0.080105305 -0.08811168 0.16429009 -0.079638794 -0.091084994
-0.088477924 -0.09718953 -0.07823657 -0.089745484 0.15559302 -0.092968926 -0.09473461 -0.08441508
-0.068752125 -0.08584959 -0.06774921 -0.08617873 -0.071697965 0.14525108 -0.0929726 -0.07141722
-0.07626141 0.14901835 -0.0827373 -0.09462791 0.16615285 -0.09586459 -0.0888019 -0.0895214
-0.1029549 0.16370593 -0.07230664 -0.08082703 0.13884513 -0.09742239 -0.06166762 0.13916421
0.1538288 0.16406249 -0.08579436 -0.08292353 -0.09953004 0.17283803 0.16278169 0.15568216
0.14924012 -0.095038906 0.1495635 -0.083592825 -0.09890479 -0.099253915 -0.067298286 0.15789655
-0.093845166 -0.09477528 0.1645761 0.12042963 0.17679746 -0.09320925 0.16437604 0.1504483
0.15940197 0.1487169 0.1654713 0.16241269 -0.083609775 0.14400385 0.14003617 -0.07918141
-0.0783633 -0.078297816 -0.09742251 0.1415878 0.1368304 0.13844079 -0.088885054 -0.08594388
-0.09441323 -0.083042495 0.15350437 -0.08756335 -0.07951508 -0.08154716 -0.10130948 -0.088497266
