testing/scripts/outputs/DDPG_Env/20221214-123050/models/680critic_checkpoint.pt (torch, 282455 bytes, 5 tensors)

linear1.weight f4 [256, 15]
0.27817854 0.20566653 0.11079361 0.2112195 0.895085 0.8382076 0.5094369 0.39550978
0.2570338 0.040332306 0.023568159 0.076099925 0.058867194 0.08177652 0.22945473 0.025086112
-0.045958523 0.26416633 -1.3025669 -1.7295638 -0.47661835 -1.7399023 -0.6309008 -0.12908301
-0.27200636 0.17224245 0.02398101 -0.07539304 -0.06011478 0.04218019 0.00050240895 -0.6410346
-0.3637369 -0.257667 -1.2009655 -0.21505786 -1.6561191 -0.5313262 0.14888903 -0.12267567
-0.01067381 0.080926076 -0.026081147 -0.020907724 0.05809215 0.16577683 0.4450163 0.36542746
0.52278364 0.3645669 -0.011370905 -0.46580923 -0.04115817 0.19598557 0.3266616 0.10525248
0.28719902 -0.46366253 0.0021655385 0.22746891 0.16057701 0.26535445 0.3288267 -0.27430382
-0.051540554 -0.38209125 0.37184665 -0.29258463 0.31809697 0.058025032 -0.59641725 0.1437055
0.5569355 0.2161704 0.03189684 0.4645395 -0.33523414 0.35560253 -0.073403746 0.13792296
0.3143892 0.38171157 0.081589304 -0.009822609 0.0078812465 0.045591384 0.17743257 -0.1277529
0.15278746 -0.024780858 0.13396594 -0.45266414 0.028934136 -0.20577702 0.38817137 0.10791707
-0.14292568 0.13326132 0.5689502 0.5851816 0.40499276 0.19211398 -0.33346456 -0.17361526
-0.10931515 -1.0102532 0.7507548 -0.013772039 0.36708862 -0.08983924 0.17905043 -0.55065316
0.3471303 -0.14578505 -0.15017465 0.33062452 0.44007546 -0.33252445 0.018250082 0.018005194
0.022837395 0.03306211 -0.019683152 0.34381586 0.2726944 0.543027 0.17463303 0.14643975
-0.24259926 -0.24478929 -0.25598288 0.18298921 -0.022842295 -0.36475167 0.0030969835 -0.14067553
-0.15488087 -0.098729886 -1.2665805 -2.0425732 -0.39285213 -1.8216698 -0.6820307 0.42210206
0.21251814 0.16668911 0.05119121 -0.16502744 -0.000910666 -0.021163365 -0.12065425 0.74480534
0.2682542 0.44823462 0.23642433 0.26893723 0.21819645 0.19188577 0.01397488 -0.077577665
0.0793005 0.528381 0.051632628 -0.35272685 -0.2900629 0.25242108 -0.36973092 -0.217266
-0.09648063 0.24027638 0.36106554 0.14048389 0.06472213 0.07713263 -0.21482088 0.5171558
-0.00089625793 0.265159 -0.013147078 0.06496409 0.34776354 -0.09358381 0.029936973 0.46661314
-0.14590654 0.0136928065 0.07634324 -0.06546967 0.08593239 -0.4070853 0.0011152743 -2.786153
0.022848153 -0.014877961 0.042608254 0.1631992 -0.07849286 0.48290986 0.0106974235 0.0809848
0.45459753 0.2708257 0.10888566 -0.5470497 0.21142305 0.081380896 0.06785416 -0.20041057
-0.0067722867 -0.22313026 -0.13074347 -0.10285712 0.09438202 -0.96596444 -2.0847867 -0.7307944
-1.5171102 -0.81585 0.25701407 0.0026093628 0.07799346 0.06968788 -0.08564565 0.14349265
-0.099059165 0.15679546 -0.09625461 0.28075507 -0.025219964 0.36949292 0.03501396 -0.17928222
-0.15196757 -0.07810494 0.5449619 0.3185988 0.15132831 -0.31837437 -0.036070645 -0.2441613
0.1478781 -0.49935958 -0.8434228 -0.111334234 -1.3165888 -0.35780796 -1.2547472 -0.3626252
0.25220904 -0.2968697 -0.044928167 0.050527748 -0.0002790477 0.039778285 -0.14450109 -0.091676414
00000000: 6b6d 8e3e 3f9a 523e c3e7 e23d ed49 583e
00000010: 4a24 653f c694 563f 756a 023f 4280 ca3e
00000020: ef99 833e 7d33 253d 0312 c13c 47da 9b3d
00000030: ba1e 713d 737a a73d 2ef6 6a3e 6481 cd3c
00000040: 013f 3cbd cf40 873e 83ba a6bf 5962 ddbf
00000050: 5207 f4be 1eb5 debf b782 21bf 562e 04be
00000060: 6b44 8bbe 5360 303e d373 c43c ab67 9abd
00000070: ea3a 76bd 23c5 2c3d 18b4 033a d81a 24bf
00000080: b93b babe eeec 83be 3db9 99bf 2138 5cbe
00000090: b6fb d3bf fe04 08bf 5e76 183e 623d fbbd
000000a0: 34e1 2ebc 92bc a53d 21a8 d5bc ad46 abbc
000000b0: 09f2 6d3d 67c1 293e 2dd9 e33e 4f19 bb3e
000000c0: 26d5 053f 83a8 ba3e 084d 3abc 8c7e eebe
000000d0: 7895 28bd 71b0 483e 3040 a73e 9d8e d73d
000000e0: c00b 933e 2d65 edbe b5eb 0d3b 9ced 683e
000000f0: 4d6e 243e 8adc 873e f95b a83e 8d71 8cbe
00000100: 301c 53bd 77a1 c3be af62 be3e a7cd 95be
00000110: 9bdd a23e a8ab 6d3d cdae 18bf 8927 133e
00000120: 5393 0e3f c65b 5d3e 43a6 023d 1fd8 ed3e
00000130: cfa3 abbe 8911 b63e b454 96bd ad3b 0d3e
00000140: 9ff7 a03e b36f c33e 4b18 a73d 02ef 20bc
00000150: 5820 013c 08be 3a3d e2b0 353e a8d1 02be
00000160: 5174 1c3e 3a01 cbbc 5e2e 093e 98c3 e7be
00000170: 4807 ed3c 36b7 52be 66be c63e a003 dd3d
00000180: 1c5b 12be a875 083e b8a6 113f 76ce 153f
00000190: 365b cf3e 87b9 443e debb aabe 33c8 31be
000001a0: 9fe0 dfbd fa4f 81bf 7731 403f 1ea4 61bc
000001b0: 0af3 bb3e a3fd b7bd ff58 373e 9bf7 0cbf
000001c0: 10bb b13e ad48 15be 62c7 19be 9e47 a93e
000001d0: 9251 e13e a540 aabe 3281 953c a17f 933c
000001e0: 7d15 bb3c 236c 073d 903e a1bc a208 b03e
000001f0: 9a9e 8b3e d103 0b3f 00d3 323e 4df4 153e
00000200: f16b 78be 0baa 7abe 3010 83be 8661 3b3e
00000210: c41f bbbc bbc0 babe c3f6 4a3b 3f0d 10be
00000220: 1799 1ebe e532 cabd 4f1f a2bf 85b9 02c0
00000230: ea23 c9be 7a2c e9bf 9099 2ebf c31d d83e
00000240: 5b9e 593e 8db0 2a3e e0ad 513d f4fc 28be
00000250: c3b9 6eba cb5e adbc 9319 f7bd 90ab 3e3f
00000260: 9d58 893e 027f e53e 3819 723e 24b2 893e
00000270: e46e 5f3e b47d 443e e5f6 643c 0ae1 9ebd
00000280: 4d68 a23d fa43 073f bc7c 533d 9d98 b4be
00000290: 2083 94be 563d 813e 5f4d bdbe fa7a 5ebe
000002a0: a397 c5bd 030b 763e 95dd b83e 02db 0f3e
000002b0: 098d 843d b6f7 9d3d 01fa 5bbe 5364 043f
000002c0: daf2 6aba ecc2 873e d866 57bc e50b 853d
000002d0: 100e b23e dea8 bfbd 623e f53c ebe7 ee3e
000002e0: 8668 15be cb57 603c d859 9c3d f614 86bd
000002f0: 52fd af3d 7c6d d0be 652e 923a 5550 32c0
00000300: 0d2c bb3c b1c2 73bc fe85 2e3d b11d 273e
00000310: ddc0 a0bd f63f f73e 3f44 2f3c 5cdb a53d
00000320: 02c1 e83e aba9 8a3e 72ff de3d 730b 0cbf
00000330: 497f 583e 07ab a63d 1ff7 8a3d 6e38 4dbe
00000340: 0fea ddbb 427c 64be 9ee1 05be c1a6 d2bd
00000350: 5c4b c13d 7249 77bf 256d 05c0 5815 3bbf
00000360: ab30 c2bf 8cdb 50bf 5997 833e d801 2b3b
00000370: 09bb 9f3d 85b8 8e3d fd66 afbd bdef 123e
00000380: 88df cabd fd8e 203e 2321 c5bd 21bf 8f3e
00000390: 199a cebc 2d2e bd3e cc6a 0f3d c295 37be
000003a0: 639d 1bbe 7cf5 9fbd a082 0b3f 621f a33e
000003b0: cff5 1a3e f701 a3be d0be 13bd 6b05 7abe
000003c0: 5b6d 173e 0fac ffbe 8eea 57bf 3403 e4bd
000003d0: fb85 a8bf 9b32 b7be 8e9b a0bf 03aa b9be
000003e0: 8b21 813e 4eff 97be 9906 38bd 2ff6 4e3d
000003f0: 264d 92b9 8eee 223d 18f8 13be d8c0 bbbd

linear1.bias f4 [256]
-0.025613176 0.016365241 0.49565396 -0.18984222 -0.09986555 0.21931165 -0.33994192 -0.11790454
0.28968444 0.19923134 0.04418282 -0.24777009 0.6276003 -0.053544246 0.1311379 -0.26898995
0.11332604 -0.09483114 0.5497738 0.54097444 -0.04607822 0.27916127 -0.22541937 -0.24435456
-0.14520466 0.2798319 0.28934824 0.6238605 -0.13665743 -0.13027497 0.3856155 0.22437896
-0.023125457 0.04601918 0.2383911 0.3742732 -0.21714368 -0.21884315 0.065368325 1.0456619
0.5809029 -0.16333558 0.13009061 0.1923092 0.08082648 0.26609805 -0.00966183 0.1264027
0.23705168 0.4033685 0.37855634 0.075542465 -0.07381358 0.06328436 0.2676207 -0.3363495
0.1783298 -0.07634192 0.5022462 0.2655467 0.4930833 0.7332428 -0.016935784 0.15380561
0.1326855 0.7006795 -0.060655043 0.19394256 -0.42357022 0.37714973 -0.06659995 -0.088367276
0.42186922 0.016342517 0.1582141 0.24089012 -0.2829835 0.48313338 0.45520175 0.85314906
0.045962803 -0.07436032 0.7249175 -0.036590345 0.38534525 0.30100477 0.04119442 0.08918561
0.38577014 -0.15817441 0.43303284 0.84769046 -0.2057431 0.9516795 0.03770893 0.5328363
0.18114987 0.23119374 0.46557447 0.06485058 -0.14455345 0.25918669 0.59733117 -0.068646684
0.073646255 0.058018684 0.058963213 -0.02292024 0.25669923 -0.09666197 0.25101063 1.0306861
-0.1554367 -0.1667653 -0.06404422 -0.053494938 0.20656702 0.31901425 0.24463612 0.3611914
-0.084114075 0.83984977 0.7762013 -0.014054929 -0.1342798 0.1608901 0.15285122 1.1658012
0.5090287 -0.071033835 -0.19965567 0.30425036 0.03569166 -0.05450292 0.70480925 1.2250398
-0.0511707 0.32059696 0.36637142 0.57229817 0.3865912 0.2616566 -0.13055287 -0.11707855
0.025726607 -0.052294552 0.30449846 0.20767622 0.47503546 0.1449849 -0.04864654 0.16945261
0.9870904 1.0530347 0.15512392 0.057437163 0.20860226 -0.06269579 0.35408488 0.27482492
0.07600362 -0.13644412 0.2195293 0.14573433 0.418844 0.1942703 0.6296302 0.30320433
1.0341713 0.061067194 0.34515077 0.1894118 0.24948636 0.7498645 0.14082026 0.042644445
0.69257814 -0.20623785 0.016427627 0.6160632 0.2454105 0.18810703 -0.3741598 0.3469491
0.15847063 -0.18154466 0.44333014 0.15814787 0.5863145 0.49274063 0.21862626 0.21139587
0.15132178 -0.16252285 0.6205255 0.2784308 -0.48961002 -0.052405823 -0.25671065 0.4511384
-0.12557797 -0.14082585 0.8942186 0.1160324 0.8504096 0.2088531 0.3695436 0.85574585
0.010860026 -0.06699543 -0.1855627 0.089825265 0.0054763467 -0.12252617 0.19883575 0.44056955
0.35228664 0.32241127 -0.0033346603 0.15157673 -0.068606146 -0.35102728 -0.24345824 -0.06793986
0.38792747 0.76793337 0.1097355 -0.18974736 0.28893888 0.35282937 0.072084635 0.103203915
0.36658394 0.22226438 -0.12432571 0.01398282 -0.031115333 0.36869594 -0.07792098 0.5331052
0.27579024 -0.051109858 0.23102394 0.32147914 0.11620166 -0.058231004 -0.010392364 0.02397362
-0.14746928 0.55375206 0.41971382 0.19307843 -0.079377204 -0.14080705 -0.28957787 -0.02823343
00000000: b9d2 d1bc 6610 863c 5bc6 fd3e 0066 42be
00000010: 4f86 ccbd 3c93 603e de0c aebe ef77 f1bd
00000020: 8551 943e 4d03 4c3e 0bf9 343d 71b7 7dbe
00000030: 6aaa 203f 3651 5bbd 0349 063e 0db9 89be
00000040: 7c17 e83d d436 c2bd fabd 0c3f 4d7d 0a3f
00000050: 84bc 3cbd 3aee 8e3e 56d4 66be 1538 7abe
00000060: 88b0 14be 2046 8f3e 7425 943e 52b5 1f3f
00000070: edef 0bbe cd66 05be 656f c53e 99c3 653e
00000080: 9971 bdbc 9c7e 3c3d cc1c 743e bda0 bf3e
00000090: ea5a 5ebe 6b18 60be d4df 853d 40d8 853f
000000a0: 0db6 143f 7141 27be 7936 053e b4ec 443e
000000b0: 5b88 a53d 013e 883e a74c 1ebc b66f 013e
000000c0: adbd 723e 5186 ce3e 23d2 c13e 02b6 9a3d
000000d0: 932b 97bd 3b9b 813d 9505 893e 0036 acbe
000000e0: 169c 363e 2759 9cbd 3593 003f bdf5 873e
000000f0: 6a75 fc3e cdb5 3b3f eabc 8abc 387f 1d3e
00000100: b5de 073e bb5f 333f 6c71 78bd e198 463e
00000110: 32de d8be c519 c13e 8e65 88bd e7f9 b4bd
00000120: 3eff d73e bee0 853c e102 223e e6ab 763e
00000130: 37e3 90be 425d f73e 3410 e93e fa67 5a3f
00000140: 7e43 3c3d 394a 98bd 3194 393f c2df 15bd
00000150: f94b c53e 4c1d 9a3e 7bbb 283d f2a6 b63d
00000160: aa83 c53e 79f8 21be 7bb6 dd3e 3e02 593f
00000170: 52ae 52be 45a1 733f ae74 1a3d f667 083f
00000180: 5a7f 393e 0dbe 6c3e c75f ee3e 62d0 843d
00000190: d205 14be 1eb4 843e b2ea 183f a296 8cbd
000001a0: d9d3 963d 00a5 6d3d 6983 713d 3ac3 bbbc
000001b0: 156e 833e b6f6 c5bd 7784 803e 86ed 833f
000001c0: cc2a 1fbe 86c4 2abe 9e29 83bd 821d 5bbd
000001d0: 4e86 533e d655 a33e e481 7a3e 14ee b83e
000001e0: 0044 acbd 6500 573f 21b5 463f a546 66bc
000001f0: a580 09be 60c0 243e 0885 1c3e f938 953f
00000200: b44f 023f 307a 91bd 8972 4cbe b4c6 9b3e
00000210: 6b31 123d 743e 5fbd 616e 343f 1bce 9c3f
00000220: 5e98 51bd 4925 a43e 0995 bb3e 2282 123f
00000230: 48ef c53e dbf7 853e a7af 05be e1c6 efbd
00000240: 9bc0 d23c d032 56bd 39e7 9b3e 13a9 543e
00000250: d937 f33e ec76 143e 9841 47bd fc84 2d3e
00000260: f5b1 7c3f d7c9 863f ced8 1e3e 3b43 6b3d
00000270: d59b 553e a666 80bd 9d4a b53e dab5 8c3e
00000280: c9a7 9b3d 02b8 0bbe 4acc 603e 613b 153e
00000290: b972 d63e cbee 463e 722f 213f 993d 9b3e
000002a0: ba5f 843f 9821 7a3d 9ab7 b03e 2bf5 413e
000002b0: 5a79 7f3e 1ff7 3f3f 3033 103e f1ab 2e3d
000002c0: cd4c 313f 0430 53be 3b93 863c 51b6 1d3f
000002d0: e44c 7b3e 219f 403e e091 bfbe 50a3 b13e
000002e0: 2046 223e d8e6 39be 2bfc e23e 84f1 213e
000002f0: b518 163f 8048 fc3e 90df 5f3e 2978 583e
00000300: 19f4 1a3e 646c 26be c2da 1e3f 7b8e 8e3e
00000310: 2aae fabe 7da7 56bd 946f 83be 9dfb e63e
00000320: 8397 00be a734 10be 83eb 643f 65a2 ed3d
00000330: 72b4 593f 96dd 553e d234 bd3e 2912 5b3f
00000340: 40ee 313c e634 89bd 2604 3ebe 4ff6 b73d
00000350: ed72 b33b 00ef fabd 999b 4b3e 5592 e13e
00000360: ea5e b43e 1713 a53e 518a 5abb ee36 1b3e
00000370: 6181 8cbd d9b9 b3be 1e4d 79be 0e24 8bbd
00000380: 6e9e c63e 4897 443f 01bd e03d 224d 42be
00000390: ccef 933e 0da6 b43e 1ca1 933d 935c d33d
000003a0: e4b0 bb3e 4699 633e 7a9e febd 3318 653c
000003b0: 95e5 febc b7c5 bc3e 0995 9fbd 9579 083f
000003c0: 6134 8d3e 9258 51bd 8a91 6c3e ea98 a43e
000003d0: 23fb ed3d a283 6ebd bc44 2abc 5364 c43c
000003e0: 3002 17be b2c2 0d3f bbe4 d63e 5ab6 453e
000003f0: 8490 a2bd b92f 10be 8d43 94be cb49 e7bc

linear2.weight f4 [256, 256]
0.23608115 0.40690732 0.5517182 0.055266537 0.30654192 0.24681073 0.42367646 -0.7867982
0.048488513 0.71071696 -0.107475206 0.23146386 -1.6197858 0.18871357 0.59417725 0.29986623
0.35947102 0.39241782 0.17922583 -0.3842807 0.13355684 0.5989228 0.33842412 0.28090978
0.35550675 0.29069582 0.6962087 -0.2150645 0.4807632 -0.70867604 1.0575316 0.10775448
0.5897926 0.40280443 0.28976327 0.17783448 0.29568002 0.47542432 0.35067344 -0.18982245
-0.029466005 0.27147642 0.22162674 0.240603 0.31665796 0.5447467 -0.019056981 -0.256161
0.7067187 0.911508 0.63564456 0.27929664 0.22648878 -0.06543884 0.25256637 0.9170575
-0.9701817 0.24144194 0.6501304 0.5230908 -0.5349873 -0.019221976 0.20813856 0.32149222
-0.043003306 -0.24324913 0.2603566 0.63120854 0.4220855 -0.31388655 0.28386855 0.37133926
-0.22884828 0.55062175 0.104205675 0.79936856 0.43982947 0.15761401 0.47085714 -0.05110023
0.14784086 0.07240424 -0.51637435 0.3264331 -0.26827037 -0.32780838 0.28389907 0.4977915
0.44358358 0.23530798 -0.6217988 -0.5158548 0.3626474 -0.41632682 0.69305503 0.09015293
0.88449943 -0.08488268 0.4224928 0.23687303 0.7003164 0.43341365 -0.11013948 0.23179345
0.22064355 -0.07969926 0.2515248 0.48890913 0.08949932 0.32493237 0.8672535 -0.0817708
0.23207198 0.26339754 0.31821832 0.22552261 -0.0034393691 -0.47846767 -0.027669055 0.14192778
0.43954247 -0.716793 -0.10355543 0.60314924 -0.32206404 0.20374435 -0.31845257 -0.14065795
-0.20906894 0.31070992 0.15264495 0.042310324 -0.49946117 0.24353139 -1.1911788 0.19015874
0.36227834 0.45878753 0.25807104 -0.7469156 0.51347977 -0.05331631 0.2585616 0.31716424
0.36947408 0.20888115 1.0110577 0.20899366 -0.1864927 -1.1610303 0.26728567 0.5282294
0.054108806 -0.11039602 0.27171755 0.27157572 0.484563 0.18873277 0.47931585 0.14920193
0.3479327 -0.014783099 0.082432754 -0.20117098 -0.23978542 0.037709747 -1.1066053 0.051655054
0.08043552 0.39221787 -0.1872705 -0.9179711 0.14331616 0.090531275 0.22208282 0.28106257
0.032965433 0.4680521 0.104830414 0.074650355 -0.2818503 0.1019687 0.4903962 -0.35104167
0.24874046 -0.23271413 -0.1519776 0.5392515 0.7082568 -0.43169364 0.055211984 0.2500634
0.34880862 0.2747338 -0.28243664 0.48846453 0.657785 -0.8060199 0.2882505 0.56012225
-0.11294676 0.32490367 -0.99161 0.15039597 -0.53134865 0.11808692 0.58518195 0.12224974
0.47785366 0.33629334 0.09278466 0.34851578 0.2647597 0.58176666 0.34704456 0.6257964
0.09673137 0.36335164 0.54937685 0.44290733 0.3975336 0.51634836 0.56003666 0.4089691
0.6553032 -0.3219341 1.3326725 0.30390775 -0.6273472 0.12030382 0.24839245 0.008614405
-0.4498219 0.08119279 0.43691272 0.24755298 -0.5611604 -0.30766574 0.20415384 0.111043364
0.11602917 -0.23267584 0.4164143 0.40272135 -0.53499454 0.17322414 -0.2316753 0.26488534
0.3270692 0.42161432 -0.81192315 0.14294495 0.65036243 0.16985455 0.23905069 0.5962034
00000000: 42bf 713e 2856 d03e 673d 0d3f 2a5f 623d
00000010: 10f3 9c3e f4bb 7c3e 1fec d83e 9b6b 49bf
00000020: e49b 463d 8cf1 353f f61b dcbd dd04 6d3e
00000030: 2455 cfbf 213e 413e 001c 183f 1188 993e
00000040: 960c b83e fdea c83e fa86 373e 71c0 c4be
00000050: 20c3 083e 0153 193f ed45 ad3e 68d3 8f3e
00000060: fb04 b63e 15d6 943e bc3a 323f de39 5cbe
00000070: 9826 f63e cb6b 35bf 325d 873f 61ae dc3d
00000080: a6fc 163f 623c ce3e da5b 943e 3e1a 363e
00000090: 5f63 973e d16a f33e 788b b33e d160 42be
000000a0: b162 f1bc f5fe 8a3e 1ff2 623e a260 763e
000000b0: fe20 a23e 8574 0b3f 631d 9cbc 8927 83be
000000c0: 84eb 343f 9758 693f 9ab9 223f f8ff 8e3e
000000d0: adec 673e cc04 86bd 6150 813e 48c4 6a3f
000000e0: d45d 78bf 8e3c 773e f26e 263f 47e9 053f
000000f0: edf4 08bf 6877 9dbc 4622 553e a19a a43e
00000100: 3c24 30bd 4d16 79be 764d 853e e296 213f
00000110: 971b d83e bdb5 a0be 3857 913e 2e20 be3e
00000120: 3457 6abe 8cf5 0c3f c969 d53d 6ba3 4c3f
00000130: 5431 e13e 9165 213e 3014 f13e 7a4e 51bd
00000140: 9863 173e ad48 943d 1c31 04bf 3d22 a73e
00000150: bc5a 89be 80d6 a7be 385b 913e 87de fe3e
00000160: 631d e33e 93f4 703e 352e 1fbf 0f0f 04bf
00000170: ecac b93e ca28 d5be 0e6c 313f 19a2 b83d
00000180: 8e6e 623f f8d6 adbd fa50 d83e d88e 723e
00000190: f047 333f 65e8 dd3e cf90 e1bd 435b 6d3e
000001a0: 62f0 613e 5e39 a3bd dcc7 803e 4c52 fa3e
000001b0: 6b4b b73d 895d a63e 5304 5e3f 7377 a7bd
000001c0: 47a4 6d3e 0bdc 863e 83ed a23e 66ef 663e
000001d0: 0a67 61bb b7f9 f4be 37aa e2bc 8455 113e
000001e0: b60b e13e bf7f 37bf df14 d4bd fd67 1a3f
000001f0: 94e5 a4be 5ca2 503e 370c a3be a308 10be
00000200: 2b16 56be 5f15 9f3e f54e 1c3e 974d 2d3d
00000210: 60b9 ffbe 4b60 793e 8c78 98bf f9b8 423e
00000220: 8c7c b93e 33e6 ea3e e321 843e dc35 3fbf
00000230: 6973 033f 3462 5abd 3062 843e 5a63 a23e
00000240: b52b bd3e f1e4 553e 576a 813f 6f02 563e
00000250: f1f7 3ebe a49c 94bf abd9 883e 0b3a 073f
00000260: 32a1 5d3d 4f17 e2bd 901e 8b3e f90b 8b3e
00000270: a418 f83e 2a43 413e e368 f53e 64c8 183e
00000280: 3c24 b23e d034 72bc 81d2 a83d c4ff 4dbe
00000290: 4f8a 75be 8975 1a3d 3ea5 8dbf 4094 533d
000002a0: 61bb a43d c8d0 c83e d7c3 3fbe 2700 6bbf
000002b0: 79c1 123e 7668 b93d ae69 633e 6fe7 8f3e
000002c0: c306 073d 86a4 ef3e 54b1 d63d 49e2 983d
000002d0: af4e 90be f7d4 d03d 3615 fb3e bcbb b3be
000002e0: d2b5 7e3e 9d4c 6ebe 04a0 1bbe 630c 0a3f
000002f0: 5150 353f f306 ddbe f625 623d 4f08 803e
00000300: 0b97 b23e e9a9 8c3e 899b 90be 0618 fa3e
00000310: 9964 283f 5257 4ebf 9295 933e 2c64 0f3f
00000320: a250 e7bd c659 a63e 27da 7dbf 6701 1a3e
00000330: 7706 08bf 8ed7 f13d 7cce 153f 125e fa3d
00000340: 3ca9 f43e a42e ac3e e205 be3d a970 b23e
00000350: 958e 873e a9ee 143f d3af b13e 3134 203f
00000360: 191b c63d 3a09 ba3e f6a3 0c3f c0c4 e23e
00000370: 8689 cb3e 682f 043f 905e 0f3f 6664 d13e
00000380: f3c1 273f 8cd4 a4be 0395 aa3f cc99 9b3e
00000390: d399 20bf d961 f63d 975a 7e3e 6f23 0d3c
000003a0: 0e4f e6be 6848 a63d 06b3 df3e 877e 7d3e
000003b0: 35a8 0fbf 5d86 9dbe b40d 513e b46a e33d
000003c0: b4a0 ed3d 9342 6ebe 4134 d53e 7e31 ce3e
000003d0: 67f5 08bf ab61 313e 4a3c 6dbe 0d9f 873e
000003e0: 9d75 a73e d5dd d73e 32da 4fbf 2960 123e
000003f0: 277e 263f 5aee 2d3e b4c9 743e c9a0 183f

linear2.bias f4 [256]
-0.10975649 0.026199508 0.073144004 0.052227892 -0.030284543 -0.03219895 -0.21370979 -0.18863502
0.6450905 -0.08163816 -0.062380992 0.012275023 -0.057939686 0.6384514 -0.03259574 -0.20197454
-0.008929397 0.14776294 0.019041168 -0.13093612 0.17266616 0.15314616 0.12614052 -0.009550823
-0.17249905 -0.036448732 -0.04912045 -0.015512121 -0.15881702 0.00093352905 -0.21201736 -0.092263326
-0.13494384 -0.033428915 -0.01038433 0.012528585 0.054541066 -0.10666946 -0.22569294 0.0052806046
-0.07500051 -0.11808459 -0.09106507 -0.18451695 -0.1655966 0.6282664 0.044695493 0.043816388
0.70272607 -0.124020435 -0.17169803 -0.17122073 0.6194513 0.056517236 -0.18595298 -0.037431013
-0.116324484 -0.062448252 -0.22527228 0.6837534 0.6908931 -0.04743949 0.034165855 -0.06336599
-0.047458816 0.011098564 -0.1574843 -0.13307664 -0.20087217 -0.12400269 -0.14121003 -0.09419682
-0.18103635 0.15487263 -0.10688585 -0.20943983 0.1448669 -0.050029103 0.6781711 0.65474164
0.63212425 -0.17677335 -0.13150522 -0.06564523 -0.15885825 -0.03128801 -0.038455643 -0.0074888887
-0.12260007 -0.050313316 -0.19224377 -0.15500075 -0.12450489 0.07970705 0.04971404 0.11519137
-0.075857304 -0.11881674 0.006751198 0.019520832 -0.1359627 -0.104146175 0.19278957 -0.1335318
-0.1326551 0.04299146 0.046420045 0.15369274 -0.06669345 0.05237607 -0.07176644 -0.10902186
-0.21776862 -0.015959507 -0.08920575 0.70653397 0.05117271 -0.15509999 -0.040644713 0.023188284
-0.01807165 0.13056706 -0.0821135 -0.1553451 -0.15505493 -0.073260665 0.038777675 -0.11083329
0.02223601 0.15827644 -0.0097994935 0.026583467 -0.14244477 -0.00031174088 -0.08854184 0.036796227
-0.13978982 -0.12413882 -0.24113801 -0.18973817 -0.12465077 -0.11825506 0.022322303 0.03169781
0.008870964 -0.049628265 -0.1153882 -0.100027464 -0.09745073 0.19066797 -0.007540154 0.004072221
0.13148922 -0.08096409 -0.110141896 -0.00924412 -0.07808635 0.5150813 -0.19405521 0.09984993
-0.061170753 -0.008372322 -0.11878657 0.76872396 0.6368163 0.29404402 -0.14197601 0.6486293
-0.09476442 -0.03036363 -0.21639459 -0.018889548 -0.12791778 0.028860899 -0.06827574 0.65274143
-0.07807305 -0.1304635 -0.2380814 0.039663807 -0.033115875 0.08254103 -0.00564636 -0.11143259
0.20018363 -0.07930273 0.038198773 -0.021833591 -0.07891829 0.11649924 0.68187165 -0.16192718
-0.19812497 -0.02404512 0.058313854 0.13489185 0.18685308 0.70034105 0.008618545 0.0761819
-0.12687007 -0.06401398 -0.021568498 0.63946694 0.7232831 -0.026283387 -0.049327813 0.16204622
0.6095321 0.028961033 -0.057603274 -0.05611668 -0.0018113791 -0.0223096 -0.038709775 -0.02707291
-0.04673393 -0.19258688 0.062294953 -0.056542125 0.71085346 -0.06452236 -0.007940749 -0.05151132
-0.05954174 -0.06552168 -0.14838794 -0.03322344 0.60999185 -0.15731159 -0.045302942 -0.038913645
-0.06614238 -0.062464923 0.60852516 0.027604913 -0.22098929 -0.06572614 -0.19849314 -0.09503264
0.014914434 -0.14237083 -0.27954468 -0.060029708 0.7096201 -0.029590458 -0.12570862 0.013192415
0.01513446 0.7187321 -0.14564343 -0.051842727 0.68163025 0.002835667 -0.036645688 -0.05319823
00000000: 03c8 e0bd 5aa0 d63c 86cc 953d eaec 553d
00000010: 4a17 f8bc 0ce3 03bd bdd6 5abe 8a29 41be
00000020: a724 253f e831 a7bd 3683 7fbd 2e1d 493c
00000030: 2a52 6dbd 8d71 233f 1c83 05bd 6ad2 4ebe
00000040: 9b4c 12bc 2b4f 173e 39fc 9b3c 1e14 06be
00000050: 66cf 303e 59d2 1c3e fb2a 013e 0e7b 1cbc
00000060: 97a3 30be 444b 15bd 8632 49bd 8d26 7ebc
00000070: eea0 22be 13b8 743a 141b 59be 8ef4 bcbd
00000080: b82e 0abe c2ec 08bd 0923 2abc b244 4d3c
00000090: 7466 5f3d 8575 dabd 0d1c 67be ec08 ad3b
000000a0: de99 99bd 55d6 f1bd 5380 babd 03f2 3cbe
000000b0: 2892 29be 11d6 203f 9f12 373d d078 333d
000000c0: dbe5 333f 6dfe fdbd 9cd1 2fbe 7d54 2fbe
000000d0: 5c94 1e3f 9e7e 673d 756a 3ebe 4351 19bd
000000e0: 883b eebd bdc9 7fbd c7ad 66be 760a 2f3f
000000f0: 5fde 303f e94f 42bd 7ff1 0b3d 07c6 81bd
00000100: 2d64 42bd c0d6 353c 9043 21be 3e45 08be
00000110: 6fb1 4dbe 1ff5 fdbd 5d99 10be 43ea c0bd
00000120: 9861 39be ee96 1e3e f8e6 dabd 6577 56be
00000130: fd57 143e 51eb 4cbd 9f9c 2d3f 269d 273f
00000140: e5d2 213f 1304 35be 4ea9 06be 0271 86bd
00000150: bdab 22be db27 00bd aa83 1dbd 5a65 f5bb
00000160: bf15 fbbd 5615 4ebd 8ddb 44be 84b8 1ebe
00000170: 6bfc febd 733d a33d f3a0 4b3d 74e9 eb3d
00000180: 135b 9bbd 3156 f3bd 2739 dd3b 27ea 9f3c
00000190: ce39 0bbe 974a d5bd a16a 453e 8fbc 08be
000001a0: bdd6 07be d017 303d f222 3e3d a161 1d3e
000001b0: 9396 88bd 4a88 563d 49fa 92bd da46 dfbd
000001c0: bdfe 5ebe 83bd 82bc 81b1 b6bd 69df 343f
000001d0: 7a9a 513d 88d2 1ebe 127b 26bd 5bf5 bd3c
000001e0: ff0a 94bc 5fb3 053e 1f2b a8bd c912 1fbe
000001f0: b8c6 1ebe b009 96bd 57d5 1e3d 90fc e2bd
00000200: 4b28 b63c 3813 223e 0e8e 20bc 92c5 d93c
00000210: 0bdd 11be 2771 a3b9 6d55 b5bd a4b7 163d
00000220: 1025 0fbe 7e3c febd e2ec 76be b94a 42be
00000230: e748 ffbd b52f f2bd 43dd b63c 90d5 013d
00000240: 8557 113c 0247 4bbd a650 ecbd 33db ccbd
00000250: 4094 c7bd 773e 433e 6513 f7bb 4470 853b
00000260: 1ca5 063e 80d0 a5bd 1392 e1bd a674 17bc
00000270: bceb 9fbd 5edc 033f 69b6 46be 1f7e cc3d
00000280: 2f8e 7abd 102c 09bc 6046 f3bd 18cb 443f
00000290: 6506 233f f08c 963e 2962 11be 920c 263f
000002a0: d913 c2bd 26bd f8bc 8b96 5dbe 41be 9abc
000002b0: e1fc 02be b16d ec3c 27d4 8bbd 101a 273f
000002c0: c3e4 9fbd 3998 05be 9ccb 73be 8476 223d
000002d0: 83a4 07bd 460b a93d 1a05 b9bb c536 e4bd
000002e0: f0fc 4c3e 7869 a2bd 5176 1c3d 5cdc b2bc
000002f0: ea9f a1bd 2797 ee3d 248f 2e3f 3dd0 25be
00000300: 46e1 4abe 46fa c4bc 82da 6e3d 1721 0a3e
00000310: 6a56 3f3e 8d49 333f cc34 0d3c 4205 9c3d
00000320: 3aea 01be c319 83bd 6bb0 b0bc 1bb4 233f
00000330: 1529 393f 4250 d7bc f60b 4abd 72ef 253e
00000340: 4c0a 1c3f b03f ed3c 69f1 6bbd 9bda 65bd
00000350: cc6b edba 9fc2 b6bc 248e 1ebd 02c8 ddbc
00000360: 146c 3fbd 7f35 45be fe28 7f3d b798 67bd
00000370: 7efa 353f 4d24 84bd ea19 02bc 89fd 52bd
00000380: 0ae2 73bd 3b30 86bd 02f3 17be 4d15 08bd
00000390: 6d28 1c3f 4a16 21be 948f 39bd ea63 1fbd
000003a0: a875 87bd 38db 7fbd 4ec8 1b3f b323 e23c
000003b0: 044b 62be 6d9b 86bd c941 4bbe 79a0 c2bd
000003c0: ac5b 743c a9c9 11be 7b20 8fbe b6e1 75bd
000003d0: aaa9 353f b067 f2bc c3b9 00be 0025 583c
000003e0: 87f6 773c d4fe 373f 8d23 15be 0a59 54bd
000003f0: 527f 2e3f 99d6 393b ca19 16bd 63e6 59bd

linear3.weight f4 [1, 256]
-1.0295614 -1.2230693 -1.3546822 -1.444927 -1.2575487 -1.4528949 -0.9480337 -0.869569
1.4743742 -1.0942743 -1.1292542 -1.4908764 -1.3038498 1.4061906 -1.301562 -0.9010342
-1.4296563 -1.3387626 -1.4774956 -1.0947045 -1.3322732 -1.3338377 -1.3315992 -1.4209908
-0.95098215 -1.0798143 -1.4336553 -1.5148573 -1.0227253 -0.0017418767 -0.9603485 -1.0147334
-0.921304 -1.2830168 -1.0652082 -1.4705889 -1.5515501 -1.1003332 -0.8991981 -1.1060429
-1.046042 -1.3680197 -1.3810563 -0.93861383 -0.8980928 1.3943642 -1.4600676 -1.4229615
1.3885444 -1.0153105 -0.92457044 -0.9671804 1.3699884 -1.3420877 -0.93373513 -1.4325463
-1.3044803 -1.3026767 -0.9665521 1.4616975 1.354082 -1.2080773 -1.3922426 -1.1096154
-1.1855181 -1.5170492 -0.94172096 -0.9056101 -0.9094412 -0.8798186 -1.1267865 -1.4161586
-0.90803844 -1.3383659 -0.9305988 -0.88951623 -1.2593013 -1.4296483 1.4075634 1.5481662
1.3569782 -1.0980972 -0.99020135 -1.0412838 -0.9411723 -1.3137367 -0.0021012158 -1.1929505
-1.088684 -1.2358743 -0.91228396 -0.9382401 -0.9274054 -1.3711718 -1.5422331 -1.3565234
-1.0187641 -0.93873197 -1.4159925 -1.5133922 -0.91818243 -1.1108577 -1.4091309 -1.1016334
-0.922413 -1.5182486 -1.0749761 -1.3689771 -1.400981 -1.0847892 -1.080804 -1.2129291
-0.91179323 0.0005155663 -1.3235961 1.3563708 -1.4668667 -0.9317808 -1.4579823 -1.439425
-1.355499 -1.3982902 -1.2098844 -0.98532075 -0.9282014 -1.2174475 -1.4965941 -1.0004654
-1.206812 -1.3712211 -1.3113205 -1.341799 -1.0201291 -1.5925925 -1.3497784 -1.5219948
-1.0245522 -1.217812 -0.9555314 -0.94129217 -0.9272576 -1.2285701 -1.4848706 -1.1820414
0.0017325116 0.0024944101 -0.9420656 -1.1453238 -1.1535231 -1.3755847 -1.5666968 -1.3443342
-1.2823443 -1.3348762 -1.1496644 -1.3598583 -1.2834005 1.5798484 -0.96588737 -1.3405353
-1.4441592 -1.3365903 -1.1379422 1.3064176 1.4407891 -1.3568499 -0.9472039 1.3363683
-0.95715344 -1.5259694 -0.9218349 -1.0649183 -1.1164447 -1.3576864 -1.015734 1.4343309
-1.3104947 -1.0143031 -0.9311214 -1.4365684 -1.4597573 -1.4643798 0.0017327712 -1.1166575
-1.3458394 -0.95062226 -1.4407356 -1.1534688 -1.1462758 -1.344454 1.4136201 -0.9907546
-0.8848601 -1.4160993 -1.4498558 -1.3482482 -1.3347638 1.3949393 -1.4992665 -1.3257529
-1.0525236 -1.0851508 -1.322747 1.4430524 1.5103288 -1.3951383 -1.0292735 -1.2751913
1.3124255 -1.4209325 -1.096979 -1.3428049 -1.5638422 -1.3811431 -0.0025082277 -1.4357362
-0.0021423101 -0.8924951 -1.403896 -1.2604307 1.3940226 -1.5247159 -1.4981005 -1.3741068
-1.0878154 -1.3444761 -0.97136605 -1.3753592 1.4321326 -1.1301328 -1.2943395 -1.4793857
-1.2006006 -1.1321249 1.4523829 -1.3397179 -0.9226203 -0.9968768 -0.9284851 -1.2511327
-1.3059639 -1.1028632 -1.3828614 -1.1963556 1.4525517 -1.3466219 -0.9675385 -1.2309079
-1.4259768 1.515505 -0.88992256 -1.3874921 1.4116881 -1.4302297 -1.4800642 -1.3968595
00000000: abc8 83bf 898d 9cbf 3a66 adbf 5ef3 b8bf
00000010: 5bf7 a0bf 76f8 b9bf 56b2 72bf 139c 5ebf
00000020: 4bb8 bc3f 2e11 8cbf 678b 90bf 0ad5 bebf
00000030: 8de4 a6bf 0efe b33f 9599 a6bf 2daa 66bf
00000040: fafe b6bf 935c abbf 931e bdbf 471f 8cbf
00000050: ee87 aabf 32bb aabf d871 aabf 07e3 b5bf
00000060: 9173 73bf 5b37 8abf 0482 b7bf d8e6 c1bf
00000070: aae8 82bf af4f e4ba 66d9 75bf c9e2 81bf
00000080: 94da 6bbf e539 a4bf be58 88bf 423c bcbf
00000090: 3299 c6bf b8d7 8cbf d931 66bf d092 8dbf
000000a0: b4e4 85bf 451b afbf 74c6 b0bf ff48 70bf
000000b0: 69e9 65bf 877a b23f 7fe3 babf 9a23 b6bf
000000c0: d3bb b13f b2f5 81bf a6b0 6cbf 2299 77bf
000000d0: c85b af3f 88c9 abbf 4409 6fbf ad5d b7bf
000000e0: 36f9 a6bf 1cbe a6bf f56f 77bf e718 bb3f
000000f0: 8f52 ad3f 47a2 9abf 0135 b2bf e107 8ebf
00000100: 0fbf 97bf ab2e c2bf a014 71bf 10d6 67bf
00000110: 23d1 68bf cb3b 61bf 8a3a 90bf af44 b5bf
00000120: 3575 68bf 934f abbf b93b 6ebf 56b7 63bf
00000130: c930 a1bf b7fe b6bf 0a2b b43f 4f2a c63f
00000140: 76b1 ad3f 738e 8cbf d67d 7dbf ca48 85bf
00000150: abf0 70bf 8628 a8bf 8db4 09bb 9ab2 98bf
00000160: ff59 8bbf 2131 9ebf 718b 69bf 8130 70bf
00000170: 716a 6dbf 8f82 afbf e567 c5bf 8fa2 adbf
00000180: dd66 82bf bd50 70bf 3e3f b5bf d6b6 c1bf
00000190: 010e 6bbf 9630 8ebf 675e b4bf 5302 8dbf
000001a0: 4223 6cbf f855 c2bf d198 89bf a43a afbf
000001b0: 5853 b3bf 5fda 8abf c957 8abf 4341 9bbf
000001c0: 486b 69bf 1227 073a 996b a9bf 8f9d ad3f
000001d0: 4ac2 bbbf 3089 6ebf 2a9f babf 143f b8bf
000001e0: fe80 adbf 2cfb b2bf 7edd 9abf fb3d 7cbf
000001f0: 9b9e 6dbf 52d5 9bbf 6590 bfbf 400f 80bf
00000200: d178 9abf 2c84 afbf 5ad9 a7bf 12c0 abbf
00000210: 9793 82bf 12da cbbf 8ac5 acbf bad0 c2bf
00000220: 8724 83bf 43e1 9bbf b59d 74bf 86f8 70bf
00000230: c160 6dbf c941 9dbf 3d10 bebf 224d 97bf
00000240: 7115 e33a 4279 233b 362b 71bf f899 92bf
00000250: a5a6 93bf 2913 b0bf 8589 c8bf 2513 acbf
00000260: dc23 a4bf 39dd aabf 3428 93bf d60f aebf
00000270: 7846 a4bf 7938 ca3f 6544 77bf a996 abbf
00000280: 35da b8bf 6415 abbf 17a8 91bf b138 a73f
00000290: c76b b83f 42ad adbf f47b 72bf 1e0e ab3f
000002a0: 0208 75bf f752 c3bf 5ffd 6bbf 3e4f 88bf
000002b0: a9e7 8ebf abc8 adbf 9203 82bf 2898 b73f
000002c0: 4abe a7bf afd4 81bf f95d 6ebf 79e1 b7bf
000002d0: 54d9 babf cc70 bbbf 271e e33a a2ee 8ebf
000002e0: 7744 acbf fb5b 73bf 066a b8bf dea4 93bf
000002f0: 2ab9 92bf 1217 acbf 81f1 b43f 18a2 7dbf
00000300: 3186 62bf be42 b5bf e094 b9bf 6693 acbf
00000310: 8ad9 aabf 5f8d b23f f7e7 bfbf 45b2 a9bf
00000320: 18b9 86bf 39e6 8abf c64f a9bf f1b5 b83f
00000330: 7452 c13f e493 b2bf 3cbf 83bf 7839 a3bf
00000340: 8ffd a73f 1ee1 b5bf cf69 8cbf 08e1 abbf
00000350: fb2b c8bf 4cc9 b0bf 1461 24bb 34c6 b7bf
00000360: 0066 0cbb 8f7a 64bf ddb2 b3bf cb55 a1bf
00000370: 556f b23f e429 c3bf c2c1 bfbf bbe2 afbf
00000380: 893d 8bbf cb17 acbf 72ab 78bf c50b b0bf
00000390: 1f50 b73f 31a8 90bf ebac a5bf 835c bdbf
000003a0: 48ad 99bf 78e9 90bf afe7 b93f e07b abbf
000003b0: d830 6cbf 5133 7fbf 33b1 6dbf 1e25 a0bf
000003c0: d329 a7bf 9f2a 8dbf 9a01 b1bf 2e22 99bf
000003d0: 37ed b93f 1b5e acbf 9ab0 77bf 648e 9dbf
000003e0: 6886 b6bf 11fc c13f f7d1 63bf 5799 b1bf
000003f0: 32b2 b43f c411 b7bf be72 bdbf 4bcc b2bf
