testing/scripts/outputs/DDPG_Env/20221214-123050/models/710actor_checkpoint.pt (torch, 281431 bytes, 5 tensors)

linear1.weight f4 [256, 14]
000000 52 21 79 3e 29 34 71 3d 1b 38 ee 3b 2d 61 0f be
       0.24329117 0.058887634 0.007269872 -0.14001913
000010 c9 c2 5b 3d bf c7 02 3e 8c fb 4e be 6c 21 af be
       0.05365256 0.1277151 -0.20213145 -0.34205186
000020 57 5d 8e bc 5b 09 31 ba 33 c2 a8 bc e0 be 39 be
       -0.017378492 -0.0006753408 -0.020600414 -0.1813922
000030 b3 6a aa bc 0d f0 67 be 67 fa 51 be aa db 4d be
       -0.020802831 -0.22650166 -0.20505677 -0.20103326
000040 24 85 2d bd 7b 0d 2b 3e 3f 2d 94 3e ad 6f 71 be
       -0.0423633 0.16704361 0.2894077 -0.23577757
000050 18 f8 43 be b5 fc 2f 3e a6 fa a8 3d 67 74 5d bd
       -0.19137609 0.17186244 0.082509324 -0.054066088
000060 32 b0 30 be c0 5c 91 be f8 fd 57 be 75 69 17 3d
       -0.17254713 -0.28391075 -0.21092975 0.036965806
000070 aa c1 78 be d6 54 e3 bb e4 ca de bd 4e 52 3c 3e
       -0.24292627 -0.0069376035 -0.10878542 0.18390772
000080 a1 84 68 3d 4e 26 04 be 95 d1 a3 bd 84 31 bd 3c
       0.05676711 -0.12905237 -0.07998959 0.0230949
000090 b5 46 c0 3d 28 1e 1a 3e 5e f0 48 bd 6e bf 82 3e
       0.09388486 0.15050566 -0.049057357 0.25536674
0000a0 16 ec d1 3c 60 24 95 be 07 ec 1c 3d 60 d0 46 bd
       0.02562527 -0.29129314 0.03831103 -0.048538566
0000b0 42 3f a3 be e2 55 74 3e f5 ba 97 3e f7 e0 4d 3e
       -0.318842 0.23860887 0.29634824 0.20105349
0000c0 15 23 9a 3d 38 fa 0f 3b d7 a8 0c 3e 09 33 88 bd
       0.075262226 0.002196921 0.13736282 -0.06650359
0000d0 4f 25 a4 3d 1b 06 44 be 3a 08 29 3d d4 85 62 3e
       0.080149285 -0.19142954 0.04126761 0.22121364
0000e0 db 38 2b bc 04 13 3f 3e d0 f0 00 be d3 b4 9b 3e
       -0.010450567 0.18659598 -0.12591863 0.30411395
0000f0 be 62 cf bb e1 2b 00 3d 0b 55 33 bd 06 dd 5b bd
       -0.0063289097 0.031291846 -0.043782275 -0.05367758
000100 d3 af 9e bd 1e fe 7f 3e b1 fa 67 3e 41 7c 38 3e
       -0.077483796 0.24999282 0.22654225 0.18016149
000110 5e ec 96 be 6b e1 e0 3d 8e 1c 3f 3e 3d 66 5c 3e
       -0.2947721 0.10980495 0.18663236 0.21523376
000120 30 d2 84 be 78 09 b7 3e c4 c3 af 3e 07 a3 9a 3e
       -0.2594161 0.35749412 0.34329045 0.30202505
000130 4d 48 1d be c8 f0 36 bd c6 4e 36 3e b3 8a 22 be
       -0.15359612 -0.04466322 0.17803487 -0.15873222
000140 1a d8 96 bd ac 3f cb 3d 91 75 7f 3d 83 64 17 be
       -0.07365437 0.09924254 0.06236798 -0.14784436
000150 56 e3 c5 3e 99 f7 15 be 53 a7 ab 3c eb 68 05 3e
       0.38650006 -0.14645232 0.02095381 0.13028304
000160 62 6c e2 3c 59 15 f5 3d 84 5d 07 bd 38 ea a4 3d
       0.027639572 0.11966962 -0.033048168 0.08052486
000170 27 1e 5e bd 17 f5 55 3e 4a e6 51 3e b5 51 44 be
       -0.054227974 0.20894276 0.20498005 -0.19171794
000180 83 3b 5e 3e 10 10 09 3e e2 4c 91 3c d2 0e 77 3e
       0.2170239 0.13385034 0.017736856 0.24126747
000190 61 2c 6f 3e e2 07 43 bd d3 d3 21 3e e9 a5 1d be
       0.23356773 -0.04761494 0.15803461 -0.15395321
0001a0 45 4e e9 3d 9b 13 78 be 19 16 4f 3d cf 4b 3b be
       0.11391882 -0.24226229 0.050558183 -0.18290637
0001b0 f5 b0 62 3e fd da dc 3d 9b 05 58 3e 9c d6 8a 3d
       0.22137816 0.10783956 0.21095888 0.06779215
0001c0 da b6 60 bd 4a 9d a7 bd cb b1 8b 3e 94 ea 63 3d
       -0.05486188 -0.081842974 0.27284083 0.055643633
0001d0 df 00 88 be ec 63 51 be ca 52 1f 3d 1f 79 86 3e
       -0.26563165 -0.20448273 0.038897313 0.26264283
0001e0 b9 b5 99 3e 03 cc 6a 3e ad b1 5a bd e1 12 0a be
       0.30021456 0.22929387 -0.0533921 -0.13483764
0001f0 9a 9f 6b 3e e9 02 60 3e 3e f3 bd 3a a9 57 8d 3e
       0.23010102 0.2187611 0.0014492047 0.27605942
000200 b8 6e f0 bd 71 c1 67 3d 6e c2 65 be d8 01 3e be
       -0.11739868 0.056580964 -0.2243745 -0.18555391
000210 40 cb ad 3e 8f 50 fd bb 29 96 74 3d d9 bc 97 3b
       0.3394413 -0.0077305506 0.059713516 0.0046306667
000220 93 96 2e be 3f 70 4b 3d d1 76 0f 3e 55 d2 56 bd
       -0.17049627 0.049667593 0.14010169 -0.052446682
000230 b3 3a 6d 3d 15 af b7 bd 6b 47 97 bd ee 1c 05 3d
       0.057917308 -0.08968941 -0.07386669 0.032498293
000240 23 b3 3d 3e d5 43 b2 3e 82 77 a2 3d 3a 21 69 3e
       0.18525366 0.34817377 0.079329506 0.22766581
000250 41 da bb 3d a9 52 20 3c 17 6b 33 bd 86 6c 3b be
       0.09172488 0.009785333 -0.0438033 -0.18303117
000260 e9 c2 73 3e 96 5c 15 be 57 fe 2f 3e d8 1b bd 3d
       0.23804821 -0.145861 0.17186867 0.092338264
000270 cb 50 98 3e da 57 44 be 78 b3 c6 3d 3e dc 13 bd
       0.2974914 -0.19174138 0.097022 -0.03609871
000280 2e 02 19 3d 12 80 10 bc 15 1f 03 bd 4f 09 b9 bb
       0.037355594 -0.008819597 -0.032012064 -0.0056468616
000290 f3 8f c2 bd 40 2b 0c bd c0 c8 9c be 3e d3 18 3e
       -0.095001124 -0.034220934 -0.3062191 0.14924332
0002a0 03 cc fc bc 07 1b 43 be 28 33 85 3e 53 3f 3c bd
       -0.030859 -0.19053279 0.26015592 -0.04595883
0002b0 20 6d 2b be 33 35 8d be fd f1 88 bd 37 01 ab bb
       -0.16740847 -0.2757965 -0.066867806 -0.0052186507
0002c0 5d a6 30 bc 0b 1a 6f 3e 8a 41 4d be 26 9e b5 bc
       -0.010781852 0.23349778 -0.20044532 -0.022170138
0002d0 7c 3e 9f bc 1f 0f 02 bd 5f 80 d1 3c c1 f1 86 3d
       -0.019438975 -0.0317527 0.025573907 0.0658908
0002e0 78 27 b5 3e b1 87 21 3e 93 16 e8 3d 76 90 83 3e
       0.35381675 0.15774418 0.11332431 0.25696152
0002f0 0d 5f e3 3e 5c 1a 93 bd d4 86 1a be 95 df d7 bd
       0.44408455 -0.07182762 -0.15090495 -0.10540692
000300 b2 75 81 be 07 b8 dd 3d 2c ec 9a be 0d 62 9a 3e
       -0.25285107 0.10826116 -0.3025831 0.30152932
000310 3e fe 49 bd c5 39 8e 3e 19 ee 5e 3e 05 46 61 be
       -0.04931473 0.2777845 0.21770515 -0.21999367
000320 4b 80 a0 be f1 25 4f 3d a8 0f d4 3b e5 82 72 3e
       -0.3134788 0.050573293 0.006471593 0.23682745
000330 73 c9 10 3e 42 0b 7c 3e 68 fa a2 bd 25 cc 60 bc
       0.14139347 0.2461367 -0.079579175 -0.013720547
000340 d1 c7 00 3e df a6 94 3e 5d 28 91 3d 05 55 87 3d
       0.12576224 0.29033563 0.07087777 0.06608013
000350 b2 1a 1d bd 39 0e 08 be 16 99 53 be 29 80 8d bd
       -0.038355537 -0.13286676 -0.20663866 -0.0690921
000360 2d e1 27 be ab af 00 3d 14 a2 4d bc 44 f8 28 3d
       -0.16394491 0.03141753 -0.0125508495 0.04125239
000370 cf ce 94 bd 34 ff 68 3e 47 05 5e be 1d 04 88 3e
       -0.07266008 0.22753602 -0.216817 0.26565638
000380 12 71 a9 bd 1c 7c a6 be 3e 1c 43 3e fc 49 75 be
       -0.082735196 -0.32516563 0.19053742 -0.23954004
000390 c0 98 db bd d2 e8 0c be cc fe 98 be 62 2f 4b 3c
       -0.10722494 -0.13760689 -0.29881895 0.012401434
0003a0 dd a4 ea bd a0 8c d0 3c cc cd 63 3b 48 35 76 bd
       -0.114572264 0.02545768 0.0034760116 -0.060109407
0003b0 2e 98 80 bd 16 a2 2e be b3 7c 7c 3c 8d 58 36 be
       -0.06279026 -0.17054018 0.01541059 -0.17807217
0003c0 1a 01 3a 3c ab f9 d6 3d 0a 0f ab 3e 48 cd 37 3d
       0.011352802 0.10496839 0.3340991 0.044873506
0003d0 f0 60 29 be 1d 02 02 be 81 41 c0 3e 39 c3 bf 3e
       -0.16540885 -0.12696119 0.37549976 0.3745363
0003e0 39 e5 ca bb 1b cc 5c bd be 50 a1 bb ef 89 c5 3d
       -0.0061918763 -0.053905588 -0.0049229553 0.09645449
0003f0 cf cb 60 3e 3c 78 1e be ce ef 09 3e 5f 36 1c be
       0.21952747 -0.15475553 0.13470384 -0.15255116

linear1.bias f4 [256]
000000 7d 0c b7 ba 97 d7 50 3d 32 31 76 3d 6e 57 02 bd
       -0.0013965514 0.050986852 0.06010551 -0.03182166
000010 3f 49 e4 3d b8 a3 d3 bd f8 86 24 be 69 2d bb 3d
       0.11146783 -0.10333961 -0.16067111 0.09139521
000020 cf 2e 40 3d a7 00 de 3d 87 a9 8c 3e 1b 9a 0b 3d
       0.04691964 0.10839968 0.2747309 0.034082513
000030 7f 0e d8 bd bf 4b ee 3d 24 56 19 bd b6 09 1d be
       -0.1054964 0.11635541 -0.037435666 -0.15335736
000040 46 46 73 be 48 17 86 3d 74 f1 9e ba f9 e1 9a 3d
       -0.23757276 0.06547409 -0.0012126402 0.07562632
000050 4f a9 44 3d 87 8e e4 bd 87 78 86 3e b9 d7 8e 3e
       0.048013028 -0.111599974 0.2626383 0.27898958
000060 04 da 08 3d e3 2b 84 3e 66 6f 87 3a 7b 23 d9 bd
       0.03341104 0.25814733 0.0010332882 -0.106024705
000070 12 c8 20 3d 4a df df bd e8 65 12 3e aa 88 8a 3e
       0.039253302 -0.10931261 0.14296687 0.2705739
000080 42 7c 1a be 31 6d e8 3d 35 12 14 3d 29 26 01 3e
       -0.15086463 0.113489516 0.036150176 0.12612213
000090 e9 0c 7f bd 41 ad 69 3e 20 d7 18 3e 60 cc d0 bd
       -0.06226817 0.22819997 0.14925814 -0.101952314
0000a0 8f 93 91 3e ef 4d a1 3d 92 e8 be 3d 1d 05 38 3e
       0.2843289 0.07876193 0.09321703 0.179707
0000b0 97 47 a4 3d 0a ef b4 bd ae 11 f0 bd 56 ba d4 bd
       0.08021467 -0.088346556 -0.11722122 -0.10387103
0000c0 6f 6a 7a 3e ab 71 cb 3c 16 62 64 bd 1e 18 87 3e
       0.24454664 0.024834475 -0.055757605 0.26385587
0000d0 06 8e 0b 3e d8 b7 a7 bd 9f d8 5f 3d fc 19 d2 bd
       0.13628396 -0.08189362 0.054649945 -0.102588624
0000e0 2b 89 d4 bc 15 7f 28 3e 39 5f bd bd a0 f2 2c 3e
       -0.025944313 0.16454728 -0.09246678 0.16889429
0000f0 37 3e 4f 3d c7 05 0f be e5 4e e8 3c 6d 2f 02 bd
       0.050596442 -0.13967048 0.028357932 -0.03178351
000100 18 fe d9 bd a1 8c 58 3e 73 5d 03 be 94 e8 60 be
       -0.10644168 0.21147396 -0.12828617 -0.21963722
000110 bb ba 91 bb 20 33 65 3e 13 6b a9 3e 4a 7e 60 3d
       -0.004447309 0.22382784 0.33089504 0.05480794
000120 2d 03 6e be db 3b 80 3e 19 64 1a 3d 36 9f 38 be
       -0.23243399 0.25045666 0.037693117 -0.18029484
000130 62 10 90 3e 7b de 87 3d 69 d1 0f 3e 89 3a d3 3d
       0.281375 0.06634232 0.14044727 0.10313899
000140 8a c1 01 3e 27 2b 81 be ed fc 8f 3e 40 4c fa bc
       0.12671486 -0.25228235 0.28122655 -0.030553937
000150 38 69 b3 3c 6d 9b d1 3c 81 41 3b 3e 03 d0 ea bc
       0.021900758 0.025586808 0.18286707 -0.02866364
000160 7e 47 d5 3d 27 a4 18 be 0d 4d f8 3c 84 0d d7 bd
       0.10414027 -0.14906369 0.030310178 -0.10500625
000170 bb 5d 28 3e 4b bc 61 3e 8b 1f 42 3d 41 17 e1 3d
       0.16442005 0.22044484 0.047393363 0.109907635
000180 04 54 6a 3e e3 3b 23 be f1 0b 51 bd f5 47 94 3d
       0.22883612 -0.15940814 -0.05103678 0.07240287
000190 ba 4d 27 3e 1e e3 11 be ec ca 7e 3e 1a 50 af 3d
       0.16338244 -0.14246795 0.24882096 0.085602
0001a0 cc 32 1d be 68 72 d4 bd 80 0f 07 3e 50 31 5f 3e
       -0.15351409 -0.10373384 0.13189507 0.21796155
0001b0 cf f1 89 3d 20 34 7e bc 94 a9 c7 bd ca 9d ed 3d
       0.067355745 -0.015515357 -0.09749141 0.116023615
0001c0 04 1d 37 bd 09 60 46 3e f7 d6 a5 3c 14 f5 1f 3e
       -0.044705406 0.19372572 0.020244105 0.15620834
0001d0 7b 7c f1 3d d4 5c ee bd de d8 21 be 14 45 65 3d
       0.11791321 -0.11638799 -0.15805385 0.05597408
0001e0 9f 3c d1 bc b4 c2 0e bd 76 f7 2f 3c db 9d a0 3d
       -0.025541602 -0.034853652 0.010740152 0.078426085
0001f0 07 8a 87 bc 29 69 11 3d 81 12 9c bd 28 b6 0f 3d
       -0.016545309 0.03550068 -0.07620717 0.035085827
000200 22 8f 75 3e 7e 34 62 bd 89 0b a8 bd 92 52 46 bd
       0.23980382 -0.05522584 -0.08205325 -0.04841859
000210 5b f9 cd 3d 1a 57 8d 3e 6f 93 04 3e cf ff 06 be
       0.100573264 0.27605516 0.12946866 -0.1318352
000220 b9 77 d1 3d 80 59 90 3e e8 32 92 3e ba 99 89 be
       0.102279134 0.28193283 0.28554463 -0.26875097
000230 85 3c 9e 3e 5c 80 69 be 42 cf 58 3e 6e 03 36 3e
       0.30905548 -0.22802871 0.21172813 0.17774746
000240 aa b0 4f be 76 4c 86 3d 48 76 98 bd a1 94 83 be
       -0.20282236 0.065575525 -0.07444435 -0.25699332
000250 c5 26 d3 bd 99 5c 69 be c8 f0 30 3e 81 df 1c 3e
       -0.10310129 -0.2278923 0.17279351 0.15319635
000260 24 26 2d bd ce 1d dc bd 33 c3 46 be 62 f3 54 be
       -0.0422727 -0.10747872 -0.194104 -0.20795968
000270 41 65 55 3e fa 21 7a 3e e0 e2 e9 bd 83 be a0 3e
       0.20839407 0.24427024 -0.11420226 0.3139535
000280 5e 18 ae 3e b0 6d cf bd 3a 0d 5b 3e 00 46 83 3d
       0.34002966 -0.10128343 0.21391764 0.06409836
000290 6a 9d 85 3e b8 0b 93 3e 60 ba 57 3e da c8 85 bd
       0.2609666 0.28719878 0.2106719 -0.0653245
0002a0 10 89 59 3e 6b 95 98 3d 3f e8 4b bc 85 f0 bb 3d
       0.21243691 0.07450374 -0.0124455085 0.09176735
0002b0 40 a4 4e 3e 80 49 27 be f5 6e 24 bd d8 9a 22 3d
       0.20179844 -0.16336632 -0.04014488 0.03969845
0002c0 a3 48 e3 bd 9f 02 2a 3e 93 01 d6 3d 5d c2 85 3e
       -0.11097839 0.16602562 0.10449519 0.2612485
0002d0 dc a7 ce 3d 2c d9 c5 3d c6 62 a6 bd 88 4f 37 3e
       0.100906104 0.09660563 -0.08124308 0.17901433
0002e0 29 7b 25 be d9 8e 13 3d 94 8d 2a bd a8 ab 95 3e
       -0.16160263 0.036024902 -0.041638926 0.29232526
0002f0 70 cc 7c bd 0b 30 e9 bc 0c ca 96 be 89 d0 4d 3e
       -0.061718404 -0.028465291 -0.29451025 0.20099081
000300 f2 3d 57 3e f6 17 5c 3e ad 15 81 be 5d 53 a8 3d
       0.21019724 0.21493515 -0.2521185 0.08219025
000310 e5 00 6d 3e 95 d0 52 3e ff ce 13 3e e7 f1 30 be
       0.23144872 0.2058738 0.14434431 -0.17279778
000320 97 c8 ee bd 5d 2b 94 bd 6b f3 c0 3c 1d 0e 52 be
       -0.11659353 -0.072348334 0.02355357 -0.20513196
000330 6e 8b 61 3e 38 db d5 bd 8a e2 b0 3e b2 b0 6d be
       0.22025844 -0.10442203 0.34547836 -0.23211935
000340 dc fd 9e 3e 67 ee aa bd a1 31 3b 3e 1e 32 ad bd
       0.31053054 -0.08346253 0.1828065 -0.08456825
000350 36 66 40 3e d7 ce 82 bd 07 99 e0 bd cd 40 1c be
       0.1878899 -0.06387108 -0.10966688 -0.15259095
000360 74 d4 97 3e b5 11 80 3e 45 b4 26 be 5f bd 71 3e
       0.29654276 0.2501351 -0.16279705 0.23607396
000370 8e 4a 0d be 37 41 ae 3d 22 2a de bd 04 29 60 be
       -0.13797972 0.085085325 -0.1084788 -0.21890646
000380 33 c0 f1 bb de a1 82 3d 95 00 93 3e 68 00 51 3e
       -0.0073776483 0.0637853 0.28711382 0.20410311
000390 48 43 91 3e 0f 8f 3b bd c8 19 26 3e c8 d3 c4 3d
       0.28371644 -0.04579073 0.16220772 0.096107066
0003a0 c3 e2 1f 3e 46 35 85 3e b1 75 33 bd c4 ab 52 3e
       0.15613846 0.26017207 -0.04381341 0.20573336
0003b0 c5 6a 28 be 57 8f 02 bc cf e8 64 be 5c 0a b5 3d
       -0.1644698 -0.007968745 -0.22354434 0.088398665
0003c0 ed 35 be 3d 97 f5 fe bd 4e 06 31 be 27 6a 16 be
       0.09287629 -0.12449186 -0.17287561 -0.14688931
0003d0 fc 3d 75 3d 5f 7e 50 3e ec 9f 7c 3d 7d 04 28 3e
       0.059873566 0.20360707 0.06167595 0.16407962
0003e0 83 0c 9b 3c 0d bf 20 3e a0 b4 2e 3d 0c 2c 4b be
       0.018926864 0.1569788 0.042652726 -0.19841021
0003f0 54 fd d1 3b 69 4b 73 3e 22 dc 80 3e 16 57 27 3e
       0.006408373 0.23759235 0.25167948 0.16341814

linear2.weight f4 [256, 256]
000000 f1 34 30 be cf d7 e5 3d aa 72 56 3b b0 65 c9 3c
       -0.17207696 0.11222803 0.0032722154 0.024584621
000010 f4 26 a7 3c 7f 14 5a 3d 58 18 50 bc a7 4e 98 bd
       0.020404316 0.053242203 -0.0127011165 -0.07436877
000020 ac e9 47 bd 4c 56 9b bd 5f a3 8a 3d e7 64 aa bd
       -0.04880683 -0.07584819 0.06769442 -0.08320027
000030 7c fd 5c bd 40 8f 29 bd aa 45 3b be 16 6d c0 bd
       -0.05395268 -0.04139638 -0.18288293 -0.093958065
000040 37 c8 83 bd 52 d1 2a 3e 99 db 91 bd a3 43 42 3d
       -0.06434672 0.16681412 -0.07121963 0.047427785
000050 9d 05 aa 3d 70 1c cf 3d c1 58 10 3e 91 de 35 3c
       0.08301852 0.10112846 0.14096357 0.011100427
000060 87 6e 63 3d bf d8 03 be 1c e4 63 3d 90 a6 32 3c
       0.05552533 -0.12875651 0.055637464 0.010903969
000070 18 5d 97 bd 59 7d ea bd 8c b3 f3 bd 16 c9 10 3d
       -0.07390803 -0.114496894 -0.1189948 0.03534802
000080 e4 d1 9c bd 0f d2 9e bc 8c d1 29 be 11 fe 51 3d
       -0.07657221 -0.019387273 -0.16583842 0.051267687
000090 ae 6f ba bd 6e 1c 4a bd 4d b5 7e bc b6 39 00 bd
       -0.091033325 -0.04934352 -0.015546155 -0.031305037
0000a0 0f 3b 45 bd 50 0f cd bd 75 b0 95 3c 75 28 76 bc
       -0.048152026 -0.10012686 0.018272618 -0.015024294
0000b0 fe ec 9c 3c 32 e9 ac 3d 63 8a 26 3e 55 0a 87 be
       0.019155975 0.08442916 0.16263728 -0.2637507
0000c0 96 e3 35 3e cb 1e 10 3e c6 f8 1a 3e 20 65 0f be
       0.17762598 0.14074247 0.15133962 -0.1400342
0000d0 d5 aa d4 3d 6f 86 f5 3d 7c 3e 9c 3d f9 41 6e 3b
       0.10384146 0.11988532 0.076291054 0.003635524
0000e0 3a 68 4e be 40 b8 25 bd bf 8b 85 3d 44 6c 22 3c
       -0.20156947 -0.040458918 0.06520795 0.009913508
0000f0 e4 70 3a bb 90 25 33 3e 2b 30 32 3c 06 b5 c8 3d
       -0.0028448636 0.17494798 0.010875742 0.098001525
000100 bb 7c d2 3d 76 d5 42 3d 08 8b c9 3d 0c d8 12 3e
       0.10277697 0.047566853 0.09840971 0.14340228
000110 ba 3d 60 3d 25 e9 d0 bc 04 09 20 3e 96 e1 b3 3d
       0.054746367 -0.025501797 0.15628439 0.087832615
000120 00 74 ed bd 4b 34 de bd 41 f3 26 3d 6d ed be bb
       -0.11594391 -0.10849818 0.04075933 -0.005826643
000130 24 34 fb 3d 2d 88 66 3c e1 7c 6b 3d f9 8c 9e bd
       0.122658044 0.014070553 0.05749214 -0.07741732
000140 92 3b 9b bd 74 cc aa 3d 22 c2 cf 3d 74 b2 94 bd
       -0.075797215 0.083397776 0.1014445 -0.072606
000150 b9 1f 88 3d ee 7d e0 3d e4 b5 e1 3d df 4f 27 3e
       0.066466756 0.10961519 0.11021021 0.16339062
000160 c3 5b 8f bd 0b 46 fc 3c 47 eb 6a 3d 7d 1d 7e bc
       -0.06999924 0.030795118 0.057353284 -0.01550996
000170 53 92 b8 3d f0 94 41 3c 23 f9 95 3c 04 15 46 bd
       0.09012284 0.011815295 0.018307274 -0.048359886
000180 46 1f 92 3d 02 0d 9e bd 97 b7 4b be 50 52 01 be
       0.07134871 -0.07717325 -0.19894253 -0.12629056
000190 17 05 29 3d 14 a2 ac 3d f4 9c cb 3d 4e b7 49 bd
       0.04126462 0.084293514 0.09942046 -0.04924708
0001a0 48 5a 70 bc 96 e4 fc 3d 47 31 2b 3e e9 96 a1 bd
       -0.014669962 0.12348287 0.16718017 -0.07890112
0001b0 6c 32 90 bd 4e 8f b4 3d c2 b1 21 bd 92 71 b3 bd
       -0.07040867 0.08816396 -0.039476164 -0.08761896
0001c0 cb ce c7 3d 9e b8 c1 3b 23 e5 02 be 5f 14 8a 3d
       0.097562395 0.0059119007 -0.12782721 0.06742167
0001d0 fe 56 ec bd 75 07 03 3d d7 b8 cd bc a4 c0 09 3d
       -0.1154003 0.031989533 -0.025112553 0.033630982
0001e0 19 70 0e be 13 1f f8 bc 74 00 26 be b6 eb 0f be
       -0.1390995 -0.030288255 -0.1621111 -0.1405476
0001f0 5e 3c 5d 3e 50 8e 05 3e 3a d0 37 be b6 5a 56 bd
       0.2160506 0.13042569 -0.17950526 -0.052332602
000200 a1 26 14 bc 65 b0 38 3e 1d 5d ad bd c3 d3 2d be
       -0.009042413 0.18036039 -0.084650256 -0.16975312
000210 77 b8 b6 bd 05 55 bf bd 1d 8b a0 3d f6 a8 0f be
       -0.089219026 -0.09342388 0.07839034 -0.14029297
000220 80 20 00 3e 35 81 d7 3d d7 8f 76 bd ef 6f 92 bd
       0.12512398 0.10522691 -0.06019577 -0.07150256
000230 57 1e 3b 3b 7a c1 f7 bc 47 a7 e7 bc a8 12 51 bc
       0.002855202 -0.030243624 -0.028278006 -0.012760796
000240 ef ad 0e 3d e3 7c 2f 3d 43 2e b4 3b 38 31 74 3e
       0.034833845 0.04284371 0.005498679 0.238469
000250 19 d8 c0 3d 91 d3 26 3e 23 1b cb 3c 07 79 92 3d
       0.09416217 0.16291644 0.024793213 0.071519904
000260 8b 14 1b be f7 c3 d7 bd e8 3b fe 3c 45 2f 00 bd
       -0.15144555 -0.10535424 0.031034425 -0.03129508
000270 03 c3 69 3c 39 45 06 be c2 49 d0 bd 85 51 fa bd
       0.014267686 -0.13112344 -0.10170318 -0.1222258
000280 61 a3 97 3b fc 6b a2 3b ee 4b 38 3d 6c 78 54 be
       0.0046276306 0.0049567204 0.044994287 -0.20749062
000290 ed 63 62 3d 04 9a 6b bd 14 f8 b9 bb 05 1d 23 bd
       0.055271078 -0.057519928 -0.005675325 -0.039822597
0002a0 23 ab df bd 75 c7 68 be ec f2 1a be 0e fd 52 3d
       -0.109213136 -0.22732337 -0.1513173 0.051510863
0002b0 94 76 50 3d 79 e2 a0 3d fe 7e ec bc 3d 04 d7 bd
       0.050894335 0.07855696 -0.028869148 -0.10498855
0002c0 af 1a ee bd 85 51 ed bd 1d ce d5 3c f7 c5 5b be
       -0.11626183 -0.11587814 0.026099259 -0.21462236
0002d0 62 04 e4 3d 4f ac fa 3d 70 b9 00 be df c9 4c bd
       0.111336485 0.122398965 -0.12570739 -0.049997207
0002e0 e8 46 d8 3d 93 8a 4e 3b 58 35 83 3d 1a 33 b1 3c
       0.10560399 0.0031515702 0.06406659 0.021630812
0002f0 d0 6d 44 3d a4 b9 4a bd 4a 32 2c bd f6 b0 76 bd
       0.047956288 -0.049493447 -0.042040147 -0.060227357
000300 15 0c 5e bb 3e d1 6a 3c 82 2d a2 3a c1 de 3b 3c
       -0.0033881713 0.014332114 0.0012373182 0.011466683
000310 9a 09 f9 bd 69 85 96 3d ac d0 00 bd 57 58 4b bd
       -0.121600345 0.07349665 -0.031449005 -0.049644794
000320 c9 f0 f0 3d a6 bb 79 3e 94 4a 27 3d f1 f2 12 bd
       0.11764676 0.24387988 0.040842608 -0.03587622
000330 f0 e4 aa 3c ed 85 60 3c a0 25 a9 bc 47 d8 b4 3a
       0.020861119 0.013703805 -0.020647824 0.0013797366
000340 31 28 25 be 2e 93 90 3d 17 d0 9d 3d 3c e6 04 be
       -0.16128613 0.07059322 0.077057056 -0.12978452
000350 0c cf 7d bd 05 9f fe bb d4 ac 3b 3e dc 5b 8c bc
       -0.061965033 -0.0077704214 0.18327647 -0.017133646
000360 43 cc 69 bd c1 93 98 bd 2c 00 75 bd 55 fd 11 bd
       -0.057079565 -0.07450057 -0.059814617 -0.035641987
000370 cf 2a 87 bc 7a 88 71 bc eb a6 fd bd c5 a8 0e bd
       -0.016499905 -0.014742011 -0.12385353 -0.03482892
000380 d8 48 62 bc f1 c3 22 be 19 ff 55 3d 36 d4 64 3c
       -0.013811313 -0.15895058 0.052245233 0.013966611
000390 23 ed 77 3c 3a df 27 be 4b fb 14 bd 85 19 b4 bc
       0.015132221 -0.16393748 -0.036372464 -0.021984825
0003a0 1d 4b ee bc fc df ca 3d e4 84 04 be 94 19 18 3d
       -0.029088551 0.09906003 -0.12941319 0.03713377
0003b0 65 f9 dc bd 0f d7 1f 3e 44 ba 00 3e 99 7e 7f 3d
       -0.10789756 0.15609382 0.12571055 0.062376592
0003c0 6a df 38 3b 31 ae 1f be a9 8d 91 bd 46 63 13 3d
       0.0028209337 -0.15593792 -0.07107098 0.035983346
0003d0 15 ab 0a be b3 6d 53 bd 59 ad fb 3d cb e3 7e bd
       -0.13541825 -0.05161829 0.12288923 -0.06222896
0003e0 62 1f 6f bd 48 7e d2 bd 47 c8 3d bd 8a f5 3c 3d
       -0.05837954 -0.102779925 -0.046333577 0.0461326
0003f0 9b c5 90 bd b6 18 9d 3c cb df 4a 3d bf 31 1c be
       -0.0706894 0.019176822 0.04952983 -0.15253352

linear2.bias f4 [256]
000000 51 f8 3e 3b 56 16 1d bd 8b 9f 78 bd d4 69 ef bc
       0.0029139707 -0.03835138 -0.060699027 -0.029225267
000010 71 c8 fa bb 82 75 35 3c 1a 2e 8a bd 43 21 a7 bd
       -0.007653289 0.011075379 -0.067470744 -0.08160641
000020 29 67 18 3c d2 41 8c bd 9a 3a af 3d e5 e1 c8 bb
       0.009301939 -0.06848492 0.08556099 -0.0061304444
000030 80 d9 86 bc 15 d5 26 bd d0 a9 2b bd a9 8b 64 bd
       -0.016461134 -0.040730555 -0.041909993 -0.055797253
000040 8a e6 a1 bd f7 9c a6 3b 0f 41 69 bc ce 2b 32 bd
       -0.079053 0.0050846296 -0.014236703 -0.043498807
000050 8b 50 77 bd 23 86 3b bd fc 5b 57 bd 3d d4 00 bd
       -0.060379546 -0.04578222 -0.052577958 -0.031452406
000060 ab a0 80 3d 85 25 70 bd eb d7 3e bd 28 de d7 bb
       0.06280645 -0.05862953 -0.046592634 -0.0065877624
000070 07 d5 04 bd be 9c 01 3c 73 08 c9 3c ce 45 98 3d
       -0.03242972 0.007910905 0.024540162 0.07435189
000080 21 44 b9 3c 5f fe 80 3c f3 16 a3 3c b7 54 b3 bd
       0.022615494 0.015746294 0.019908404 -0.087563924
000090 a2 1d 41 bd 94 e2 87 3d 46 0e 36 bd 3b f8 0e 3c
       -0.0471474 0.06635013 -0.044447206 0.008726175
0000a0 a1 31 f5 bc 92 d9 98 bd 7a 33 e8 3c 59 dd 8c bc
       -0.029930891 -0.07463373 0.028344858 -0.01719539
0000b0 d3 27 2f 3c 31 62 a7 3c 01 94 bf bd 88 ad a8 bd
       0.010690647 0.020432563 -0.093544014 -0.082362235
0000c0 74 fd 08 3a 32 a1 e9 bb f1 78 b5 3c 60 a6 8a 3d
       0.0005225756 -0.0071298117 0.022152396 0.06770015
0000d0 f8 3e 93 bd ad d7 58 3d 64 9e 1b 3d ea c5 bf 3a
       -0.07189745 0.05294006 0.03799285 0.0014631127
0000e0 ba 86 da bc ac e7 00 3b aa a7 d1 bb 2f 51 2d bd
       -0.02667557 0.0019669337 -0.006398161 -0.04231375
0000f0 d9 f4 19 bc 6c 3b 12 bb c7 87 23 bd d1 c0 20 bd
       -0.009396755 -0.002231325 -0.03992441 -0.039246384
000100 e5 ca 94 3c 9d 7d 16 3d c7 55 27 bd 48 c4 5b bc
       0.018163154 0.036740888 -0.040853288 -0.013413496
000110 3b d7 78 bd 56 2e 9c 3d 5b 58 33 3d e1 1f a6 bd
       -0.060752135 0.076260254 0.043785434 -0.08111549
000120 a5 c7 19 bc 2f f6 86 3d 9f 45 b1 3d 36 1b 06 bc
       -0.009385978 0.065899245 0.08655857 -0.0081851985
000130 dc cb 3d bc 24 b0 0a bd 47 3b b0 bd 07 ce a0 3d
       -0.011584248 -0.033859387 -0.08605056 0.078517966
000140 6c 1c ab bd 51 5c bb 3b 1a 15 ef bc 5d fd 98 3b
       -0.083550304 0.005717792 -0.029184867 0.004668875
000150 b1 38 bf bd a9 ef e7 bb 13 5c 6d bd 74 c1 8d 3d
       -0.09336985 -0.0070781303 -0.057949137 0.06921664
000160 59 4e 42 bd 32 3a 88 bd 7a cb 49 3d c3 f6 7f 3c
       -0.047438 -0.06651725 0.049266316 0.015622797
000170 c7 17 6a 3d 4b a6 19 bc 9a dd 29 bc c5 c4 9e 3c
       0.057151582 -0.009378026 -0.010367775 0.019380936
000180 28 93 d3 bc b1 e7 90 3c 91 8e 9b 3b fe 5d 98 3d
       -0.025827006 0.017688604 0.00474722 0.074398026
000190 fb 9f 86 bd b3 ae 3f 3d 15 ea 3b bd d4 76 34 bd
       -0.065734826 0.046797466 -0.045877535 -0.044058636
0001a0 1d 9c 53 bd 2e ad ae bd 77 21 47 3c f4 ee ca 3c
       -0.051662553 -0.08529125 0.012153975 0.024772145
0001b0 6e ca 01 bd cb db 80 39 60 70 b2 3c 7d 86 35 3c
       -0.031687193 0.0002457782 0.0217821 0.011079428
0001c0 37 9e 24 bc fa d6 33 bd 76 a6 88 3d 2c b8 00 3d
       -0.010047487 -0.04390619 0.06672375 0.03142564
0001d0 cf 6a f9 3c ac d7 83 3d f6 09 f1 3c dc 2e 90 3d
       0.030446438 0.064376205 0.029423695 0.07040188
0001e0 69 44 6b bd 1b dc b2 3d 04 47 87 3c 3a 07 c0 bc
       -0.057438288 0.08733388 0.016513355 -0.023440946
0001f0 18 df f5 3c 2a e4 af 3d 18 08 72 bc 8d c8 f9 bc
       0.030013606 0.08588441 -0.0147724375 -0.030491138
000200 fe 91 e9 bb 8b 88 e9 bb 32 36 be 3b 42 7e 03 bb
       -0.0071279993 -0.007126873 0.0058048004 -0.002006427
000210 a9 9d 8a 3c e3 a7 bf 3c 52 74 49 3d 03 56 ae bd
       0.016920881 0.023395484 0.049183197 -0.08512499
000220 12 7b 1d bc 15 fb 26 bd 35 a2 c0 3c fb 57 16 bd
       -0.009611862 -0.040766794 0.023514846 -0.036705
000230 6c c1 1a bd 04 89 47 bc 40 99 8b bd 14 fe 9d 3d
       -0.037782118 -0.012178663 -0.068163395 0.07714477
000240 e6 66 d4 bb 70 5f b6 3d 51 e6 b0 3c 8e bb 82 3d
       -0.006481993 0.08904922 0.021594198 0.063834295
000250 e2 90 8c bd 2d 8b ab 3c c4 be 8d bd 9f f5 1e bd
       -0.06863572 0.020940388 -0.06921151 -0.03880846
000260 d1 23 83 bc 7d 75 46 bd 9f 9a 5f 3c 62 f2 7a 3d
       -0.01600829 -0.04845189 0.013647704 0.06126631
000270 82 82 8f 3d e7 95 62 3c 29 ab e7 3c b9 26 42 3b
       0.07007314 0.013829685 0.028279858 0.0029625131
000280 62 62 3a 3c 94 88 a4 bd ad e6 83 bc 5e f0 f9 3c
       0.011375995 -0.08033863 -0.016101206 0.030510124
000290 26 ee 40 bd fb 25 7d 3d 62 b0 9a bd d0 ed bb 3d
       -0.047102116 0.0618038 -0.075531736 0.091762185
0002a0 89 39 f7 bc fa 88 d8 bc ff d4 ab bc d4 26 a8 bd
       -0.030178802 -0.026432503 -0.020975588 -0.08210531
0002b0 4d 0e b0 bc 4e a2 04 3d dc 34 c0 3c c1 19 a9 bd
       -0.021491194 0.03238135 0.023462705 -0.08256865
0002c0 f4 8f e2 bc b0 07 54 bd 0b 47 92 bd c1 9c 9a bd
       -0.027656533 -0.051765144 -0.071424566 -0.0754943
0002d0 93 ec b9 3d c0 28 08 3d d6 76 28 bd d8 d8 dd bc
       0.09078326 0.033241987 -0.041128956 -0.027080938
0002e0 31 44 75 bc 48 62 11 bd 1b f2 23 bc fe 12 f4 bc
       -0.014969871 -0.03549412 -0.010006453 -0.029794212
0002f0 11 34 24 bc 16 73 85 3c f7 8e f4 3b be 00 c1 bc
       -0.010022179 0.016290229 0.007463332 -0.023559924
000300 14 b0 b8 3c 5e 77 10 3d 7f 7c 49 3c 94 9a 10 bb
       0.022544898 0.035270087 0.012297749 -0.0022064792
000310 9b 5d d6 b9 0a 60 bd 3c d5 0e 31 bb 5d 2e 9f 3c
       -0.00040887002 0.023117084 -0.0027016897 0.019431287
000320 32 a3 94 bc 0e 09 24 bc e4 e1 33 3d 72 b6 ff bc
       -0.018144224 -0.010011924 0.043916598 -0.031214926
000330 b9 26 2b bb 31 e6 90 bd 41 79 6d 3c e0 b6 bb 3d
       -0.002611561 -0.070751555 0.014494241 0.0916574
000340 96 0e 48 bc d7 c8 78 bc 77 60 f8 3c 77 77 45 bc
       -0.012210509 -0.015184603 0.030319436 -0.012052408
000350 e6 03 88 3c 64 f7 7b 3c 7b c8 7c 3d 1f d0 bc 3d
       0.016603421 0.015378807 0.06171463 0.092193834
000360 5e 98 2c 3d ec ed c2 3b f4 e8 7c 3d 43 a6 ad bd
       0.042137496 0.0059487727 0.0617456 -0.084789775
000370 ee c6 5d bd 3b c1 5f 3c 3c bf 77 bd d1 b0 09 3d
       -0.054144792 0.01365691 -0.06048511 0.03361589
000380 f9 f3 ad bd 0b a4 8b 3c 6a 37 a6 3d d1 af 47 3d
       -0.084938 0.017045995 0.08116038 0.048751656
000390 a5 b6 76 3d 7a d1 6e bd 98 4e 9b 3c df d7 5b 3d
       0.060232777 -0.05830524 0.018958375 0.053672668
0003a0 9d c0 9f 3d 98 ef 32 bc ec 76 ae 3c b0 61 92 3d
       0.0780041 -0.010921381 0.02129694 0.07147539
0003b0 d3 6a 51 bc 1f 85 a3 3b 3c 94 7b bc b9 10 88 bb
       -0.012781817 0.0049902345 -0.015355166 -0.004152384
0003c0 08 b5 23 bb d2 3f 27 bd 66 48 a0 bd ac 2a a3 bc
       -0.002497973 -0.04083235 -0.07826309 -0.019917808
0003d0 05 bb 31 3d dd 72 12 3c 3d 00 51 3c 67 da 35 bc
       0.043391246 0.008938518 0.0127564045 -0.011099434
0003e0 0d 6a 01 bd 1e 14 01 bd 77 66 19 3d 5f d9 9a bd
       -0.03159528 -0.031513326 0.037451234 -0.075609915
0003f0 39 33 d5 bb 41 db 55 3c 88 3e 8d bd 79 72 39 bd
       -0.0065063504 0.0130527625 -0.068966925 -0.045275185

linear3.weight f4 [1, 256]
000000 ee e8 4e 3e c0 22 f3 bd db 49 d1 bd 58 2d f3 bd
       0.20206043 -0.118718624 -0.10219165 -0.11873883
000010 39 9b c3 bd c4 e9 0b 3e b6 3b e6 bd 4b b6 fb bd
       -0.09551091 0.13663393 -0.11241858 -0.12290629
000020 0e e3 dd bd d3 2d d2 bd e3 76 3b 3e e8 8c 01 be
       -0.10834323 -0.102626465 0.1830707 -0.12651408
000030 42 c5 35 3e e0 80 e6 bd 23 77 d2 bd 1a 6c e9 bd
       0.17751029 -0.1125505 -0.1027663 -0.11397572
000040 b1 da ce bd 1f c4 c1 bd 17 c1 3c 3e a3 80 e1 bd
       -0.10100306 -0.09461235 0.18433033 -0.11010864
000050 6f bb f7 bd cb 1f c7 bd f7 00 f3 bd c2 c9 d0 bd
       -0.12096297 -0.09722861 -0.118654184 -0.10194732
000060 4c 39 29 3e 00 e2 dc bd 4f 63 f3 bd af 1b dd bd
       0.16525763 -0.107852936 -0.11884176 -0.10796296
000070 32 64 c9 bd 38 0e 21 3e 8e 4a e9 bd fb b3 36 3e
       -0.09833564 0.1572808 -0.11391173 0.17842095
000080 36 2a cd bd a9 a7 ef bd f9 a3 f3 bd 05 3b e9 bd
       -0.10017817 -0.117019005 -0.1189651 -0.1138821
000090 e9 f5 e0 bd ba 11 33 3e 5f 10 f7 bd 62 18 e3 bd
       -0.10984404 0.17487231 -0.120636694 -0.11088635
0000a0 c0 6a 35 3e 74 8b e9 bd 1f 94 fc bd fd a3 f6 bd
       0.17716503 -0.11403552 -0.12332939 -0.12042997
0000b0 dd 92 d4 bd 3d b1 39 3e 06 97 e4 bd fa 9c ee bd
       -0.103795744 0.18134017 -0.11161618 -0.11651035
0000c0 b0 17 49 3e bd c5 f8 3d 89 67 19 3e ea 4c 06 3e
       0.19637942 0.121470906 0.14980902 0.13115278
0000d0 5f 17 df bd bf 2a 3e 3e 5d d0 32 3e 2a a7 d5 bd
       -0.108931296 0.18570994 0.17462297 -0.10432275
0000e0 ed b1 f1 bd 7a 1b 3f 3e fc 7b eb bd b1 38 e2 bd
       -0.11801515 0.18662825 -0.114982575 -0.11045969
0000f0 dd 43 2b 3e 44 d2 ce bd 0b 00 cb bd 5a 17 ff bd
       0.16725107 -0.10098699 -0.099121176 -0.12455626
000100 40 00 d4 bd 07 3c d3 bd 4c dd e2 bd f6 98 1a 3e
       -0.1035161 -0.10314184 -0.11077365 0.15097412
000110 88 3b dd bd e8 80 37 3e 84 ba 2c 3e de 28 e1 bd
       -0.1080237 0.17920268 0.16868025 -0.10994123
000120 36 3e cd bd e6 ef 3f 3e 26 88 3a 3e 48 a1 d0 bd
       -0.100216314 0.18743858 0.18215999 -0.10187012
000130 68 8f 2e 3e cb b0 3e 3e f8 6c bb bd dc df 2c 3e
       0.17046893 0.18622129 -0.091516435 0.1688227
000140 5c 8a f7 bd 9a 7d 46 3e 0d ac 46 3e ab 92 d8 bd
       -0.12086937 0.1938385 0.1940157 -0.1057485
000150 3c 69 f9 bd 30 07 f3 bd fa 66 e2 bd 6d ae 3c 3e
       -0.12178275 -0.11866605 -0.110547975 0.18425913
000160 8f f8 f0 bd a1 2a fe bd f3 dd 36 3e e6 29 db bd
       -0.11766159 -0.124104746 0.17858104 -0.10701351
000170 39 69 35 3e 00 cb da bd fe 31 46 3e c3 c1 36 3e
       0.1771592 -0.106832504 0.19355008 0.17847352
000180 f1 c4 39 3e ee f6 da bd dd 1b 18 3e 59 12 36 3e
       0.18141533 -0.10691629 0.14854379 0.17780437
000190 62 18 db bd b2 05 1a 3e e3 58 cb bd 41 ab f1 bd
       -0.1069801 0.15041235 -0.09929063 -0.11800242
0001a0 4d ee 04 be 22 b7 de bd 55 af e9 bd 29 6f c5 bd
       -0.1298153 -0.108747736 -0.11410395 -0.09640343
0001b0 db b6 f5 bd 19 2a f9 bd c8 4b db bd f1 4c d5 bd
       -0.119977675 -0.121662326 -0.107078135 -0.10415066
0001c0 47 90 f5 bd c7 67 d0 bd db e1 23 3e 7d 03 18 3e
       -0.11990409 -0.10176044 0.16004126 0.1484508
0001d0 6b 16 d2 bd c1 50 39 3e 20 e3 da bd f1 a6 42 3e
       -0.10258182 0.18097211 -0.10687852 0.19008996
0001e0 ad 84 dd bd 8d 66 33 3e af 56 eb bd 10 8d fd bd
       -0.108163215 0.17519589 -0.11491143 -0.12380421
0001f0 19 08 c6 bd 15 87 2e 3e 7d 48 2a 3e e2 09 dd bd
       -0.09669513 0.17043717 0.16629215 -0.107929006
000200 c3 7c 24 3e a4 09 dc bd b1 b8 f2 bd d3 ff bd bd
       0.16063218 -0.10744026 -0.11851633 -0.0927731
000210 a5 3d cb bd 80 88 d6 bd a2 37 39 3e f9 44 d7 bd
       -0.09923867 -0.10475254 0.18087628 -0.10511202
000220 fd 0e db bd ed 00 50 3e 3a 62 2c 3e 68 dc f0 bd
       -0.10696218 0.20312853 0.16834345 -0.11760789
000230 0a 72 c5 bd ab 4b f3 bd c4 c5 de bd 47 4c 37 3e
       -0.09640892 -0.11879667 -0.108775645 0.17900191
000240 83 ad d8 bd 68 ec 1a 3e 45 f3 e7 bd 8f d2 33 3e
       -0.1057997 0.15129244 -0.11325697 0.1756079
000250 c0 6b e3 bd de 8a 37 3e 68 31 f0 bd 01 f2 c8 bd
       -0.11104536 0.17924067 -0.117281735 -0.098117836
000260 59 2e d5 bd a9 fc d9 bd 13 e2 20 3e 41 83 2e 3e
       -0.10409231 -0.10643894 0.1571124 0.17042257
000270 d7 3d 1f 3e 1d af f3 bd ba b3 3b 3e 56 fc e9 bd
       0.15550934 -0.118986346 0.18330279 -0.114250824
000280 54 4e f9 bd 24 fc f5 bd f6 8b ba bd 99 6c da bd
       -0.12173143 -0.12010983 -0.09108727 -0.106652446
000290 b9 b5 d6 bd 49 20 55 3e ef ca d2 bd a8 5c 22 3e
       -0.104838796 0.20813097 -0.10292613 0.15855658
0002a0 ae 63 ea bd e1 37 df bd 69 58 2f 3e 38 30 d0 bd
       -0.11444794 -0.1089933 0.1712357 -0.10165447
0002b0 fb cf ee bd e7 47 3e 3e 87 b0 d5 bd b8 2f e9 bd
       -0.11660763 0.18582116 -0.104340605 -0.11386055
0002c0 de b8 f4 bd c6 1f fa bd e4 67 d5 bd 55 c1 eb bd
       -0.11949323 -0.122130916 -0.10420206 -0.115114845
0002d0 b5 2e 36 3e 70 4c f5 bd 75 f6 f1 bd 82 14 e1 bd
       0.17791255 -0.1197747 -0.11814586 -0.1099024
0002e0 ed f4 c2 bd ba f5 e1 bd e8 cc cb bd 4b 71 e6 bd
       -0.09519372 -0.11033197 -0.09951192 -0.11252078
0002f0 4e e5 c3 bd 63 41 2c 3e 1d 25 fb bd ce e0 d0 bd
       -0.09565221 0.16821818 -0.12262938 -0.10199128
000300 a8 40 d7 bd 6c cb 2d 3e 87 45 e5 bd eb c0 f0 bd
       -0.10510379 0.1697213 -0.11194902 -0.11755546
000310 89 58 47 3e 6d a2 fb bd bb 3f ed bd 78 9c eb bd
       0.19467367 -0.1228684 -0.11584421 -0.115044534
000320 af d5 02 be c7 50 3d 3e 2f 2c da bd f5 f7 dc bd
       -0.12776826 0.18487845 -0.106529586 -0.107894816
000330 8c 06 1f 3e 4b 3e fd bd 85 da af bd 43 a0 23 3e
       0.15529841 -0.12365397 -0.08586601 0.15979104
000340 2f af 32 3e eb d5 41 3e 73 67 e6 bd 58 c6 d9 bd
       0.1744964 0.1892926 -0.112502 -0.10633534
000350 b9 96 01 be 79 b2 4b 3e 18 df 3c 3e 2d 9d 38 3e
       -0.12655152 0.198923 0.18444479 0.18028708
000360 30 37 2d 3e d4 1d f7 bd a6 e7 28 3e aa fa e3 bd
       0.16915584 -0.12066236 0.16494617 -0.11131795
000370 70 b4 fb bd 6f 60 00 be a1 29 c4 bd b5 97 3c 3e
       -0.12290275 -0.12536786 -0.095782526 0.18417247
000380 df bd f5 bd ac af fc bd fb 8e 40 3e 4b 67 0f 3e
       -0.11999106 -0.12338194 0.18804543 0.14004247
000390 a2 f2 53 3e 06 82 ef bd a7 fe 3a 3e e0 b1 2d 3e
       0.20698026 -0.11694722 0.18261205 0.16962385
0003a0 16 ae 35 3e 1b 16 2e 3e 87 9e 3d 3e 8b 92 38 3e
       0.1774219 0.1700062 0.18517505 0.18024652
0003b0 78 95 e2 bd fe 3e 29 3e d5 e1 21 3e 82 14 d1 bd
       -0.11063665 0.16527936 0.15808804 -0.1020899
0003c0 cf 5e d8 bd 04 f6 d8 bd dc 8f fb bd 42 cd 22 3e
       -0.10564958 -0.10593799 -0.122832984 0.15898612
0003d0 ad 1a 1d 3e 28 20 23 3e e9 06 eb bd fe 9e e2 bd
       0.15342207 0.15930235 -0.114759274 -0.110654816
0003e0 27 28 f9 bd 97 90 e1 bd d2 b0 36 3e be be f4 bd
       -0.121658616 -0.110139064 0.17840889 -0.11950444
0003f0 32 5f d4 bd 4a ae d6 bd 3e 3e 04 be a0 d7 e3 bd
       -0.103697196 -0.10482462 -0.12914369 -0.111251116
