testing/scripts/outputs/DDPG_Env/20221214-123050/models/830actor_checkpoint.pt (torch, 281431 bytes, 5 tensors)

linear1.weight f4 [256, 14]
000000 20 86 80 3e 91 d1 92 3d b2 e9 8e bb f1 02 04 be
       0.2510233 0.07168878 -0.0043613547 -0.12891747
000010 fa d3 97 3d 2c e9 0f 3e e5 08 59 be d6 17 b8 be
       0.07413478 0.14053792 -0.21194799 -0.35955685
000020 b2 cc 35 bd d9 f1 34 bc 63 d2 ee bc 28 e5 41 be
       -0.044384666 -0.011043989 -0.029153055 -0.18935072
000030 d2 a6 4b bc 8c 12 69 be 43 4c 66 be 46 3e 55 be
       -0.01242991 -0.22760981 -0.22490029 -0.20824537
000040 0a 0a e1 bb 55 07 30 3e df 8e 95 3e a3 0b 70 be
       -0.006867652 0.17190297 0.29210564 -0.23441939
000050 07 b0 3a be ab e0 34 3e 32 cc b5 3d 1a ea 66 bd
       -0.18231212 0.17663829 0.08876838 -0.0563756
000060 8c c6 2e be 30 b8 87 be 12 f1 5e be a9 21 19 3d
       -0.17067927 -0.2650771 -0.21771649 0.037385616
000070 39 a8 80 be f1 36 71 bc a7 9b 66 bd 6d bc 3a 3e
       -0.25128344 -0.014722572 -0.056300785 0.18235941
000080 dd cd 4b 3d a6 71 15 be 4b 4f c3 bd 20 fa 9e 3b
       0.049756873 -0.14594135 -0.09536608 0.0048515946
000090 6f 94 a7 3d 67 7c 03 3e 6d 5a 73 bd c4 42 83 3e
       0.08182608 0.12840424 -0.05941241 0.25636876
0000a0 5b dd cd 3c dd 21 98 be f7 44 31 3d f9 48 b4 bd
       0.025129965 -0.29713336 0.04327866 -0.08802981
0000b0 ce 7e af be 63 6d 56 3e 27 8f 8b 3e 5a 74 32 3e
       -0.34276432 0.20940165 0.27257654 0.17427197
0000c0 ce 50 4f 3d 86 cb 01 bd 66 d1 af 3d 7a 5c d8 bd
       0.05061417 -0.031688236 0.085848615 -0.105645135
0000d0 26 d8 9c 3d c8 a9 58 be 6c 38 5b 3d 44 de 86 3e
       0.076584145 -0.21158516 0.053520605 0.2634145
0000e0 ec f5 5d bb 52 1d 39 3e ee 88 ab bd bf 82 9c 3e
       -0.0033868505 0.18077591 -0.08375727 0.305685
0000f0 a8 d0 e9 bb 21 c9 bc 3c e5 b5 55 bd a6 c9 86 bd
       -0.0071354695 0.023045124 -0.05217542 -0.0658143
000100 d0 ae c6 bd 09 3c 73 3e d3 80 70 3e f1 28 39 3e
       -0.097013116 0.2375337 0.23486643 0.18082024
000110 36 99 96 be 20 a7 e5 3d dc bd 23 3e 97 5d 4d 3e
       -0.29413766 0.11213517 0.15990394 0.20055233
000120 e6 98 64 be 87 26 b7 3e a5 79 af 3e c5 df 96 3e
       -0.22323951 0.35771582 0.34272495 0.29467598
000130 30 cd 21 be 90 97 6a bd 69 d2 1c 3e 12 84 3a be
       -0.15800929 -0.057273448 0.1531464 -0.18214443
000140 a6 a9 a0 bd 91 3b c9 3d 0e 07 7d 3d f5 02 1f be
       -0.07844858 0.098258145 0.061774306 -0.15528472
000150 9b 7e c6 3e 27 11 27 be 52 b2 d9 3c 8d 98 f5 3d
       0.38768467 -0.16315137 0.026574288 0.119919874
000160 6d 14 9b 3c d3 4c df 3d f2 77 23 bd f1 16 87 3d
       0.018930638 0.10903325 -0.03990931 0.065961726
000170 87 f4 a8 bd 64 f2 42 3e 72 ff 52 3e f7 1c 55 be
       -0.08249765 0.19037777 0.20605257 -0.2081183
000180 df 71 5b 3e 91 dc 07 3e e6 e4 54 3c ed 00 7f 3e
       0.21430157 0.13267733 0.012994027 0.24902697
000190 d2 fc 51 3e 61 e3 3c bd d5 b8 24 3e 8e 10 17 be
       0.205066 -0.046115283 0.16086133 -0.14752409
0001a0 bf fd ea 3d 9f cb 70 be 6f 3e 7a 3d 63 42 2f be
       0.114741795 -0.23515175 0.061094698 -0.17115168
0001b0 50 a1 6c 3e dc db e9 3d 93 ad 4d 3e 07 7e 81 3d
       0.23108411 0.11418888 0.20085745 0.06322866
0001c0 4a fa 5d bd 05 a7 af bd 58 23 76 3e 18 2b 31 3d
       -0.054193772 -0.08576778 0.2403692 0.043253988
0001d0 ff a4 8f be eb bd 5e be 96 d8 8c 3c 96 e4 80 3e
       -0.2805557 -0.21752135 0.01719312 0.25174397
0001e0 b7 40 9a 3e 55 b0 69 3e 6d 95 62 bd b3 55 0e be
       0.30127499 0.22821172 -0.055318285 -0.13899879
0001f0 5d 04 6e 3e 98 ca 5c 3e 91 51 15 3c ff 7d 94 3e
       0.23243852 0.21561658 0.009113685 0.29002377
000200 48 92 10 be 08 49 7c 3d 19 b8 60 be 5e f1 35 be
       -0.14118302 0.061593086 -0.21945228 -0.17767856
000210 e8 cc ae 3e 55 5b d7 3a f3 11 9a 3d dc 6d ad 3c
       0.34140706 0.0016430417 0.07522955 0.02117055
000220 6d ce 2e be 2b d3 5a 3d 89 8d 12 3e c1 01 6c bd
       -0.17070933 0.05342404 0.14311804 -0.05761886
000230 fc f9 59 3d 0a c2 c3 bd 27 03 f0 bc 23 8e 16 3d
       0.05321692 -0.095584944 -0.029298378 0.036756646
000240 e7 57 40 3e 26 8b b1 3e 59 d7 b0 3d 49 b8 68 3e
       0.18783532 0.34676474 0.08634824 0.22726549
000250 5a c1 b5 3d ec 78 de 3a 3d 37 31 bd e1 58 36 be
       0.088747695 0.0016973293 -0.04326557 -0.17807342
000260 72 e5 6e 3e 85 9a 0e be b2 5b 38 3e 83 bc d1 3d
       0.23329714 -0.13926132 0.18003729 0.10241034
000270 e6 96 86 3e 70 5d 44 be 59 63 cc 3d 1f fa 02 bd
       0.26287 -0.19176269 0.099798866 -0.031976815
000280 c4 61 08 3d 5c 2f 05 bc 19 13 ff bc 50 54 c2 3a
       0.03329636 -0.008128967 -0.031137036 0.0014826152
000290 df 52 ca bd 1d af 38 bd c6 3f 9c be 6d 01 17 3e
       -0.09879088 -0.045088876 -0.30517405 0.14746638
0002a0 56 7a 04 3c 60 29 39 be fc ce 71 3e cd 6d 79 bd
       0.008085808 -0.1808219 0.23614115 -0.06089573
0002b0 a6 f2 39 be 3b 89 98 be 7f 96 d4 bd 46 65 0c bd
       -0.1815897 -0.297922 -0.10380267 -0.03427627
0002c0 77 2a db bc 9c 99 6a 3e b8 26 48 be ca d7 2c bd
       -0.026753647 0.2291016 -0.1954602 -0.04219798
0002d0 89 13 87 bc fa f1 50 3c 01 43 15 3d c1 ac a8 3d
       -0.016488807 0.012753004 0.036440853 0.08236075
0002e0 46 78 a7 3e 3d 38 27 3e 3f 10 f6 3d b2 f8 87 3e
       0.3270895 0.16330047 0.120148174 0.26556927
0002f0 66 ba e3 3e c7 07 85 bd 5a ca 10 be a7 90 ba bd
       0.44478148 -0.06495624 -0.14139691 -0.091096215
000300 f2 e0 78 be 2d 8c d0 3d 55 5b 99 be 4b 6c 9c 3e
       -0.2430456 0.101829864 -0.29952493 0.3055137
000310 88 3c 33 bd 15 64 90 3e 53 b8 4d 3e 7e 76 66 be
       -0.0437589 0.28201357 0.20089845 -0.22506139
000320 4d f3 a4 be b2 c1 38 3d ac 06 79 bb 9c e9 73 3e
       -0.32216874 0.045106597 -0.0037998362 0.23819584
000330 ec 37 27 3e e7 d7 83 3e 95 dd af bd 0c 38 29 b9
       0.16329926 0.25750658 -0.08587185 -0.00016137975
000340 df 14 d7 3d af 92 96 3e b0 e9 8c 3d 24 ac 34 3d
       0.10502028 0.29408786 0.0688051 0.04410948
000350 0a cd ab bd 84 37 2a be 26 30 78 be 25 b4 c2 bd
       -0.083887175 -0.1662274 -0.24237117 -0.09507016
000360 37 5e 3e be 2c 16 93 3c fa ee 99 bb e2 0d 13 3d
       -0.18590628 0.017954908 -0.0046976777 0.03590191
000370 cf 22 75 bd 42 a5 55 3e da 07 5d be e7 40 79 3e
       -0.05984765 0.20863822 -0.21585026 0.24341165
000380 0f a5 be bd a9 0e ad be b7 d4 3a 3e 2a a8 7d be
       -0.09308826 -0.33800247 0.18245207 -0.24771181
000390 cc 99 ec bd 0a dc 1a be 3e b2 9c be 1e a5 24 3c
       -0.11552772 -0.15123 -0.30604738 0.010049133
0003a0 97 fe ef bd c9 de c8 3c e9 4b 59 3c 75 d1 80 bd
       -0.11718481 0.024520295 0.013262727 -0.06289951
0003b0 fe f8 5d bd 63 55 26 be de c2 0f 3c 49 83 40 be
       -0.054192536 -0.1624351 0.008774487 -0.18800081
0003c0 73 bf 5a 3d 12 17 d8 3d f1 58 aa 3e 56 d2 1d 3d
       0.053405236 0.10551275 0.33270982 0.03853067
0003d0 e3 6e 28 be 40 bd 07 be 57 17 bd 3e ee 71 b9 3e
       -0.1644855 -0.13255787 0.3693187 0.36219734
0003e0 05 19 f3 bb 9d 94 58 bd 68 e0 c4 ba da 6d c0 3d
       -0.007418754 -0.052876104 -0.0015020492 0.093959525
0003f0 e3 9f 51 3e 78 ba 24 be c5 e0 c1 3d c6 bb 1e be
       0.20471148 -0.16086757 0.094666995 -0.15501317

linear1.bias f4 [256]
000000 84 02 63 3b 0e 45 5a 3d f4 72 4b 3d a2 db 7f bd
       0.003463895 0.053288512 0.049670175 -0.062465318
000010 19 c6 da 3d 5a 41 e7 bd 75 14 2e be 96 0f bb 3d
       0.106823154 -0.11291762 -0.16999991 0.09133832
000020 00 3d ff 3c 69 de f0 3d b5 91 8e 3e 89 56 0c 3d
       0.031157017 0.11761171 0.2784554 0.034262214
000030 74 3b ea bd d0 67 fa 3d 67 ef 20 bd 38 e2 32 be
       -0.11437121 0.12226832 -0.039290812 -0.17469108
000040 ed c7 7b be 77 2e 84 3d f2 6a d4 bc 29 c5 93 3d
       -0.24587984 0.06454175 -0.025929902 0.0721534
000050 1b a0 2e 3d aa e6 12 be 4c f8 83 3e 8a 7a 8a 3e
       0.042633157 -0.14345804 0.25775373 0.27046615
000060 55 50 1d 3d 53 18 80 3e 91 99 db bb db ad be bd
       0.03840669 0.25018558 -0.006701656 -0.09310504
000070 2c 0d 45 3d 1e 54 eb bd a0 d1 ff 3d 82 bb 88 3e
       0.048108265 -0.114906535 0.12491155 0.26705557
000080 46 0c 17 be f1 6b e6 3d e8 ed 2b 3d 80 b5 02 3e
       -0.14750776 0.11251057 0.041974932 0.1276455
000090 87 10 70 bd ca 02 66 3e 6f 03 0d 3e b2 54 c5 bd
       -0.05860951 0.22462001 0.13770841 -0.09635295
0000a0 50 c2 91 3e 72 d6 a6 3d be 91 b7 3d 97 62 37 3e
       0.2846856 0.08146371 0.08963345 0.17908703
0000b0 48 48 9d 3d 3f 77 b5 bd 6e 79 e0 bd 15 4b 01 be
       0.07679802 -0.08860635 -0.10960661 -0.12626298
0000c0 4a 5e 74 3e ab 25 d9 3c c9 75 10 bd 50 e9 83 3e
       0.23864093 0.02650722 -0.03526858 0.2576394
0000d0 54 61 15 3e 3d 7d af bd 8e 57 80 3d 95 6d cc bd
       0.14587909 -0.08568809 0.062667 -0.099818386
0000e0 5f 4e a2 bc f1 49 2b 3e 8f 5a ca bd 70 69 24 3e
       -0.01981276 0.16727425 -0.09880554 0.16055846
0000f0 14 37 54 3d c9 3a 19 be dc e2 14 3d 65 94 f2 bc
       0.05181034 -0.14963831 0.036349162 -0.029611776
000100 93 d0 ae bd f0 1e 4f 3e 16 c9 0a be fb bc 62 be
       -0.08535876 0.20226645 -0.1355327 -0.22142403
000110 14 bd ef bb fd 16 64 3e fc 1d a7 3e 54 cd 62 3d
       -0.007316241 0.22274394 0.32640064 0.055371597
000120 f4 12 76 be 27 ef 7d 3e 8b a7 10 3d 95 54 32 be
       -0.24030668 0.2479826 0.03531603 -0.17415078
000130 ea b1 8d 3e 25 fd 9c 3d ef 5a 0d 3e cf ae d7 3d
       0.276748 0.07665471 0.1380422 0.10531389
000140 c3 a4 04 3e 70 03 84 be 53 b1 91 3e 49 88 b2 bc
       0.12953477 -0.25783873 0.284556 -0.021793501
000150 b9 2e ba 3c 9d be b3 3c ae 89 35 3e 1b 0c 92 bc
       0.022727357 0.021941477 0.17728302 -0.017828038
000160 28 83 e3 3d c2 27 23 be 3f 0d f0 3c c0 90 c7 bd
       0.111090004 -0.15933135 0.029303191 -0.09744406
000170 8b d7 39 3e 7a 6d 5b 3e 90 8c 30 3d 74 e6 dd 3d
       0.1814863 0.2142848 0.0431028 0.10834971
000180 8e 23 6d 3e a6 bd 35 be eb ff 45 bd 8c 59 90 3d
       0.23158094 -0.17748126 -0.048339766 0.0704833
000190 fc 1e 21 3e ea 70 01 be 41 07 7c 3e 15 1a ae 3d
       0.15734476 -0.1264073 0.24612142 0.085010685
0001a0 a9 4b 1e be 40 7e c9 bd f2 73 03 3e 2a 14 61 3e
       -0.1545855 -0.098385334 0.12837198 0.21980348
0001b0 17 59 69 3d 39 8d 70 bc dd 8b cb bd 7a 70 db 3d
       0.05696973 -0.014682108 -0.09938786 0.107148126
0001c0 6a 1a 51 bd 77 82 42 3e 70 88 0a 3c e3 71 1f 3e
       -0.05105058 0.18995081 0.008455381 0.15570788
0001d0 fa 24 02 3e 1e d9 e8 bd fc 99 23 be e0 06 62 3d
       0.12709418 -0.11369537 -0.15976709 0.055182338
0001e0 cf 19 c4 bc 7d ac fa bc 1d c1 53 3c f7 45 9a 3d
       -0.023938088 -0.030599827 0.01292446 0.07532876
0001f0 2f a3 f2 bb 1d 98 6f 3c 15 fb a0 bd 95 bb 3a 3d
       -0.007404707 0.014623669 -0.0786039 0.04558905
000200 a8 0d 78 3e 24 6c 4a bd 71 01 9f bd d5 60 38 bd
       0.2422396 -0.049419537 -0.07763947 -0.04501422
000210 1f a8 c0 3d 30 5d 8d 3e 43 c6 f7 3d 3f 68 06 be
       0.094070666 0.2761016 0.12098362 -0.13125704
000220 d5 73 b8 3d 21 a9 8a 3e da c2 93 3e 7f 67 8f be
       0.09006468 0.2708216 0.28859597 -0.2800865
000230 66 cf 98 3e b2 c1 63 be 12 d1 57 3e 6d f6 32 3e
       0.29845732 -0.22241858 0.21075848 0.17476816
000240 6c a1 58 be a6 d5 82 3d b9 7d 95 bd 64 00 80 be
       -0.21155328 0.063884065 -0.0729937 -0.25000298
000250 b2 c6 b5 bd de b4 51 be aa 6b 32 3e a5 5f 1c 3e
       -0.08875789 -0.20479152 0.17423883 0.1527086
000260 d5 f2 1e bd de 7d dc bd ea 11 46 be a4 d6 5f be
       -0.0388058 -0.10766195 -0.19342771 -0.21859223
000270 97 1c 54 3e 96 e8 75 3e 05 f8 ea bd 41 df a0 3e
       0.20714031 0.24014506 -0.11473087 0.3142033
000280 b3 94 ae 3e af 21 cb bd 4e 79 56 3e 57 41 83 3d
       0.34097824 -0.09918534 0.20944712 0.06408947
000290 1a 3c 86 3e fc 65 92 3e c8 dd 58 3e 53 62 8d bd
       0.2621773 0.28593433 0.21178353 -0.069035195
0002a0 77 f2 65 3e db ef 91 3d 4b 90 0f bc 21 53 c3 3d
       0.22455774 0.07125827 -0.0087624295 0.0953734
0002b0 91 4b 46 3e 1e 96 2c be 0f 37 2b bd 30 be 39 3d
       0.19364764 -0.1685414 -0.041800555 0.045347393
0002c0 e7 a7 e6 bd 74 35 01 3e 14 dc cf 3d 94 83 86 3e
       -0.112624936 0.12618047 0.101493984 0.2627226
0002d0 1d fa d3 3d 6e 62 de 3d e9 5c af bd e8 d0 36 3e
       0.1035044 0.10858618 -0.08562643 0.17853129
0002e0 1a 7a 21 be 7a 55 05 3d ec 6e 5a bd f2 20 93 3e
       -0.15769234 0.03255222 -0.05332844 0.28736073
0002f0 06 41 68 bd 6b b5 e6 bc 9a d4 a2 be 39 5b 49 3e
       -0.056702636 -0.028162679 -0.31802827 0.19663705
000300 2a 0d 56 3e 5e bb 53 3e 85 aa 82 be 13 8b aa 3d
       0.20903459 0.20676944 -0.2552072 0.083273076
000310 2a 0f 73 3e 83 52 48 3e 2f a3 10 3e d7 73 32 be
       0.23736253 0.19562726 0.1412475 -0.17427002
000320 de 19 ed bd 0b 76 48 bd 34 1a 76 3c 64 92 5a be
       -0.115771994 -0.0489407 0.015020896 -0.21344906
000330 89 6d 62 3e 0c c5 c1 bd 77 53 b2 3e e3 11 75 be
       0.22112097 -0.09461412 0.34829304 -0.23932604
000340 7c 19 a1 3e 95 6e af bd a3 83 3a 3e ab d6 a1 bd
       0.31464756 -0.08566014 0.18214278 -0.07902273
000350 53 5c 3e 3e 7a 21 81 bd 3f 32 f8 bd 11 65 22 be
       0.18589906 -0.06305213 -0.12118959 -0.15858866
000360 ef 5b 97 3e 94 71 7a 3e 53 73 3d be be cb 70 3e
       0.29562327 0.24457389 -0.18501024 0.23515221
000370 a7 07 03 be 51 a5 b1 3d 53 eb d8 bd 4e e6 5d be
       -0.12795888 0.0867411 -0.105917595 -0.21669886
000380 c1 5d 7e bc 37 30 86 3d 2d 62 94 3e 81 c4 48 3e
       -0.015525282 0.06552165 0.28981152 0.1960621
000390 d0 6d 8b 3e 48 ea 2f bd 08 de 25 3e fc 3b c8 3d
       0.27232218 -0.042948037 0.1619798 0.09777066
0003a0 9c 71 23 3e bc 50 86 3e d7 ae 30 bd 41 7b 53 3e
       0.15961307 0.2623347 -0.04313549 0.20652486
0003b0 c3 04 24 be 8b bc 4c 3c c0 d4 5c be f5 25 b4 3d
       -0.16017441 0.012496124 -0.21565533 0.08796302
0003c0 a3 8c b7 3d 53 d7 04 be 90 55 2b be 38 ce 1b be
       0.08962371 -0.12972765 -0.16731858 -0.15215385
0003d0 38 7a 5b 3d a2 ce 51 3e f9 6d 82 3d 67 2f 20 3e
       0.053583354 0.2048898 0.06368632 0.15643083
0003e0 66 af d9 3c 15 02 1a 3e f3 30 37 3d e2 32 56 be
       0.026572894 0.15039857 0.044724416 -0.20917848
0003f0 23 cf 62 3b 86 13 70 3e 61 ab 71 3e 17 ad 2a 3e
       0.0034608326 0.23444948 0.23600532 0.16667591

linear2.weight f4 [256, 256]
000000 6e 01 4a be 6d 65 cc 3d e4 50 35 bb 98 91 1c 3d
       -0.19727108 0.09980283 -0.0027666623 0.038224787
000010 f0 cc 02 3d 1c 27 14 3d b1 41 27 bb 26 f8 8a bd
       0.031933725 0.03617011 -0.0025521333 -0.06785612
000020 ef a1 20 bd 8c 00 a8 bd 00 47 89 3d 7d e7 a5 bd
       -0.039216932 -0.08203229 0.06702995 -0.081007935
000030 78 e7 8f bd d8 c8 2b bd 18 06 3d be b3 e0 db bd
       -0.07026571 -0.041939586 -0.18459356 -0.10736217
000040 bc a1 8c bd 1a 49 24 3e f6 9f 80 bd 6b ae 4a 3d
       -0.06866786 0.16043511 -0.0628051 0.049482744
000050 97 8c a7 3d 75 62 c4 3d e4 3f 03 3e f7 37 11 3c
       0.08181112 0.09589092 0.12817341 0.008863441
000060 2a d2 92 3d 1c df 03 be 57 7b 61 3d a2 0d 15 3c
       0.07168992 -0.12878078 0.055049267 0.009097489
000070 c2 43 88 bd 14 9b e1 bd 08 93 f9 bd 1b 63 13 3d
       -0.06653549 -0.11015907 -0.12186247 0.035983186
000080 7d a1 c6 bd 15 ca e7 bc 5e 59 28 be e5 09 66 3d
       -0.0969877 -0.028294602 -0.16440341 0.05616178
000090 75 9e b2 bd a6 d5 2f bd 37 7e c3 bc 13 91 09 bd
       -0.087216295 -0.04292836 -0.023863895 -0.03358562
0000a0 0b 7f 08 bd 1d b2 c5 bd 19 8c a1 3c b9 a9 36 bc
       -0.033324283 -0.09653113 0.019720124 -0.0111488635
0000b0 89 57 dc 3c 0c 1e b1 3d 8e ca 51 3e 4e dd 8b be
       0.026897209 0.08648309 0.20487425 -0.2731728
0000c0 8d 28 3f 3e 80 71 18 3e 51 6d 3b 3e d0 b6 12 be
       0.18667813 0.14887047 0.1830342 -0.1432755
0000d0 14 34 e3 3d e6 29 1b 3e b1 54 dc 3d 4d 35 45 bc
       0.110939175 0.15152702 0.10758341 -0.012036634
0000e0 5d 60 59 be b6 97 42 bd c6 65 84 3d 91 07 6a 3b
       -0.21228166 -0.047507964 0.06464724 0.0035710076
0000f0 00 c5 a7 bc cb a9 2f 3e be b8 8b 3d 8a 32 ca 3d
       -0.02047968 0.17154615 0.06822346 0.09872921
000100 0a f2 07 3e d3 cc 65 3d a2 26 cc 3d 20 ec 1e 3e
       0.13275924 0.05610354 0.09968306 0.15519762
000110 72 bb 77 3d 16 4a 0e bd bf dd 1b 3e 8c d3 e1 3d
       0.060481496 -0.034738623 0.15221308 0.110266775
000120 c2 a4 d3 bd 2a a4 d9 bd 2e 9b 64 3d f9 8b fc 3b
       -0.103341594 -0.10627015 0.055812053 0.0077071157
000130 a4 49 ec 3d 12 cc b5 bb 45 f0 76 3d ad 68 96 bd
       0.11537483 -0.0055480087 0.060287733 -0.07344184
000140 42 22 83 bd 33 6c 9d 3d 15 1a 0f 3e ae 68 ab bd
       -0.064030185 0.07686653 0.13974793 -0.083695754
000150 16 9d 85 3d 12 17 e1 3d 91 7b f3 3d cf 08 64 3e
       0.065241024 0.109907284 0.11888803 0.22268985
000160 14 9d 8d bd 42 c2 7e 3d 2a d8 67 3d d7 f3 05 bd
       -0.06914726 0.062196977 0.056602634 -0.032703247
000170 78 a0 c7 3d 1e fb ac 3b 8a d8 ba 3c d2 b2 60 bd
       0.09747404 0.005278959 0.022808332 -0.054858036
000180 79 11 90 3d 0e 7f b0 bd d9 2a 42 be 28 99 f5 bd
       0.07034583 -0.08617984 -0.18961658 -0.11992103
000190 64 86 1b 3d f2 0a ef 3d f2 53 c9 3d c1 ea 4d bd
       0.03796996 0.116720095 0.098304644 -0.050272707
0001a0 6c 8a d3 bb 7d ba 1a 3e a7 7f 5f 3e 1f 68 a4 bd
       -0.00645571 0.15110202 0.21826039 -0.08027672
0001b0 6b ae 66 bd ea 1c b0 3d a9 9b 24 bd 8f a4 92 bd
       -0.05631868 0.08599265 -0.04018751 -0.07160293
0001c0 6e f4 ae 3d 69 88 fb bb 66 1d 1e be e5 61 87 3d
       0.08542715 -0.0076761735 -0.15440902 0.06610469
0001d0 1b 96 fc bd b6 41 7a 3d ea 2e ca bc 0a eb c8 3c
       -0.12333318 0.061097823 -0.024680573 0.024526138
0001e0 6a 51 08 be fc 9a 1c bd 32 25 19 be e4 f8 08 be
       -0.13312307 -0.038233742 -0.14955595 -0.13376194
0001f0 60 5d 79 3e 40 de 1d 3e a4 23 2e be e6 4f 54 bd
       0.24352026 0.15416813 -0.17005783 -0.05183401
000200 5f 1c ea b9 ac 8b 62 3e 2c 49 a8 bd 5f 59 51 be
       -0.00044653096 0.22123593 -0.082170814 -0.20444249
000210 73 e2 a2 bd 13 b1 b3 bd b3 ff bd 3d 4b b4 0b be
       -0.07953348 -0.087740086 0.092772864 -0.13642995
000220 84 e9 fa 3d 11 9a f5 3d 58 71 3c bd 95 21 9d bd
       0.12251571 0.119922765 -0.04600653 -0.07672421
000230 a0 80 11 bc 02 a7 47 3b dd 55 70 bc 0f 62 3a bc
       -0.008880764 0.0030464535 -0.014668909 -0.011375918
000240 69 79 0d 3d 4e c9 12 3d ea 9e 3c 3c 29 74 94 3e
       0.034539614 0.03583651 0.011512497 0.28994873
000250 81 9d 06 3e 50 53 3c 3e 6a 54 d4 3c 41 9e 88 3d
       0.1314602 0.18391156 0.025919158 0.066708095
000260 9c ad 14 be 8f 39 e8 bd 08 12 00 3d c7 e3 2d bc
       -0.14519352 -0.113391034 0.031267196 -0.010613388
000270 65 06 3c 3c 0a bd 02 be bc c1 d5 bd e4 84 ef bd
       0.011476134 -0.12767425 -0.104373425 -0.11695269
000280 f1 e1 0a 3c 1c 2d e0 3c 1b b9 22 3d 26 de 4c be
       0.00847672 0.02736526 0.03972731 -0.20006618
000290 c0 31 7a 3d 05 b0 44 bd 81 26 06 bc 04 18 08 bd
       0.0610826 -0.048019428 -0.008187891 -0.033226028
0002a0 b0 b0 e4 bd ee 03 6c be 35 7f 1d be 74 db 52 3d
       -0.11166513 -0.23048374 -0.15380557 0.051478818
0002b0 fc 62 06 3d 13 21 9b 3d c7 1e d2 bc 86 9e cb bd
       0.032809243 0.07574668 -0.025649441 -0.09942345
0002c0 73 65 da bd 4f cf c4 bd fd c8 aa 3c a6 56 53 be
       -0.10663881 -0.096098535 0.020847792 -0.20638523
0002d0 d6 45 ef 3d 92 a2 23 3e 65 e3 00 be 24 a2 3a bd
       0.11683242 0.15979984 -0.12586744 -0.045564786
0002e0 41 38 04 3e ad 90 1d 3a 10 18 8c 3d 76 73 88 3c
       0.12912084 0.0006010633 0.06840527 0.016656619
0002f0 6b e4 3e 3d bf 15 50 bd b3 5f 12 bd dd fa 29 bd
       0.046604555 -0.05080199 -0.035735797 -0.041499007
000300 c5 21 1b bc 1f 6a f6 3c 3a b7 66 3c e9 32 0d 3c
       -0.0094685005 0.0300799 0.014081771 0.008618095
000310 94 bb 05 be f2 59 93 3d a3 82 a9 bc a5 95 54 bd
       -0.13059837 0.0719489 -0.020692175 -0.051900525
000320 e7 2d ed 3d fe 00 98 3e 0a bb 01 3d cf 7a 2c bd
       0.11581021 0.29688257 0.031672515 -0.042109307
000330 0b f8 d7 3c f3 59 fe 3c e2 96 a6 bc ea f5 97 3c
       0.026363393 0.03104875 -0.020335618 0.018549878
000340 77 11 29 be 75 56 94 3d b3 44 9a 3d bf 15 03 be
       -0.16510569 0.07243053 0.075326346 -0.12801264
000350 04 5a 85 bd e3 6b 08 bc ab 63 33 3e 84 6e 22 bc
       -0.0651131 -0.008326503 0.17518489 -0.009914044
000360 31 0b 49 bd 5f 78 8e bd 51 7f 98 bd 24 7d 38 bd
       -0.04908294 -0.06956553 -0.07446159 -0.04504122
000370 ed 7b 87 bc 7c 26 3d bb 90 33 ff bd b9 66 f0 bc
       -0.016538585 -0.002886205 -0.12461007 -0.029345857
000380 7b 76 11 bb 91 7c 1e be 02 e0 5d 3d ba 71 f7 3c
       -0.0022195864 -0.15477206 0.05416871 0.030205596
000390 ff 18 71 3b a3 ef 2a be ec bd 79 bd 4d f3 f8 bc
       0.003678858 -0.16692977 -0.06097214 -0.030389452
0003a0 44 29 c7 bc 2e 9e f0 3d a7 b8 fe bd 94 aa 2c 3d
       -0.02431167 0.117489204 -0.124375634 0.042154863
0003b0 63 ea df bd b3 a0 30 3e 59 7c ff 3d 0c 82 8a 3d
       -0.109333776 0.17248802 0.12474889 0.06763086
0003c0 59 72 d7 3b 27 5c 1e be e6 f3 87 bd ee 12 d4 3c
       0.0065749106 -0.15464841 -0.06638317 0.025887933
0003d0 af 15 1d be df 1a 5b bd 71 13 16 3e 90 ce 65 bd
       -0.15340303 -0.053492423 0.14655854 -0.056105196
0003e0 e4 8b 7d bd 07 87 9c bd dd 5a 4d bd 43 fb fc 3c
       -0.06190099 -0.07642942 -0.050135482 0.03088153
0003f0 80 e2 8f bd bc eb 3a 3c f5 0e 4a 3d 2c e2 16 be
       -0.07025623 0.0114087425 0.04933067 -0.14734715

linear2.bias f4 [256]
000000 8c b5 86 3b 4b b8 19 bd ff 5b 72 bd 60 0f e6 bc
       0.0041109975 -0.03752927 -0.059169766 -0.028083503
000010 62 3f b6 bb bc 9a 0d 3c 0c 65 87 bd 72 c2 a3 bd
       -0.005561755 0.008642849 -0.0661107 -0.07996072
000020 d1 cb 25 3c eb 3e 8b bd 8a c5 ad 3d b7 fd af bb
       0.010119394 -0.0679911 0.08484943 -0.0053708213
000030 1c af 89 bc e0 4b 1f bd 35 40 23 bd 06 4c 5e bd
       -0.016807131 -0.03889072 -0.039856154 -0.05427172
000040 e8 a7 9f bd 54 cd eb 3b 4d 6d 72 bc b7 6d 2b bd
       -0.077956975 0.007196108 -0.014796567 -0.04185268
000050 95 85 73 bd 50 3e 2d bd b0 84 53 bd 23 c4 f8 bc
       -0.059453566 -0.042295754 -0.051640213 -0.030366963
000060 d9 41 7a 3d ca d2 6c bd c1 bb 3a bd 86 60 be bb
       0.061097953 -0.05781821 -0.045589212 -0.0058098463
000070 18 74 00 bd 8a 33 db 3b 06 52 ce 3c 6a 19 97 3d
       -0.031360716 0.0066894935 0.025185596 0.07377894
000080 bf 75 cc 3c ea 4e 89 3c 54 39 aa 3c 9d 01 b2 bd
       0.02495849 0.016761262 0.02077929 -0.08691714
000090 91 c0 3b bd 2c 4a 85 3d a8 b9 2f bd 74 a8 20 3c
       -0.045837943 0.06508288 -0.042901665 0.009805787
0000a0 a8 fb 07 bd 8e 5b 96 bd ce 66 f3 3c 50 95 82 bc
       -0.033198982 -0.073416814 0.029712107 -0.015940338
0000b0 e4 44 50 3c 8a c2 9c 3c d8 ab bd bd 55 eb a5 bd
       0.012711737 0.019135732 -0.09261292 -0.08101527
0000c0 98 51 63 3a ca f8 24 bc 43 8a ab 3c 53 ec 84 3d
       0.0008671521 -0.010069082 0.020939952 0.06490388
0000d0 9a b2 90 bd a6 d2 55 3d 4b 88 17 3d 4c 8f 79 3b
       -0.070653155 0.052202843 0.036995213 0.0038079796
0000e0 46 5f cf bc db 63 b1 3a ec d9 94 bb 96 fb 2a bd
       -0.025313985 0.0013533788 -0.00454258 -0.041743837
0000f0 d8 62 38 bc 81 1e 68 ba c3 2e 1f bd f6 91 1b bd
       -0.011254035 -0.0008854643 -0.038862955 -0.037980996
000100 44 21 a2 3c 4f 8f 1d 3d d6 94 1e bd 02 52 72 bc
       0.019791253 0.038466748 -0.03871616 -0.01479006
000110 60 f1 74 bd 21 2b 99 3d db 1a 2d 3d 11 e1 a2 bd
       -0.059800506 0.07478929 0.04226194 -0.07953084
000120 2a 80 04 bc 39 45 86 3d 75 a3 ae 3d ae 3e c8 bb
       -0.008087197 0.06556172 0.08527271 -0.0061109876
000130 28 f8 51 bc f4 9c 0a bd 91 cd ad bd 36 55 9e 3d
       -0.012815513 -0.03384109 -0.08486474 0.077310964
000140 8e 4c a9 bd 55 c4 c5 3b 55 29 f0 bc 33 9a c4 3b
       -0.08266555 0.0060353675 -0.029316584 0.0059998273
000150 24 81 bd bd e6 b2 b8 bb c6 92 6a bd fb 59 8b 3d
       -0.09253147 -0.0056365607 -0.05726888 0.06804272
000160 b5 2a 3a bd 7f b5 85 bd 76 d9 45 3d 0f fe 8a 3c
       -0.045450885 -0.06528758 0.04830309 0.016966848
000170 d9 c2 67 3d d9 97 fa bb cc b0 29 bc ac a6 9f 3c
       0.056582306 -0.007647496 -0.010357093 0.019488655
000180 47 01 cc bc d9 0f 9c 3c 26 2c 3f 3b 8f 8d 97 3d
       -0.024902953 0.019050526 0.0029170602 0.07400047
000190 3a 36 84 bd a4 a3 36 3d ad 24 39 bd 2d 22 2c bd
       -0.064556554 0.044589654 -0.045200992 -0.04202478
0001a0 74 30 50 bd b6 a7 ab bd 90 5b 5e 3c 17 eb d4 3c
       -0.05082746 -0.08381598 0.013571635 0.025991006
0001b0 3b 52 f8 bc 5a 22 05 3b 1a 57 bb 3c 37 8d 4c 3c
       -0.030312648 0.0020314665 0.022868682 0.01248484
0001c0 d4 a1 12 bc 3a a3 30 bd eb 4a 85 3d 16 38 eb 3c
       -0.008949716 -0.043124415 0.0650843 0.028713267
0001d0 a7 17 03 3d cb 32 82 3d d9 d6 03 3d 41 9a 8f 3d
       0.03200498 0.06357344 0.032187317 0.070118435
0001e0 10 4b 66 bd 8e 84 af 3d 80 fc af 3c 0d c0 b4 bc
       -0.05622393 0.08570205 0.021482706 -0.022064233
0001f0 20 37 01 3d 21 65 ae 3d 4e 0a 85 bc 73 4b ee bc
       0.031546712 0.085153826 -0.016240265 -0.029088711
000200 4b a6 06 bc 5e b0 e3 bb af 8a ed 3b c0 b0 5c ba
       -0.008218358 -0.006948515 0.0072491984 -0.0008418672
000210 c3 9c 91 3c 81 3d cb 3c d6 c0 43 3d bd 34 ad bd
       0.017774945 0.0248096 0.047791325 -0.08457325
000220 d3 b7 0c bc b8 22 1e bd 57 e0 b3 3c 58 f1 10 bd
       -0.008588749 -0.03860733 0.02195756 -0.035386413
000230 14 60 0f bd 9d 2f 2d bc e4 f0 86 bd bc 10 9b 3d
       -0.035003737 -0.010570434 -0.06588915 0.07571551
000240 61 0c a0 bb a0 1c b3 3d 3b 08 af 3c 61 9e 7e 3d
       -0.004884288 0.08745694 0.02136623 0.06216276
000250 80 d1 8a bd f7 8f a8 3c 78 84 8b bd fc bf 18 bd
       -0.0677824 0.02057646 -0.06812376 -0.037292466
000260 84 ac 6d bc f0 68 3e bd ba 2e 41 3c a9 61 74 3d
       -0.014506463 -0.046486795 0.011790926 0.05966345
000270 45 47 8c 3d 5a f1 74 3c 65 3b e6 3c a8 5a 89 3b
       0.06849531 0.014950121 0.028104493 0.0041917153
000280 a6 db 44 3c 0e dc a2 bd 41 90 74 bc 7a b2 01 3d
       0.012015259 -0.07952128 -0.014926971 0.03166435
000290 ca a1 3c bd 93 19 7d 3d ee 74 98 bd 78 38 b8 3d
       -0.04605273 0.061791968 -0.074441776 0.089951456
0002a0 e6 10 f0 bc e2 4c d0 bc 8e 60 ba bc f0 c3 a6 bd
       -0.029304933 -0.025427286 -0.022751119 -0.08142841
0002b0 38 a2 a5 bc 4f 6f 03 3d e7 97 c7 3c c6 3f a8 bd
       -0.020218953 0.032088574 0.024364425 -0.08215289
0002c0 6f aa d1 bc 23 59 51 bd 9f 04 90 bd 3b b3 98 bd
       -0.025593964 -0.051110398 -0.070321314 -0.074560605
0002d0 40 e5 b6 3d 75 21 0c 3d 5a 57 26 bd 2f 99 cf bc
       0.08930445 0.034211595 -0.04061065 -0.025341598
0002e0 b9 81 57 bc 4c 79 0d bd 8c 11 09 bc f5 9a e8 bc
       -0.013153487 -0.034539506 -0.008366 -0.028394202
0002f0 19 c1 08 bc 24 0a 71 3c dd 58 13 3c 51 71 a7 bc
       -0.008346819 0.01471189 0.008993355 -0.020439776
000300 b8 6d c6 3c 36 73 0a 3d 9c fa 5b 3c f8 63 a9 ba
       0.02422224 0.03380128 0.013426449 -0.001292347
000310 ec 10 7a ba 69 c4 c5 3c b1 04 e9 ba af 85 aa 3c
       -0.0009539265 0.024141507 -0.0017777887 0.020815698
000320 22 2f 8b bc 66 fb 17 bc 56 82 3f 3d d5 bb f2 bc
       -0.016990248 -0.009276247 0.046755157 -0.02963058
000330 8f 88 ab bb 69 0a 8f bd f4 a3 84 3c 34 61 b9 3d
       -0.005234785 -0.069844075 0.01619146 0.09051743
000340 30 24 57 bc db f8 6c bc 6f 9d 01 3d 8a 9e 3c bc
       -0.013131186 -0.014463629 0.03164428 -0.011512408
000350 b5 53 8f 3c cb df 6d 3c 6f 01 7a 3d d4 9c ba 3d
       0.01749597 0.014518688 0.061036523 0.09111944
000360 9c 72 28 3d c4 ee e1 3b 88 c6 76 3d 4c f0 aa bd
       0.041124925 0.006894918 0.060247928 -0.08346614
000370 4b 53 59 bd 1f f5 6f 3c be 14 70 bd 76 fe 06 3d
       -0.05305795 0.014645844 -0.05861353 0.032957517
000380 a2 82 ac bd 5f 09 93 3c 2f a4 a5 3d a1 4b 42 3d
       -0.08423354 0.017948804 0.08087956 0.047435407
000390 b4 91 76 3d 9d c2 6b bd df 90 96 3c 2d d0 57 3d
       0.060197547 -0.057558645 0.018379627 0.052688766
0003a0 95 08 9c 3d b7 e2 53 bc 25 c4 a5 3c 20 f2 8f 3d
       0.076188244 -0.012932471 0.02023513 0.070286036
0003b0 e3 6f 3f bc 62 de 4a 3b e1 a4 8a bc 15 68 44 bb
       -0.011684391 0.0030955304 -0.016924324 -0.0029969264
0003c0 d8 7f 0a ba e9 db 22 bd 82 6b 9e bd 54 62 ab bc
       -0.00052833324 -0.039760504 -0.07735349 -0.02092091
0003d0 74 ff 2b 3d b1 4a e9 3b 85 81 63 3c e6 77 25 bc
       0.041991666 0.0071194996 0.01388586 -0.010099387
0003e0 5a 1c f4 bc 0b c1 f9 bc 41 2e 18 3d 6c c6 96 bd
       -0.029798675 -0.030487558 0.037153486 -0.07362065
0003f0 8f d9 b1 bb bc 20 64 3c 6b ed 8a bd f2 b3 34 bd
       -0.0054275463 0.01392382 -0.06783565 -0.04411692

linear3.weight f4 [1, 256]
000000 75 89 56 3e 6d 2b fc bd 73 5a d7 bd 08 e2 f9 bd
       0.20950873 -0.1231297 -0.10515299 -0.12201315
000010 9c b0 cc bd ae da 0d 3e 3c 9a eb bd 4e 18 02 be
       -0.09994623 0.13852951 -0.11504027 -0.12704584
000020 13 a1 e3 bd 4c e4 dc bd ae b7 3e 3e d3 07 03 be
       -0.11114707 -0.10785732 0.18624756 -0.12795953
000030 86 ea 39 3e d2 94 ee bd fb 87 db bd 1d 3e f3 bd
       0.1815587 -0.11649479 -0.107192956 -0.118770815
000040 fe f7 d6 bd de 9f cd bd a3 5f 3f 3e 8c 3d e8 bd
       -0.104965195 -0.10040258 0.18688826 -0.11339864
000050 62 d4 fb bd 3c 75 d5 bd be 40 fc bd f2 49 d6 bd
       -0.12296368 -0.10422751 -0.12317036 -0.10463323
000060 d0 00 2c 3e 1a 56 e5 bd 53 d3 fb bd 13 1c e2 bd
       0.16797185 -0.11198063 -0.12296166 -0.11040511
000070 3f d7 ce bd 74 d7 23 3e f0 46 f0 bd 69 b4 3a 3e
       -0.10099649 0.16000158 -0.1173228 0.18232884
000080 c1 5a d5 bd df 6b f6 bd 0d 9c f9 bd a6 31 f0 bd
       -0.104177006 -0.120322935 -0.121879674 -0.1172822
000090 a6 7a e5 bd e8 14 37 3e 7e 4a fd bd f4 29 ea bd
       -0.11205034 0.17879069 -0.12367724 -0.11433783
0000a0 5f 3a 42 3e 41 b2 f3 bd 63 26 02 be 9b 91 01 be
       0.1896758 -0.118992336 -0.12709956 -0.126532
0000b0 39 ff dd bd e9 e3 3c 3e dc 63 eb bd 3f b3 f6 bd
       -0.108396955 0.18446316 -0.11493656 -0.12045907
0000c0 a2 89 4e 3e d3 fd fd 3d 7d 87 1b 3e 20 fe 07 3e
       0.2016969 0.12401929 0.15188403 0.13280535
0000d0 d2 31 e7 bd be 18 41 3e 5d 3b 34 3e 8a 44 dd bd
       -0.11288799 0.18857095 0.1760077 -0.108040884
0000e0 41 32 f7 bd a7 d9 42 3e af aa f3 bd 83 0c e9 bd
       -0.12070132 0.1902834 -0.1189779 -0.113793395
0000f0 d4 01 2e 3e 8c 6e d9 bd 49 7c d2 bd 57 4c 03 be
       0.16992885 -0.10616788 -0.10277612 -0.1282209
000100 8a d0 d9 bd 35 25 df bd 8c b5 ec bd ac 16 1c 3e
       -0.10635479 -0.108957686 -0.11558065 0.15243024
000110 ea 74 e6 bd 17 d7 3a 3e 04 a4 2e 3e 21 3d ea bd
       -0.11252768 0.18246113 0.17054754 -0.11437441
000120 5a 6f d3 bd 6f fd 41 3e 08 68 3d 3e ed 94 db bd
       -0.10323973 0.18944333 0.18496716 -0.10721765
000130 14 bd 30 3e 38 64 44 3e fb e1 c1 bd ea 79 30 3e
       0.17259628 0.19178855 -0.094669305 0.17234007
000140 99 e4 ff bd f9 10 4c 3e 12 a9 4b 3e 9c 9c e0 bd
       -0.124947734 0.1992835 0.19888714 -0.10967371
000150 1a ee fc bd 2c 02 fc bd dd 20 e7 bd 3f a8 3c 3e
       -0.12350102 -0.12305102 -0.11285565 0.18423556
000160 e9 21 f8 bd 8c d9 01 be 55 de 3b 3e d2 31 e3 bd
       -0.12115843 -0.12680644 0.18346532 -0.11093487
000170 d8 b8 38 3e 01 6a e3 bd e8 96 49 3e ff 50 38 3e
       0.18039262 -0.11104203 0.19686472 0.17999648
000180 e8 c2 40 3e e8 91 e3 bd b7 47 1a 3e f9 96 38 3e
       0.18824351 -0.11111814 0.1506642 0.18026341
000190 72 8e e5 bd 6b 10 1d 3e 00 28 d0 bd fd 2b f9 bd
       -0.1120881 0.15338294 -0.101638794 -0.12166593
0001a0 f6 e1 07 be de 10 e6 bd a1 c1 f2 bd 19 ad cf bd
       -0.13269791 -0.11233686 -0.11853338 -0.10140438
0001b0 d3 5f fc bd a2 54 02 be 18 97 e1 bd 5d e6 dd bd
       -0.123229645 -0.12727597 -0.11015147 -0.10834954
0001c0 9e 40 ff bd ef fa d8 bd 0f 99 25 3e 69 6e 1a 3e
       -0.124634966 -0.10594737 0.16171668 0.1508118
0001d0 95 8c db bd b1 97 3b 3e b6 8a ea bd cd 24 46 3e
       -0.10720173 0.18319584 -0.11452238 0.19349976
0001e0 37 b0 e5 bd 16 79 35 3e 00 60 05 be 08 ff 02 be
       -0.11215251 0.17721972 -0.13024902 -0.12792599
0001f0 3f d4 cf bd 86 c9 2f 3e 85 e5 2c 3e c1 d1 e6 bd
       -0.101479046 0.17166719 0.1688443 -0.11270476
000200 cc 67 26 3e e5 4a e1 bd 71 93 f8 bd d3 08 c3 bd
       0.16250533 -0.11000613 -0.12137497 -0.095231675
000210 5b 02 d0 bd 96 cf e0 bd c1 72 3b 3e 5c 4b de bd
       -0.10156699 -0.10977094 0.18305494 -0.108542174
000220 c5 9c e1 bd 87 67 5e 3e 44 ec 30 3e bb b9 f5 bd
       -0.110162295 0.2171918 0.17277628 -0.11998316
000230 91 a4 d0 bd 9f 7c f9 bd c2 47 ea bd 72 81 3a 3e
       -0.101876386 -0.12181973 -0.11439468 0.18213442
000240 aa ef e1 bd 9e 92 1d 3e 12 09 ee bd 6c 3b 36 3e
       -0.110320404 0.15387961 -0.11622824 0.17796105
000250 3e 11 e9 bd c6 fb 38 3e d6 1c f6 bd 87 24 d1 bd
       -0.11380242 0.18064794 -0.12017219 -0.10212045
000260 94 e9 de bd 9f 8d e4 bd 85 ea 22 3e f9 83 31 3e
       -0.10884395 -0.111598246 0.15909775 0.173355
000270 f5 2d 20 3e ec 60 fc bd ce b3 40 3e 70 cf f0 bd
       0.15642531 -0.12323174 0.1881859 -0.117583156
000280 e8 9b fe bd 5e cf fa bd 13 22 c5 bd 6d f7 df bd
       -0.124320805 -0.122465834 -0.0962564 -0.109358646
000290 c9 38 dd bd d2 d9 59 3e bd 95 db bd a1 6b 25 3e
       -0.108018465 0.21274498 -0.1072192 0.16154338
0002a0 f0 76 f2 bd 5a 72 e4 bd 36 69 31 3e 17 e1 d5 bd
       -0.11839092 -0.11154623 0.17325291 -0.10443323
0002b0 4c 5c f4 bd 20 28 40 3e 7a 6c d9 bd 36 98 f0 bd
       -0.11931667 0.18765306 -0.106163934 -0.11747782
0002c0 03 d9 ff bd 30 26 00 be 79 2a db bd 18 34 f2 bd
       -0.124925636 -0.12514567 -0.107014604 -0.11826342
0002d0 f7 f0 38 3e c6 62 fd bd 76 e3 fa bd 61 11 eb bd
       0.18060671 -0.12372355 -0.12250416 -0.11477924
0002e0 7c 6f c9 bd 3c 7c e8 bd 47 8e d4 bd 2a ee ef bd
       -0.09835717 -0.11351821 -0.103787 -0.11715348
0002f0 3f 8e c6 bd be ec 2e 3e 5c 44 00 be 71 99 e7 bd
       -0.096951 0.17082497 -0.12526077 -0.113085635
000300 1d 9e e4 bd 6a 7c 31 3e 7b 70 e9 bd 83 0a f4 bd
       -0.1116297 0.17332616 -0.11398407 -0.119160675
000310 00 5f 4a 3e 69 e4 01 be 10 8e f4 bd 27 fb f3 bd
       0.19762802 -0.12684788 -0.11941159 -0.11913138
000320 2c fb 05 be 41 45 41 3e b7 ff e4 bd 12 b1 e2 bd
       -0.13084096 0.18874075 -0.11181586 -0.1106893
000330 a5 27 21 3e ed 03 00 be 1c 7e b6 bd ae ee 25 3e
       0.1573778 -0.12501498 -0.08910772 0.1620433
000340 4b 01 35 3e b9 71 47 3e fa 4a f0 bd 64 d6 de bd
       0.17676274 0.19476976 -0.11733051 -0.108807355
000350 b6 8d 04 be ba 8c 4e 3e c5 35 3f 3e bb df 3b 3e
       -0.12944683 0.2017087 0.18672855 0.18347065
000360 1d 92 2e 3e 33 22 fc bd 01 58 2a 3e eb 79 ea bd
       0.17047925 -0.123112105 0.16635133 -0.11449035
000370 3c 6f 01 be 3c 1e 04 be 32 b0 cc bd 39 c0 40 3e
       -0.12640089 -0.12902158 -0.09994544 0.18823327
000380 d3 91 ff bd d5 d2 00 be da 38 45 3e fc 96 10 3e
       -0.12478986 -0.12580426 0.19259968 0.14120096
000390 34 66 57 3e 18 30 f5 bd a5 91 3d 3e 05 2f 2f 3e
       0.21035081 -0.11972064 0.1851259 0.1710778
0003a0 25 a4 38 3e ab c3 31 3e 13 1a 3f 3e 19 d1 39 3e
       0.18031366 0.17359798 0.1866229 0.1814617
0003b0 c6 68 ec bd ab 52 2d 3e e9 8a 23 3e 64 1b dc bd
       -0.115434214 0.16926067 0.15970959 -0.10747412
0003c0 c8 ef e2 bd ed 6d df bd 32 ce 01 be c1 ee 24 3e
       -0.11080891 -0.109096386 -0.12676314 0.16106702
0003d0 f9 34 1d 3e 74 e4 25 3e 44 44 ed bd c9 3a eb bd
       0.15352239 0.16200429 -0.11585286 -0.11485822
0003e0 2c 84 fe bd 51 2c ea bd 91 53 39 3e 17 9e 00 be
       -0.124275535 -0.11434234 0.18098284 -0.12560306
0003f0 46 39 df bd e3 52 df bd 45 aa 07 be 6f f7 e8 bd
       -0.10899596 -0.10904481 -0.13248546 -0.11375319
