turtlebot3_ddpg/scripts/outputs/DDPG_Env/20221216-051603/models/200actor_checkpoint.pt (torch, 281431 bytes, 5 tensors)

linear1.weight f4 [256, 14]
0	0xbd23cf1d	-0.03999244
1	0xbe7ee17d	-0.24890704
2	0xbe9ba1ff	-0.3039703
3	0xbec3b395	-0.38222948
4	0xba86073d	-0.0010225546
5	0xbdb6b055	-0.089203514
6	0x3e8d62af	0.27614352
7	0x3ea5052e	0.32230514
8	0x3c8ac0ce	0.01693764
9	0x3e8b6985	0.27228943
10	0xbe5f1e18	-0.21788824
11	0x3dd09310	0.101843
12	0x3e8b0720	0.27153873
13	0xbb41f05c	-0.0029592728
14	0xbd51156c	-0.05104582
15	0x3e99982a	0.29998904
16	0x3ecb6415	0.39724794
17	0x3e8c8044	0.2744161
18	0x3e903a69	0.28169563
19	0x3e2eba0c	0.17063159
20	0x3d8b454d	0.068003275
21	0x3d4da81c	0.05020915
22	0xbdf2dd5a	-0.11858626
23	0xbe510ceb	-0.20415084
24	0xbc9570e9	-0.018242316
25	0xbddd768f	-0.10813629
26	0x3d8ae876	0.0678262
27	0x3ce569ed	0.02800461
28	0x3e7fd6be	0.24984261
29	0xbe8afc3b	-0.27145562
30	0xbe0c349f	-0.13691948
31	0xbdac6966	-0.08418541
32	0x3d42e89b	0.04758511
33	0x3de689ff	0.112567894
34	0x3d9a768c	0.07542142
35	0x3c886c61	0.016653242
36	0x3e4ad2e1	0.19807006
37	0xbd2d4c6f	-0.04230922
38	0xbe2bf0b1	-0.16791035
39	0xbda9c283	-0.08289053
40	0x3e08279c	0.1329636
41	0xbd92f956	-0.07176463
42	0x3e4cebef	0.20011877
43	0x3d192363	0.037387263
44	0xbe029fd4	-0.12756282
45	0x3eca9243	0.39564714
46	0x3e082033	0.13293533
47	0x3e4ea3d3	0.20179681
48	0x3d4cde24	0.050016537
49	0xbe80e186	-0.2517206
50	0x3d8ed15a	0.069735244
51	0xbe0de92d	-0.13858481
52	0xbca15e94	-0.019698419
53	0xbdfcdc5e	-0.12346719
54	0x3e67c684	0.22634321
55	0x3def8cb9	0.116967626
56	0xbd96b290	-0.07358277
57	0x3cad2786	0.02113701
58	0xbdc91e0e	-0.098201856
59	0x3dd6c3ab	0.104865395
60	0x3e5f5811	0.21810938
61	0x3de69b7e	0.112601265
62	0x3a65ce13	0.0008766364
63	0xbcbfee5f	-0.023429094
64	0x3ca2d6c9	0.019877808
65	0xbe85489a	-0.26031953
66	0x3da74919	0.08168239
67	0x3e858e7b	0.26085266
68	0x3e96d31f	0.29457948
69	0x3cb223ef	0.02174565
70	0xbc169817	-0.0091915345
71	0x3d273057	0.040817585
72	0x3de3ee5e	0.11129449
73	0x3eb425b0	0.35185003
74	0x3e66f5b2	0.22554663
75	0xbe3b696e	-0.18301937
76	0x3da43915	0.080187
77	0x3d70c6cd	0.05878334
78	0xbe7a0f17	-0.24419819
79	0x3e3bd2e6	0.1834217
80	0xbe246d5c	-0.16057342
81	0x3c7b0993	0.015322107
82	0x3e5fd99a	0.21860352
83	0xbe1da43a	-0.15394679
84	0xbdb7fabc	-0.08983371
85	0xbe040073	-0.12890796
86	0x3e7b21c2	0.24524596
87	0x3e4b02a5	0.19825228
88	0xbdf4f851	-0.11961425
89	0xbe73bfe5	-0.2380367
90	0xbe993015	-0.29919496
91	0xbe8713a2	-0.26382166
92	0x3e2bf654	0.16793185
93	0xbd935448	-0.0719381
94	0xbd664a48	-0.056223184
95	0x3e9ed861	0.3102446
96	0xbe184d63	-0.1487327
97	0xbe885d71	-0.2663379
98	0xbe8a2e53	-0.26988468
99	0x3d6324b6	0.055454932
100	0x3e63907c	0.22223085
101	0xbd11e124	-0.0356151
102	0xbe21fdef	-0.15819524
103	0xbe221e54	-0.15831882
104	0xbec2db31	-0.38057855
105	0xbe751c58	-0.23936594
106	0xbd8eac49	-0.069664545
107	0x3e0318c2	0.12802413
108	0xbd163aa1	-0.036677007
109	0x3e27c92a	0.16385332
110	0xbe01700b	-0.12640397
111	0x3df6c032	0.12048377
112	0x3e80b321	0.25136665
113	0x3ddaebfc	0.10689542
114	0x3e522496	0.20521769
115	0x3e289625	0.16463526
116	0x3b80f15e	0.003935023
117	0x3ec5a92d	0.38605633
118	0x3e99cb71	0.30038026
119	0x3dba75cd	0.091045
120	0x3eb355fe	0.35026544
121	0x3e1b2c4d	0.15153618
122	0x3e5280c7	0.20556937
123	0x3c2ce53b	0.0105527
124	0xbdcc4a11	-0.099750645
125	0x3e882c31	0.26596215
126	0xbd91ed6d	-0.071253635
127	0xbc9940f1	-0.018707724
128	0x3d447c4a	0.047970094
129	0xbe2ec265	-0.17066343
130	0xbe3d995f	-0.18515538
131	0x3e3cd669	0.18441166
132	0x3e9a861f	0.3018045
133	0x3eb86df8	0.360214
134	0x3e1c71d3	0.15277795
135	0xbd27d553	-0.040974926
136	0xbda2b2c1	-0.07944251
137	0x3db9bd06	0.090692565
138	0xbe762800	-0.24038696
139	0xbe2b2db2	-0.1671665
140	0xbe424630	-0.18972087
141	0xbe375f8a	-0.17907539
142	0xbe8a99f2	-0.27070576
143	0xbe3e43f4	-0.1858061
144	0x3ea5ef0d	0.32408944
145	0xbc8278e8	-0.015926793
146	0xbe430c67	-0.190477
147	0xbd8c89de	-0.068622336
148	0x3e78ed9d	0.24309392
149	0xbe2ab6c3	-0.1667128
150	0x3e7f68c7	0.24942313
151	0xbe072332	-0.1319702
152	0x3df43dd0	0.11925852
153	0xbe026ecf	-0.12737583
154	0x3d29047d	0.041264046
155	0x3c1616af	0.009160682
156	0x3e883e10	0.2660985
157	0x3e7444a8	0.23854315
158	0xbddf4857	-0.109024696
159	0xbd8a2e7e	-0.06747149
160	0x3d3e2830	0.046425045
161	0x3d102bfd	0.0351982
162	0xbe9eb11f	-0.30994508
163	0xbd1b46a7	-0.037909176
164	0xbde4cd2c	-0.11171946
165	0x3e1ffa55	0.15622838
166	0x3daee7bb	0.08540293
167	0xbc94688f	-0.018116264
168	0xbe17f822	-0.14840749
169	0xbe0eafd6	-0.13934264
170	0x3e991f39	0.29906633
171	0x3e0b05e8	0.13576472
172	0xbdaee1ae	-0.08539139
173	0xbe0807de	-0.13284251
174	0xbe054e96	-0.1301826
175	0xbe89daa3	-0.2692462
176	0xbe5b6843	-0.21426491
177	0x3e211edc	0.15734428
178	0xbe07628e	-0.1322119
179	0x3e8f0f43	0.2794133
180	0xbdaaef9a	-0.083464816
181	0xbdcd0ce6	-0.10012226
182	0x3dc8d6b3	0.098065756
183	0x3deb8202	0.114994064
184	0xbe3bddf9	-0.18346395
185	0x3e4e2695	0.20131905
186	0x3c48ae21	0.012248547
187	0x3ed78f0d	0.42101327
188	0x3e815dff	0.25267026
189	0x3e899fd9	0.26879767
190	0x3e9f5f97	0.31127617
191	0x3e2266eb	0.15859573
192	0xbb91f475	-0.0044541904
193	0xbdc7cf69	-0.09756357
194	0xbe4a79d5	-0.19773038
195	0x3e8aaa51	0.27083066
196	0x3e7c9bda	0.24668828
197	0x3ceb29b4	0.028706409
198	0xbd196434	-0.037449077
199	0x3e5c0344	0.2148562
200	0x3e832db6	0.25620812
201	0xbe1714d3	-0.14754038
202	0xbe29e70d	-0.16592045
203	0x3d04fb38	0.032466143
204	0xbd75cb23	-0.06000818
205	0x3ca33b39	0.0199257
206	0x3e6eeec1	0.23333265
207	0xbe5207e1	-0.20510818
208	0x3da6b8b8	0.08140701
209	0x3e0fad87	0.14031039
210	0x3e6d39d0	0.23166585
211	0xbe23d2a2	-0.15998319
212	0xbd478999	-0.048715208
213	0x3e617bcf	0.22019885
214	0x3e0dcbc2	0.13847259
215	0xbebdd895	-0.370793
216	0xbe63613c	-0.2220506
217	0xbe3fc9c5	-0.18729313
218	0xbdece7df	-0.115676634
219	0xbe7e3f50	-0.2482884
220	0xbe4d1811	-0.20028712
221	0x3e8569b3	0.26057205
222	0xbd6608b0	-0.05616063
223	0xbe25690b	-0.16153352
224	0x3e814bd2	0.2525316
225	0xbd80694c	-0.06270084
226	0xbe83a7d5	-0.25713983
227	0x3c300b91	0.010744945
228	0x3e64715c	0.22308868
229	0x3e88a03f	0.26684758
230	0xbce6c758	-0.028171226
231	0x3e2bcbd7	0.16776977
232	0x3e37c725	0.17947061
233	0x3e9978c9	0.29974964
234	0x3e3fd56f	0.18733762
235	0x3e3fb964	0.18723065
236	0xbe26b6b9	-0.1628064
237	0x3e98ad57	0.29819748
238	0x3cd652b6	0.026162487
239	0x3e8cab12	0.27474266
240	0x3d3f96ae	0.04677456
241	0x3eb0e370	0.3454852
242	0x3e30acca	0.17253414
243	0x3e12bf1c	0.14330715
244	0xbebd8c14	-0.37020934
245	0xbd01743f	-0.031605
246	0x3d4124bf	0.047154184
247	0xbea3fd54	-0.32029212
248	0xbdca591f	-0.0988028
249	0x3e12d486	0.14338884
250	0x3dd4bcad	0.103875495
251	0xbd466e7c	-0.04844521
252	0xbbb3fc56	-0.0054927273
253	0x3e65bdc5	0.22435673
254	0x3da8459c	0.08216402
255	0xbc75c7ea	-0.0150012765

linear1.bias f4 [256]
0	0xbe1bd9a6	-0.15219745
1	0x3e44a708	0.19204342
2	0xbd871bde	-0.06597112
3	0x3cd8acb4	0.026449539
4	0xbe284585	-0.1643277
5	0x3c4d4aeb	0.012530069
6	0xbde38ca0	-0.111108065
7	0x3ddb4f19	0.10708446
8	0xbd88c2f3	-0.066778086
9	0x3e885577	0.26627705
10	0x3dd12966	0.10212974
11	0x3dad9310	0.084753156
12	0xbdb37675	-0.08762828
13	0x3e7928d7	0.24331985
14	0xbdd7721f	-0.10519814
15	0x3dae8c3d	0.08522842
16	0x3e9786f4	0.2959515
17	0x3e0190be	0.12652871
18	0x3e8bd9e6	0.2731468
19	0xbd513c4c	-0.051082894
20	0x3dae8d8d	0.085230924
21	0x3e9d0a3a	0.30671865
22	0xbe51dcbb	-0.20494358
23	0x3da60ab5	0.08107511
24	0xbe1da3b4	-0.15394479
25	0x3e9b014b	0.30274424
26	0xbb04f8fd	-0.002029001
27	0xbe15c287	-0.14624988
28	0x3ea62134	0.32447207
29	0x3e8836fd	0.26604453
30	0xbe1bb7e7	-0.15206872
31	0x3e8e7794	0.27825606
32	0x3dce2f82	0.10067655
33	0x3e665d75	0.22496589
34	0xbd4c4d95	-0.049878675
35	0x3e9f7c06	0.3114931
36	0x3d97291a	0.073808864
37	0x3e62abcc	0.22135848
38	0x3e2c7cd8	0.16844499
39	0x3e8c37eb	0.27386412
40	0x3e2044dd	0.1565127
41	0xbd9d1f4f	-0.07671987
42	0x3e81ffd8	0.25390506
43	0x3cb84e8c	0.022498392
44	0x3d46a9cd	0.04850178
45	0xbe2be4bb	-0.16786472
46	0xbd57190e	-0.05251413
47	0x3e8bd96f	0.27314326
48	0xbd82852f	-0.06373059
49	0x3e47786d	0.19479533
50	0x3dae21db	0.08502551
51	0x3e426c44	0.18986613
52	0xbd9f3dec	-0.077754825
53	0xbe2fb64d	-0.17159386
54	0x3e4b49a3	0.19852309
55	0x3d126340	0.035739183
56	0x3d25f94e	0.04052096
57	0x3e61dd1f	0.22057007
58	0x3e70408e	0.23462126
59	0x3c4fe027	0.012687719
60	0x3e2838c3	0.16427903
61	0x3e9737aa	0.29534656
62	0xbe1e1582	-0.15437892
63	0xbde141ab	-0.10998853
64	0x3de1e518	0.11030024
65	0xbe4a2e68	-0.19744265
66	0x3e77ad98	0.24187315
67	0x3e2c0fa9	0.16802849
68	0x3d9cd2d5	0.076574005
69	0x3d3dd433	0.046344947
70	0xbc33fef1	-0.010986076
71	0x3e607605	0.21920021
72	0xbe0215fd	-0.127037
73	0xbe07c835	-0.13259967
74	0x3e498869	0.19680943
75	0xbe12e582	-0.14345363
76	0x3dd34a53	0.103169106
77	0x3d7d3587	0.061818626
78	0xbcd19fd1	-0.025588902
79	0xbc1986bb	-0.009370501
80	0x3d08080e	0.033210807
81	0x3e8dfb01	0.27730563
82	0xbd44301a	-0.047897436
83	0x3dd5c419	0.10437793
84	0xbd8a891a	-0.06764431
85	0xbd60d667	-0.05489197
86	0xbd77969c	-0.060446367
87	0xbe0bfb3b	-0.13670056
88	0xbdf9acca	-0.1219116
89	0xbe0664dc	-0.13124412
90	0x3d8b7bcc	0.06810722
91	0x3e591464	0.21199185
92	0x3e47b4df	0.1950259
93	0x3e636d50	0.22209668
94	0xbe36deff	-0.17858504
95	0x3cc6b98b	0.024258396
96	0xbd8dc8ac	-0.06923041
97	0x3e20ed9c	0.15715641
98	0x3e73f4ab	0.23823802
99	0xbd8a2994	-0.06746212
100	0xbcd796f9	-0.026317107
101	0x3dd4465c	0.103649825
102	0x3e526e16	0.20549807
103	0x3e9079fb	0.28218064
104	0xbc8ee3bb	-0.017442575
105	0xbdce4954	-0.1007258
106	0x3d866187	0.065615706
107	0xbdc0e4c9	-0.09418637
108	0xbddb6ba8	-0.10713893
109	0x3c670029	0.014099159
110	0x3c28176c	0.01025949
111	0x3e8a6a4d	0.27034226
112	0x3dbce5cd	0.092235185
113	0xbd9bd2f8	-0.076085985
114	0x3e99393f	0.29926488
115	0x3e5ef168	0.21771777
116	0xbe53171e	-0.20614287
117	0x3e3fab28	0.18717635
118	0xbcb9eba3	-0.022695368
119	0x3dac9ffc	0.08428952
120	0x3df92da0	0.121669054
121	0xbe2e8e6d	-0.17046519
122	0xbdaf8fa2	-0.08572318
123	0x3e512c3c	0.2042703
124	0x3e863002	0.26208502
125	0x3e75da34	0.24009019
126	0x3ca3e7be	0.020007964
127	0xbdbb1f6e	-0.09136854
128	0xbde46672	-0.111523524
129	0x3ca71581	0.020395996
130	0x3e5ec429	0.21754517
131	0xbe27cda7	-0.16387044
132	0x3e4ce2c8	0.20008385
133	0x3b7615e2	0.0037549664
134	0x3e5c788b	0.21530358
135	0x3e0b6d00	0.13615799
136	0x3e5016dd	0.20321222
137	0x3e2daf51	0.16961409
138	0x3e797617	0.24361454
139	0x3dbf4dcb	0.0934101
140	0x3e6c192a	0.23056474
141	0x3cd0a41b	0.025468877
142	0x3e642d13	0.2228282
143	0xbe123152	-0.14276627
144	0xbdb8e165	-0.090273656
145	0x3e31309c	0.173037
146	0x3e32dcd5	0.17467053
147	0x3d56bfd6	0.052429043
148	0x3dab8608	0.08375174
149	0x3e171043	0.14752297
150	0xbe67968a	-0.2261602
151	0xbd74ce1b	-0.05976687
152	0xbdefbd20	-0.117059946
153	0x3dbc0f4c	0.09182605
154	0xbe328921	-0.17435123
155	0xbd24d228	-0.040239483
156	0x3e935b35	0.28780523
157	0x3db63fd5	0.08898894
158	0x3e94971f	0.29021546
159	0x3d54e61d	0.051977266
160	0x3e43ee24	0.19133812
161	0xbd993679	-0.07481093
162	0x3d3ff884	0.046867862
163	0x3de66b8b	0.11250981
164	0x3c3d2ace	0.01154585
165	0xbd694ed1	-0.05695993
166	0x3e427b62	0.1899238
167	0x3e842c33	0.2581497
168	0x3e8cdb28	0.27510953
169	0xbe313307	-0.17304622
170	0x3e1fbd13	0.1559947
171	0x3d9a5ab3	0.07536831
172	0xbdf74a0b	-0.120746695
173	0xbdc92581	-0.098216064
174	0x3e4f8bb0	0.2026813
175	0xbe234d26	-0.15947399
176	0xbd60983b	-0.05483268
177	0x3e9762e5	0.29567638
178	0xbde88cb9	-0.11354966
179	0xbd7e144b	-0.06203107
180	0x3e6df6f7	0.23238741
181	0xbdc0fd92	-0.09423365
182	0x3e77fe11	0.24218012
183	0x3e5356ff	0.20638655
184	0x3e85890a	0.26081115
185	0x3d28b167	0.04118481
186	0x3d2d4149	0.04229859
187	0xbe75595e	-0.23959872
188	0xbcb00ca5	-0.021490404
189	0xbe81d88c	-0.25360525
190	0xbe4dd9ee	-0.20102665
191	0x3e9c955d	0.30582705
192	0xbd86a53e	-0.06574486
193	0xbde0b259	-0.10971517
194	0x3dfa756b	0.12229427
195	0x3d47bf2c	0.0487663
196	0x3b1c6d09	0.00238687
197	0xbc685174	-0.014179576
198	0x3e66080f	0.22464012
199	0xbe22aea0	-0.15886927
200	0xbd2d954c	-0.04237871
201	0x3d055f6c	0.032561705
202	0xbde7058b	-0.11280354
203	0xbe53ca8b	-0.20682733
204	0xbe27743b	-0.16352932
205	0xbe15b28b	-0.1461889
206	0x3e3e4095	0.18579324
207	0x3e9fdf90	0.31225252
208	0x3e9126cf	0.2834992
209	0x3e92273a	0.28545552
210	0x3e906111	0.28199056
211	0xbe11733c	-0.14204115
212	0xbe0b88b1	-0.13626362
213	0x3d01996a	0.031640448
214	0x3e29d8bc	0.16586584
215	0xbc404213	-0.011734503
216	0xbe059aa1	-0.13047267
217	0x3e838114	0.25684416
218	0x3e5debeb	0.21672027
219	0x3e85a748	0.26104188
220	0x3e497301	0.19672777
221	0x3e8d5369	0.276027
222	0xbd9e6e8d	-0.0773593
223	0x3e24457c	0.16042131
224	0x3e624cb4	0.22099572
225	0x3e0ec24b	0.13941304
226	0x3e026bee	0.12736484
227	0xbdda5cee	-0.10662256
228	0x3d4d9aaf	0.050196346
229	0xbe1a191b	-0.1504864
230	0x3e1cc694	0.15310127
231	0x3e4e1d68	0.20128405
232	0xbc55e85e	-0.013055889
233	0x3e3c6c24	0.18400627
234	0xbe3c9fdc	-0.18420357
235	0xbd644c04	-0.055736557
236	0xbe1f6acd	-0.15568085
237	0x3b666d76	0.0035160459
238	0xbe4afec9	-0.19823755
239	0xbe5e6030	-0.2171638
240	0x3e766b7f	0.24064444
241	0x3e38be2c	0.18041295
242	0x3e8c5137	0.27405712
243	0x3e664db0	0.22490573
244	0xbe0e0d52	-0.13872269
245	0xbe2ae6a2	-0.16689542
246	0x3d834988	0.06410509
247	0xbd85f135	-0.06540147
248	0x3d8a806d	0.067627765
249	0xbdb89320	-0.09012437
250	0x3e129faa	0.1431872
251	0x3e5d2bbd	0.21598716
252	0x3e7c13d5	0.2461694
253	0xbd98fa0c	-0.07469568
254	0xbe1ae7ee	-0.15127537
255	0x3e1e99b0	0.15488315

linear2.weight f4 [256, 256]
0	0xbe089316	-0.13337359
1	0x3d0bb2e1	0.03410614
2	0xbd6c8fe5	-0.057754416
3	0x3d018ed7	0.031630363
4	0x3cf2c036	0.029632669
5	0x3dbe3273	0.09286966
6	0x3cb2f80e	0.021846797
7	0x3dcf0603	0.101085685
8	0xbd19e000	-0.03756714
9	0xbd967a67	-0.07347565
10	0xbd926a84	-0.071492225
11	0x3cda490f	0.026646165
12	0x3c3caef4	0.011516321
13	0xbdda80d2	-0.10669102
14	0x3d652e95	0.055952627
15	0x3dc7a4ef	0.097482555
16	0xbd900ec5	-0.07034067
17	0x3e27bf65	0.16381605
18	0x3df30580	0.118662834
19	0x3dd82e04	0.10555652
20	0xbe0afb95	-0.13572533
21	0xbd9684b2	-0.07349528
22	0xbce9aed4	-0.028525747
23	0x3ca6a9b4	0.020344593
24	0xbdee3f9b	-0.116332255
25	0xbd6fc2f9	-0.05853555
26	0x3c4a2a0c	0.012339126
27	0xbbeab82d	-0.0071630687
28	0xbdd32268	-0.10309297
29	0x3d599987	0.05312493
30	0x3d490178	0.049073666
31	0xbb0d4db2	-0.0021561203
32	0xbd852762	-0.06501652
33	0xbc9f2430	-0.019426435
34	0x3dd7d82b	0.10539278
35	0xbdd832ee	-0.10556589
36	0x3dc08c30	0.09401739
37	0x3cd32161	0.025772752
38	0x3c693316	0.014233371
39	0x3e0c4020	0.13696337
40	0x3d7fe53c	0.062474474
41	0xbe0c4789	-0.13699163
42	0x3e120eaf	0.14263414
43	0xbca34523	-0.019930428
44	0x3c472a14	0.012156028
45	0xbd5d4bf5	-0.054027516
46	0x3a7477b7	0.00093257
47	0xbd1ada3c	-0.03780578
48	0xbc2d0125	-0.010559355
49	0xbe1e7dd3	-0.15477686
50	0x3ce2187f	0.027599571
51	0xbdc5e3a0	-0.09662557
52	0x3cc0fe49	0.023558753
53	0xbd5aa9d2	-0.05338461
54	0xba0d5450	-0.00053912867
55	0x3c8c39d0	0.01711741
56	0x3d364429	0.044498596
57	0x3d6c1c2a	0.057644047
58	0x3d1a4325	0.03766169
59	0x3cd3c446	0.025850426
60	0xbd98058b	-0.07422932
61	0x3d0f221b	0.034944635
62	0x3cb23a2a	0.02175625
63	0xbcf2032e	-0.029542532
64	0xbd5d9594	-0.054097727
65	0x3c42fa80	0.011900544
66	0xbd74526b	-0.059648912
67	0xbd2432c8	-0.04008749
68	0x3d997282	0.07492544
69	0x3da1ad34	0.07894364
70	0xbd68d42e	-0.056842975
71	0x3dc80987	0.09767442
72	0xbc4a6d9e	-0.012355236
73	0x3d037014	0.032089308
74	0x3d958a61	0.07301784
75	0x3dda1f31	0.106504805
76	0xbcce054a	-0.025149006
77	0xbd8a3d26	-0.067499444
78	0x3cf4c226	0.029877733
79	0xbdb7d4d6	-0.08976142
80	0x3db47d23	0.088129304
81	0x3db563c3	0.08856919
82	0x3d078f4f	0.033095654
83	0xbd9cca64	-0.076557904
84	0xbdb6060a	-0.088878706
85	0x3dc5ba57	0.09654682
86	0x3d524ef6	0.051344834
87	0xbdee0073	-0.116211794
88	0x3dde8b4c	0.108664125
89	0xbd6c8986	-0.05774834
90	0xbd540eef	-0.051772054
91	0xbd959240	-0.073032856
92	0xbd2e49a7	-0.04255071
93	0xbc962d57	-0.018332167
94	0x3db0efd1	0.08639491
95	0x3cd81736	0.026378255
96	0xbc7df0c5	-0.015499298
97	0xb9b43805	-0.00034374013
98	0xbd27be8e	-0.04095321
99	0x3d9b7ccd	0.07592163
100	0xbd0d4fca	-0.03449992
101	0xbd8485d8	-0.06470841
102	0xbe239b6d	-0.15977259
103	0x3d91a27c	0.071110696
104	0xbe13f4ca	-0.14448848
105	0x3d4d9360	0.050189376
106	0x3cb027d8	0.021503374
107	0x3d9d12f4	0.07669631
108	0x3d875483	0.06607916
109	0xbd8d1215	-0.068882145
110	0x3b85ed67	0.0040871385
111	0x3da31bb4	0.07964268
112	0xbde56b0b	-0.112020575
113	0xbcf0eb35	-0.02940903
114	0xbdb2c896	-0.08729665
115	0xbdf6fc73	-0.120598696
116	0xbd32146a	-0.0434765
117	0xbd0f060c	-0.034917876
118	0xbd90bf98	-0.070677936
119	0xbcae442f	-0.021272747
120	0xbdd8f934	-0.10594407
121	0xbd87ef80	-0.06637478
122	0xbd9fd8ac	-0.07804999
123	0x3d26a078	0.04068038
124	0x3d622479	0.055210564
125	0x3cc1edc2	0.023672942
126	0xbd759260	-0.059954047
127	0xbcd843a1	-0.026399435
128	0x3d9c907a	0.07644744
129	0xbcfcbc0e	-0.03085139
130	0xbb89ad86	-0.004201594
131	0xbc525ecf	-0.012839987
132	0xbddfc962	-0.109270826
133	0xbd1b85c6	-0.037969373
134	0xbce9dd4b	-0.028547904
135	0x3d27019d	0.040773023
136	0xbdde6f85	-0.108611144
137	0xbd0ba119	-0.03408918
138	0xbddd7c36	-0.10814707
139	0xbc698610	-0.014253154
140	0xbb9c200c	-0.0047645625
141	0xbd194ed8	-0.037428707
142	0x3d35a8b1	0.04435033
143	0x3dadb9e4	0.084827214
144	0x3cec2052	0.028824005
145	0x3d4b5f1f	0.04965126
146	0xbcfdc188	-0.030976072
147	0xbaccfdce	-0.0015639605
148	0xbcd8989c	-0.026439957
149	0xbcf271da	-0.029595304
150	0x3d492cb1	0.049114887
151	0xbd0c7e0c	-0.034299895
152	0xbd16eb58	-0.036845535
153	0x3d9c023c	0.07617614
154	0x3d929fe4	0.07159403
155	0x3d1a5c5e	0.037685744
156	0x3c40a214	0.011757392
157	0x3e196726	0.14980754
158	0xbd273289	-0.04081968
159	0xbca5e5ae	-0.020251121
160	0xbd4e35cb	-0.05034427
161	0x3c7ab307	0.0153014725
162	0x3d39ae40	0.045332193
163	0xbd680380	-0.056643963
164	0xbd909601	-0.07059861
165	0x3d2179bf	0.039422747
166	0x3dfc8da1	0.12331701
167	0x3cdaceba	0.026709903
168	0x3da9109a	0.082551196
169	0x3dd364af	0.10321938
170	0x3d2f2a49	0.042764936
171	0xbd0b5eff	-0.034026142
172	0xbdeabeef	-0.11462199
173	0xbd830f5d	-0.06399415
174	0xbdd47f26	-0.10375814
175	0x3c369933	0.011144924
176	0x3d24460d	0.040105868
177	0x3e00aec6	0.12566671
178	0xbd705606	-0.05867579
179	0x3d14300a	0.036178626
180	0xbda14275	-0.07874004
181	0x3d77d458	0.06050524
182	0x3de8b635	0.11362878
183	0xbceed94c	-0.02915635
184	0xbb314d03	-0.002705396
185	0x3cf8f045	0.030388007
186	0xbc38258b	-0.01123942
187	0x3bf2c14d	0.007408297
188	0xbbafc715	-0.0053643086
189	0xbc9f1078	-0.019417033
190	0xbd36db07	-0.044642475
191	0x3d5b2358	0.053500503
192	0xbd74b0ff	-0.05973911
193	0xbd9d0f8d	-0.07668982
194	0x3da7592e	0.081713066
195	0xbd8ec2b7	-0.06970733
196	0x3d3deff3	0.04637141
197	0x3e051753	0.12997179
198	0xbc915c44	-0.017744191
199	0xbdcc2bdf	-0.09969305
200	0x3d541c59	0.051784847
201	0x3c4a4d5e	0.012347547
202	0xbe013c22	-0.12620595
203	0x3cca34c4	0.024683364
204	0x3c8ae626	0.016955446
205	0xba8b53dd	-0.0010629852
206	0xbd9cf67d	-0.076642014
207	0xbdba9828	-0.09111053
208	0xbd07db55	-0.033168156
209	0xbdcee539	-0.101023145
210	0xbceed5bb	-0.029154649
211	0xbceece52	-0.029151116
212	0x3d5dce00	0.054151535
213	0x3dbef4f8	0.09324068
214	0xbd4a61bc	-0.049409613
215	0xbcef99c7	-0.029248131
216	0xbd2d3df2	-0.042295404
217	0xbd4458d8	-0.04793629
218	0xbc80f1cf	-0.015740303
219	0x3e129648	0.1431514
220	0xbe0a403f	-0.1350107
221	0x3daf70f4	0.08566466
222	0xbc908039	-0.017639266
223	0xbd5e1a02	-0.05422402
224	0x3cd68bc0	0.026189685
225	0xbd5d9db7	-0.054105487
226	0x3dc0f19c	0.09421083
227	0x3cc089a5	0.023503134
228	0x3dd5bf58	0.104368865
229	0x3df71573	0.12064638
230	0xbd10a677	-0.035315003
231	0xbe06be45	-0.1315852
232	0x3ced28b4	0.028950073
233	0x3d85ffad	0.06542907
234	0x3e5b5467	0.21418916
235	0x3dee456b	0.11634334
236	0xbb165414	-0.0022938298
237	0x3db1836e	0.08667646
238	0x3c275000	0.010211945
239	0xbb3ca539	-0.0028785004
240	0xbdb73a87	-0.0894671
241	0xbdca0c31	-0.098656066
242	0xbd5b1598	-0.05348739
243	0xbd0588c4	-0.032601133
244	0x3e04534b	0.12922399
245	0xbdbca8e6	-0.09211902
246	0xbcde15ef	-0.027110068
247	0x3d19e95b	0.03757606
248	0x3c7195d8	0.014745198
249	0xbd4cf79a	-0.05004082
250	0xbd9ded7a	-0.07711311
251	0x3e480ac6	0.1953536
252	0x3dab7b06	0.08373074
253	0xbd7a0dcd	-0.061048318
254	0xbe0d2ffe	-0.13787839
255	0xbdb760c7	-0.08954006

linear2.bias f4 [256]
0	0xbbd56d94	-0.006513307
1	0x3d3bc0c5	0.045838136
2	0xbc78bbab	-0.015181462
3	0x3d97e155	0.074160255
4	0x3d15fba4	0.036616936
5	0xbb514432	-0.0031931517
6	0xbd5d3478	-0.054005116
7	0x3b71e169	0.0036908037
8	0x3abe7cc3	0.0014533031
9	0x3d66cc92	0.056347437
10	0x3ca2149a	0.019785214
11	0xbd9bd0aa	-0.07608159
12	0x3d7e4c42	0.062084444
13	0x3b8d5bca	0.0043139206
14	0xbd09b988	-0.033624202
15	0x3d2ca731	0.042151634
16	0x3d07932c	0.03309934
17	0xbd4ef3de	-0.05052554
18	0x3d923011	0.07138074
19	0x3d6aba4c	0.057306573
20	0xbd235f32	-0.039885707
21	0x3da3859a	0.07984467
22	0x3d394acf	0.04523736
23	0xbd089532	-0.03334541
24	0xbd76b34b	-0.06022958
25	0xbc174237	-0.009232095
26	0x3c478966	0.012178754
27	0xbd1ec6be	-0.038763754
28	0xbd931fd8	-0.07183808
29	0x3ce45fc7	0.027877701
30	0x3d7f63d0	0.062351048
31	0xbd9596e1	-0.073041685
32	0xbcfcb230	-0.030846685
33	0xbc95ac13	-0.018270528
34	0x3c968916	0.018375915
35	0xbd5b1ae5	-0.053492445
36	0xbd9ad23d	-0.07559631
37	0x3c7f0165	0.015564297
38	0x3d13e25a	0.036104538
39	0xbc1d3ec3	-0.009597483
40	0x3d9b10c1	0.07571555
41	0xbd13323b	-0.035936575
42	0xbd761e3e	-0.060087435
43	0x3da59632	0.08085288
44	0xbd9eaa33	-0.07747307
45	0x3d0630ce	0.032761388
46	0xbc3237a7	-0.010877526
47	0x3c96fe51	0.018431814
48	0xba471ec5	-0.00075958326
49	0x3c1c9861	0.009557814
50	0xbd60f2f9	-0.054919217
51	0xbc05f47c	-0.008175965
52	0x3c9a67e2	0.018848363
53	0x3d077d74	0.033078626
54	0xbd9ced81	-0.07662488
55	0x3c1291b7	0.008945874
56	0xbc20be40	-0.009810984
57	0x3b82ce94	0.003991911
58	0x3d8fc401	0.07019807
59	0x3d2febd8	0.042949528
60	0xbd36f2ac	-0.044665024
61	0x3cf998fc	0.030468456
62	0x3d02cd49	0.031934056
63	0x3d123278	0.035692662
64	0xbb36d0b4	-0.0027895393
65	0xbd6ae2c5	-0.05734517
66	0xbcdb337d	-0.02675795
67	0x3c1a8c58	0.009432875
68	0xbd310c2f	-0.04322451
69	0xbd17fd60	-0.03710687
70	0x3d313c4f	0.043270405
71	0xbd56f548	-0.052480012
72	0x3d1cc75a	0.038276054
73	0x3da9051f	0.0825293
74	0xbced17e1	-0.02894205
75	0xbcf79bf3	-0.03022573
76	0xbcfb8e9b	-0.030707648
77	0x3d38c636	0.045110904
78	0x3c5d38dd	0.013502327
79	0xbcc1c494	-0.023653306
80	0x3ce39dc8	0.027785197
81	0xbd77bc1b	-0.060482126
82	0xbcb230f3	-0.021751856
83	0xbd3cb1d6	-0.046068035
84	0xbc6cdd18	-0.01445701
85	0x3d5a5974	0.053307965
86	0x3d8f2dbb	0.06991144
87	0xbd89af72	-0.06722917
88	0x3a4d595d	0.00078334456
89	0xbc4dc8fe	-0.012560127
90	0xbcccb99f	-0.024990855
91	0xbb58726a	-0.003302718
92	0x3d2313e4	0.03981389
93	0xbcf0df49	-0.029403346
94	0x3d9425b0	0.07233751
95	0x3c50465a	0.012712086
96	0xbbc90518	-0.0061346404
97	0xbd21cdcf	-0.039502915
98	0xbd97eaec	-0.07417855
99	0xbd191d53	-0.03738148
100	0xbd319ed2	-0.043364353
101	0xbc4374ab	-0.011929671
102	0xbcf43bc2	-0.029813651
103	0x3d78c8b2	0.060738273
104	0x3ce24e7d	0.027625317
105	0xbc31cd04	-0.010852102
106	0xbbec3e6e	-0.0072095906
107	0xbd9427c3	-0.072341464
108	0xbc19e252	-0.009392338
109	0xbbe3ab5b	-0.0069479174
110	0x3d12844e	0.035770707
111	0xb8bb03aa	-8.917537e-05
112	0x3d4ad222	0.049516805
113	0xbd02b9f0	-0.031915605
114	0xbc5c6d6b	-0.013453822
115	0xbc8dd2a9	-0.017312365
116	0x3c946fd1	0.018119724
117	0xbd19de91	-0.03756577
118	0xbce98969	-0.028507905
119	0x3d3c6fe0	0.04600513
120	0xbd2facc3	-0.042889368
121	0xbc8daebb	-0.017295232
122	0xbd02e985	-0.031960983
123	0xbd3632ac	-0.04448192
124	0x3d6dde6d	0.05807345
125	0x3d4374c9	0.047718797
126	0xbd7530d7	-0.05986103
127	0xbd46f4f0	-0.048573434
128	0x3d867bad	0.06566558
129	0x3b75df60	0.0037517175
130	0xbc31be20	-0.010848552
131	0xbd47548e	-0.048664622
132	0x3d1366c7	0.035986688
133	0x3d85b579	0.06528754
134	0x3cdc2e5a	0.02687757
135	0xbbaac05c	-0.0052109193
136	0xbd4668d1	-0.048439804
137	0x3d2a04f2	0.041508622
138	0x3c3c7c6c	0.011504274
139	0x3d20bdc6	0.039243482
140	0x3d8482e2	0.064702764
141	0xbd6204e5	-0.05518045
142	0x3d8b6d99	0.068080135
143	0x3d66458c	0.05621867
144	0x3d429049	0.047500882
145	0xbcb0ea68	-0.021596149
146	0xbc9cdf38	-0.019149408
147	0x3d1b79ae	0.03795784
148	0x3d24136e	0.040057592
149	0xbccd0319	-0.025025891
150	0xbb8ad22b	-0.0042364798
151	0x3b418411	0.002952818
152	0xbd0f1bec	-0.034938738
153	0xbdacbb10	-0.08434117
154	0x3bc72c94	0.006078312
155	0x3ad9c334	0.0016613961
156	0x3d00585b	0.031334262
157	0x3da82978	0.082110345
158	0x3b23cf77	0.0024995485
159	0x3d1a5d30	0.037686527
160	0xbc9b442e	-0.018953409
161	0xbb8a762b	-0.0042255125
162	0xbbfe0c85	-0.0077529573
163	0x3d899d04	0.067194015
164	0x3d21f8ce	0.03954392
165	0xbc8661bd	-0.016404027
166	0xbce7f717	-0.028316064
167	0xbd8a01b3	-0.06738605
168	0xbd0c4e1a	-0.03425417
169	0xbd72271b	-0.059119325
170	0xbb884c72	-0.0041595036
171	0x3d6124fe	0.05496692
172	0xbce8fe93	-0.028441703
173	0x3d45008d	0.04809623
174	0x3d39f215	0.045396883
175	0x3d83d2b2	0.06436671
176	0xbb8a2229	-0.004215498
177	0x3d2c12e5	0.042010207
178	0x3c4d2d4b	0.012523006
179	0xbc80cdd6	-0.01572315
180	0x3b7f03bd	0.003891214
181	0xbc63cd6f	-0.01390396
182	0x3be5153c	0.0069910567
183	0x3ccc2ba7	0.024923159
184	0x3d725bc8	0.05916956
185	0x3bd1a5e2	0.0063979486
186	0x3c6977f1	0.014249788
187	0xba59413c	-0.0008287614
188	0xbda20e34	-0.07912865
189	0x3d35e79d	0.044410337
190	0xbcbf352d	-0.023340786
191	0xbd016ef0	-0.03159994
192	0x3c9f4485	0.019441852
193	0xba8af9f7	-0.001060306
194	0x3c9eb286	0.019372236
195	0xbcb96aa1	-0.022633852
196	0xbb3b885e	-0.0028615217
197	0xbc678bfc	-0.014132496
198	0x3b50ffcd	0.003189075
199	0xbcccbbbf	-0.024991868
200	0xbd3c3aa3	-0.045954358
201	0x3d581130	0.052750766
202	0xbd6bcc85	-0.057568092
203	0x3ceead08	0.029135242
204	0xbd915e05	-0.07098011
205	0xbc962c6c	-0.018331729
206	0xbbd07a76	-0.0063622547
207	0x3d03e9c8	0.032205373
208	0x3d77f791	0.060538832
209	0xbc5d6d15	-0.013514777
210	0x3c97c375	0.018525818
211	0x3d38a44d	0.045078564
212	0xbd49372f	-0.049124893
213	0xbd8feb4f	-0.070273034
214	0xbbfa3178	-0.0076352917
215	0x3cfa5976	0.030560236
216	0xbd510bbb	-0.051036578
217	0x3d2dd5de	0.042440288
218	0xbd86c833	-0.06581154
219	0x3cc5cb3d	0.024144763
220	0x3d19cbc9	0.03754786
221	0xbd23d77d	-0.040000428
222	0xbd86f183	-0.065890335
223	0xbcc8016b	-0.024414739
224	0x3d3a0afb	0.045420628
225	0xbc8d4e1e	-0.017249163
226	0xbc9f63bd	-0.019456739
227	0xbd0f9eca	-0.035063542
228	0x3d9c0530	0.07618177
229	0x3d2ec15f	0.04266488
230	0xbcdff145	-0.027336726
231	0xbd62fd0d	-0.05541711
232	0x3cc35120	0.023842394
233	0x3d1b8a17	0.03797349
234	0x3c8d9133	0.01728115
235	0xbca20bef	-0.019781081
236	0x3cbc1764	0.022960372
237	0xbd96f93a	-0.07371755
238	0xbcf093c7	-0.02936734
239	0xbceb9a37	-0.028760059
240	0xbd1427a3	-0.036170613
241	0xbcd5aef3	-0.026084399
242	0x3d802e8a	0.062588766
243	0xbda93805	-0.08262638
244	0xbd808cd9	-0.062768646
245	0xbcad918c	-0.021187566
246	0x3d0e3ec0	0.03472781
247	0x3bcc671f	0.006237879
248	0x3cded9d5	0.02720348
249	0xbd957550	-0.07297766
250	0xbcbd59f3	-0.02311418
251	0x3c451a61	0.012030215
252	0x3d0ec1e3	0.034852874
253	0x3d7f5e7f	0.062345978
254	0x3c90cba0	0.017675221
255	0x3d8bb647	0.06821876

linear3.weight f4 [1, 256]
0	0xbdae7a45	-0.08519415
1	0xbd9f9f8e	-0.077941045
2	0x3dca9cd0	0.09893191
3	0x3dcefa2f	0.101063125
4	0x3de440a9	0.111451454
5	0xbdb628e6	-0.088945195
6	0xbd949fe4	-0.07257059
7	0xbdabcd68	-0.083887875
8	0xbd9c6052	-0.07635559
9	0x3dedb5f7	0.11606973
10	0xbdaaaaae	-0.08333336
11	0xbda6d5ee	-0.081462726
12	0x3dcd3a90	0.100209355
13	0xbda0d85e	-0.07853769
14	0x3de7502d	0.11294589
15	0x3dcd8356	0.10034816
16	0xbda8bc32	-0.082390204
17	0xbda277ce	-0.07933007
18	0x3dcf2041	0.10113574
19	0x3ddeb851	0.10874999
20	0xbda45449	-0.080238886
21	0x3dedc755	0.11610285
22	0x3dda0155	0.10644785
23	0xbdb39374	-0.08768359
24	0xbd9ec1c7	-0.07751804
25	0xbdaaee1b	-0.08346196
26	0xbd91f2ab	-0.07126363
27	0xbd988463	-0.07447126
28	0xbda3f865	-0.08006362
29	0xbda7bd27	-0.08190375
30	0x3dd90482	0.10596563
31	0xbd93a6d8	-0.07209557
32	0xbd96be1a	-0.07360478
33	0x3ddee1c2	0.10882904
34	0x3dda5395	0.10660473
35	0xbdabab07	-0.0838223
36	0xbda50491	-0.080575116
37	0xbdaa4c6b	-0.08315357
38	0x3ddfde3b	0.10931059
39	0x3db73312	0.08945288
40	0x3de10bf3	0.10988607
41	0xbda483d6	-0.08032958
42	0xbd8d0504	-0.06885722
43	0x3df1e901	0.1181202
44	0xbdbd7613	-0.092510365
45	0xbda35533	-0.07975235
46	0xbdad9e4f	-0.084774606
47	0xbda166bb	-0.078809224
48	0x3ddd0a81	0.10793019
49	0xbdad227f	-0.08453845
50	0xbda77fa4	-0.081786424
51	0xbd86bbc2	-0.06578781
52	0x3deb58ec	0.1149157
53	0x3dbc3739	0.091902204
54	0xbd91baed	-0.071157314
55	0x3de9f0af	0.1142286
56	0x3dd79999	0.10527343
57	0xbd99099c	-0.07472536
58	0x3dee22c0	0.11627722
59	0xbdab911e	-0.08377288
60	0xbd8b7562	-0.06809498
61	0xbdb278b2	-0.08714427
62	0xbdabf7a1	-0.08396841
63	0x3deb64cc	0.11493835
64	0x3ddbb114	0.10727134
65	0xbd9f859f	-0.07789158
66	0xbda9d02b	-0.08291658
67	0x3dc39cbf	0.09551381
68	0xbd90b551	-0.07065833
69	0x3de68458	0.11255711
70	0x3dd91c49	0.10601098
71	0xbda3876f	-0.07984816
72	0x3ddd6a23	0.108112596
73	0x3ddae583	0.10688307
74	0xbda265bf	-0.07929563
75	0xbd995354	-0.07486597
76	0xbdb2fe57	-0.08739918
77	0x3ddca36f	0.1077336
78	0x3dc0361b	0.0938532
79	0x3dda65a0	0.10663915
80	0xbd97dbb6	-0.074149534
81	0xbdabd6a5	-0.083905496
82	0xbdbbdc41	-0.091728695
83	0xbdb81e0a	-0.089901045
84	0xbdad0686	-0.0844851
85	0x3df72566	0.1206768
86	0x3ddd00a1	0.107911356
87	0xbd9fd4eb	-0.07804283
88	0x3de14c1b	0.11000844
89	0xbdb17cfc	-0.08666417
90	0xbd9a53db	-0.075355254
91	0x3dd9b64e	0.10630475
92	0xbd9e8699	-0.07740516
93	0x3dd32724	0.103102
94	0x3ddf3203	0.10898211
95	0xbd95e4c5	-0.07319025
96	0x3dea4743	0.11439373
97	0xbd9b8daf	-0.075953834
98	0xbd9df55a	-0.07712813
99	0xbd991aaa	-0.07475789
100	0xbdbf8cb7	-0.09353011
101	0xbd874638	-0.0660519
102	0xbd9b22bd	-0.07574985
103	0x3dd73900	0.10508919
104	0x3ded6457	0.11591404
105	0xbdb7bdd2	-0.08971752
106	0xbda565d3	-0.08076062
107	0xbd9df059	-0.07711858
108	0x3dbaed57	0.091273
109	0xbd915dc3	-0.07097962
110	0xbda9a34f	-0.08283102
111	0xbd978dbd	-0.07400081
112	0x3dc6dfb1	0.097106345
113	0xbd92fa9f	-0.071767084
114	0xbda89ad0	-0.08232653
115	0x3ddac561	0.10682178
116	0xbda2dc3c	-0.079521626
117	0xbdbbbe80	-0.09167194
118	0x3dc8f615	0.098125614
119	0x3dd2b0d2	0.10287632
120	0xbda4d427	-0.08048277
121	0xbdb5872e	-0.08863674
122	0xbda889e5	-0.08229426
123	0x3dd35f44	0.10320905
124	0x3de2e527	0.110788636
125	0x3dd5967f	0.104290955
126	0xbd9de75d	-0.07710145
127	0xbd9494e4	-0.07254961
128	0x3dcc7a09	0.09984214
129	0xbdc68e7f	-0.09695148
130	0x3dddf0b9	0.1083693
131	0xbda0ef97	-0.07858198
132	0xbd9300c8	-0.071778834
133	0x3deff86b	0.11717304
134	0x3df2abf3	0.11849203
135	0xbdb0df70	-0.08636367
136	0xbdaef800	-0.08543396
137	0x3dcdfe55	0.100582756
138	0x3dddb3b7	0.108252935
139	0xbda1529d	-0.07877085
140	0x3dded056	0.10879581
141	0xbdb285e4	-0.08716944
142	0x3df00157	0.117190056
143	0x3ddc74b4	0.10764447
144	0x3dd47b2c	0.10375056
145	0x3dd5ed1e	0.10445617
146	0xbdb2e129	-0.08734352
147	0xbdb88ab2	-0.09010829
148	0x3dcb2c63	0.099205755
149	0x3dc6184c	0.09672603
150	0x3dd0eaaf	0.10201012
151	0xbd923b83	-0.07140257
152	0xbdac0f4b	-0.084013544
153	0xbd9a62a7	-0.07538348
154	0xbd9dee9e	-0.07711528
155	0xbd8b9442	-0.06815387
156	0xbd96d829	-0.07365448
157	0x3def8dbb	0.11696955
158	0xbdb1a905	-0.08674816
159	0xbda0e7e6	-0.07856731
160	0x3dd1a016	0.10235612
161	0x3dd7afc0	0.105315685
162	0xbd92881c	-0.07154867
163	0x3dec9e19	0.11553592
164	0x3dd0eeb8	0.10201782
165	0xbdaade33	-0.083431624
166	0x3de74ac2	0.11293556
167	0xbda91514	-0.082559735
168	0xbd9e8071	-0.07739342
169	0xbdaac6e9	-0.0833872
170	0xbda8e04f	-0.082459085
171	0x3dcf9752	0.10136284
172	0x3dd8919f	0.1057465
173	0x3de21dec	0.110408634
174	0x3dd7c8b4	0.10536328
175	0x3de69b2b	0.11260065
176	0xbd9d8465	-0.07691268
177	0x3dde64ff	0.10859107
178	0x3debc5a9	0.1151231
179	0xbdabce64	-0.08388975
180	0x3de60536	0.11231463
181	0x3dd32d37	0.103113584
182	0xbd952eb4	-0.072842985
183	0xbd954302	-0.07288171
184	0x3dc528c3	0.09626915
185	0x3deef635	0.11668054
186	0xbda8b44e	-0.082375154
187	0xbdaaa00a	-0.08331306
188	0xbd940380	-0.0722723
189	0x3ddd0847	0.107925944
190	0xbdb4ec76	-0.08834164
191	0x3dd6aeb4	0.10482541
192	0xbd932c6c	-0.07186207
193	0xbda6405b	-0.081177436
194	0xbd8d5849	-0.06901605
195	0xbdb50946	-0.088396594
196	0xbdad08e1	-0.08448959
197	0x3dd1d08a	0.10244854
198	0xbdb1fb6a	-0.086905316
199	0xbd95da24	-0.07316998
200	0xbdac3c05	-0.08409885
201	0x3de0e0cd	0.10980377
202	0xbda22afc	-0.07918355
203	0xbdaa210a	-0.08307083
204	0xbd9d9ae4	-0.07695559
205	0xbd88fe67	-0.066891484
206	0xbd97f042	-0.074188724
207	0xbdb75e70	-0.089535594
208	0x3dd9a3f9	0.106269784
209	0xbdaa8f21	-0.08328081
210	0xbd9d244f	-0.07672941
211	0x3ddd2a60	0.10799098
212	0xbda30d70	-0.079615474
213	0xbda64c88	-0.08120066
214	0x3dded90d	0.10881243
215	0xbdac7162	-0.084200636
216	0x3dc6da66	0.09709625
217	0x3ddb31d3	0.107028626
218	0xbd9ddd40	-0.07708216
219	0xbd8c9676	-0.06864636
220	0x3ddf7409	0.10910804
221	0xbdad1953	-0.08452096
222	0xbd9c39ba	-0.07628198
223	0xbda3981d	-0.07987998
224	0x3de1b809	0.1102143
225	0x3dd8b946	0.10582213
226	0x3dd2a088	0.10284525
227	0x3dda1066	0.10647659
228	0x3de94adb	0.11391231
229	0x3ddcb088	0.10775858
230	0xbda83787	-0.08213716
231	0xbda206f4	-0.079114825
232	0xbd9c9d41	-0.07647181
233	0xbda348cf	-0.079728715
234	0xbd9b6ec6	-0.07589488
235	0x3dc078bd	0.09398029
236	0x3dda4e59	0.10659475
237	0xbd987acf	-0.07445299
238	0x3de4c5eb	0.11170562
239	0x3de3d22c	0.111240715
240	0xbda11257	-0.07864826
241	0xbda1da53	-0.0790297
242	0x3df29c24	0.11846188
243	0xbdb9f939	-0.090807386
244	0xbd89aae6	-0.067220494
245	0x3dcf586b	0.10124286
246	0x3dd7430f	0.10510837
247	0x3deeb81a	0.11656208
248	0xbda7cc16	-0.08193223
249	0xbd8a1b6d	-0.06743512
250	0xbdb62939	-0.08894581
251	0x3df18055	0.117920555
252	0xbdaceeed	-0.08444009
253	0x3dc6cff0	0.0970763
254	0xbdb57b8a	-0.08861454
255	0x3dc420a2	0.09576537
