testing/scripts/outputs/DDPG_Env/20221214-223904/models/1110critic_checkpoint.pt (torch, 282455 bytes, 5 tensors)

linear1.weight f4 [256, 15]
00000000: a40d 85bd c474 01bf a598 7fbe bc6f c63e
00000010: 5092 ab3e c83a 97bd 1688 303e 5330 2e3e
00000020: 0c1e 573e 02f2 d33e 06c7 10be 8315 b7be
00000030: a5f0 bd3e 3957 e83d 83ad 223e 1b60 7a3e
00000040: f7ce 873e 2882 a43e d961 5f3f 9229 113f
00000050: ac0f a23e cffe 243f 30f2 633f 15b1 1b3f
00000060: 96ed c03e 267c d73e 41e3 adbd 8807 73be
00000070: ef6d b8bc 55f5 b03c 9043 bd3e 7fd5 213c
00000080: aa07 45be 4fb6 203d 0663 813d e035 a43e
00000090: e920 323d 477f c63d 7c69 41be 390a a13d
000000a0: 22ca 1c3c 6bbe 1cc0 f711 a03c 1afb 7e3b
000000b0: 5693 0bbc 79ae 083f 5a7f 093f 3e9c 993d
000000c0: 3dca 7cbe 0036 893d 7e09 0dbe 62f7 c53e
000000d0: ef79 6bbc 2efe d5be 59db 2abf fb9c 8abd
000000e0: e465 7c3e 0dfa 593d 502f 35be 28d6 54be
000000f0: 1c11 9b3c f1da 7a3e 953d bc3e efd2 5b3e
00000100: 7340 38bd b1dd b4bc 4ba2 b93e 4821 313f
00000110: e18a 5c3f 0356 f93e da5d c33b 7c75 72be
00000120: f499 df3e 85ee e8bd ac92 8b3d a554 c83e
00000130: 95fd adbe a8eb dcbe 5d8d 0cbf 104c 25bf
00000140: 0c4e f8be c326 a5bc 9103 913e e164 253d
00000150: 8286 b63e 6588 e23e 948e e2be 63e1 dbbe
00000160: abba 11bd 7dcb 80bd 8134 9abd b28b a1be
00000170: 7884 80bf 50c7 86bf a6de abbf 367b d1bf
00000180: 9016 a4bf bedf a9bf f8ee 39bf 39dd 093f
00000190: de1d fbbd 4744 8abe 747a 25bd 8247 03be
000001a0: c060 963c 17d5 0e3f 9e9a 213f 6db1 0b3f
000001b0: ec3b 433e 2196 353e 984d 5d3e dddb b2bc
000001c0: 1808 ed3d 19ad c83e ace1 913e c838 9bbe
000001d0: 4968 653e d1a9 73be 142f 113e 1419 be3d
000001e0: dbb8 e0be ef55 c43d 83fb 033e d01e 9bbd
000001f0: c1b6 be3d 795f 9dbe 2319 04be 3ba1 b9bd
00000200: 06a7 403e 666b b13e 21ed b8be 9380 873e
00000210: b180 e6be 245e 66bc 3b13 73bd bc0e e83d
00000220: 5354 03bd b002 d9be d4df 81bd ed1d d9bc
00000230: f01a 3bbd c598 b93e dfd0 163e cd93 093f
00000240: 83ca 903e 8dfb 10be c629 dc3e afe5 fb3e
00000250: a144 c53c 7cc9 0fbd 8d76 0f3f 351b 003e
00000260: 99f6 dcbe b964 ec3e 871a e93e 5236 0e3f
00000270: 7efa e03e e15c 34bc b21a 1b3e cdf1 30be
00000280: 25bd 94be a1b5 fd3d 9bac 843e dd92 60bd
00000290: 8918 19bd 12de 06bf a55c 263f 5a29 b9be
000002a0: c8a0 b6bf 649b 67bf aff2 b8be 29a8 27bf
000002b0: 7021 153f b32c d03d dbea 43bf e084 93bd
000002c0: 60de a63d 0a58 86bc b5fe 013e 62c4 9e3d
000002d0: 42dc 1cbd 212a a4be 1469 e73d 0371 603e
000002e0: c575 3c3e 8c44 25bd 7ec9 933e 00a9 473e
000002f0: 1955 333e a9b1 a53e 77d9 abbe 21f9 663e
00000300: fa3d cd3e e293 223d 207b ad3d d4d0 b63c
00000310: dd88 84bf f30d 0fbf 4b70 af3c 4fca 183d
00000320: fa83 853e 6d56 cb3e 1113 e93e a712 c03e
00000330: 17ce a03e 4822 cc3c 90e8 9c3e 9329 bcbb
00000340: 6ce7 f63d e4d5 513e 2301 1d3e e16c 833d
00000350: 2147 f3bc 2fdd e13e 15e2 013f 7103 2c3e
00000360: eb7f e63d 8bde a6bb 7ed6 e0bc 6cf3 af3c
00000370: b512 66bc 21be d63c 5c2b 1f3e f5f7 8ebd
00000380: 5fe8 92bd 00dc 97be 144b 8c3c cd30 f93d
00000390: dd35 c0bb a204 763d 64db 89be dce8 21be
000003a0: 803e 333d 7661 e0bd ae6d 0a3e 792e cebd
000003b0: b46d 3e3e 18fa 37be 9980 b83c 9941 5d3e
000003c0: 5ce4 b8be bcd8 ba3e 794c 0f3e 7a10 793e
000003d0: 7964 cf3e 180f 9e3d b0fa ad3c ab3a e73d
000003e0: 9fc2 5a3e 6799 a2bc 913a 423e 3528 4b3f
000003f0: f833 2bbe 2a73 bebd 4cae 573d d964 503f
-0.06496742 -0.50568795 -0.24960573 0.38757122 0.33510065 -0.073842585 0.17239413 0.17010622
0.21007556 0.41395575 -0.14138421 -0.357586 0.3709766 0.113447614 0.15886502 0.24450724
0.2652509 0.3213055 0.8725868 0.56704056 0.31652582 0.6445131 0.89041424 0.6081708
0.37681264 0.42086905 -0.08490611 -0.23733342 -0.022513358 0.021601358 0.3696561 0.009877562
-0.19241205 0.039236363 0.06317715 0.32072353 0.043488417 0.09692245 -0.18887895 0.07863278
0.009569677 -2.4491222 0.019539816 0.0038906992 -0.008519014 0.53391224 0.5370995 0.07500504
-0.24686523 0.06699753 -0.13773152 0.386653 -0.014372333 -0.41795486 -0.6674095 -0.06768223
0.24648243 0.053216983 -0.1769383 -0.20784819 0.018929057 0.24497582 0.36765733 0.21467184
-0.04498334 -0.022078367 0.36256632 0.6919141 0.8614941 0.48698434 0.0059621157 -0.23677629
0.43672144 -0.11373619 0.06815085 0.3912708 -0.3398253 -0.4314854 -0.54903203 -0.6456919
-0.48497045 -0.020160085 0.28323033 0.04037941 0.35649496 0.44244686 -0.44249403 -0.42945394
-0.03557841 -0.06288812 -0.075295456 -0.31551892 -1.0040426 -1.0529575 -1.3427322 -1.6365726
-1.2819386 -1.3271406 -0.7263026 0.53853184 -0.12261556 -0.27005216 -0.040399984 -0.12820247
0.01835668 0.557939 0.6312655 0.54567605 0.19065827 0.17733051 0.21611631 -0.021833355
0.115738094 0.39194563 0.28492486 -0.30316758 0.22403063 -0.23795249 0.14178115 0.09282127
-0.43891034 0.09586703 0.12888913 -0.075742364 0.09312201 -0.30736902 -0.12900214 -0.090639554
0.18813714 0.3465225 -0.36118415 0.26465282 -0.4502006 -0.014060531 -0.05934451 0.11330935
-0.03206284 -0.42384863 -0.0634152 -0.026503528 -0.045679986 0.36249366 0.14728115 0.5374115
0.28279504 -0.14158459 0.4300062 0.49198672 0.024080576 -0.03510426 0.5604027 0.12510379
-0.4315689 0.46170595 0.4552805 0.55551636 0.4394111 -0.011008472 0.15146902 -0.1727974
-0.29050556 0.123881586 0.25912938 -0.05482756 -0.037376914 -0.526826 0.64985114 -0.3616436
-1.4267817 -0.9047148 -0.36122653 -0.6549097 0.58254147 0.10164776 -0.76530236 -0.07203078
0.081478834 -0.016399402 0.1269482 0.07752301 -0.03829599 -0.32063392 0.11299339 0.2191811
0.184043 -0.040348575 0.28864664 0.19498062 0.17512931 0.32362106 -0.3356435 0.22555973
0.40086347 0.039691813 0.0847075 0.022316374 -1.0354267 -0.5588066 0.02141585 0.03730231
0.26077253 0.39714375 0.4552236 0.3751423 0.31407234 0.02491869 0.3064618 -0.0057422607
0.12055859 0.20491749 0.15332465 0.064172514 -0.029697003 0.44114062 0.507356 0.16798188
0.11254867 -0.005092447 -0.027446028 0.021478377 -0.014042546 0.026213707 0.15543884 -0.06980888
-0.071732275 -0.29660034 0.017125644 0.12167511 -0.005865796 0.060063012 -0.26925194 -0.15811485
0.043760777 -0.10956089 0.13518402 -0.10067458 0.18596536 -0.17966497 0.022522258 0.21607055
-0.36111724 0.3649348 0.13994016 0.24322692 0.40506342 0.07717723 0.021237701 0.11290487
0.21363305 -0.019848539 0.18967654 0.79358226 -0.16719043 -0.092993096 0.052656457 0.8140388

linear1.bias f4 [256]
00000000: 227a b23e 87d4 043f 50de 1e3f 6461 963e
00000010: f3bb 7e3e b86d c43e d28b 813e df60 543e
00000020: 9c5a e43d 3d63 aa3e d569 c7be c14c 5d3b
00000030: da75 cbbe 34d8 3a3e ef5f dfbd 4422 a43e
00000040: 7dcf eebc 218f 4f3e 9da4 c8bd fdab 9a3e
00000050: 0991 0abd c9ce 2f3f 1cc0 8e3e 18c3 a73d
00000060: f17d 44be 086f 253f d376 f3bb 618d 3dbd
00000070: 3e8d 1a3f bd5e 30bf 1ba1 4b3e 1f8f 0d3f
00000080: a8df 1a3f 0ed8 013e c24f 46be f48c 24be
00000090: 0a9b 813f e540 273f 716b 343f 9967 253f
000000a0: 8759 153f 2af5 3f3f d49f 383f 83e6 d23e
000000b0: 1746 0b3e fadd a63f f555 253f 0d7d 253f
000000c0: 3d6c 843e 123b b2be edb7 b5be 3a44 a6bd
000000d0: b643 bf3e 50e5 533f 1ff6 d63e daea a73d
000000e0: 5b86 a0bc af8e b43f 736c bf3e b9d9 e03d
000000f0: 7a7e 253f fa6e 68bc 1b80 023e 2883 113f
00000100: 42b9 4bbe cd05 e7be cf66 473f e6e0 d0bd
00000110: d8e5 6cbd a214 9a3c 38e5 31be 625b 063f
00000120: 962c 153f 2172 133f 7a1c 343e cd6d 293e
00000130: e34b 1c3f 80b3 0f3e 63cb 333e 3c0a 003f
00000140: cd16 043f fae7 bdbe 19d0 203f 4908 a83d
00000150: b2c0 bcbd 7278 ba3e 1baf f9bd dd7a f3bd
00000160: f32f 593f e4a6 883e 7e25 0d3e 1b44 7bbd
00000170: 0b5e 1f3f 384b ed3e 8fb7 8bbe ef64 0f3f
00000180: 1846 253e 26e9 293f 0d96 153f 7000 a53e
00000190: 672a c73d 239b 613e 6e0a 953e 49ba 3a3e
000001a0: 5513 74bc a827 053f 1ff5 38be daf8 343d
000001b0: c48c 563f b6e2 6c3e d5ae 0a3e 8fa8 023f
000001c0: 642a 4e3c b5e6 513f d3be 393f d688 2d3e
000001d0: c8a3 1f3f d619 6c3f 3fc4 5d3f 0659 4e3e
000001e0: 44bf af3e ef29 253f 63b2 0b3f 83b3 f63d
000001f0: e48d 2a3f 97ee 3d3f 875b 3a3f 3786 bcbc
00000200: f7e5 bd3e 5f84 9f3e b2a2 89be 7516 e6be
00000210: 7dfd 643f 3b8a 503f 3a58 f8bd d881 b63e
00000220: 2eb6 f23e ce7e 003f 6847 f33e 1fc5 4f3f
00000230: a57f 003e f7f7 463f 9819 efbc d15c 6dbb
00000240: 5d12 823f 0cdb 763e a2fe 173d 29a5 0a3f
00000250: 795f cd3e fc83 86bd caa4 af3e f633 03be
00000260: 759e 363e 8368 173f 4156 b1be e888 47be
00000270: eed3 873e a294 503f 7236 d83e 5580 363f
00000280: 6b41 b93e 5fe0 ffbe 6792 b5bc 3fa6 e93e
00000290: 6ce8 ec3e 24ea 89be 2892 55be d72d 353f
000002a0: 7a10 c43e 2d9b 813e ee48 413f edd7 fd3d
000002b0: 0c74 643e 9107 5b3f 4951 1e3d fbbf 8cbe
000002c0: e6c3 70bd 73c0 203e 7656 7f3e 0116 503f
000002d0: e214 c1be 8df5 b6bd eef1 573e a5cc f83e
000002e0: 937a bb3e 48f8 0a3f fb0a 953e 74e5 213e
000002f0: 576a 013f d8ea 6e3e f5a2 2d3f 3c23 073f
00000300: f085 62be 9271 9cbe fbd7 1e3e abbb 243f
00000310: d0da 273d ca4f 163e 1ceb 4d3d 6266 5b3d
00000320: e6ca 433f 9081 a93d 4851 e03e 6944 ff3e
00000330: ad20 2a3c 7589 143f 13ae 293e 6475 76be
00000340: 2f7a eabe 22b1 4d3f 6148 7f3f 058f afbe
00000350: 2e22 1e3f e704 263c 9842 18ba deb9 e3be
00000360: 028a 303f 0e53 f83e 01a8 4c3f d3d9 2abc
00000370: 8e4e 703f 2905 9ebd 9d1c d73e 886a 10bc
00000380: c0a0 233f 0de3 de3e 496d 603e 9312 87be
00000390: 7214 52be 03ca 983f 040a d7bc 8147 3a3f
000003a0: 1f80 463e 2188 ec3b b425 8a3d 0957 b43e
000003b0: c5d3 50be d45c 773e 99c3 113f baac 3e3f
000003c0: 0a7c 243f e2c9 093d 423e ff3e 1f11 0abe
000003d0: ace3 323e fa34 0b3f b39f 023f 0980 4e3e
000003e0: f050 f33e 7b29 223e 4fbe 793e 21ac 9a3e
000003f0: fa9f 2bbf 21ff 0dbd 22d9 ad3e 8acb 283e
0.34858805 0.5188679 0.6205797 0.29371178 0.24876384 0.3836496 0.25301987 0.20740078
0.11150095 0.33278838 -0.3894793 0.0033767673 -0.3973835 0.18246537 -0.1090697 0.32057393
-0.029151672 0.20269443 -0.097970225 0.30209342 -0.033829723 0.68674904 0.27880943 0.08191508
-0.19188668 0.64622545 -0.0074299364 -0.046277408 0.6037177 -0.6889456 0.19885676 0.5529651
0.6049752 0.12680075 -0.19366363 -0.16069394 1.0125439 0.65333396 0.7047644 0.646112
0.5833973 0.74983466 0.7211888 0.4119149 0.13600956 1.3036492 0.64584285 0.6464394
0.2586383 -0.34810692 -0.35491887 -0.08118482 0.37356347 0.8277178 0.4198465 0.08199091
-0.019595316 1.4106044 0.37387428 0.10979027 0.6464611 -0.014186615 0.12744181 0.56840754
-0.19894889 -0.45121613 0.7789125 -0.10199146 -0.057836384 0.018808667 -0.17372596 0.5248319
0.5827116 0.5759602 0.17588988 0.16545792 0.61053294 0.14033318 0.17558055 0.50015616
0.5159729 -0.37091047 0.6281753 0.08204705 -0.09216441 0.36420017 -0.12191602 -0.11888669
0.8483879 0.26689827 0.13783833 -0.061344247 0.62252873 0.4634645 -0.27288482 0.5601339
0.1614002 0.6637138 0.58432084 0.32226896 0.097248845 0.22031836 0.2910952 0.18235125
-0.014897187 0.52013636 -0.18062256 0.044182636 0.8380854 0.23133358 0.13543256 0.5103845
0.012583349 0.81992656 0.725568 0.1694673 0.62359285 0.9222692 0.8662757 0.20151147
0.34325612 0.6451711 0.5456907 0.12045958 0.6662276 0.74192184 0.7279591 -0.023013217
0.37089512 0.3115568 -0.2688194 -0.44939008 0.8944929 0.8146092 -0.12126203 0.35645938
0.47404617 0.5019349 0.47515416 0.8116016 0.12548693 0.77722114 -0.029187009 -0.0036218653
1.0161854 0.24106997 0.03710807 0.54158264 0.40111902 -0.06568143 0.34305412 -0.1281279
0.17833884 0.5914385 -0.3463612 -0.1948582 0.26528877 0.81476796 0.42229038 0.7128957
0.36182722 -0.4997587 -0.022164537 0.45634648 0.46271074 -0.26936448 -0.20856535 0.7077307
0.3829382 0.25313702 0.75501907 0.123947 0.22309893 0.8555842 0.03865174 -0.2749022
-0.058780573 0.15698414 0.24935326 0.81283575 -0.37711245 -0.08933554 0.21088383 0.4859363
0.36616954 0.542851 0.2910994 0.15810186 0.50552887 0.23331773 0.6782678 0.5278814
-0.22121406 -0.30555397 0.15512078 0.6434886 0.04098016 0.14678875 0.050273046 0.053564437
0.76481473 0.08276665 0.43812013 0.4985688 0.010383767 0.5802224 0.1657031 -0.24068218
-0.45796344 0.8034841 0.99719816 -0.34288803 0.61770904 0.010133005 -0.0005808263 -0.44477743
0.68960583 0.48500866 0.79943854 -0.01042791 0.93869865 -0.07715828 0.42014018 -0.0088144615
0.6391716 0.435326 0.21916689 -0.26381359 -0.20515612 1.1936649 -0.026249893 0.72765356
0.19384812 0.0072183763 0.067454726 0.35222653 -0.20393284 0.24156505 0.56939083 0.7448231
0.6425177 0.033639796 0.49852186 -0.13483094 0.17469662 0.5437771 0.5102493 0.20166029
0.47522688 0.15836136 0.24389003 0.3020945 -0.6704098 -0.034667138 0.33954722 0.16483894

linear2.weight f4 [256, 256]
00000000: bd79 b5bd b9da 9c3e 0b48 dc3f 224c b2be
00000010: 3ac1 d23a 7c42 563f 4104 86bf ea9c 823d
00000020: 9029 26be 8a44 2e3d d20e 25c0 7a31 6ebf
00000030: 39fb 32c0 bc96 0c3d eea5 53bf 5874 81be
00000040: d6f5 0ebd 7c67 3e3e 71d2 24c0 f8b9 593e
00000050: 7699 27bf 6000 ba3d da12 ca3e 6943 623d
00000060: 7d7c 76bf 8499 68bf ce77 c8bc 2064 3cbe
00000070: b1ed 603d d452 3c3e 6afd c43e 56b1 8dbf
00000080: de89 003e 5331 383e b9b2 4bbf 16b4 6dbe
00000090: 0729 943e d7aa 1840 3091 f73e 4214 6dbf
000000a0: ff17 963e e879 5c3f 8e7a 643e 77a4 d13d
000000b0: f764 f03d ab7f a63e dbc8 adbf 8ab4 f4bf
000000c0: ed38 c2be aebc 00c0 251c 31bf 7e5d 5fbd
000000d0: 4e75 d63e a171 993f a0b6 903e c292 ee3d
000000e0: dab6 95bd 2e42 583e 8e59 12c0 8b8e 07bf
000000f0: 4131 4d3f e2c2 343e ee6d 2ac0 63e8 c33e
00000100: 5c11 473e c670 abbf 810d 2a3f 23bc 0c3f
00000110: 4728 753e 5ab0 4a3d be14 2ec0 e39c 873e
00000120: 5b70 6a3e 2073 c83e 608e 13bd 6e30 06bf
00000130: f1de 9b3e bc67 ebbe 870c 513e 8b22 273e
00000140: d423 523e d319 c4bf 32f4 2f3d 6919 23bf
00000150: c922 00bf 9848 263e 976c c7be ebcc 82bf
00000160: a56d 753f e281 8e3d 020f e2bc bafd 80be
00000170: da1c cc3e 9447 9e3e bd95 81bf 0a91 963e
00000180: ea50 dd3d 9514 8fbf ebf4 f53e b1a8 843d
00000190: f29f 33c0 e735 89bf 9b2e 0cbf 5762 eb3e
000001a0: 3dc3 30be 9f7a 93bf 1227 a73d 6c6d 763d
000001b0: 3bfd b63e 0361 613c 5356 9e3c 34f8 ce3e
000001c0: d052 33bd f303 adbf dd75 323e fa29 f7bd
000001d0: 254d 92bf fa72 dbbf 8d41 193f 448e 21bf
000001e0: 433b cfbe 02c3 2a3e 6f6c af3f da61 f83c
000001f0: 25cf 503f fc2a e03e 73a5 bfbf 2aff 47c0
00000200: aea8 14bf 4aeb 95bf 1371 1fbf 5afa 23be
00000210: ed92 c1bf 354a 553e 7aa2 25be f277 013d
00000220: f193 613f a9c5 cd3f b1fd 11bd 9a56 07c0
00000230: 4ac9 f93c e7b6 323f 3922 d1be f1ac 13bf
00000240: a8b6 2c3e 3f5a 0d3f 6335 60bf 2583 c43e
00000250: 99e8 623f 5faa 473f ba91 59bf f6d6 4f3e
00000260: 60b9 513e 6ff1 f03e cd3c f1bd 85e8 6cbe
00000270: 5735 443f 819b ec3e 4870 773e 1a81 e23d
00000280: c3f5 5e3e 355e ffbe 040f 10bf 27f2 8cbe
00000290: d3d7 cc3e 104b 84bf d926 0cbf cc17 e0bf
000002a0: ab51 153f 16e6 2a3e 62ec dcbe 9913 e1be
000002b0: 6ade 04c0 7aa0 843f 5858 6bbf fede 3bbf
000002c0: eeeb 5dbf 811d a53e a89d b93e d207 d6bf
000002d0: efaf 7f3e 5513 babe 0ce3 e83d 0594 e93e
000002e0: 9c29 9bbf 497b a63d e61b eb3e 4bd5 4ebe
000002f0: c257 553e 0082 093b b563 453e 900e 143e
00000300: 0236 94bf cc4f 46bf 4dca b63c d7e5 493f
00000310: e84b 39be 9625 3b3e bf9b babd 5052 173e
00000320: 0c37 a93d 3077 d8bf a0d6 5c3e d825 3a3e
00000330: a698 94be c9dc dd3e 4c12 f1be 99d3 52bf
00000340: c58c 4cbe c9e6 c0bf e455 b9bf 48ee c5bf
00000350: 5952 6bbf dc45 55c0 f7c5 97bf efef 19bf
00000360: 1254 bf3e ae54 8d3e ee49 fd3e 6afa 32bf
00000370: 9804 abbf b304 76bf cd7c 553e 3070 7ebe
00000380: 5353 0c3f 1273 cabf d409 2e3e 0a10 9e3d
00000390: 60a4 8b3f 2065 453e 9991 3bc0 2364 d6bf
000003a0: f8cd 523e f06c 0bbf d1be 86bd 7992 023e
000003b0: ecb7 803f 394c b23e a0cd 0f3e 9814 c0bf
000003c0: 347a 74bc e15a 48bd c232 803f 7577 b5be
000003d0: 55eb 5c3e ebe5 393f 22ee e33d 6612 1a3e
000003e0: 6810 7b3e 83ab 56bf 8e61 403e 4eda 8ebe
000003f0: efda 92bf f9e9 2cbf d1ec 953e 5c0a 61bf
-0.0886111 0.30635622 1.7209486 -0.3482371 0.0016079315 0.836952 -1.0470048 0.06377585
-0.16226792 0.042545833 -2.5790296 -0.93044245 -2.7965834 0.03432344 -0.82675064 -0.25284076
-0.034902416 0.18594164 -2.5753443 0.21262348 -0.6546854 0.09082103 0.39467508 0.05524007
-0.96283704 -0.90859246 -0.02447119 -0.1839757 0.05491418 0.18390971 0.3847459 -1.1069744
0.12552592 0.17987566 -0.79569584 -0.23213229 0.2893755 2.3854272 0.48352957 -0.92609036
0.29315183 0.86123514 0.22312376 0.10236447 0.117380075 0.32519278 -1.3576921 -1.9117596
-0.37934056 -2.011516 -0.6918357 -0.05453252 0.4188637 1.1987802 0.28264332 0.116490856
-0.07310267 0.21118996 -2.286716 -0.5295188 0.8015328 0.17652467 -2.6629596 0.38263234
0.19440216 -1.3393791 0.66426855 0.54974574 0.23941146 0.04948459 -2.720016 0.26486883
0.22894423 0.39150333 -0.03602445 -0.5241765 0.30443528 -0.4597758 0.20414935 0.16321771
0.2052148 -1.5320381 0.042957492 -0.6371065 -0.5005308 0.1623863 -0.38950035 -1.0218786
0.9587043 0.06958367 -0.027595047 -0.25193578 0.39865762 0.30913985 -1.0123821 0.2940753
0.10806449 -1.1178156 0.4803842 0.06477488 -2.8066373 -1.0719575 -0.54758614 0.45973465
-0.17261977 -1.1521796 0.08161749 0.060162947 0.35740075 0.01375604 0.019328272 0.4042374
-0.043780148 -1.351683 0.17427774 -0.12068553 -1.1429793 -1.7144463 0.5986565 -0.63107705
-0.404749 0.16675952 1.3704966 0.030320097 0.8156608 0.43782794 -1.4972366 -3.124949
-0.58069885 -1.171243 -0.6228191 -0.1601347 -1.5122963 0.20829089 -0.16175261 0.03160853
0.88116366 1.6075946 -0.03564233 -2.1146607 0.03049149 0.69810337 -0.40846422 -0.5768576
0.16866553 0.5521583 -0.8758146 0.38381305 0.88636166 0.7799434 -0.84987986 0.20296845
0.20480871 0.470592 -0.11779175 -0.23135574 0.7664389 0.4621239 0.24163926 0.110597804
0.21773438 -0.49876562 -0.5627291 -0.27528498 0.4000841 -1.0335407 -0.54746777 -1.7507262
0.5832774 0.16689333 -0.43149096 -0.43960264 -2.076075 1.0361474 -0.91931677 -0.73387134
-0.86688125 0.32249072 0.36253095 -1.6721137 0.24969457 -0.36342874 0.11371431 0.45620742
-1.2122073 0.081289835 0.45919722 -0.20198552 0.20834258 0.0020982027 0.19276316 0.1445868
-1.1578982 -0.7746551 0.022313261 0.7886633 -0.18095362 0.18276057 -0.091117375 0.14777493
0.082624525 -1.6911373 0.21566248 0.18178499 -0.29022712 0.43332508 -0.47084272 -0.8235412
-0.19975574 -1.507043 -1.4479337 -1.5463343 -0.9192253 -3.3323889 -1.1857289 -0.60131735
0.37368828 0.27603668 0.49470466 -0.6991335 -1.3360777 -0.9610092 0.20848389 -0.24847484
0.5481464 -1.5816367 0.16995937 0.07717903 1.0909538 0.19276857 -2.9307616 -1.6749309
0.20586383 -0.544631 -0.06579364 0.12751187 1.0056129 0.34823778 0.14043283 -1.5006285
-0.014921714 -0.048914794 1.001549 -0.354427 0.21574147 0.7261645 0.111294046 0.15046081
0.24517977 -0.83855456 0.18787214 -0.27900928 -1.1473063 -0.67544514 0.2928224 -0.8790643

linear2.bias f4 [256]
00000000: 7716 1a3f c242 113f fc89 9e3d a3dd cd3e
00000010: 4b12 963d 76a5 933e 6dd6 1b3e d7ae 023e
00000020: ebcc 943d 11a8 0a3e 08d0 333e ae0f 833d
00000030: 3e1a 923e 26c4 863e 07e2 9c3d 4569 983d
00000040: 028d 853e cc89 f93d ab24 283e a8ac ae3e
00000050: 65f3 ad3d 88a6 243e 53a7 813c 6800 553e
00000060: 7241 af3d 1e34 803e 92ff 69bd 58a6 153e
00000070: f9d3 093e 219f 7d3d 4805 473e 9270 b13d
00000080: ae4a 9d3e 1e95 ad3d d99f 4a3e 1948 8c3e
00000090: 83a1 c53d f7b0 8d3e a249 1a3e aff8 243e
000000a0: 8732 f03e 5cd0 303e f19a 793e 59ab 153e
000000b0: 8adf 133f 84db 543e 2cb2 163e 8b31 2f3e
000000c0: 6df7 a23d 0ed3 223e dfc6 af3d c77a ad3e
000000d0: 3a12 503e 5ccd 083e fd83 f63d 9471 953d
000000e0: 594c 5fbd c6d1 ca3d 4ef4 2b3e d018 9c3e
000000f0: 8977 2f3e e7de fb3d 8cda 4a3e 5038 eb3d
00000100: 428e 073e d242 f73d bdc9 7a3d 3781 2e3e
00000110: ba92 37be 355b 6f3e 5b9f d63d baaf 5e3e
00000120: 7d2d 0a3e 9e96 f23d d13e 2fba cdab d83d
00000130: 9145 2a3e cc44 043e d661 0a3e eab2 263e
00000140: 6cc4 a93e 952c 503e c3d5 8d3e 2632 663e
00000150: 2dd3 633e b437 273e d45f 813e b80a 673e
00000160: f9ae 873e a039 943d 3652 003e fb15 943e
00000170: e046 7e3e b23d 113e 86d4 563e fbd6 c83d
00000180: 0cc0 993d 550a 2c3e b514 063e 9756 9c3d
00000190: 63c0 d33d 6d70 c83d 4f02 f13d 5d1b 673e
000001a0: a2a3 203e 9d85 153b f88e 513e 07ad 2d3e
000001b0: f2cf 703e 40d0 4f3e 20bd 623d 0298 063f
000001c0: a828 cc3d 4481 3f3e 9ec9 3a3e c81a 913d
000001d0: 22b3 023e c682 143e 089c 313e e10a 943e
000001e0: 8be2 9b3e ed59 41bd 3d76 353e 93e5 893e
000001f0: 55cf 543e fd1f 79bd 32d5 103e b1b6 bb3d
00000200: f1e7 3d3e d987 193e eefa 303e c996 193e
00000210: 41d7 693e af8f 793e 1531 a33e e851 1a3e
00000220: 2e0f 173e 6ed5 dd3d ba2b 093e 4049 84bc
00000230: 9f17 833e deaf 3b3e 16e7 993e dbf9 1e3e
00000240: 5880 ed3d 1f5e 1e3e 7a79 a83d b840 763d
00000250: 7eca e33d b8bb 2a3e 4fae 433e 09d1 d03d
00000260: 3966 3c3e bd60 333e df4f 233e 321b 1b3e
00000270: b18b 963e dec0 873e 2f4c 05bd 8918 133e
00000280: 040e 243e ddb5 c13d 3307 a53e 50a6 8a3b
00000290: 366d d03d dc74 2b3e a0d0 553e d598 f53d
000002a0: 92d4 543e 6c25 b83d 27b5 513e 9c48 a53e
000002b0: 8eb5 a63d cc0b 1a3e 04df 413e 2380 e33d
000002c0: 1084 363e 8f1b bb3d e682 063e e5b0 4b3e
000002d0: ee53 093e 72f9 693e ec80 283e 4ac8 5b3e
000002e0: 76d0 ac3d 134c 053e 5491 5c3d dd6a 0d3e
000002f0: f28c 333d 23e5 143e 2010 883d 22be 833e
00000300: a913 043e 7942 b53d f3d3 0d3e 8dc2 3e3e
00000310: aca1 563e 259f 393e 8012 b9bc 3b3d b93d
00000320: 1432 313e ba05 1f3e bc22 7b3e 8628 123e
00000330: 6c09 a03e 2936 373e 0eac d73d 5e6a 5b3e
00000340: 903d fc3d b8e2 2b3e 8546 ff3d e21c 323e
00000350: 5eac 373e 4e71 fb3d d1ca 4a3e 5a3d 5c3e
00000360: ae03 b43d a282 033e e26b d7bc 37e3 e33d
00000370: b8c9 cb3d 5413 303e e983 3a3e c5b9 3d3e
00000380: 6dfa bd3d 72cc cd3c e715 a93d 60b3 5a3e
00000390: 2986 ed3d 30d2 623e 66d8 083e 8b9f 173e
000003a0: 3c63 ff3d 2b00 9d3e ffbc f03e 313d 323e
000003b0: 2800 263e 1f71 1f3e 975e 6b3e ad96 6e3e
000003c0: f2ad 953e 0e5d f63d 067f 393e 27bb 973d
000003d0: ee7d 263e 1414 d33d 3773 0e3e 8363 df3d
000003e0: 64c3 4c3e dc65 023e 55d5 f23d 58d8 4f3e
000003f0: e16f f23d 6cf8 7d3d b8eb ac3d a288 d13d
0.6019053 0.5674249 0.07741162 0.40208158 0.07327708 0.28837174 0.15218516 0.12762009
0.072656475 0.13540675 0.17559826 0.06399475 0.28535646 0.26321524 0.07660299 0.074419536
0.26084143 0.12184486 0.16420238 0.341161 0.084936894 0.16079152 0.015826857 0.20800936
0.085574046 0.25039762 -0.057128496 0.14614236 0.13459767 0.061919335 0.19435608 0.08664049
0.3072104 0.084757075 0.1978754 0.27398756 0.096499465 0.27674076 0.15067151 0.1611049
0.4691355 0.17266983 0.24375512 0.14616145 0.5776297 0.20786864 0.14716405 0.17108743
0.07957349 0.15900823 0.085828535 0.33882734 0.20319453 0.13359588 0.120368935 0.07297054
-0.05451617 0.09903292 0.16792414 0.3048768 0.17135443 0.122983746 0.19809932 0.1148535
0.13237861 0.12073292 0.06122755 0.17041479 -0.17927065 0.23374636 0.104796134 0.21746722
0.13493915 0.11845134 -0.00066850806 0.105796434 0.166281 0.12916869 0.13513884 0.16279188
0.3315767 0.20329507 0.2770215 0.22480068 0.22248526 0.16329843 0.25268424 0.22562683
0.2650068 0.072375536 0.12531361 0.2892302 0.24831724 0.14183691 0.20979509 0.09806629
0.07507333 0.16800816 0.13093837 0.07633703 0.10339429 0.097870685 0.117680185 0.22569032
0.15687421 0.0022815235 0.20464694 0.16960536 0.23516825 0.20294285 0.055356145 0.52575696
0.09968692 0.18701655 0.18240973 0.07085186 0.12763646 0.14503011 0.17344677 0.2891455
0.30446276 -0.0472049 0.17720886 0.26932964 0.20782216 -0.060821522 0.14143828 0.09165705
0.1854551 0.14993228 0.17283222 0.14998926 0.22836019 0.24371217 0.31873384 0.15070307
0.14751884 0.10831724 0.13395587 -0.01614821 0.2560396 0.18328807 0.30059117 0.15525
0.11596745 0.15465592 0.08226295 0.060120314 0.11122607 0.16673172 0.19109462 0.1019612
0.1839837 0.17517371 0.15948437 0.15147093 0.2940345 0.26514333 -0.032543357 0.14364828
0.16020972 0.09458516 0.32232055 0.004231252 0.1017708 0.16743797 0.20880365 0.11992041
0.20784214 0.08991513 0.2047926 0.3228196 0.081400976 0.15043563 0.1893273 0.111084245
0.17823815 0.09136116 0.13135871 0.19891699 0.13410923 0.22849062 0.1645543 0.21463123
0.08438198 0.13017301 0.053849533 0.13810296 0.043835588 0.14540534 0.066437006 0.25730997
0.12898125 0.08850569 0.13850383 0.18628903 0.2096011 0.18127115 -0.02259183 0.09044882
0.1730426 0.15529528 0.24524969 0.14273271 0.31257188 0.17891754 0.10530864 0.21427295
0.123164296 0.16785705 0.124646224 0.1739383 0.17936847 0.122774705 0.19803931 0.21507779
0.08789764 0.12842801 -0.02629656 0.11127322 0.09950584 0.17194873 0.18214382 0.18527897
0.092762806 0.025121901 0.08256131 0.21357489 0.11597855 0.22150493 0.133638 0.14806955
0.12470099 0.3066419 0.47019193 0.17406155 0.16210997 0.15570496 0.22985302 0.23299666
0.29234272 0.120294675 0.18114862 0.07408743 0.16258976 0.10306564 0.13911138 0.10907652
0.1999641 0.12734169 0.11857096 0.20297372 0.118377455 0.06200449 0.08443397 0.10231139

linear3.weight f4 [1, 256]
00000000: 7eca 0c40 0028 e03f 94ff e1bf 5e3d 4d40
00000010: 3262 dcbf 8769 583f 7f63 d8bf dadd dcbf
00000020: c8ab dcbf c447 ddbf 63d3 e3bf 22a8 dfbf
00000030: 8558 5e3f 4953 593f 7070 e0bf 5a72 e3bf
00000040: aade 5a3f daae e1bf 1de9 d4bf 22d7 5e3f
00000050: c126 ddbf 2a67 5c3f 914a 213a 9dd0 583f
00000060: 5569 dabf b153 5d3f fd1c f6ba 43e8 dcbf
00000070: e2e0 dfbf 0d3a dfbf b0f6 5a3f 2dbb dbbf
00000080: 4dab 593f a3a2 debf 8691 543f 5e67 5b3f
00000090: fbc1 dbbf df82 583f 490c d9bf 6f6b e5bf
000000a0: b346 e23f a249 e0bf 2084 573f 2f35 dcbf
000000b0: b414 0c40 13cf 583f 2c85 e7bf 070e 5c3f
000000c0: 0f0d dbbf 85bc dbbf b57c e0bf d1a8 673f
000000d0: 190b 5a3f cfe7 e1bf fdf1 d7bf ccde dabf
000000e0: fd2f 1a3b 2a99 7b3f 04ad 593f 3061 653f
000000f0: 7bbf d8bf 4a4d dbbf b8eb 5b3f 94bb d5bf
00000100: 2fb4 dfbf c153 debf 9802 bf3f b6be dbbf
00000110: 3b93 07c0 53f1 583f aad7 5b3f c5b1 5c3f
00000120: 6804 593f 8b33 e2bf 3a3a 433b 1bef e1bf
00000130: 16ef 5d3f 4257 d6bf 32bd dfbf e161 e1bf
00000140: a6d6 603f 8dce 593f 5722 5c3f 334a 5b3f
00000150: 910a 5a3f bc7f dabf d6df 583f 81e3 5f3f
00000160: 81ca 583f 70a5 e7bf 6b2b dabf 7977 633f
00000170: 6983 5a3f 095c ddbf 300b 5c3f 0c97 e3bf
00000180: c1c5 dcbf 3ad9 d5bf 1dac 5c3f b44c ddbf
00000190: 6193 d3bf 4d83 e6bf b491 dfbf f206 5e3f
000001a0: a606 debf b1c6 a73f 4faf 593f d7e6 e0bf
000001b0: ca54 573f 46cf 5b3f 19bf fd3a 58ee 0340
000001c0: 08dd d8bf 8631 593f 3d9b 573f 94ee d7bf
000001d0: 3233 f1bf b96e debf 28ff dfbf 4277 633f
000001e0: 088b 5c3f 7854 82ba 915c dfbf af6a 583f
000001f0: 1962 5c3f f210 7e3a 69bc dabf f574 e1bf
00000200: 6975 d9bf b371 dcbf ac3b e1bf 2430 d9bf
00000210: c803 583f b91e 593f 5639 5b3f b82c e3bf
00000220: c499 e4bf 9902 dbbf bd61 573f 09dc 20bb
00000230: b65c 583f 8d86 e7bf 78de 593f 99b0 e2bf
00000240: 338d dcbf e70e 5d3f b356 c63f 6331 e1bf
00000250: a492 d7bf 72be d6bf 938e e5bf dbd5 dbbf
00000260: e117 d8bf 474e e5bf 9960 e7bf e9df dfbf
00000270: 56ba 593f 8c46 593f 9b6c 86be 9701 d4bf
00000280: bbf8 dcbf e7a9 e4bf ac06 593f c6f1 363b
00000290: 007b dcbf 8e4c ddbf 640c 583f 2e59 dcbf
000002a0: bcc6 593f a5b0 e1bf 4a2e 04c0 c089 593f
000002b0: 310b dfbf eab7 02c0 385a 5a3f 14da e2bf
000002c0: 0733 dcbf 7a8d d3bf 69b9 d7bf 22e3 5c3f
000002d0: 8f91 debf 957b 573f 88cb 583f edc3 5d3f
000002e0: fba0 dabf 68cc e1bf f094 aeb9 3026 ca3f
000002f0: c218 f0ba f77e e0bf 189f d8bf fcfd 593f
00000300: bb67 e2bf ec06 dcbf 691a d9bf a995 5c3f
00000310: 3ddc 543f 5323 ddbf be44 48bb 2cd3 d5bf
00000320: d80f 5c3f e8b3 e2bf dfda 583f 0b34 fdbf
00000330: 2ce4 5a3f 2657 d9bf 44f4 ddbf 5976 5c3f
00000340: 712b 553f 5a0d d8bf 16ad e1bf 21cb dabf
00000350: 10b9 d6bf 6b98 d8bf bdef 5b3f 36a8 593f
00000360: e24e e9bf b071 dcbf cab3 043b b847 d6bf
00000370: 00a4 d9bf f9c1 d7bf 74c9 dfbf 1fb1 593f
00000380: 7099 d7bf d50c 4cbb 0402 e1bf cbe0 573f
00000390: 4dcd ddbf 2b3a 553f 3add d6bf 35ca dbbf
000003a0: 8fc3 dabf e328 573f 9d31 e53f f761 d7bf
000003b0: 01b4 ddbf 77fa 03c0 eaaf 553f a38f 5a3f
000003c0: acb8 593f 416c 5b3f 9fac 5a3f 0f84 dcbf
000003d0: d679 d7bf b07d d6bf 73b7 d8bf b7e5 e0bf
000003e0: fa44 5e3f eeb4 1cc0 e6d7 d9bf 0ee4 5c3f
000003f0: dec6 5c3f d610 d5bf 07ed d8bf 56d1 dabf
2.1998591 1.7512207 -1.7656121 3.2068706 -1.7217467 0.8453602 -1.6905364 -1.7255204
-1.7239923 -1.7287526 -1.7798885 -1.7473185 0.8685382 0.8489271 -1.7534313 -1.7769272
0.8549601 -1.7631485 -1.663364 0.87047017 -1.7277452 0.86094916 0.0006152774 0.8469332
-1.7063395 0.8645583 -0.001877695 -1.7258381 -1.7490504 -1.7439591 0.85532665 -1.7166497
0.8502701 -1.7393383 0.8303455 0.857046 -1.7168573 0.84574693 -1.6956874 -1.7923411
1.7677826 -1.7522471 0.8418598 -1.720373 2.1887636 0.8469097 -1.8087516 0.85958904
-1.711336 -1.7166907 -1.7538058 0.9049197 0.85173184 -1.7648867 -1.6870724 -1.7099242
0.0023527138 0.98280585 0.85029626 0.8960142 -1.6933435 -1.7132962 0.85906553 -1.6697869
-1.7476863 -1.736931 1.4922667 -1.7167575 -2.1183612 0.8474323 0.8587595 0.86208755
0.8477235 -1.767198 0.0029789344 -1.7651094 0.8669294 -1.6745379 -1.7479613 -1.7607995
0.8782753 0.85080796 0.859899 0.85660094 0.85172373 -1.7070231 0.84716547 0.8745652
0.84683996 -1.8097363 -1.70445 0.88854176 0.85356766 -1.7293712 0.8595457 -1.7780471
-1.724785 -1.6706917 0.86200124 -1.7289033 -1.6529351 -1.800882 -1.746634 0.8672935
-1.7345779 1.3107511 0.85033125 -1.7570447 0.8411375 0.8586315 0.001935932 2.0614223
-1.6942453 0.8484119 0.8422125 -1.6869683 -1.8843749 -1.737754 -1.7499743 0.8885385
0.86149645 -0.0009943387 -1.7450124 0.84537786 0.86087185 0.0009691856 -1.7088748 -1.7613817
-1.6988956 -1.7222198 -1.7596335 -1.6967816 0.8438077 0.84812504 0.8563436 -1.7748022
-1.7859426 -1.7110168 0.8413351 -0.0024545214 0.84516466 -1.8087937 0.85105085 -1.7710143
-1.723059 0.86350864 1.5495209 -1.7593197 -1.6841626 -1.6776869 -1.7934135 -1.7174639
-1.6882287 -1.7914513 -1.8076354 -1.7490207 0.8504995 0.8487327 -0.26254734 -1.6562985
-1.7263407 -1.786435 0.84775805 0.0027915104 -1.7225037 -1.7288988 0.84393907 -1.7214715
0.8506887 -1.7632033 -2.0653253 0.84975815 -1.742529 -2.0424752 0.8529391 -1.7722802
-1.7203072 -1.652755 -1.6853458 0.8628408 -1.7388171 0.84172946 0.84685564 0.86627084
-1.7080377 -1.7640505 -0.00033298833 1.5792904 -0.0018317925 -1.7538747 -1.6923552 0.85153174
-1.7687906 -1.7189612 -1.6961185 0.86165863 0.83148557 -1.7276405 -0.0030558552 -1.670507
0.85961676 -1.7711153 0.8470897 -1.9781507 0.8550441 -1.697972 -1.7340169 0.86118084
0.8326941 -1.6879075 -1.7630947 -1.709324 -1.6775227 -1.6921514 0.85912687 0.85022295
-1.8227198 -1.7222195 0.0020248764 -1.6740637 -1.7003174 -1.6856071 -1.7483354 0.8503589
-1.68437 -0.0031135578 -1.757874 0.8432738 -1.7328278 0.8329188 -1.6786263 -1.7171084
-1.709093 0.84046763 1.7905766 -1.6826771 -1.7320558 -2.0621622 0.8347155 0.8537542
0.8504741 0.8571206 0.8541965 -1.7227801 -1.6834056 -1.6757107 -1.6930984 -1.7570103
0.86824 -2.448543 -1.7019012 0.86285484 0.8624095 -1.6645763 -1.6947335 -1.7095134
