testing/scripts/outputs/DDPG_Env/20221214-223904/models/1260critic_checkpoint.pt (torch, 282455 bytes, 5 tensors)

linear1.weight f4 [256, 15]
00000000: 0508 17be b9dd 10bf d42e 90be 1958 bc3e
00000010: 1796 943e d16b 34be 439a bc3d 94b6 ef3d
00000020: 2e5e 2d3e 6ece ca3e 90a4 36be 1b5a e5be
00000030: 5672 a63e 1974 ff3d 9e20 433e df08 843e
00000040: 3ea4 6b3e e1b9 a83e fcd1 633f fa09 0e3f
00000050: 80a5 9e3e cbcf 253f 8590 693f 1c56 1c3f
00000060: a472 b43e 54cb d43e f5b2 97bd 97dd 6fbe
00000070: 5311 02bd 5d92 303c d10c df3e d60d b83c
00000080: 173e 97be 0818 06bb 7079 d43d 91e4 b53e
00000090: b6ed b23d ecf5 123e 7629 45be 49f2 9e3d
000000a0: 9b79 d33c d454 17c0 b210 963c e736 353c
000000b0: 0801 773c 8833 1d3f 765b 0b3f 9c4f f63c
000000c0: c7fc 8fbe a3a9 343d c049 0ebe 12d8 c83e
000000d0: 67f3 343c d475 d9be c73b 3fbf 0f5c 79bd
000000e0: 2481 843e 87f3 603d 389e 44be 60f2 77be
000000f0: 9dcb 0c3b aafa 3e3e fe46 9f3e 828b 1b3e
00000100: c33c d5bd dbe7 44bc a7f4 cc3e 512a 3b3f
00000110: f524 603f 3319 e53e dcab 9f3c 06c7 96be
00000120: f45b da3e 46e1 debd ecaf 5d3d 836b 973e
00000130: 08b5 c9be 6924 b3be 474c 05bf 5ae5 31bf
00000140: 5d04 15bf e0fa 88bd 3f56 963e dbbb 663d
00000150: c09b a83e c309 e53e 2130 dcbe 4d89 f1be
00000160: 7b3c c4bc 109a 62bd a8fc 58bd 7575 9ebe
00000170: 0427 7bbf 3b21 73bf 02f6 aebf b7ad dabf
00000180: 5cb5 9fbf eded a6bf 9df8 3cbf 0fc9 073f
00000190: e54b febd 000f a4be b8ce fdbc 422b 33be
000001a0: 3d41 7e3c 8172 053f 5109 1e3f faa3 0a3f
000001b0: 8f4d 443e 1086 6b3e 1f28 833e 6f32 c2bc
000001c0: 6129 cd3d 7888 cc3e ee96 913e 7b7f a0be
000001d0: d7c6 573e dafb 7bbe a8f9 093e eeaa 983d
000001e0: d087 e0be bcb9 873d 65ee 043e 5168 a7bd
000001f0: a2fc 6b3d a24e 9fbe dbe6 e4bd f33f 90bd
00000200: 4bed 4c3e 0105 bf3e fe0d bdbe e51f 8c3e
00000210: 5d33 debe 354e dbbc 2776 5cbd 5939 d23d
00000220: 43fe c63b 999d cabe 6bb5 68bd 15fb 56bc
00000230: dda2 80bd e194 a63e 51c2 043e 7e59 0e3f
00000240: 504c aa3e 493f f7bd fa99 e13e c16f 043f
00000250: 4675 0e3d 2739 67bc 1642 253f 24cc 383e
00000260: d708 cabe 1304 f43e 5bbe d93e 455c 0b3f
00000270: 762d ec3e 7754 413d ada8 1e3e 7af9 3bbe
00000280: e84e 91be da51 1b3e 0b04 9a3e be39 71bc
00000290: 750c 19bd 81e4 92be 9caf 443f aa39 c9be
000002a0: e8dd c9bf d4bf 8dbf f74a 1fbf 35f9 5cbf
000002b0: 934e 1b3f 6667 313e 9b22 38bf 2bf5 34bc
000002c0: eaf7 903d 1b54 79bc e30f 033e 1fed e13d
000002d0: 4b18 2d3d f6f0 b5be 0cc0 963d d6e3 623e
000002e0: e3fb 1f3e a32f 5dbd 8dae 8c3e 8196 423e
000002f0: 1dda 243e 332b b63e bd1b b2be 1858 6d3e
00000300: 0333 d33e dd68 253d b870 933d ede4 a7bd
00000310: 490b 86bf 0129 01bf e0fd 8e3c c198 f53a
00000320: d15c 653e c059 c93e dc23 de3e 67db b63e
00000330: d490 963e bdea b5bb 08bc 983e aef6 a9bb
00000340: 9977 313e 85c2 683e 0901 0f3e 59d8 283c
00000350: 7c58 bbbc b008 f23e 196f fb3e 6714 1d3e
00000360: 9e42 f13d cfa3 c4ba 1023 82bd fb6d 0abd
00000370: c6f2 ffbc d933 263d 23b5 1e3e dcaa bebd
00000380: 5590 91bd c4d2 87be 9e6c 4b3d 7056 213e
00000390: 1446 fe3c 21e8 793d d247 85be cc4e 06be
000003a0: 5c2c 8c3d c0fb e4bd 9fc3 f03d 8ed3 cebd
000003b0: 33b1 433e c6bb 45be 835c 2abc 3402 4c3e
000003c0: ca7a b8be dcd3 ce3e a7f3 0d3e 35ce 6f3e
000003d0: e16c d83e 44fd aa3d a27e 0e3c dc70 883d
000003e0: 2d49 4d3e 650c aa3c 390d 563e 7383 4a3f
000003f0: fab2 34be 78e3 d9bd cdb9 553d 6178 423f
-0.14749153 -0.5658832 -0.28160727 0.36785963 0.2902076 -0.17619254 0.092091106 0.11704746
0.16930458 0.39610618 -0.17836213 -0.44795308 0.32509106 0.12473316 0.19055411 0.25788018
0.23011872 0.32954314 0.88992286 0.55483973 0.3098564 0.6477019 0.91236144 0.6106889
0.35243714 0.41561377 -0.0740718 -0.23424374 -0.031754803 0.010777083 0.43564466 0.022467535
-0.29539558 -0.00204611 0.10374725 0.35525945 0.08736746 0.14351624 -0.19254097 0.07761056
0.025814822 -2.3645525 0.018318508 0.011060453 0.015075929 0.61406755 0.54436433 0.030067258
-0.2812254 0.04410709 -0.13895321 0.3922735 0.01104436 -0.42472708 -0.7470059 -0.06087881
0.25879776 0.054919746 -0.1920098 -0.24213552 0.0021483668 0.18650308 0.3110885 0.15189937
-0.1041198 -0.012018169 0.40030405 0.73111445 0.8755639 0.44745788 0.019491129 -0.29448718
0.4264828 -0.10882811 0.05412285 0.29574212 -0.39395928 -0.34988716 -0.52069515 -0.6949059
-0.5820978 -0.066884756 0.29362676 0.056331497 0.32931328 0.4473401 -0.4300547 -0.47175065
-0.02395462 -0.055322707 -0.052975327 -0.30948988 -0.9810641 -0.9497258 -1.3668826 -1.7084264
-1.2477221 -1.3041359 -0.73816854 0.53041166 -0.124168195 -0.32042694 -0.03098236 -0.1749697
0.015518484 0.52127844 0.61732966 0.5415646 0.19170211 0.2300036 0.25616547 -0.02370569
0.10017658 0.39947867 0.28435463 -0.3134726 0.21071945 -0.24607792 0.13474143 0.07454477
-0.43853617 0.06627223 0.12981565 -0.08174194 0.057613976 -0.3111468 -0.11176845 -0.07043447
0.20012395 0.37308505 -0.36924738 0.27368084 -0.43398562 -0.02677069 -0.053823616 0.102648444
0.006072791 -0.39573362 -0.05681364 -0.013121386 -0.06281064 0.3253546 0.12964751 0.55605304
0.33261347 -0.120726176 0.44062787 0.5173302 0.03477981 -0.014112747 0.64553964 0.18046623
-0.3945987 0.47659358 0.42528042 0.5443767 0.46128434 0.047199693 0.15494032 -0.18356887
-0.28380513 0.15167943 0.3008121 -0.0147232395 -0.037365396 -0.2868996 0.7683046 -0.39301807
-1.5770845 -1.1074166 -0.6222376 -0.8631776 0.6066677 0.173246 -0.71927804 -0.011044781
0.07078536 -0.015217806 0.12799029 0.110315554 0.042259496 -0.355354 0.07360849 0.22157225
0.15623431 -0.054000508 0.27476922 0.19002725 0.16098829 0.35579833 -0.34786788 0.23178136
0.41249856 0.04038321 0.07199234 -0.08197961 -1.0472194 -0.5045319 0.017455041 0.0018737541
0.22398688 0.39326286 0.43386734 0.35714266 0.2940737 -0.0055516646 0.29830956 -0.005186877
0.17330779 0.22730453 0.13965239 0.010305488 -0.022869341 0.47272253 0.49108198 0.15339814
0.11780284 -0.0015002432 -0.06354344 -0.03379629 -0.031243693 0.04057679 0.15498786 -0.093099326
-0.07107607 -0.2652799 0.049664132 0.1575563 0.031039275 0.06101239 -0.26031357 -0.13115996
0.068443984 -0.1118083 0.11756062 -0.100989446 0.19110565 -0.19309911 -0.010398033 0.19922715
-0.3603118 0.4039601 0.13862477 0.23418505 0.42270568 0.08349088 0.008697184 0.06662151
0.20047446 0.020757863 0.20903482 0.79106826 -0.17646399 -0.10639089 0.052179147 0.75964934

linear1.bias f4 [256]
00000000: 1240 9d3e 491c 063f 591d 1f3f 2a57 8f3e
00000010: ad55 733e f364 c33e 0773 6b3e 3a8b 3c3e
00000020: a328 e23d 5338 b03e bd9f bdbe e4ea 843c
00000030: 444a cabe 83ad 203e 19d0 f9bd 51bb b13e
00000040: 9b20 02bd b992 2a3e 155e 9dbd 737d 953e
00000050: 2e9b 1dbd 10c1 2e3f ad68 9b3e 26ac 803d
00000060: df21 65be a9cd 0b3f 9eb3 7cbc a45f 55bd
00000070: feb9 1c3f 9c32 32bf 31f0 333e 9617 093f
00000080: e727 183f ac1f e53d f091 4fbe 21a7 2abe
00000090: f9a5 813f 0573 1f3f b085 343f dcf8 213f
000000a0: 2c49 123f 8aca 4b3f e3b9 383f a84b d23e
000000b0: 9490 093e f35f a73f 4625 1f3f 2812 213f
000000c0: 6821 813e ca8c adbe b8f9 d9be ecde a9bd
000000d0: d991 c53e 5630 653f 38e5 d93e 6ca4 673d
000000e0: 5ba0 b2bd 4522 b43f 62cb d33e 0aee a73d
000000f0: f801 2d3f d583 20bd 15b9 3a3e a170 173f
00000100: f76f 63be 0c48 e2be 86be 4b3f c525 98bd
00000110: 0e80 8dbd 3099 c13c 8d12 27be 04de 033f
00000120: ee0c 143f 04f2 123f 19c0 1c3e 6077 413e
00000130: 5d97 143f fcc1 fb3d 6c26 2c3e cc38 003f
00000140: 47a2 063f 0094 bfbe 6617 1f3f 0653 3c3d
00000150: e5ed d7bd 283d c53e 25cc 12be 8766 d8bd
00000160: 557f 5e3f cbc5 873e 88dc 193e 3b20 d7bd
00000170: d48a 1c3f a28e e93e d723 7cbe fe9a 073f
00000180: 3886 163e 2bde 263f 4da7 1e3f 766f a13e
00000190: 65e5 063e c355 5a3e d979 a03e e0f9 343e
000001a0: 9345 e8bc 6d89 0a3f 8c4a 4cbe 3bac ce3c
000001b0: 340b 5c3f af07 5e3e 9d48 db3d d4bd 033f
000001c0: 9050 c53c 3063 4c3f 477b 393f b34a 3a3e
000001d0: 2fa4 203f b294 693f 803c 623f 32dd 403e
000001e0: 2031 af3e 0a80 253f 2407 063f 656a a13d
000001f0: 7057 353f cbd0 413f c095 2d3f 21ba 813c
00000200: ccf6 bc3e f8f9 973e c05c 97be abac 04bf
00000210: 1681 633f 013d 4b3f 1b34 03be 5bc1 aa3e
00000220: 282d f83e 01bf f53e 4b30 ed3e 6c5d 483f
00000230: 9788 2d3e 8c9b 4a3f 25e7 1ebd 15aa 293c
00000240: 999d 823f 41e0 843e b1f0 1d3d 54df 083f
00000250: 82bb d93e 43d7 bdbd 4f79 be3e 74fa fabd
00000260: a4cb 233e df48 183f ff22 c6be 8d1c 30be
00000270: bd81 6d3e 874b 513f 91fd de3e ae99 353f
00000280: a8f1 b13e d6a8 f9be 2691 a03c 05bf d93e
00000290: 3748 ea3e 4694 81be bda3 71be 765d 2d3f
000002a0: 9c24 c53e f7ab 7f3e 4ae9 413f 86bc 093e
000002b0: a1ce 5d3e a3df 593f bf55 413d 0c96 7dbe
000002c0: 716f 85bd 4691 343e f8d0 783e 53eb 503f
000002d0: a78c d4be 9ee9 94bd 30c3 183e c6dc f83e
000002e0: 1455 af3e cfc2 0c3f f0d8 903e 99ed 243e
000002f0: 785a 023f e104 733e 1715 2e3f 136a 003f
00000300: 28a7 60be d336 9cbe c7da 1d3e 5a56 333f
00000310: 8485 363d 342e 033e 2658 863d 54bc 693d
00000320: f778 413f 190e 5e3d fdaf da3e 484c fd3e
00000330: 2624 8c3c c928 0f3f 98be 393e ff04 6dbe
00000340: b42c f0be 4681 473f bde7 713f a193 a4be
00000350: 89a8 1a3f 86b5 3a3c e62d b5bb fe0d dbbe
00000360: cd91 2f3f 4086 f43e 0934 543f 29bc 5c3c
00000370: f230 6c3f 91a0 86bd 38c5 bc3e 6328 87ba
00000380: 4c15 243f ac76 d33e 8f1d 6e3e edf1 94be
00000390: 0bf7 2ebe 44d0 983f 6cac c1bb a0f6 373f
000003a0: 9d60 5c3e e818 9bbc cf1b df3d d5f9 b43e
000003b0: b3c5 4abe 2927 793e fad6 113f 976c 323f
000003c0: ab67 243f b521 813c 947a 013f 043a 18be
000003d0: 547c 2e3e 74fe 103f 1677 043f 9df9 3f3e
000003e0: cb95 e83e b44b 053e d8d6 573e a473 553e
000003f0: d520 25bf f77f 7abd d6fb a33e 0622 283e
0.30712944 0.5238691 0.62154156 0.27996188 0.23763151 0.38162956 0.22993098 0.18412486
0.11042907 0.34417972 -0.37035933 0.016225286 -0.39509785 0.1569119 -0.121978946 0.34713224
-0.031769376 0.16657533 -0.0768396 0.29197273 -0.03847807 0.6826334 0.303533 0.06282835
-0.22376202 0.5461069 -0.015423683 -0.052093163 0.612213 -0.69608474 0.17572095 0.53551614
0.59435886 0.111876816 -0.20270514 -0.16665317 1.0128776 0.6228488 0.7051649 0.63270354
0.571429 0.79605925 0.7215864 0.41073346 0.13434058 1.3076156 0.6216625 0.6291833
0.252208 -0.33896476 -0.42573333 -0.08294472 0.38587835 0.8952688 0.42557693 0.05655329
-0.08721992 1.4072958 0.41366106 0.08199699 0.6758113 -0.039188225 0.18234666 0.59156233
-0.2221068 -0.44195592 0.7958759 -0.07429079 -0.0690919 0.023632616 -0.1631567 0.51510644
0.5783223 0.57400537 0.15307654 0.18893194 0.5804346 0.12292859 0.16811532 0.50086665
0.52591366 -0.37417603 0.6214508 0.045977615 -0.10543422 0.3852322 -0.14335687 -0.105664305
0.86913043 0.26518092 0.15025532 -0.10504194 0.61149335 0.45616633 -0.24623047 0.52970874
0.14699638 0.6518275 0.6197403 0.3153035 0.13173445 0.21321778 0.31342962 0.17673445
-0.028353488 0.54115945 -0.19950312 0.02522861 0.85954595 0.21682619 0.10707209 0.5146153
0.024086267 0.7983885 0.7245373 0.18192558 0.62750524 0.91242516 0.88373566 0.1883438
0.34217167 0.646485 0.52354646 0.07881621 0.70836544 0.7570922 0.67806625 0.015835823
0.3690704 0.296829 -0.2956295 -0.5182597 0.88868845 0.7938996 -0.12812845 0.33350644
0.4847195 0.47997287 0.46325907 0.7826755 0.16946636 0.79143596 -0.038794655 0.010355492
1.0204345 0.25952342 0.03855962 0.5346577 0.4252587 -0.092695735 0.37201926 -0.122548014
0.15995651 0.5948619 -0.38698575 -0.17198391 0.23194022 0.8175587 0.4355283 0.7093762
0.34754682 -0.48761624 0.019600462 0.4252855 0.4575822 -0.25308436 -0.23597617 0.67720735
0.38504493 0.24967943 0.75746596 0.13450822 0.21660854 0.8510687 0.047200914 -0.2476427
-0.065153964 0.17633542 0.24298465 0.81609076 -0.4151356 -0.072711214 0.14918208 0.48605937
0.34244597 0.54984754 0.2829051 0.16106261 0.50919294 0.2373233 0.6800093 0.50161856
-0.21938765 -0.30510578 0.15415488 0.7005364 0.044560924 0.12810594 0.06559782 0.05706437
0.755752 0.054212663 0.42712393 0.4947226 0.01710708 0.5592161 0.18139112 -0.23146437
-0.46909106 0.7793163 0.9449423 -0.32143882 0.60413414 0.011395818 -0.005529153 -0.42784113
0.6858185 0.47758675 0.828919 0.013472595 0.92262185 -0.06573594 0.36869216 -0.0010311719
0.64094996 0.41301477 0.23253463 -0.29090825 -0.17086427 1.1938558 -0.005910447 0.71860695
0.2152123 -0.018932775 0.10893976 0.35346857 -0.19801979 0.24331345 0.56968653 0.69696945
0.64220685 0.015763143 0.50577664 -0.14865881 0.17039615 0.56638265 0.5174421 0.18747564
0.45426783 0.1301716 0.2107805 0.20844895 -0.6450322 -0.061157193 0.32028073 0.16419229

linear2.weight f4 [256, 256]
00000000: ad81 a4bd c730 af3e a98f d63f 4ff4 d8be
00000010: 2b5d 833a 7ba2 593f 4a70 9dbf 37a3 d23d
00000020: ceb7 fcbd 4dc8 783d 2232 26c0 c04c 92bf
00000030: 24a3 35c0 3fb8 823d c4c1 4ebf d452 64be
00000040: fa34 293c 2d47 ed3d 2f21 2bc0 ed2e fb3d
00000050: b8f5 23bf c4b0 0a3e 6dec cf3e 0ea5 8a3d
00000060: 8d68 80bf 584d 54bf ed84 04bc 11d0 17be
00000070: 37e5 a13d 5580 af3d 5921 bd3e 0fd8 94bf
00000080: b815 1d3e 8511 4f3e 0e1b 39bf 959e f0bd
00000090: 563f a33e 435a 2440 9e05 fc3e 6713 87bf
000000a0: e192 a43e 02f6 5f3f 26f7 793e 508c df3d
000000b0: 223c 033e 0ede b43e ec26 c5bf b0fc 0bc0
000000c0: 73c0 b1be 3e8e 01c0 4934 57bf 5d02 02bd
000000d0: 677e e93e bc80 a83f e274 973e e209 f63d
000000e0: 0fdf 1ebd 097e 773e 9f91 15c0 5844 07bf
000000f0: fb44 543f 10e8 303e b1d3 2cc0 87e8 d13e
00000100: f3ea 663e ebd5 a3bf ce93 2d3f b228 053f
00000110: dfcc 6b3e 2c95 a43d 0b33 35c0 c50e 9a3e
00000120: ba7a 823e 53c8 d63e f660 323b 3221 e9be
00000130: 75e1 8c3e 0a6b fcbe 238e 6c3e b0d5 4d3e
00000140: ac2e 6b3e 78d2 bebf c58a 8f3d 7773 24bf
00000150: 88d1 ebbe 29f8 973d cb87 8dbe 0c8a 79bf
00000160: d5ca 823f 9961 e73d c919 103b 817f aebe
00000170: 874b db3e 518c b43e e6a8 80bf 5e4b ab3e
00000180: f732 1a3e fdc3 8dbf 36f4 0d3f 2689 083e
00000190: d2c1 36c0 4b80 a6bf e57b 27bf 74b4 f63e
000001a0: f9fb 2fbe a1a2 a2bf 034f 863d 8189 2f3d
000001b0: 5a87 c53e 1364 383d c820 613d 0e94 d83e
000001c0: 328a 56bb 7b43 ccbf a4ce 453e 5797 c3bd
000001d0: b3d7 aabf cd41 fcbf b568 223f 60bf 18bf
000001e0: 2888 cabe bd13 503e f633 a73f 9f4e 74bd
000001f0: 6bb2 5f3f 341a e73e 8a9d ddbf b81c 53c0
00000200: 0b75 28bf 826a adbf 1352 1bbf f4ef 8dbe
00000210: 8754 cfbf 64a4 753e d366 eabd 8abf 863d
00000220: 776b 623f cfb0 e73f 8d16 0cbd 59be 13c0
00000230: ae53 603d 2dc0 373f 0a0a ebbe 2c9b 33bf
00000240: 6bf1 4c3e ef68 203f 9502 57bf e484 ad3e
00000250: 3809 6c3f e49e 313f 5dd6 87bf 1c2f 6a3e
00000260: c098 8a3e 7283 013f ceb8 ecbd 8aee 7cbe
00000270: b1d6 4d3f 515e fa3e 1ca0 933e 1fa6 db3d
00000280: a550 853e 45ab f2be 3da1 23bf 6e0b 72be
00000290: 1a97 d83e ad24 7fbf 2a00 0ebf 4f5c f6bf
000002a0: 375d 1f3f 8428 233e af03 11bf 2118 fdbe
000002b0: d2fe 09c0 ce33 873f bf7c 60bf 78ca 42bf
000002c0: 69f5 59bf 4350 af3e beb6 c03e 9389 eabf
000002d0: 5a0d 9a3e d1ed a8be 64ef 2e3e 5bd0 ee3e
000002e0: 8ab8 adbf 1790 b63d aa7b ea3e bc1b 08be
000002f0: 6449 703e 9f52 463d e584 493e 324b 3a3e
00000300: bdab 94bf 42bc 3fbf de6d f53d c86a 4e3f
00000310: f3f7 6fbe e35d 5b3e 60d7 fdbd 0fb6 803e
00000320: fa35 e13d ec5e fabf 8b15 863e 8e04 6f3e
00000330: 08e7 6ebe 1d80 e63e c6b0 00bf 12dc 49bf
00000340: ec5b 8cbe 3dc0 d9bf d9e2 bbbf 377e cdbf
00000350: 1808 7bbf d64d 5fc0 49f1 a5bf 393f 1abf
00000360: 12f2 c83e 06cb a93e 5e8f ed3e f59a 3abf
00000370: 4646 b6bf d87f 6dbf 56ee 803e 6f78 60be
00000380: 50a7 103f ece2 eebf 3f12 473e c14a 953d
00000390: 6a64 a03f 46d3 583e 857c 52c0 0c3c e2bf
000003a0: 28c9 563e 2019 12bf e82c abbd 9b3f a53d
000003b0: 612d 8d3f 561d c63e fcd9 1b3e 6729 cdbf
000003c0: 7a68 c23b 34c2 a6bd 0a21 853f 50d8 a7be
000003d0: 2dc0 9c3e c5b3 3b3f bd0e cfb9 90ee 303e
000003e0: d0cc 8a3e 97ac 95bf 39fc 3d3e b837 58be
000003f0: 39bc 99bf 22e1 3ebf b475 963e 93cd 76bf
-0.08032546 0.34216902 1.6762592 -0.42373893 0.0010022273 0.8501355 -1.2299893 0.10285037
-0.123397455 0.060737897 -2.5968099 -1.1429672 -2.8380823 0.063827984 -0.8076441 -0.22297221
0.010327572 0.11585841 -2.6739004 0.1226481 -0.6404681 0.13543993 0.40610066 0.06769763
-1.0031906 -0.8293052 -0.008088333 -0.14825465 0.079050474 0.08569399 0.36939505 -1.1628436
0.15340316 0.20221527 -0.7230691 -0.11748997 0.3188426 2.5680091 0.49223036 -1.0552796
0.3214331 0.87484753 0.24410686 0.10915434 0.12815908 0.35325664 -1.5402503 -2.1872978
-0.3471714 -2.0243068 -0.84064156 -0.031740535 0.4560425 1.3164287 0.29581362 0.12013604
-0.038786944 0.24169172 -2.337013 -0.5283866 0.82917756 0.17276025 -2.7004206 0.40997717
0.22550564 -1.2799658 0.6780366 0.5201522 0.23027371 0.08036265 -2.8312404 0.30089393
0.25484258 0.4194971 0.0027218438 -0.4553314 0.2751576 -0.49300414 0.23101096 0.20101047
0.22967023 -1.490798 0.0700889 -0.64238685 -0.46058297 0.0742038 -0.27642664 -0.9747627
1.021815 0.11297912 0.0021988025 -0.34081653 0.4283106 0.35263303 -1.0051544 0.33455938
0.15058504 -1.1075436 0.5545076 0.13333568 -2.8555799 -1.3007902 -0.65423423 0.4818455
-0.17185964 -1.270588 0.06558039 0.042855743 0.38579828 0.045017313 0.054962903 0.42300457
-0.003273618 -1.5958093 0.19317108 -0.0955035 -1.3347076 -1.9707581 0.6344102 -0.59667015
-0.39557004 0.2032003 1.3062732 -0.05964529 0.8738162 0.4513718 -1.7313702 -3.2986279
-0.65803593 -1.3548129 -0.6067211 -0.27722132 -1.6197671 0.23988491 -0.114453934 0.06579502
0.8844523 1.8100833 -0.034201194 -2.308493 0.054767303 0.7177761 -0.45906097 -0.7015865
0.20013969 0.62660116 -0.83988315 0.3389045 0.92201567 0.6938307 -1.0612293 0.22869533
0.27069664 0.50591195 -0.11558686 -0.2470037 0.8040572 0.48900083 0.2883309 0.107250445
0.2603809 -0.47396293 -0.63917905 -0.23637173 0.4230278 -0.9966534 -0.55469 -1.924692
0.6225161 0.15933424 -0.56646246 -0.4943247 -2.156178 1.0562685 -0.8769035 -0.7609019
-0.8514009 0.34240922 0.3763942 -1.8323234 0.3008831 -0.3299394 0.17083508 0.46643338
-1.3571942 0.08914202 0.45797473 -0.1329183 0.23465496 0.048418637 0.19679601 0.18192747
-1.161491 -0.74896634 0.11983846 0.80631685 -0.23434429 0.21422534 -0.12394595 0.251389
0.10996623 -1.9560218 0.2618831 0.23341581 -0.23330319 0.45019618 -0.50269735 -0.78851426
-0.2741388 -1.7011791 -1.4678603 -1.6054143 -0.98059225 -3.4891257 -1.2964259 -0.6025272
0.39247185 0.33162707 0.46398443 -0.72892696 -1.4240196 -0.927732 0.25181836 -0.21920942
0.565053 -1.8663001 0.19440554 0.07289649 1.2530644 0.21174344 -3.28885 -1.7674575
0.20975173 -0.5706959 -0.083581746 0.080687724 1.1029474 0.38694257 0.15219873 -1.602826
0.0059328647 -0.0814251 1.0400708 -0.3278222 0.30615368 0.7332118 -0.00039493098 0.17278504
0.27109385 -1.1693295 0.18553247 -0.21115005 -1.2010566 -0.74562275 0.29386675 -0.9640743

linear2.bias f4 [256]
00000000: 966a 1e3f ba6a 0d3f 6586 8b3d 8b3f d93e
00000010: 609a a33d 3478 8f3e e2bf 233e 2769 f83d
00000020: e619 a33d 5da0 113e 0a09 3c3e e398 793d
00000030: 3ced 8d3e 661a 7f3e dd78 863d c0b2 a73d
00000040: da5f 813e c4fd 043e a45c 303e aa38 a03e
00000050: 6588 b23d ff4d 1c3e 53a7 813c 52a7 4c3e
00000060: d73d b73d 709d 6e3e dfca 73bd 59bd 283e
00000070: e59e 113e 7cae 4d3d a2ac 3e3e 204d c13d
00000080: 1799 963e 63a0 d13d 0446 423e 16d1 873e
00000090: 47eb cc3d bb83 893e e5db 0d3e 2b2d 373e
000000a0: 0db8 e73e dec6 383e d541 713e 1c44 1e3e
000000b0: cf19 203f 5a82 4c3e db26 1e3e 02d9 263e
000000c0: 2702 993d cf2c 2a3e b36b 983d b1ef 903e
000000d0: 59b9 473e f605 113e 7353 033e 1adf 8a3d
000000e0: 6542 6cbd 222f 0b3d 849b 233e 07a9 803e
000000f0: 241e 373e 2228 063e f881 423e 7436 d33d
00000100: 4290 003e 500b 013e 1c62 633d c730 363e
00000110: e328 31be f801 673e a4ee c53d 3557 563e
00000120: 91d4 013e 94cb 003e d13e 2fba 1b97 013e
00000130: 1fed 213e 543b 083e d32b 123e 9ceb 2e3e
00000140: 9fac 973e d3d3 473e b3a8 893e 70a6 5d3e
00000150: 9c43 563e 6ab5 2a3e f265 7a3e 6ab2 5e3e
00000160: b481 833e 2d67 933d fc4b 083e d920 753e
00000170: c4ed 753e d693 183e fa7b 4e3e 0f89 d73d
00000180: 910a a43d 373b 333e 7478 fb3d 2f23 a33d
00000190: 32b4 e23d deaf d83d 4689 d83d 08c3 5e3e
000001a0: 29f2 123e a2c4 afbc 2036 493e 3056 353e
000001b0: c176 683e a977 473e 20bd 623d 0729 0b3f
000001c0: dc7a dc3d 4428 373e 1670 323e b832 7f3d
000001d0: 540f 0a3e a4cd 123e 8ed4 393e 53de 723e
000001e0: 3a9c 973e ed59 41bd 37b0 383e 4eb8 853e
000001f0: dc76 4c3e fd1f 79bd 790d 193e 29b2 a23d
00000200: c710 443e ebc4 183e 2cdd 373e 6b42 1d3e
00000210: 2c7e 613e 1bee 6d3e 08fc 9d3e 20a6 1d3e
00000220: 4cc3 193e 2efd eb3d 83d2 003e 4049 84bc
00000230: 0333 7a3e efde 423e 0b86 923e 4cb2 2c3e
00000240: e256 fa3d 9805 163e e637 9b3d 4a34 523d
00000250: 7f47 eb3d 55ae 323e 1ee7 4b3e 569e de3d
00000260: e0e7 3f3e 1f96 3b3e fdd9 293e c263 223e
00000270: 805e 923e 497a 833e e98d 78bc 1690 1a3e
00000280: 88e3 233e 37ac cc3d 00f1 9e3e 50a6 8a3b
00000290: 5a69 d43d 63ad 333e 3577 4d3e 16b6 023e
000002a0: c77b 4c3e 903c c73d 9f22 5b3e 641b a13e
000002b0: abb0 b23d eb8b 233e 4286 393e 06f7 f13d
000002c0: 01e7 293e 22cb c23d 32ed 0d3e 6258 433e
000002d0: 5127 113e 4ea0 613e f827 203e f06f 533e
000002e0: 22e7 a83d 43ca 0c3e 5491 5c3d 8091 f33d
000002f0: f28c 333d a4a2 1b3e 0e7a 8f3d 0d22 7f3e
00000300: b47c 0b3e c631 9e3d fc67 033e 1a6a 363e
00000310: 4548 4e3e 99d7 413e 8012 b9bc ecdb c03d
00000320: 8ad9 283e 2b45 233e bfb5 6c3e 26a2 183e
00000330: bf8b 973e bf36 3c3e 99e2 de3d d711 533e
00000340: 438b eb3d 1354 223e f793 0c3e 033a 263e
00000350: ad4a 3e3e 80ab 053e 1c72 423e 79e4 533e
00000360: 9ee6 c33d 2936 fd3d e26b d7bc ce14 f03d
00000370: aeec c43d 4a94 373e 8faf 413e dc60 353e
00000380: 05ba cc3d 72cc cd3c d8f9 b73d 0d5a 523e
00000390: e982 fc3d cd78 5a3e 8f08 113e e862 1c3e
000003a0: f84c 073e 0c18 973e 6c00 f03e 3eb6 393e
000003b0: 80e0 2c3e 9cf2 283e 0705 633e f63d 663e
000003c0: d180 913e 27ac e53d 3a26 313e edee bb3d
000003d0: f02c 2a3e b184 e33d 067e 0e3e 58d5 ef3d
000003e0: 136b 443e 6aa6 143e 742b fc3d fc7f 473e
000003f0: 33bf e13d 9dfc 8e3d 4bc3 bc3d ab42 e03d
0.6188139 0.55240977 0.06812743 0.42431292 0.07988429 0.28021395 0.15991166 0.12129431
0.07963924 0.1422133 0.18362823 0.06093682 0.27720058 0.24912414 0.065660216 0.08188391
0.2526844 0.12987429 0.1722284 0.3129323 0.087174214 0.15264128 0.015826857 0.19985703
0.08947342 0.23302245 -0.059519645 0.1647848 0.1422077 0.05021523 0.18620542 0.094385386
0.29413673 0.102356695 0.18972021 0.26526707 0.10005813 0.26858315 0.13853414 0.17888324
0.45257607 0.18044612 0.23560269 0.15455669 0.6253938 0.199716 0.1544451 0.1629372
0.07471114 0.16618656 0.07442417 0.2830787 0.19504298 0.1416243 0.12824802 0.067808345
-0.057680506 0.033980496 0.15977293 0.25128958 0.17882591 0.13101247 0.18994892 0.103131205
0.1255503 0.12601972 0.055513486 0.17792045 -0.17300753 0.22559345 0.09664658 0.20931704
0.12678744 0.12577659 -0.00066850806 0.12655298 0.15813111 0.13303882 0.1427453 0.17082065
0.29623887 0.19514398 0.2688652 0.21645522 0.20924228 0.16670766 0.24452952 0.21747747
0.25684893 0.071974136 0.13310236 0.23938312 0.24016482 0.14900145 0.20164481 0.10524189
0.08009828 0.17503057 0.12278834 0.07965695 0.11069526 0.10580419 0.10573058 0.21754086
0.1435019 -0.021456067 0.19649553 0.17708659 0.22701551 0.1947924 0.055356145 0.5435948
0.10765621 0.17886454 0.1742557 0.06230423 0.1348241 0.14336258 0.1814749 0.23717622
0.2961138 -0.0472049 0.1803597 0.26117176 0.19967216 -0.060821522 0.14946546 0.079441376
0.19147025 0.14918868 0.17955464 0.15357368 0.22020787 0.23235361 0.30856347 0.15395403
0.15015906 0.115228996 0.12580304 -0.01614821 0.24433522 0.19030355 0.28617892 0.1686489
0.12223603 0.14650571 0.07579021 0.051319398 0.11488246 0.17449315 0.19912383 0.10870044
0.18740797 0.18318985 0.16587062 0.15858367 0.28587723 0.25679234 -0.015170553 0.15094027
0.16004765 0.09993785 0.31043243 0.004231252 0.10371657 0.1754661 0.20065005 0.12764773
0.19969092 0.09728348 0.21399926 0.3146621 0.08725103 0.15971343 0.18117622 0.11814694
0.16592027 0.09511401 0.13860014 0.19076684 0.14175154 0.22033808 0.15640247 0.2064817
0.0824721 0.13749032 0.053849533 0.11892986 0.043835588 0.15198761 0.07005702 0.24915333
0.13621789 0.07724337 0.12832636 0.17813912 0.20144756 0.189299 -0.02259183 0.09416947
0.16489235 0.15944354 0.23116206 0.14905605 0.29598805 0.18380259 0.10883064 0.20612274
0.115011714 0.15852384 0.13728319 0.16233067 0.18583174 0.13053703 0.18988842 0.20692624
0.09565471 0.12363846 -0.02629656 0.11722718 0.096154556 0.17927662 0.18914627 0.1771273
0.09996418 0.025121901 0.08983201 0.20542164 0.12329657 0.21335144 0.14163421 0.15272105
0.13212955 0.29510534 0.46875322 0.18135926 0.16882515 0.16498798 0.22169887 0.22484574
0.28418592 0.11214476 0.17299739 0.09176431 0.16618705 0.11109293 0.13915262 0.11710614
0.1918147 0.14516607 0.123129755 0.19482416 0.110227965 0.06981776 0.09216937 0.10950216

linear3.weight f4 [1, 256]
00000000: d3f3 1740 9d97 f13f 1b90 f0bf 3c14 6140
00000010: b536 e8bf ad9e 5f3f dd86 e3bf 9c18 ecbf
00000020: d6d9 e8bf e87f edbf b6e8 efbf 03a3 ecbf
00000030: 0cd0 653f 8dfb 603f 352f eebf e690 efbf
00000040: 5670 623f 1c83 edbf 3112 e0bf 0fd8 673f
00000050: 9f7f e9bf 5ee6 623f 914a 213a 4587 5f3f
00000060: 3c6a e6bf 5a2c 653f 23ff c1bb c91d eebf
00000070: 6fa6 ebbf 4439 edbf f079 613f df21 e7bf
00000080: a939 613f 543e f0bf 7f7e 5b3f e9d1 623f
00000090: e817 e8bf e4be 5f3f 0b25 e7bf c81f f7bf
000000a0: e2b5 f33f bcf3 ebbf 7d25 5e3f 9de6 ecbf
000000b0: 3a5f 1840 8137 603f bae5 f3bf 98a0 623f
000000c0: 4ac7 e7bf 2337 e7bf 2ef2 edbf 5ca4 743f
000000d0: f191 603f 5fa4 edbf 2263 e3bf ad4c eabf
000000e0: 23bf 55ba 580b 843f 9922 603f 5a1b 723f
000000f0: cf42 e4bf bb0a e7bf db85 623f ab45 e3bf
00000100: e1c1 ecbf 5295 eabf a28f c93f 2859 e7bf
00000110: 0668 0ec0 5241 603f cd46 623f 5c56 633f
00000120: 148d 5f3f 082c eebf 3a3a 433b 6dd2 f3bf
00000130: bb8f 643f c42e e2bf 3090 ebbf 820f edbf
00000140: c495 6a3f 9b41 603f ad55 633f 84ca 623f
00000150: ccc1 613f b277 e6bf bc2f 603f 67ca 663f
00000160: a34b 603f a8da f4bf 249e e5bf 6074 6f3f
00000170: 0eb9 613f 9a2d e9bf c797 623f a59f efbf
00000180: 6cae e8bf 9e57 e1bf ba67 633f 0259 e9bf
00000190: 47df debf d895 f2bf fcb1 edbf 108d 643f
000001a0: 4a08 ecbf 3f39 b33f 6f17 603f 0cd1 ecbf
000001b0: 8bf3 5d3f 976a 623f 19bf fd3a 3891 0e40
000001c0: 5c67 e4bf dce0 5f3f c7b7 5e3f 75d8 e4bf
000001d0: ac93 01c0 c6c6 eebf b4ab ebbf 51e2 6f3f
000001e0: f1e8 633f 7854 82ba 57f1 ebbf ec7e 5f3f
000001f0: dff2 623f f210 7e3a c41c e6bf 4d2a efbf
00000200: 2926 e5bf 3ee7 e8bf cbb9 edbf 8409 e5bf
00000210: 0539 5e3f 1e93 603f 26ec 623f fa05 f0bf
00000220: a287 f1bf 9391 e6bf 68f3 5d3f 09dc 20bb
00000230: 01cb 5f3f 6ee2 f3bf 16ab 613f aa58 f4bf
00000240: c863 e8bf babf 633f 44ed d23f a03d f0bf
00000250: 7f89 e3bf 20fd e1bf 0588 f1bf a598 e7bf
00000260: 5d48 e4bf 366b f1bf b8b6 f3bf bcbd ebbf
00000270: cb3e 613f 77a1 603f 6f74 19bf 0278 dfbf
00000280: db51 e9bf c357 f1bf c5d0 603f c6f1 363b
00000290: 2ccc ecbf 85fb e8bf b61f 5f3f 89e4 e7bf
000002a0: 163d 603f b3aa edbf 2929 0bc0 36c6 603f
000002b0: 9598 efbf cf0c 0ac0 18d3 603f c1fe eebf
000002c0: a3e3 e9bf d334 dfbf cc23 e3bf 3089 633f
000002d0: 1d3f eabf 13fc 5d3f ee6b 5f3f fb71 643f
000002e0: 2c02 e7bf ed0e eebf f094 aeb9 c1bf d53f
000002f0: c218 f0ba abbb ecbf d8c5 e4bf 8686 613f
00000300: 3651 eebf 629b eabf c736 e7bf 4620 633f
00000310: a73e 5b3f c89e e8bf be44 48bb 7582 e1bf
00000320: bc92 623f 9138 efbf ca80 603f 27b5 04c0
00000330: 6091 623f 1e33 e5bf 1e65 eabf b3fa 623f
00000340: ac72 5b3f f71a e6bf d355 f3bf ffa7 e8bf
00000350: bb6c e2bf 5d0b e4bf 3ca5 623f 3231 603f
00000360: 4b97 f5bf ee92 e9bf cab3 043b 28b4 e1bf
00000370: 9c20 e6bf c151 e3bf dff1 ebbf 2e4d 603f
00000380: 130d e3bf d50c 4cbb edee ecbf 2744 5f3f
00000390: 5e4e e9bf b0a4 5b3f 971f e2bf 7ccb e7bf
000003a0: 0d84 e6bf ea95 5e3f fd0b f93f 9d17 e3bf
000003b0: 7bdc e9bf be20 0bc0 4e64 5c3f a314 613f
000003c0: 1c1a 613f 8a06 623f 3f14 613f faa4 edbf
000003d0: c58c e3bf 0f8a e1bf 889d e4bf 83ab ecbf
000003e0: 20f2 643f 5a67 28c0 18d0 e5bf 6673 633f
000003f0: 2331 633f d358 e0bf 165c e4bf ee78 e6bf
2.3742568 1.8874394 -1.8793977 3.51686 -1.8141695 0.87351495 -1.7775532 -1.844501
-1.8191478 -1.8554659 -1.8742893 -1.8487247 0.8977058 0.87883836 -1.8608156 -1.8716094
0.8845266 -1.8555636 -1.7505552 0.90564054 -1.8242072 0.8863276 0.0006152774 0.8731578
-1.800117 0.895208 -0.0059203072 -1.860284 -1.8410167 -1.8533101 0.88076687 -1.8057212
0.8797861 -1.8769021 0.8573989 0.8860155 -1.8132296 0.8740065 -1.805818 -1.9306574
1.9039881 -1.8433757 0.8677595 -1.8507878 2.3808122 0.8758469 -1.9054482 0.88526297
-1.8107693 -1.8063701 -1.8589532 0.9556329 0.8772269 -1.8565787 -1.7764628 -1.830465
-0.0008153787 1.0315962 0.8755279 0.94572985 -1.7832888 -1.805015 0.884855 -1.7755636
-1.8496667 -1.8326819 1.5746958 -1.8074083 -2.225099 0.8759967 0.88389283 0.8880365
0.87324643 -1.8607187 0.0029789344 -1.9048592 0.89281815 -1.7670522 -1.8403378 -1.8520358
0.91634774 0.87600106 0.88802606 0.88590264 0.88186336 -1.8005278 0.87572837 0.9015259
0.8761541 -1.9129229 -1.7938886 0.9353695 0.88172996 -1.8217041 0.88512844 -1.8720595
-1.8178229 -1.7604864 0.8883015 -1.8230288 -1.7411889 -1.8951979 -1.8569942 0.89277744
-1.844003 1.4001845 0.87535757 -1.8501296 0.8669974 0.88443893 0.001935932 2.2276134
-1.7844043 0.87452483 0.8699917 -1.7878557 -2.0246382 -1.8654411 -1.8411775 0.93704706
0.89027315 -0.0009943387 -1.8433026 0.8730304 0.8865184 0.0009691856 -1.7977529 -1.8684784
-1.790227 -1.819557 -1.8572325 -1.7893529 0.86805755 0.87724483 0.88641584 -1.8751824
-1.8869517 -1.8013176 0.86699533 -0.0024545214 0.87419134 -1.9053476 0.8815168 -1.9089558
-1.8155451 0.88964427 1.6478658 -1.8768806 -1.7776335 -1.7655373 -1.8869635 -1.8093458
-1.7834584 -1.8860843 -1.9040136 -1.8417277 0.8798644 0.87746376 -0.5994329 -1.7458498
-1.8228105 -1.8854908 0.8781856 0.0027915104 -1.8499808 -1.8201758 0.8715776 -1.8116618
0.8759321 -1.8567718 -2.1743872 0.87802446 -1.8718439 -2.1570318 0.87822104 -1.8671495
-1.8272594 -1.7437996 -1.7745299 0.88881207 -1.8300511 0.8671276 0.8727406 0.8923642
-1.8047538 -1.8598305 -0.00033298833 1.6699144 -0.0018317925 -1.8494772 -1.7872877 0.8809589
-1.8618534 -1.8328669 -1.8063592 0.8872112 0.85642475 -1.8173456 -0.0030558552 -1.7617937
0.8850515 -1.8689138 0.87696517 -2.0735567 0.88503075 -1.7906225 -1.8312109 0.88663787
0.8572185 -1.7976979 -1.9010566 -1.8176268 -1.7689432 -1.7815968 0.8853338 0.87575066
-1.9186796 -1.8247964 0.0020248764 -1.7633104 -1.7978702 -1.7759324 -1.8433188 0.87617767
-1.7738365 -0.0031135578 -1.8510414 0.8721337 -1.8227041 0.8579817 -1.766589 -1.8108974
-1.8009049 0.869475 1.9456784 -1.7741581 -1.827041 -2.1738734 0.8609055 0.87922114
0.87930465 0.8829123 0.8792152 -1.8565972 -1.7777334 -1.7620257 -1.7860575 -1.8489841
0.89431953 -2.631308 -1.795413 0.8884796 0.8874685 -1.7527107 -1.7840602 -1.8005655
