testing/scripts/outputs/DDPG_Env/20221214-223904/models/230critic_checkpoint.pt (torch, 282455 bytes, 5 tensors)

linear1.weight f4 [256, 15]
-0.075280756 -0.41802698 -0.26761493 0.3141934 0.45805508 0.15780245 0.29888353 0.076163515
0.13109587 0.2708666 0.080233075 -0.51571476 0.24441695 0.29328284 0.19563627 0.25831977
0.32680553 0.20109616 0.8432868 0.58542085 0.39005774 0.70174503 0.83671105 0.5302416
0.46227604 0.38382414 -0.05281709 -0.29160205 0.021754643 0.083964646 0.21423212 -0.2550739
-0.044116862 0.11857755 -0.12490927 0.1357515 0.05813885 0.1915336 -0.037574094 0.050630312
-0.016469227 -1.740159 -0.033624794 0.13517393 0.04192572 0.41078854 0.43557537 0.13408889
-0.011397862 0.22440463 -0.005921393 0.48123506 -0.13781184 -0.4415845 -0.07511837 0.018554445
0.21539661 -0.011736757 -0.21379933 -0.2230303 0.15304202 0.22781034 0.10472472 0.14006138
0.008667555 0.050644718 0.38814232 0.6350572 0.7533533 0.5612593 0.024840338 -0.12823237
0.49909812 -0.07785695 0.12439706 0.36303717 -0.2862645 -0.14976072 -0.1295997 0.023168651
0.123875916 0.15943076 0.0934541 -0.014852592 0.35273647 0.10250959 -0.44237545 -0.29471844
-0.18288366 0.23469934 -0.23877981 0.0045349593 -0.6107916 -0.6484794 -0.53972775 -0.7850702
-0.82716376 -0.76599354 -0.4621571 0.32221416 -0.2022376 0.000116051066 0.17539942 0.078471825
-0.023904238 0.47381377 0.4488394 0.5960382 0.18748535 0.19490619 0.2313716 0.023326693
0.12897909 0.42814785 0.25968063 -0.2644884 0.16738687 -0.13712367 0.26878124 0.19985528
-0.63793343 -0.084658824 -0.030680053 0.0564313 0.27683955 -0.19840378 -0.16777018 -0.17442125
0.23281503 0.38197038 -0.25578332 0.09206626 -0.2885719 0.07079275 -0.06260009 -0.09715672
-0.24370627 -0.5569347 -0.17772065 -0.045188986 -0.045719948 0.28057376 0.051252212 0.41837376
0.04987793 -0.01960042 0.2893725 0.41097447 0.32323638 0.09520707 0.4017635 0.1302915
-0.4897085 0.2886155 0.285022 0.42766187 0.39071703 -0.11689579 0.0807339 -0.23436293
-0.14054283 0.103268445 0.16418126 -0.038226154 0.059338972 -0.43253544 0.41686642 -0.050429165
-0.22936164 -0.20489283 0.1104367 -0.10354683 0.4218929 0.0033784849 -0.21893828 0.023710081
0.07614723 0.010173 0.29899326 0.30051982 -0.0635521 0.13328765 0.19374634 0.02994399
-0.009563009 -0.13137002 0.39961818 0.28376704 0.072629 -0.014407038 -0.2596527 0.07003826
0.27997747 0.025486538 0.16089006 0.067788154 -0.83321 -0.5066832 -0.03453851 0.19560605
0.4779196 0.4431228 0.39027515 0.2707485 0.038913455 0.10406552 0.24433938 -0.10602342
0.1573459 0.24362445 0.13137442 -0.00012615848 -0.12910022 0.37766615 0.46391115 0.16892166
0.123265356 0.04402619 0.023497935 0.16770463 -0.076023445 0.110299714 0.1072559 -0.19835746
-0.077119246 -0.25328267 0.05975142 -0.050073728 -0.11369652 -0.0040158136 -0.22517999 -0.05609297
0.16302769 -0.04292621 0.13972588 -0.13526429 0.083203554 -0.14696671 0.035769913 0.24387011
-0.4324402 0.2882886 0.09976228 0.09157723 0.2940631 0.0293089 0.054823834 0.15243217
0.13996574 -0.40591708 -0.013807389 0.64444685 -0.15507887 -0.15372056 -0.008902154 0.6455965
00000000: cc2c 9abd a207 d6be d304 89be f5dd a03e
00000010: 3286 ea3e f796 213e 4307 993e 9efb 9b3d
00000020: ff3d 063e 07af 8a3e 3d51 a43d e205 04bf
00000030: 7048 7a3e 2b29 963e e054 483e 7d42 843e
00000040: 0e53 a73e 27ec 4d3e a5e1 573f 24de 153f
00000050: a6b5 c73e 90a5 333f b232 563f eabd 073f
00000060: 72af ec3e 9984 c43e bc56 58bd dd4c 95be
00000070: cb36 b23c a8f5 ab3d aa5f 5b3e 0c99 82be
00000080: e2b3 34bd c9d8 f23d 6ed0 ffbd 7102 0b3e
00000090: 0123 6e3d 6221 443e 4be7 19bd bb61 4f3d
000000a0: 79ea 86bc 88bd debf 27ba 09bd 096b 0a3e
000000b0: 4eba 2b3d e052 d23e bc03 df3e 994e 093e
000000c0: 19be 3abc 54ca 653e 3f08 c2bb 7164 f63e
000000d0: 8c1e 0dbe 5d17 e2be a9d7 99bd 7eff 973c
000000e0: ee90 5c3e 874b 40bc 36ee 5abe 0e62 64be
000000f0: 0cb7 1c3e 1d47 693e ea79 d63d 406c 0f3e
00000100: 5c02 0e3c d670 4f3d 97ba c63e 1c93 223f
00000110: c3db 403f b1ae 0f3f f77d cb3c 594f 03be
00000120: ca89 ff3e 7773 9fbd e3c3 fe3d 02e0 b93e
00000130: 4391 92be e05a 19be c9b5 04be 2fcc bd3c
00000140: a8b2 fd3d d141 233e dd64 bf3d 4958 73bc
00000150: e099 b43e 8cf0 d13d 097f e2be 56e5 96be
00000160: db45 3bbe 0655 703e b282 74be ff99 943b
00000170: d75c 1cbf bf02 26bf 992b 0abf 5cfa 48bf
00000180: 01c1 53bf 2718 44bf db9f ecbe 41f9 a43e
00000190: 6017 4fbe 7160 f338 e89b 333e d6b5 a03d
000001a0: d2d2 c3bc b897 f23e 47ce e53e f695 183f
000001b0: 29fc 3f3e 7d95 473e adec 6c3e 9f17 bf3c
000001c0: 1813 043e 3236 db3e dcf4 843e 066b 87be
000001d0: 7767 2b3e 266a 0cbe b29d 893e dda6 4c3e
000001e0: 9b4f 23bf 9b61 adbd bc54 fbbc 8224 673d
000001f0: eabd 8d3e 5c2a 4bbe f2cb 2bbe 7c9b 32be
00000200: 1067 6e3e 9f91 c33e 08f6 82be 3c8d bc3d
00000210: b2bf 93be cafb 903d 7a34 80bd 1afa c6bd
00000220: 238e 79be 4693 0ebf 67fc 35be 1618 39bd
00000230: d744 3bbd 5da7 8f3e d7ed 513d 1635 d63e
00000240: cd4c 4c3d 0f91 a0bc a228 943e 3f6b d23e
00000250: 3d7f a53e edfb c23d f2b3 cd3e 236b 053e
00000260: 13bb fabe 69c5 933e 67ee 913e 7ff6 da3e
00000270: 100c c83e 0f67 efbd d157 a53d d6fc 6fbe
00000280: 76ea 0fbe 687e d33d 221f 283e 0793 1cbd
00000290: 6c0d 733d 4975 ddbe 846f d53e d08e 4ebd
000002a0: c7dd 6abe 6dcf 51be a32c e23d 5c10 d4bd
000002b0: 5902 d83e 9269 5d3b 5b31 60be a53b c23c
000002c0: 14f3 9b3d a8ac 263c a515 993e bcdd 993e
000002d0: 9a27 82bd 8f7c 083e 7165 463e 194d f53c
000002e0: 2bae 1cbc dd85 06be c19a cc3e ea49 913e
000002f0: 83be 943d 7f0b 6cbc 33f1 84be 3870 8f3d
00000300: 3559 8f3e 25c9 d03c 5dc0 243e 84d4 8a3d
00000310: 404d 55bf fdb5 01bf 4178 0dbd f44c 483e
00000320: e1b1 f43e fee0 e23e 25d2 c73e 8c9f 8a3e
00000330: b763 1f3d 4e20 d53d 1a34 7a3e cf22 d9bd
00000340: 491f 213e b078 793e 0487 063e 6949 04b9
00000350: d932 04be 755d c13e c385 ed3e cdf9 2c3e
00000360: 8c72 fc3d ce54 343d be7e c03c c3ba 2b3e
00000370: 2eb2 9bbd d1e4 e13d fba8 db3d 381e 4bbe
00000380: b2f0 9dbd 44ae 81be e8bd 743d 1c1a 4dbd
00000390: b9d9 e8bd 1697 83bb 9595 66be bec1 65bd
000003a0: bbf0 263e 65d3 2fbd 4d14 0f3e b982 0abe
000003b0: a066 aa3d 717e 16be 7983 123d 16b9 793e
000003c0: cd68 ddbe 909a 933e 2b50 cc3d d88c bb3d
000003d0: 708f 963e 3819 f03c f58e 603d 2e17 1c3e
000003e0: 2e53 0f3e 5dd4 cfbe 6338 62bc 78fa 243f
000003f0: ffcc 1ebe ec68 1dbe 57da 11bc d045 253f

linear1.bias f4 [256]
0.34835392 0.39162967 0.56691366 0.1391762 0.08053959 0.46492833 0.0049781757 0.37860787
0.045784038 0.29394776 -0.31800145 -0.10729301 -0.44024715 0.24670176 -0.0091575505 0.16664247
-0.10555209 0.3683648 -0.102895156 -0.010082639 -0.1538676 0.6356182 0.35081553 0.16317327
-0.22961232 0.3030197 0.07551218 0.014668226 0.45194116 -0.21806476 0.28598136 0.19190113
0.663399 0.21727759 -0.24079679 -0.1618549 0.6278767 0.7227815 0.75375473 0.2871377
0.68082696 0.6164469 0.5067917 0.25211883 0.14082812 0.7462939 0.19105686 0.29775685
0.19386104 -0.13647461 -0.13506462 -0.03111179 0.28210464 0.584912 0.27995682 0.18505658
-0.0007159395 0.96093655 0.05541046 -0.03201114 0.40587902 0.06637457 -0.04687415 0.64423794
-0.039873485 -0.4185984 0.6410443 -0.040167663 -0.010930248 0.082918316 -0.31300136 0.6713923
0.6314674 0.6766581 0.20240593 -0.12924144 0.66381377 -0.047371846 0.2579461 0.3575438
0.6163889 -0.29216117 0.6289377 -0.05481227 -0.09918574 0.16357306 -0.050829284 -0.15195972
0.618357 0.1729357 -0.0029882267 -0.16221683 0.7108045 0.48452285 -0.25682303 0.6370981
0.15096428 0.20243956 0.5522119 0.25698525 -0.09032455 -0.09529412 -0.06707688 0.32181042
0.14624928 0.24248222 -0.19085598 0.2506375 0.5423 0.42315808 0.23396584 0.5284772
-0.088596486 0.4228174 0.5603483 0.07905854 0.09864375 0.3813022 0.718598 0.055661134
0.16683283 0.5562228 0.5733566 0.11680356 0.40336025 0.46006268 0.42332605 -0.08115184
0.14137968 -0.06784191 -0.1759707 0.27458477 0.49281064 0.78254294 0.11557628 0.49906626
0.4923986 0.5107545 0.25698963 0.35828412 0.032859262 0.63666457 -0.10528105 -0.11705125
0.74252903 0.28103828 0.02173039 0.5701151 0.33421633 0.24604051 -0.051179696 0.057560205
0.19877027 0.6509808 -0.090609565 -0.15320413 0.38821265 0.6800332 0.40722492 0.51607674
0.43835166 -0.34281778 -0.12421641 0.16290946 0.5556471 -0.25542474 -0.11909969 0.19763851
0.45627066 0.31118423 0.29689595 -0.08789624 -0.025188202 0.7311015 -0.010934391 -0.38305596
-0.0047209994 0.3400081 0.16103992 0.38011405 -0.0038238748 -0.03752819 0.3291002 0.57821876
0.20872124 0.40108314 0.30941847 0.028466422 0.34155452 0.42268017 0.5317792 0.66155815
-0.20919074 -0.2572579 0.104816325 0.45003694 0.0143947825 0.2483142 -0.13954805 -0.045437958
0.69992244 -0.04385161 0.61366546 0.61765766 -0.075468436 0.6486029 0.07248775 -0.1917555
-0.09056563 0.30414602 0.53950304 -0.24459739 0.2489479 -0.031308375 -0.25077555 -0.35368767
0.7863031 0.51702994 0.63424456 -0.256243 0.5919509 -0.144167 0.53702295 -0.12559173
0.7350509 0.042796645 0.27383393 -0.00079297915 0.016316509 0.99322164 -0.07087065 0.2706304
0.3374494 -0.021607136 0.25311244 0.21110797 0.07460744 0.3254265 0.42844224 0.3631442
0.49564847 -0.11762416 0.52178985 -0.07040525 0.16631444 0.63248056 0.32765314 0.28741223
0.5764171 -0.057644214 0.3618614 -0.012660901 -0.48786142 -0.28371167 0.4870262 -0.04813967
00000000: 725b b23e af83 c83e 4121 113f 3584 0e3e
00000010: f1f1 a43d 160b ee3e f71f a33b e4d8 c13e
00000020: 0b88 3b3d 5280 963e 16d1 a2be 70bc dbbd
00000030: 1368 e1be 639f 7c3e 8d09 16bc 53a4 2a3e
00000040: b22b d8bd 509a bc3e b2ba d2bd a731 25bc
00000050: 788f 1dbe e0b7 223f 189e b33e e516 273e
00000060: 7e1f 6bbe 6625 9b3e 21a6 9a3d 0053 703c
00000070: d564 e73e 5e4c 5fbe 266c 923e bb81 443e
00000080: 84d4 293f 047e 5e3e 6f93 76be 4abd 25be
00000090: 87bc 203f 3508 393f 12f6 403f b603 933e
000000a0: ad4a 2e3f 77cf 1d3f 1abd 013f b815 813e
000000b0: 3f35 103e 1e0d 3f3f 69a4 433e 9673 983e
000000c0: 8283 463e 00c0 0bbe 614e 0abe 27de febc
000000d0: 0570 903e cbbc 153f 8056 8f3e 797f 3d3e
000000e0: e3ad 3bba f0ff 753f 14f6 623d 1d1e 03bd
000000f0: 60cf cf3e 64ef 873d 1cff 3fbd c7ec 243f
00000100: 6152 23bd 8852 d6be 7b1b 243f d986 24bd
00000110: c814 33bc 14d1 a93d b741 a0be 5ee0 2b3f
00000120: d9a7 213f 7739 2d3f 8043 4f3e de57 04be
00000130: b3ef 293f fb08 42bd 8311 843e fb0f b73e
00000140: aacb 1d3f 2696 95be 1002 213f d582 60bd
00000150: e521 cbbd b27f 273e 5e32 50bd 549b 1bbe
00000160: a54c 1e3f 0e16 313e 20d6 43bb 2b1c 26be
00000170: 49f7 353f 6113 f83e 4f7e 83be dc18 233f
00000180: 6196 1a3e 514c 4f3e c25d 0d3f 9293 833e
00000190: 14fc b8bd 9029 c3bd 9a5f 89bd 56c4 a43e
000001a0: 5fc2 153e 424d 783e c06f 43be 8f53 803e
000001b0: 2cd4 0a3f 2da8 d83e be94 6f3e 484a 073f
000001c0: 1372 b5bd 867b d83e fc72 0f3f 72e9 a13d
000001d0: bc05 ca3d 0b3a c33e 0af6 373f eefc 633d
000001e0: 3ad6 2a3e 9e64 0e3f 80c7 123f b436 ef3d
000001f0: 3c85 ce3e 568d eb3e 31be d83e f032 a6bd
00000200: d6c5 103e b3f0 8abd aa31 34be 6096 8c3e
00000210: ad51 fc3e bc54 483f 42b3 ec3d 9d85 ff3e
00000220: ab1b fc3e cfc0 023f 2594 833e 0471 b73e
00000230: 6f97 063d 73fc 223f 979d d7bd 91b8 efbd
00000240: 6216 3e3f 40e4 8f3e ee03 b23c 10f3 113f
00000250: 671e ab3e 0bf2 7b3e cda1 51bd 40c4 6b3d
00000260: 6f8a 4b3e ada6 263f 8291 b9bd 8be1 1cbe
00000270: cfc3 c63e a816 2e3f c97f d03e 9b1d 043f
00000280: a16f e03e d085 afbe 2c65 febd bdd1 263e
00000290: e33e 0e3f 08c7 82be 8aea f3bd c061 4a3e
000002a0: 4f9c e93e 8a53 9f3e bf02 983e f202 b4bd
000002b0: 7d57 cebc 7829 3b3f 2926 33bc e91f c4be
000002c0: 9db2 9abb 8b15 ae3e a6e7 243e 4f9e c23e
000002d0: f999 7abb 29b7 19bd d27f a83e 2506 143f
000002e0: 05bb 553e c55a cd3e 196c 9e3e 6a32 e93c
000002f0: 3ce0 ae3e 8969 d83e af22 083f e05b 293f
00000300: 1936 56be 4fb7 83be f1a9 d63d 3e6b e63e
00000310: 18d8 6b3c 1446 7e3e afe5 0ebe 271d 3abd
00000320: 1e2e 333f bf9d 33bd 2e19 1d3f d01e 1e3f
00000330: 328f 9abd d70a 263f 7574 943d 8e5b 44be
00000340: 797a b9bd 07b9 9b3e df1c 0a3f bd77 7abe
00000350: 33ec 7e3e 363d 00bd a765 80be 8d16 b5be
00000360: 294b 493f 135c 043f da5d 223f 4832 83be
00000370: 188a 173f 84a0 13be 567a 093f 1e9b 00be
00000380: 4c2c 3c3f 894b 2f3d f633 8c3e eedf 4fba
00000390: 33aa 853c c643 7e3f a224 91bd 1190 8a3e
000003a0: 2bc6 ac3e 7301 b1bc f497 813e b02c 583e
000003b0: c9cb 983d 4d9e a63e c85c db3e 09ee b93e
000003c0: a3c5 fd3e f0e4 f0bd 0594 053f a130 90bd
000003d0: 554e 2a3e 3fea 213f 27c2 a73e b227 933e
000003e0: 1290 133f 571c 6cbd e645 b93e ab6f 4fbc
000003f0: f9c8 f9be a842 91be 805b f93e 1a2e 45bd

linear2.weight f4 [256, 256]
0.07986324 0.18220851 0.74407053 -0.42154858 -0.008234687 0.46586078 -0.028501872 0.017574461
-0.13714875 -0.1050123 -1.173733 -0.41901082 -1.1520765 0.08855489 -0.82236993 -0.21706952
-0.27524498 0.445156 -0.54886544 0.32184914 -0.36036724 -0.0008453538 0.34212288 -0.06680161
-0.74803483 -0.21167244 -0.10756699 -0.048040375 -0.029793568 0.059275333 0.33945057 -0.1185698
0.014506921 0.050496165 -0.50733316 -0.20413746 0.12020799 1.0885929 0.37954497 -0.046975713
0.24325968 0.64827096 0.12691663 0.053985782 0.027384676 0.13881087 -0.06639782 -0.5929372
-0.5488686 -1.0365556 -0.3858279 -0.12774123 0.038665768 0.8304778 0.24056149 0.04181399
-0.052073345 0.07278457 -0.34799826 -0.44217205 0.56088 0.08371352 -0.6212337 0.28663057
0.04590758 -0.7500461 0.48782527 0.17424913 0.22035763 0.07008282 -0.8876603 0.15222424
0.2811545 0.349973 0.00841322 -0.58662444 0.4468215 -0.06098299 0.059181187 0.14775568
0.13823408 -1.2166425 -0.037605003 -0.24562745 -0.4299798 0.26803982 -0.3244209 -0.9771501
0.5069627 -0.057524733 0.01005839 -0.25025344 0.37091428 0.39316025 -0.6622805 0.1499076
-0.077364415 -0.21343985 0.493494 -0.09648354 -0.62948126 -0.122227624 0.23920739 0.40381178
-0.1289026 -0.20019108 0.25818372 0.08951891 0.1675079 0.018976217 -0.04666715 0.23151791
-0.11171066 -0.12944469 0.050724972 -0.11781591 0.031719122 -0.23515473 0.082060516 -0.63044983
-0.1056294 0.05385116 0.784985 0.13123186 0.64423096 0.2594944 -0.64359194 -1.0817882
-0.09615613 -0.19549072 -0.29375732 0.5369209 -0.2858799 0.027091572 -0.27505246 -0.06274966
0.58859545 0.75887126 0.019203948 -0.7154538 0.34356502 0.5830512 -0.09917602 -0.43749684
0.07211248 0.23766512 -0.68679 0.37255672 0.8332176 0.57834905 0.10041428 -0.09162622
0.10649582 0.36459947 0.11779179 0.11209749 0.49903876 0.35457906 -0.059275065 0.011346533
0.28051418 -0.19930486 -0.20210183 0.231943 0.32536906 -0.7404649 -0.15393783 -0.44581622
0.5237337 0.29194686 -0.10366351 -0.05414687 -0.5820378 0.8734871 -0.9875779 -0.6668203
-0.8416523 0.51397663 0.29316667 -0.1340581 -0.1400173 -0.35584253 0.020484574 0.40082106
-0.4756666 0.046930958 0.26414174 -0.13759719 0.09936322 -0.093786344 0.11938769 0.0296044
-0.81107116 -0.714346 -0.18632324 0.7502863 0.12946755 0.101310946 -0.059351973 -0.050219066
-0.03160661 -0.47688946 0.1490998 0.110892996 -0.34576023 0.2687338 -0.032501247 -0.77229065
-0.42531312 -0.30206373 -0.24505132 -0.44006795 -0.090011835 -0.7565456 -0.73646724 -0.7090458
0.38372186 0.324155 0.39077398 -0.64314824 -0.3886081 -1.0734099 0.09059571 -0.36869207
0.49560302 -0.5107173 -0.22072941 -0.049846172 0.91000676 0.058622263 -0.7496947 -0.37987837
0.18506286 -0.12199768 0.15179604 0.24473967 0.61983067 0.16264226 0.053477645 -0.117700785
-0.1051826 -0.26535255 0.7833954 -0.20756707 -0.030766474 0.3023021 0.21343659 0.082439154
0.1005904 0.39688262 0.0038026145 0.08453105 -0.5897351 -0.56399506 0.106727555 -0.32647032
00000000: 578f a33d de94 3a3e 687b 3e3f 37d5 d7be
00000010: c8ea 06bc 4e85 ee3e c27c e9bc 51f8 8f3c
00000020: b970 0cbe b010 d7bd e23c 96bf 9688 d6be
00000030: 3e77 93bf 445c b53d d686 52bf 7947 5ebe
00000040: e9ec 8cbe 7deb e33e 7282 0cbf 69c9 a43e
00000050: 0e82 b8be bc9a 5dba bb2a af3e 48cf 88bd
00000060: 367f 3fbf a9c0 58be 154c dcbd fcc5 44bd
00000070: a411 f4bc b1ca 723d 77cc ad3e b9d4 f2bd
00000080: 70ae 6d3c 11d5 4e3d 96e0 01bf 6909 51be
00000090: 9b2f f63d 0357 8b3f b853 c23e 9b69 40bd
000000a0: 1119 793e 16f5 253f 6ff6 013e 3220 5d3d
000000b0: d455 e03c 7024 0e3e 95fb 87bd bbca 17bf
000000c0: a782 0cbf dbad 84bf 3c8b c5be 99ce 02be
000000d0: ff5f 1e3d 319a 543f c055 763e 2545 2b3d
000000e0: dc4a 55bd 1410 953d d42c b2be 6064 e2be
000000f0: d595 0f3f fe71 ab3d 2c09 1fbf 3ec1 923e
00000100: 9609 3c3d 0503 40bf 3cc4 f93e 5d6e 323e
00000110: 6ea5 613e 9587 8f3d b53d 63bf ace0 1b3e
00000120: 7cf3 8f3e a92f b33e 9ad7 093c 052d 16bf
00000130: cac5 e43e 4dc9 79bd f967 723d 444d 173e
00000140: 3c8d 0d3e f1ba 9bbf b407 1abd c385 7bbe
00000150: 5026 dcbe 843c 893e 7f1a a6be 8226 7abf
00000160: 4fc8 013f 0e9f 6bbd f2cb 243c 3821 80be
00000170: 7ae8 bd3e 4d4c c93e 378b 29bf 6181 193e
00000180: 3c71 9ebd fa8f 5abe 3fab fc3e 2a99 c5bd
00000190: af25 21bf 7a52 fabd c8f2 743e 6bc0 ce3e
000001a0: 0bff 03be e4fe 4cbe a830 843e b155 b73d
000001b0: 3187 2b3e 0374 9b3c 0e26 3fbd 0813 6d3e
000001c0: 8fc8 e4bd 268d 04be fdc4 4f3d 7849 f1bd
000001d0: e9eb 013d 67cc 70be 580f a83d 2965 21bf
000001e0: 3a54 d8bd 0993 5c3d c7f4 483f a561 063e
000001f0: 52ec 243f 73dc 843e 71c2 24bf 0978 8abf
00000200: 81ed c4bd b82e 48be 5c67 96be a673 093f
00000210: da5e 92be 25ef dd3c add3 8cbe e582 80bd
00000220: 31ae 163f 6345 423f 9951 9d3c fb27 37bf
00000230: c1e7 af3e d842 153f cc1c cbbd 96ff dfbe
00000240: b5af 933d 7c5e 733e 78d1 2fbf c1bf be3e
00000250: c04d 553f af0e 143f 01a6 cd3d 87a6 bbbd
00000260: 7b1a da3d c8ac ba3e d23c f13d 5e93 e53d
00000270: 0282 ff3e 638b b53e 69ca 72bd cfe6 393c
00000280: 8e9f 8f3e 9316 4cbe c8f3 4ebe 7782 6d3e
00000290: c696 a63e 1c8f 3dbf e1a1 1dbe 0642 e4be
000002a0: 6913 063f 0f7a 953e 894d d4bd 1cc9 5dbd
000002b0: 6e00 15bf da9c 5f3f e8d1 7cbf bcb4 2abf
000002c0: 8676 57bf f993 033f f119 963e 8746 09be
000002d0: b260 0fbe fe30 b6be 44cf a73c 6b38 cd3e
000002e0: 938a f3be ad3a 403d 963d 873e 47e6 0cbe
000002f0: f27e cb3d 0e13 c0bd 8981 f43d ed84 f23c
00000300: 5ca2 4fbf 61df 36bf 85cb 3ebe c312 403f
00000310: 2493 043e 1d7c cf3d 0e1b 73bd 82b2 4dbd
00000320: ef75 01bd db2a f4be 9ead 183e de1b e33d
00000330: 7c07 b1be 7a97 893e 0720 05bd d7b4 45bf
00000340: a4c2 d9be 19a8 9abe bcee 7abe 9650 e1be
00000350: 2058 b8bd f9ac 41bf 1e89 3cbf 0784 35bf
00000360: 3177 c43e a5f7 a53e 8713 c83e 5da5 24bf
00000370: a4f7 c6be 7f65 89bf 3e8a b93d 35c5 bcbe
00000380: aebf fd3e 5ebe 02bf e406 62be 802b 4cbd
00000390: 34f6 683f e61d 703d feeb 3fbf 6b7f c2be
000003a0: 1e81 3d3e ebd9 f9bd 6c70 1b3e 099d 7a3e
000003b0: 39ad 1e3f b18b 263e 600b 5b3d 1c0d f1bd
000003c0: fa69 d7bd 4adc 87be 9a8c 483f 768c 54be
000003d0: f909 fcbc 57c7 9a3e 1f8f 5a3e dcd5 a83d
000003e0: 5702 ce3d 3334 cb3e 4935 793b 9d1e ad3d
000003f0: e1f8 16bf fb61 10bf fa93 da3d 1e27 a7be

linear2.bias f4 [256]
0.40230557 0.45526636 -0.044447724 0.13308758 -0.05255278 0.39891696 0.02313509 0.006665095
-0.052117206 0.02160364 0.045261707 -0.059922095 0.39700136 0.37518257 -0.046226554 -0.05519162
0.37149057 -0.008890677 0.034188285 0.46211255 -0.041449603 0.2712842 0.015826857 0.31852004
-0.039424043 0.36344823 -0.057128496 0.03604897 0.0027005994 -0.062714435 0.30485463 -0.042031284
0.41786045 -0.026791317 0.30841917 0.38490838 -0.029516887 0.3872833 0.029613098 0.042705655
0.35860127 0.04217235 0.35427204 0.0324628 0.40624428 0.31852013 0.01594603 0.28158253
-0.0437528 0.030454567 -0.03872533 0.47224465 0.31369987 0.002294732 -0.006882992 -0.047190458
-0.05451617 0.22710283 0.2784239 0.43830976 0.045058597 -0.0060935244 0.30859908 -0.008065145
0.0083634555 -0.004250968 0.07090495 0.038154382 -0.28498322 0.34439364 0.21529514 0.32796085
0.24544963 -0.0107227005 -0.00066850806 -0.010093853 0.27677405 0.0025873343 0.007894193 0.031346146
0.45119458 0.31379798 0.38765773 0.3357298 0.3334591 0.03684803 0.36322582 0.33611453
0.37566575 -0.053432688 -0.0028028681 0.4211991 0.3588521 0.0145270275 0.32028937 -0.031585537
-0.050363574 0.04191444 0.24143445 -0.04872857 -0.024935465 -0.032975096 -0.006150929 0.3361758
0.033883672 0.033466596 0.3151487 0.038794562 0.34569213 0.3134408 0.05853234 0.359487
-0.028617773 0.29753053 0.2930553 -0.05308469 0.01119355 0.024087517 0.04211848 0.42093018
0.41499627 -0.0472049 0.051134177 0.37986344 0.31831738 -0.060821522 0.0103527615 -0.030940717
0.060536537 0.025556967 0.045468513 0.025576375 0.33886907 0.35577345 0.43078923 0.025179015
0.021499235 -0.018915785 0.24447462 -0.01614821 0.3666944 0.053409144 0.4115663 0.042723324
-0.011305509 0.26515284 0.045252908 -0.062789574 -0.013821709 0.03994993 0.060777023 -0.023411538
0.060066875 0.043789774 0.032375548 0.023396602 0.405106 0.37579277 -0.059951864 0.015716685
0.034066364 -0.03312385 0.43297684 0.004231252 -0.01794369 0.037948918 0.31933445 -0.009129664
0.31834388 -0.03995068 0.07368852 0.43374935 -0.03431757 0.020162 0.29982713 -0.020851199
0.054941837 -0.033982173 0.003386552 0.30941087 0.0045666713 0.3390062 0.2750652 0.32512304
-0.041446302 0.000819943 0.053849533 0.24265105 0.043835588 0.018148554 -0.058681726 0.3686868
-0.00223885 -0.03385715 0.015622231 0.29678273 0.3201207 0.049902372 -0.018693402 -0.035466183
0.2835403 0.02804838 0.3585204 0.015652109 0.42692623 0.05259065 -0.020804562 0.32476288
0.23368199 0.04455195 0.0108648185 0.051194526 0.053577542 -0.00520077 0.3085363 0.32558638
-0.04364801 0.005001203 -0.02629656 -0.015652167 -0.025351185 0.043314047 0.05507666 0.29578543
-0.035646092 0.028288657 -0.04619215 0.3242264 -0.01477765 0.33202964 0.004367978 0.022977926
-0.001930022 0.4173034 0.37558642 0.04866021 0.033418205 0.026584506 0.34038347 0.3435
0.4028821 0.23079501 0.29165012 -0.035206366 0.037487265 -0.025449062 0.015358571 -0.02299897
0.31045347 0.009401348 -0.006092338 0.31346446 0.22887117 -0.06564708 -0.041573383 -0.025533408
00000000: fffa cd3e ac18 e93e d10e 36bd 1c48 083e
00000010: 9541 57bd d83e cc3e cd85 bd3c df66 da3b
00000020: da78 55bd 1efa b03c 5764 393d df70 75bd
00000030: c343 cb3e ee17 c03e 0e58 3dbd 9c10 62bd
00000040: 0334 be3e 34aa 11bc 0409 0c3d 049a ec3e
00000050: 0fc7 29bd c3e5 8a3e 53a7 813c 0f15 a33e
00000060: 1b7b 21bd e315 ba3e 92ff 69bd 16a8 133d
00000070: 8afc 303b 6d70 80bd e815 9c3e ff28 2cbd
00000080: cef1 d53e 7779 dbbc 1ee9 9d3e b612 c53e
00000090: 66cd f1bc ff49 c63e 2b97 f23c 20ec 2e3d
000000a0: 969a b73e eabc 2c3d 2563 b53e b7f7 043d
000000b0: 40ff cf3e 1215 a33e 40a1 823c 962b 903e
000000c0: 2336 33bd db7b f93c 749e 1ebd 0dca f13e
000000d0: 459d a03e 3763 163b b98a e1bb c84a 41bd
000000e0: 594c 5fbd a58d 683e 948d 8e3e 236a e03e
000000f0: 5d8f 383d 30ac c7bb b300 9e3e ac23 04bc
00000100: e006 093c b44b 8bbb 9d36 913d c547 1c3d
00000110: 52e9 91be 5d54 b03e 5476 5c3e 7cea a73e
00000120: 2657 7b3e 44ae 2fbc d13e 2fba b060 25bc
00000130: 54b5 8d3e 4490 293b a556 013c d164 003d
00000140: fa02 e73e 21aa a03e 137b c63e c7e4 ab3e
00000150: 27bb aa3e f6ed 163d bcf8 b93e 3417 ac3e
00000160: 4357 c03e 3cdc 5abd 53b0 37bb 69a7 d73e
00000170: 76bb b73e c502 6e3c f8fc a33e d65f 01bd
00000180: 094a 4ebd 7aae 2b3d 983a 773e 9c97 47bd
00000190: 7645 ccbc e510 07bd bb8d c9bb 3c1f ac3e
000001a0: 9bc9 0a3d 4514 093d 2c5b a13e 0ce7 1e3d
000001b0: 8ffe b03e 507b a03e 9bbf 6f3d ae0e b83e
000001c0: d26f eabc ec55 983e 580b 963e 556f 59bd
000001d0: 2765 373c 2f53 c53c 6d84 2c3d 2984 d73e
000001e0: 647a d43e ed59 41bd 1272 513d 767d c23e
000001f0: 7ffa a23e fd1f 79bd a19e 293c 6377 fdbc
00000200: 29f5 773d d85c d13c 313d 3a3d 8c85 d13c
00000210: 3f80 ad3e f027 b63e 6890 dc3e 3944 ce3c
00000220: 2a1f b03c 47f5 9abc 8e57 7a3e 4049 84bc
00000230: 5ebf bb3e 8cc3 5a3d d1b8 d23e a7fe 2e3d
00000240: be3a 39bc 1dc2 873e 1d5b 393d d297 80bd
00000250: 7374 62bc 8aa2 233d 54f1 783d 8ec9 bfbc
00000260: af08 763d e85c 333d 399c 043d 3baa bf3c
00000270: 0e6a cf3e e967 c03e 1690 75bd 47c0 803c
00000280: 2c89 0b3d e0ac 07bd 24af dd3e 50a6 8a3b
00000290: a5fe 92bc 5370 1b3d ce7f a33e 9694 15bc
000002a0: f8fd a23e 53a3 23bd 02ea 963d 6514 de3e
000002b0: 9590 0cbd c72a a53c f182 993e 22d0 aabc
000002c0: b10a 613d e430 0bbd eaf0 5d3b 1a6b 9e3e
000002d0: 04a4 953b 3892 ad3e 59d5 8c3e 8776 a63e
000002e0: 99c3 29bd 71f1 563a 5491 5c3d 8479 783e
000002f0: f28c 333d 47ac 943c 405c 70bd 84c4 bc3e
00000300: acb9 12bb cbad 0abd 63f4 7f3c e8f3 973e
00000310: dce6 a33e 6e66 4c3d e822 99bc fd44 11bd
00000320: 322c 913e b7c5 e53c fc8f b73e da38 803c
00000330: 1396 da3e 4b69 573d 546e aabc 5247 a63e
00000340: 554a 6f3e 1b7c 363d 5a02 323c 5ab1 513d
00000350: 2074 5b3d 396b aabb 78f8 9d3e 42b3 a63e
00000360: 41c8 32bd 22e1 a33b e26b d7bc f938 80bc
00000370: 4aad cfbc 126a 313d 1098 613d 3071 973e
00000380: a301 12bd 9dbd e73c fb33 3dbd 0101 a63e
00000390: f51d 72bc caff a93e 4121 8f3b 343c bc3c
000003a0: cbf8 fcba cba8 d53e dd4c c03e ee4f 473d
000003b0: 87e1 083d c0c7 d93c be46 ae3e 3bdf af3e
000003c0: 9046 ce3e 8755 6c3e 2a53 953e 8d34 10bd
000003d0: 3f8c 193d 8d7a d0bc 84a2 7b3c 5668 bcbc
000003e0: c2f3 9e3e 1d08 1a3c 3ca2 c7bb 6a7e a03e
000003f0: 345d 6a3e fa71 86bd da48 2abd 702b d1bc

linear3.weight f4 [1, 256]
0.76974773 0.72677875 -0.66249543 0.5637377 -0.6265065 0.5196367 -0.6255424 -0.6272797
-0.62519705 -0.6355139 -0.6581538 -0.62195665 0.5307979 0.5197147 -0.65492666 -0.655486
0.52103853 -0.6706744 -0.61569506 0.5250073 -0.6527801 0.5468243 0.0006152774 0.532045
-0.63862723 0.5270789 -0.001877695 -0.64276046 -0.6510797 -0.6285412 0.5401274 -0.6430139
0.5201539 -0.62975055 0.5129219 0.52779526 -0.62534165 0.52062625 -0.6192871 -0.63849556
0.73691976 -0.6470436 0.52880675 -0.62654454 0.7966084 0.517715 -0.65262735 0.5454419
-0.6322626 -0.65511817 -0.6440211 0.54084945 0.53711724 -0.660874 -0.62846386 -0.62941134
0.0023527138 0.61211044 0.5414525 0.53379726 -0.63243383 -0.612875 0.54182476 -0.61022395
-0.6404831 -0.6316904 0.88159794 -0.6229486 -1.047196 0.52107275 0.5437825 0.5462373
0.53462255 -0.66092694 0.0029789344 -0.6351601 0.5478268 -0.6197825 -0.6453354 -0.6463443
0.51998556 0.5370275 0.5306829 0.52286035 0.5207618 -0.63308096 0.5208281 0.5490625
0.5141544 -0.6596809 -0.63152575 0.53118855 0.5246685 -0.64658755 0.54357684 -0.64744055
-0.6465361 -0.6218895 0.5445515 -0.65005356 -0.6228684 -0.66398066 -0.6508516 0.5503464
-0.62835175 0.705565 0.5366637 -0.631689 0.5263071 0.54054564 -0.0012401008 0.7811895
-0.6269787 0.5303193 0.5192461 -0.6328755 -0.69367903 -0.62948143 -0.6586865 0.52897924
0.5284579 -0.0009943387 -0.625913 0.52335 0.54292893 0.0009691856 -0.6228837 -0.6424503
-0.6155054 -0.62080294 -0.6251215 -0.6374467 0.53217375 0.5167056 0.52102894 -0.64499974
-0.64157385 -0.64444244 0.5275139 -0.0024545214 0.5178164 -0.65096384 0.5207427 -0.63492554
-0.62748814 0.54467297 0.7662256 -0.6325315 -0.61385405 -0.6302206 -0.64872855 -0.6263742
-0.6223964 -0.64790165 -0.6839755 -0.64738375 0.52032995 0.52034575 -0.0018628732 -0.61582613
-0.6329707 -0.6509076 0.5162188 0.0027915104 -0.60726297 -0.6264653 0.5209379 -0.63944185
0.53775877 -0.63546735 -0.7489611 0.52185607 -0.6446691 -0.69977564 0.540988 -0.64622605
-0.62893504 -0.6182703 -0.6269938 0.5439245 -0.63703823 0.5288615 0.53244144 0.5461493
-0.63436115 -0.6413851 -0.00033298833 1.0401562 -0.0018317925 -0.64426786 -0.6154598 0.51668596
-0.65448236 -0.6384572 -0.62458736 0.54552746 0.52304614 -0.631483 -0.0010530641 -0.6329644
0.5434885 -0.6457742 0.5168647 -0.73199576 0.5204298 -0.62661654 -0.62694573 0.54640746
0.5269475 -0.6303845 -0.637822 -0.6230648 -0.6169296 -0.6296237 0.5427676 0.53259116
-0.6536138 -0.6282133 0.0020248764 -0.6343443 -0.6262804 -0.62432593 -0.62735957 0.53608876
-0.62383443 6.273192e-05 -0.6323134 0.51625824 -0.64108866 0.5204437 -0.61429447 -0.6397231
-0.6327542 0.51080203 0.72907233 -0.6129908 -0.6360044 -0.72162855 0.51918423 0.5393027
0.5228049 0.541448 0.5402182 -0.6419065 -0.6401446 -0.63410145 -0.63489676 -0.64564353
0.5489169 -0.76152426 -0.63999456 0.54797375 0.548248 -0.6098335 -0.64157665 -0.6163542
00000000: 300e 453f 2c0e 3a3f 4d99 29bf 1d51 103f
00000010: bb62 20bf e906 053f 8c23 20bf 6795 20bf
00000020: ea0c 20bf 0ab1 22bf c47c 28bf 8d38 1fbf
00000030: 5fe2 073f 060c 053f 46a9 27bf eecd 27bf
00000040: c862 053f 51b1 2bbf 319e 1dbf e166 063f
00000050: 991c 27bf adfc 0b3f 914a 213a 1a34 083f
00000060: 137d 23bf a5ee 063f fd1c f6ba f38b 24bf
00000070: 29ad 26bf 13e8 20bf ca45 0a3f 8f9c 24bf
00000080: ce28 053f 5537 21bf da4e 033f 971d 073f
00000090: 6416 20bf c347 053f 9989 1ebf 7274 23bf
000000a0: c6a6 3c3f a6a4 25bf e15f 073f 3965 20bf
000000b0: 87ee 4b3f f888 043f 9612 27bf 15a2 0b3f
000000c0: f6db 21bf d3b5 27bf 91de 24bf 1c75 0a3f
000000d0: 8480 093f 0a2f 29bf 02e3 20bf 1a21 21bf
000000e0: fd2f 1a3b 45b3 1c3f a29c 0a3f f0a6 083f
000000f0: 2fe7 21bf 60e5 1cbf 07b5 0a3f a337 1cbf
00000100: b3f6 23bf 76b6 21bf 67b0 613f 8f79 1fbf
00000110: 850a 86bf 0665 053f 5435 0b3f 35d6 0b3f
00000120: 06dd 083f 8232 29bf 3a3a 433b da99 22bf
00000130: 613e 0c3f 11aa 1ebf b334 25bf d276 25bf
00000140: c61d 053f a27a 093f d6da 073f 2dda 053f
00000150: a550 053f 9811 22bf fe54 053f 5c8f 0c3f
00000160: 9f9f 033f d9e0 28bf acab 21bf f9fb 073f
00000170: ad50 063f c386 25bf da27 0b3f aabe 25bf
00000180: 6483 25bf 2634 1fbf ba67 0b3f e969 26bf
00000190: 4e74 1fbf a3fa 29bf 369e 26bf 80e3 0c3f
000001a0: a9db 20bf e89f 343f cb62 093f 5fb6 21bf
000001b0: 10bc 063f 3361 0a3f e18a a2ba 09fc 473f
000001c0: ad81 20bf 01c3 073f 50ed 043f 2104 22bf
000001d0: f394 31bf b225 21bf ae9f 28bf 2f6b 073f
000001e0: 0449 073f 7854 82ba d63b 20bf 44fa 053f
000001f0: 64fd 0a3f f210 7e3a 4e75 1fbf 9f77 24bf
00000200: c391 1dbf f1ec 1ebf f607 20bf b52f 23bf
00000210: 8a3c 083f d146 043f 2762 053f b41e 25bf
00000220: 2f3e 24bf 2efa 24bf 270b 073f 09dc 20bb
00000230: 9e8f 043f 91a5 26bf 654f 053f 7b8a 22bf
00000240: 10a3 20bf b06f 0b3f 5c27 443f 96ed 21bf
00000250: 8a25 1dbf 2356 21bf 1313 26bf 0f5a 20bf
00000260: 5f55 1fbf e2dc 25bf 0519 2fbf f1ba 25bf
00000270: 5834 053f 6135 053f a72b f4ba c8a6 1dbf
00000280: 5e0a 22bf e1a1 26bf ea26 043f c6f1 363b
00000290: 9675 1bbf 0860 20bf 305c 053f 76b2 23bf
000002a0: 8faa 093f fdad 22bf eabb 3fbf 5c98 053f
000002b0: 0909 25bf 7f24 33bf 317e 0a3f 126f 25bf
000002c0: e301 21bf f646 1ebf aa82 20bf a33e 0b3f
000002d0: f014 23bf 7863 073f 154e 083f 71d0 0b3f
000002e0: 7e65 22bf d031 24bf f094 aeb9 d723 853f
000002f0: c218 f0ba bdee 24bf c68e 1dbf 8845 043f
00000300: 288c 27bf ee71 23bf f5e4 1fbf b0a7 0b3f
00000310: 5ae6 053f dfa8 21bf f806 8aba f409 22bf
00000320: 1022 0b3f 7551 25bf 3f51 043f 1364 3bbf
00000330: e33a 053f f169 20bf 847f 20bf 5ce1 0b3f
00000340: 08e6 063f e160 21bf 4d48 23bf 2d81 1fbf
00000350: 19ef 1dbf 052f 21bf d1f2 0a3f e557 083f
00000360: 3c53 27bf 96d2 20bf cab3 043b 6364 22bf
00000370: ea53 20bf d3d3 1fbf a39a 20bf 1d3d 093f
00000380: 9db3 1fbf f18e 8338 4adf 21bf 8029 043f
00000390: 631e 24bf cc3b 053f 6742 1dbf e5c4 23bf
000003a0: 2efc 21bf ecc3 023f 7ca4 3a3f f7ec 1cbf
000003b0: 2fd1 22bf a6bc 38bf 42e9 043f be0f 0a3f
000003c0: 8bd6 053f 569c 0a3f bd4b 0a3f fc53 24bf
000003d0: 84e0 23bf 7954 22bf 9888 22bf e548 25bf
000003e0: d185 0c3f 41f3 42bf afd6 23bf 0248 0c3f
000003f0: fb59 0c3f 0c1e 1cbf 5e3e 24bf 64c9 1dbf
