testing/scripts/outputs/DDPG_Env/20221214-223904/models/880actor_checkpoint.pt (torch, 281431 bytes, 5 tensors)

linear1.weight f4 [256, 14]
0.103364706 -0.14645402 0.21347374 -0.0072090337 -0.19442523 -0.08911355 0.15346606 -0.08015369
-0.28229684 0.06399459 0.25078988 -0.16878493 -0.2662984 -0.032978002 -0.2820954 -0.020366313
-0.20538048 -0.20846027 0.15059581 0.16859245 -0.15797667 -0.11076351 0.26700547 -0.10950235
0.24255107 -0.149948 0.06591327 -0.20953022 -0.2591359 -0.15536577 0.20684786 0.26541367
-0.2487247 0.06321681 0.25922075 0.058673248 0.15038306 0.12986808 0.27461052 -0.14107157
0.26103675 0.08751961 -0.3307963 -0.25941607 0.01004201 -0.14107408 -0.047172997 -0.3563613
-0.2583643 -0.059890166 -0.033675984 0.06532509 -0.2600236 -0.08872586 0.30916792 0.048003614
0.043275658 -0.0985907 -0.025433656 -0.16533542 -0.038932577 -0.1317344 -0.15124922 0.2167176
0.07260216 -0.08208691 0.030632133 0.2633492 -0.06253263 0.059478216 0.06784969 -0.07845937
0.06370891 0.15977587 0.27000692 -0.06889746 0.041567888 0.113986455 0.025181752 0.16377784
-0.29363844 0.02026072 -0.089022934 0.0049144216 0.106269486 0.3667337 -0.076665774 -0.037898127
0.043297533 0.1798887 0.12110263 -0.21115327 0.09462915 -0.121720605 -0.040663518 0.18308188
-0.18572177 -0.06930815 0.2699564 0.24079224 -0.13443212 0.20975256 0.1337778 0.16562524
-0.1730589 0.1331793 0.17731415 -0.15896548 0.28851736 0.03550164 -0.32383576 0.016045114
-0.18138808 0.22550409 0.14703359 -0.11487109 0.043333985 -0.092560805 0.17518045 -0.14096202
-0.21072765 -0.38755158 0.0026999102 0.040604748 -0.033659462 0.12761109 -0.019542757 0.08395196
0.23316114 -0.29845196 -0.11336217 0.16209295 0.036482237 -0.1660947 -0.3449605 0.12144223
0.098484196 0.20264189 -0.013336283 -0.09748367 -0.39708513 -0.27091634 0.063193664 0.24753897
0.34074724 0.24513276 -0.19189484 -0.23475787 -0.28134477 -0.17202446 -0.112784475 0.028069444
0.033109136 -0.17559333 -0.0043499167 -0.14950044 0.090332456 -0.105885185 0.13649686 0.028479759
0.29130754 0.34209037 0.16900368 0.09911262 0.031841204 0.13343762 0.16999175 0.14292024
0.12861487 0.1492997 0.046280023 -0.19865717 0.035558734 -0.071699016 0.12908693 0.025576701
-0.04393681 0.20008305 -0.25704592 0.24845107 0.2674213 -0.01946422 0.1313207 0.27596518
-0.12794292 0.2159616 -0.034611247 -0.06205545 0.10234139 0.140605 0.17734715 -0.14705172
0.26324967 -0.29479033 0.26227263 -0.2773745 0.2838156 -0.10909527 0.20471892 0.06323213
-0.09642743 0.18550158 -0.16945681 0.17420915 -0.24011415 0.059536144 0.19948302 0.15838148
0.058508113 -0.075442955 0.073688924 0.35200638 -0.041776266 -0.40319157 -0.4808762 -0.3172188
-0.044444516 -0.016246436 -0.17500827 0.0813594 -0.23771007 0.19819838 0.23346746 -0.025352135
0.18102008 -0.24106464 -0.046297215 -0.24214488 -0.3500992 -0.13334395 -0.09182541 0.0076946835
0.20146693 -0.14522572 -0.26424962 -0.21528411 0.28526467 0.088851616 0.1258338 -0.00063307956
-0.004198956 0.089240246 -0.08880621 -0.13745181 0.08720027 -0.16481547 0.2524344 -0.2581879
-0.28596708 0.19620335 0.30453768 -0.0002558041 -0.29391414 -0.25834647 0.05271866 -0.107589066
00000000: e0b0 d33d 0bf8 15be dc98 5a3e c239 ecbb
00000010: 6817 47be 2a81 b6bd 3526 1d3e 9e27 a4bd
00000020: 3689 90be 980f 833d 8867 803e f5d5 2cbe
00000030: 4458 88be f113 07bd cf6e 90be 41d7 a6bc
00000040: 434f 52be 9c76 55be ca35 1a3e 80a3 2c3e
00000050: a3c4 21be fbd7 e2bd f1b4 883e c542 e0bd
00000060: 4f5f 783e f88b 19be 89fd 863d 178f 56be
00000070: 76ad 84be 3418 1fbe edcf 533e 4de4 873e
00000080: b0b1 7ebe d177 813d 95b8 843e 5c53 703d
00000090: 04fe 193e 23fc 043e c099 8c3e 1175 10be
000000a0: 9ca6 853e 7b3d b33d 225e a9be 2fd2 84be
000000b0: 3e87 243c b975 10be 7938 41bd fd74 b6be
000000c0: 5348 84be 644f 75bd d4ef 09bd 29c9 853d
000000d0: d021 85be e7b5 b5bd 424b 9e3e 709f 443d
000000e0: d141 313d ece9 c9bd 3e5a d0bc b04d 29be
000000f0: c477 1fbd 62e5 06be 13e1 1abe 38eb 5d3e
00000100: 71b0 943d 2f1d a8bd 3df0 fa3c b5d5 863e
00000110: 1c11 80bd 6e9f 733d c7f4 8a3d 4eaf a0bd
00000120: d179 823d 499c 233e 593e 8a3e 1d1a 8dbd
00000130: 1743 2a3d bb71 e93d f649 ce3c 61b5 273e
00000140: c757 96be cff9 a53c a851 b6bd 2809 a13b
00000150: d1a3 d93d 85c4 bb3e f202 9dbd 113b 1bbd
00000160: c158 313d be34 383e a804 f83d 9038 58be
00000170: eecc c13d a748 f9bd ca8e 26bd d179 3b3e
00000180: d92d 3ebe 6ef1 8dbd ba37 8a3e 3e92 763e
00000190: 93a8 09be 60c9 563e 0cfd 083e aa99 293e
000001a0: 5a36 31be 2860 083e d791 353e d9c7 22be
000001b0: 8cb8 933e 2b6a 113d cdcd a5be 0b71 833c
000001c0: ccbd 39be 8bea 663e f98f 163e 8941 ebbd
000001d0: fa7e 313d 8590 bdbd 8162 333e 5958 10be
000001e0: fdc8 57be 296d c6be faf0 303b 2a51 263d
000001f0: 81de 09bd 7bac 023e 2218 a0bc 01ef ab3d
00000200: cbc1 6e3e b2ce 98be 6d2a e8bd b2fb 253e
00000210: 666e 153d bb14 2abe aa9e b0be b4b6 f83d
00000220: 15b2 c93d 5b81 4f3e 6d80 5abc 85a5 c7bd
00000230: be4e cbbe 8cb5 8abe ae6b 813d db7a 7d3e
00000240: 6c76 ae3e 1504 7b3e 1580 44be 5e64 70be
00000250: 6c0c 90be 2e27 30be 8cfb e6bd e4f1 e53c
00000260: 729d 073d bdce 33be bf89 8ebb a516 19be
00000270: 3900 b93d 55da d8bd d5c5 0b3e 624e e93c
00000280: 4326 953e 7826 af3e 4d0f 2d3e 8ffb ca3d
00000290: ec6b 023d dfa3 083e 5112 2e3e af59 123e
000002a0: 9eb3 033e 05e2 183e 1f90 3d3d c96c 4bbe
000002b0: 09a6 113d efd6 92bd 5d2f 043e 3b86 d13c
000002c0: 16f7 33bd 92e2 4c3e 869b 83be f569 7e3e
000002d0: 72eb 883e 6e73 9fbc ef78 063e 4f4b 8d3e
000002e0: 7803 03be 0a25 5d3e 86c4 0dbd db2d 7ebd
000002f0: 5d98 d13d c2fa 0f3e 7e9a 353e ba94 16be
00000300: a9c8 863e c2ee 96be 9948 863e 0804 8ebe
00000310: 4750 913e 576d dfbd d6a1 513e d97f 813d
00000320: bf7b c5bd 20f4 3d3e 1686 2dbe e263 323e
00000330: 7ce0 75be 2cdc 733d 4745 4c3e c12e 223e
00000340: 34a6 6f3d d681 9abd 38ea 963d 2e3a b43e
00000350: 971d 2bbd 206f cebe 6835 f6be 816a a2be
00000360: 740b 36bd 3f17 85bc 5e35 33be c29f a63d
00000370: 456a 73be 84f4 4a3e 1812 6f3e 48af cfbc
00000380: 545d 393e a6d9 76be 26a2 3dbd d4f4 77be
00000390: 3440 b3be 518b 08be f60e bcbd af23 fc3b
000003a0: 594d 4e3e 0db6 14be ba4b 87be 7073 5cbe
000003b0: 360e 923e d6f7 b53d 93da 003e 40f5 25ba
000003c0: 6597 89bb 97c3 b63d 08e0 b5bd 2bc0 0cbe
000003d0: 0e96 b23d 63c5 28be 153f 813e 3431 84be
000003e0: 476a 92be 88e9 483e 5dec 9b3e 721d 86b9
000003f0: ea7b 96be fd45 84be 86ef 573d a857 dcbd

linear1.bias f4 [256]
-0.07735737 -0.2342272 -0.068838604 0.23148707 -0.061527163 -0.1357355 -0.22195692 -0.08423679
0.12723571 -0.32875243 -0.047058135 0.2410685 0.046098676 0.19261247 0.15520714 -0.102333665
-0.20749313 0.23937316 -0.10910295 -0.19403678 -0.12139314 -0.13350086 -0.06723239 -0.19958338
-0.22508602 0.25351366 -0.20238172 0.30468193 0.09137444 0.06640528 -0.065887235 -0.16317366
0.24538119 0.08897938 0.182655 -0.15764213 -0.08402524 0.061691955 0.044817615 -0.089004256
-0.13689633 0.22080046 -0.15444225 0.35173503 0.04857278 0.2130569 -0.27288646 0.17552471
-0.18010564 -0.0058485186 0.24303015 -0.071882315 -0.27886644 -0.24658467 -0.11696451 0.0908163
-0.04702627 0.15331955 -0.103992134 0.21842436 0.0018341958 -0.028853208 0.013490358 -0.014763465
-0.280308 -0.27923465 -0.004091589 -0.05044244 -0.14047758 0.21405905 -0.18638451 0.0035866143
-0.0847148 0.30890986 0.33691585 -0.096784666 -0.25795057 -0.18777774 0.15408944 0.13313845
-0.08723835 0.12946866 0.23904613 -0.0026437622 -0.12098448 0.114847794 -0.057537362 0.076114126
-0.021399034 -0.08927304 -0.13996144 0.15896763 -0.021453861 -0.088690944 0.22886151 0.22721918
-0.11807344 -0.1619768 0.043606296 -0.15704452 0.102413 0.17093098 0.29535496 0.014897591
-0.21386844 0.05955671 -0.019133367 0.27937216 0.14374612 0.0065811225 -0.2500748 0.23813076
-0.18777108 -0.1947839 0.059948567 0.21557373 0.18079995 0.15437762 -0.05643657 -0.0154295275
0.045813505 -0.23974203 -0.19950525 0.11173465 -0.03935642 0.21034876 0.22930382 0.026226385
0.23177397 -0.2997376 0.18213126 -0.1630624 -0.0040973816 0.18763456 -0.037563253 0.19400835
0.169018 -0.005218032 -0.12385323 -0.052094623 0.041666422 -0.04295431 0.03792633 -0.10243642
0.11427727 0.09234549 0.0028353634 0.018439446 -0.1524683 0.06340729 0.016802348 0.16305383
0.07469726 0.055211674 -0.024568487 0.2826529 0.04676941 -0.17102978 -0.027303196 0.07374575
0.21105433 -0.001206894 -0.017418273 -0.13760361 -0.0514615 0.014477252 -0.082677275 0.021661663
-0.22975567 -0.025614263 0.22952758 -0.04736059 -0.17294253 -0.109262034 0.08977432 0.16370344
-0.19598663 -0.2471448 -0.121168576 -0.0107069025 -0.105287515 -0.051704034 -0.19733576 -0.17152163
-0.0026921232 0.11653825 -0.19943127 0.11461712 0.06582437 0.20214427 0.1434062 -0.21643823
-0.066546574 -0.18394697 0.13253202 0.22256461 -0.2968567 -0.29562712 0.069582805 0.039206706
0.037931588 -0.06340953 -0.19937225 0.26751238 0.27756038 -0.017882494 0.19941193 -0.1372829
0.07789365 -0.2667008 -0.07871456 -0.037633386 0.09625726 0.03213489 0.25513145 -0.062840454
0.035294633 0.067369185 -0.037802696 -0.11440659 0.15156992 0.004419559 0.027868813 0.010782977
0.16205385 0.28504333 -0.10450808 -0.050180286 -0.102778114 -0.3246527 0.25023043 -0.118863024
0.024250163 0.18223359 0.26700008 -0.348494 0.068415016 -0.017702837 -0.16771996 0.1288591
-0.12999839 -0.1922879 -0.25541484 0.008830713 0.22140627 0.14317323 0.12717183 0.23254952
-0.07802265 0.005251958 0.34158808 -0.25617564 0.05725441 0.07163596 0.21144424 -0.14638941
00000000: 8a6d 9ebd 41d9 6fbe 41fb 8cbd f20a 6d3e
00000010: e803 7cbd 3ffe 0abe ad48 63be 5784 acbd
00000020: 144a 023e 3d52 a8be 08c0 40bd a9da 763e
00000030: f7d1 3c3d 343c 453e 9fee 1e3e 5094 d1bd
00000040: 1479 54be 3d1e 753e 5e71 dfbd 94b1 46be
00000050: f79c f8bd 73b4 08be 23b1 89bd 965f 4cbe
00000060: f37c 66be 8bcc 813e 273d 4fbe 45ff 9b3e
00000070: 8622 bb3d 7eff 873d e3ef 86bd ff16 27be
00000080: 3545 7b3e d23a b63d ea09 3b3e f06c 21be
00000090: 6d15 acbd b4b0 7c3d ad92 373d dd47 b6bd
000000a0: 8d2e 0cbe 8419 623e 1c26 1ebe 9d16 b43e
000000b0: 40f4 463d 972b 5a3e c6b7 8bbe c0bc 333e
000000c0: 9d6d 38be eea4 bfbb e5dc 783e 0937 93bd
000000d0: 95c7 8ebe b180 7cbe 178b efbd e5fd b93d
000000e0: 9e9e 40bd cdff 1c3e d4f9 d4bd a3aa 5f3e
000000f0: 6669 f03a 905d ecbc aa06 5d3c 76e2 71bc
00000100: 8884 8fbe d8f7 8ebe bc12 86bb bb9c 4ebd
00000110: 5bd9 0fbe 4c32 5b3e 95db 3ebe 670d 6b3b
00000120: f47e adbd 6f29 9e3e 3c80 ac3e 0a37 c6bd
00000130: 1912 84be cf48 40be 9fc9 1d3e 7255 083e
00000140: 05aa b2bd 6f93 043e 82c8 743e f842 2dbb
00000150: b6c6 f7bd 5235 eb3d 4cac 6bbd b9e1 9b3d
00000160: 074d afbc c9d4 b6bd 0d52 0fbe 69c8 223e
00000170: 02c0 afbc 99a3 b5bd ac5a 6a3e 25ac 683e
00000180: 7dd0 f1bd 3fdd 25be 849c 323d 47d0 20be
00000190: e8bd d13d 8808 2f3e c438 973e 0715 743c
000001a0: 5400 5bbe bdf1 733d 94bd 9cbc de09 8f3e
000001b0: 2f32 133e 75a6 d73b ce09 80be 8dd8 733e
000001c0: 1047 40be 6e75 47be a18c 753d 5cbf 5c3e
000001d0: 9f23 393e 2b15 1e3e 082a 67bd 21cc 7cbc
000001e0: f1a6 3b3d ef7e 75be 1b4b 4cbe 23d5 e43d
000001f0: 3334 21bd aa65 573e 9fce 6a3e b7d8 d63c
00000200: 2856 6d3e 3577 99be 9e80 3a3e d4f9 26be
00000210: 5443 86bb 4623 403e eddb 19bd 20aa 463e
00000220: 0e13 2d3e 06fc aabb c3a6 fdbd 2c61 55bd
00000230: 69aa 2a3d dcf0 2fbd a458 1b3d 30ca d1bd
00000240: 340a ea3d a21f bd3d 81d1 393b 520e 973c
00000250: a620 1cbe aedb 813d 14a5 893c 95f7 263e
00000260: e1fa 983d a325 623d da43 c9bc e2b7 903e
00000270: 4891 3f3d 6e22 2fbe f4aa dfbc 0308 973d
00000280: a01e 583e a530 9eba c4b0 8ebc f6e7 0cbe
00000290: 4bc9 52bd ff31 6d3c b452 a9bd cd73 b13c
000002a0: 1245 6bbe 01d5 d1bc 4709 6b3e 2efd 41bd
000002b0: d917 31be c6c4 dfbd 99db b73d e0a1 273e
000002c0: b8b0 48be 8713 7dbe 3b27 f8bd 016c 2fbc
000002d0: fba0 d7bd 9cc7 53bd 6312 4abe 5ea3 2fbe
000002e0: 556e 30bb 9bab ee3d b637 4cbe 61bc ea3d
000002f0: edce 863d e8fe 4e3e 13d9 123e fca1 5dbe
00000300: 9249 88bd 985c 3cbe 79b6 073e fae7 633e
00000310: 9afd 97be 705c 97be 6e81 8e3d 3697 203d
00000320: 275e 1b3d dbdc 81bd 3d28 4cbe 62f7 883e
00000330: 651c 8e3e 4f7e 92bc a432 4c3e e393 0cbe
00000340: b586 9f3d 028d 88be 1935 a1bd 7725 1abd
00000350: 8722 c53d e09f 033d 97a0 823e 7fb2 80bd
00000360: 1b91 103d dbf8 893d 00d7 1abd 014e eabd
00000370: 2535 1b3e f3d1 903b 234d e43c 15ab 303c
00000380: 72f1 253e 33f1 913e 5508 d6bd d889 4dbd
00000390: 557d d2bd e138 a6be 341e 803e 756e f3bd
000003a0: 47a8 c63c 719b 3a3e 3cb4 883e ce6d b2be
000003b0: 2c1d 8c3d 8a05 91bc c8be 2bbe a4f3 033e
000003c0: 4c1e 05be 1fe7 44be bcc5 82be b2ae 103c
000003d0: 53b8 623e 019c 123e 5539 023e 7621 6e3e
000003e0: 57ca 9fbd 9e18 ac3b a2e4 ae3e 7429 83be
000003f0: 9a83 6a3d e0b5 923d d784 583e 1be7 15be

linear2.weight f4 [256, 256]
-0.20930368 0.07500754 -0.049929246 0.2719161 -0.05878675 0.034919076 -0.020898897 0.048454445
-0.15144111 -0.14297657 0.16956805 -0.026261477 -0.07118543 0.024356151 -0.05566863 0.11104866
0.21763457 -0.050425038 0.031010212 0.043154888 0.09205832 -0.2434945 0.070971064 -0.1711171
-0.09046962 -0.06414495 -0.13526632 0.029257057 0.029815419 -0.07785706 -0.13400008 -0.028715672
-0.01957264 0.05877475 -0.03226479 0.05646032 0.0077303876 -0.07305485 -0.11910907 0.18723854
-0.033345506 0.010935831 -0.1169691 -0.12308415 -0.10836344 -0.017957961 -0.08455295 -0.012338309
0.20502941 0.03551621 -0.010704144 -0.08958592 -0.25357693 -0.06402323 0.059090696 0.107840545
-0.07059344 -0.037683986 0.053182166 0.022573644 0.09460278 0.14022563 0.015519835 0.030223496
0.13987191 0.1182694 0.009666132 -0.07035886 0.08782548 0.045523457 -0.0955741 -0.030888813
0.1537857 0.005878362 -0.075275496 0.13727619 0.019018387 -0.062462382 -0.06559905 0.016354628
0.104551025 0.07696688 0.02060407 -0.062324367 -0.044230968 -0.03943639 -0.1161007 0.0032653695
-0.14586753 0.031907383 -0.09133017 0.030684264 -0.08365032 -0.12497024 0.14851344 0.15614742
-0.10444159 0.016232625 -0.03282681 0.033351656 0.12694019 -0.040544428 -0.029220508 0.020743709
-0.07631602 -0.05415336 -0.09764367 -0.09454651 -0.0286431 -0.019649426 0.05938938 0.040700022
0.101920694 -0.07074572 -0.0059208116 -0.008611637 -0.020766705 -0.045528587 -0.014729429 -0.0980893
-0.0018018918 -0.117335476 0.13978747 -0.09682506 0.038902707 -0.05751187 0.01797883 0.017567217
-0.020498848 0.08583849 0.086925715 0.14626385 -0.040789064 0.027927741 -0.06724749 -0.03861001
0.043725714 0.16290826 -0.04885496 -0.017661534 -0.115871295 -0.10167998 0.07540497 -0.010021327
0.032822754 -0.00083270995 0.14391503 -0.07465736 0.06729369 -0.0777188 0.036494303 0.03853847
-0.108979784 -0.0078069605 -0.11862524 0.009444871 -0.19088113 -0.037135184 0.1706947 0.15968716
0.021639276 -0.055008948 0.0145581905 -0.03458363 0.027862282 -0.0875914 -0.004734506 -0.086472355
0.22805722 0.025643747 -0.030197483 -0.068831325 -0.29743567 -0.005708409 0.034063373 -0.022486366
0.07076848 0.079662345 -0.008396714 0.03707189 -0.113144815 0.20308343 -0.030149193 -0.12851265
0.12424893 0.0876511 -0.025630658 -0.060528934 0.028714603 -0.008721174 0.22292534 0.030809557
-0.08379308 0.05888912 0.05499078 0.009069398 0.24974707 0.16263296 -0.10436074 0.067321464
0.001999799 -0.023907473 0.005459554 0.0094293505 0.00842149 0.05063271 -0.08002409 -0.147938
-0.008219116 0.025975903 0.20722991 0.04583467 -0.0026800088 0.06608574 0.05115887 -0.0878121
0.02779901 -0.0015991264 -0.0037324533 -0.010551329 -0.009721143 -0.027683914 -0.018161949 0.18792659
0.06265211 -0.057552844 -0.015768556 -0.03126115 -0.00885153 -0.0731832 0.031837463 0.14860286
-0.07351664 -0.05990692 -0.0441902 -0.214068 0.029637592 -0.1185428 0.042157628 -0.010705532
0.034762427 0.055237517 -0.034735754 -0.0032466894 0.13832662 0.012891546 0.08369679 0.10164138
-0.027387096 -0.06092047 0.027850825 -0.06952058 0.05003243 0.05343334 0.070086196 0.07274436
00000000: b453 56be 8e9d 993d 9c82 4cbd 9638 8b3e
00000010: 60ca 70bd 4e07 0f3d 2a34 abbc 2b78 463d
00000020: 6113 1bbe 7368 12be 3fa3 2d3e 4f22 d7bc
00000030: abc9 91bd 8d86 c73c ca04 64bd 7b6d e33d
00000040: 99db 5e3e 7c8a 4ebd 2109 fe3c 2ec3 303d
00000050: 1389 bc3d 9f56 79be 4759 913d 5239 2fbe
00000060: 2348 b9bd 6d5e 83bd 4183 0abe 7fac ef3c
00000070: 773f f43c 8673 9fbd 5137 09be 213d ebbc
00000080: cd56 a0bc cbbd 703d 1628 04bd f042 673d
00000090: 314f fd3b c89d 95bd 75ef f3bd 76bb 3f3e
000000a0: 4c95 08bd 332c 333c 7f8d efbd 8b13 fcbd
000000b0: a7ed ddbd 931c 93bc 192a adbd 9e26 4abc
000000c0: 3bf3 513e 7279 113d 6f60 2fbc d378 b7bd
000000d0: d6d4 81be 9c1e 83bd 1609 723d 81db dc3d
000000e0: 4b93 90bd 865a 1abd 8bd5 593d 5dec b83c
000000f0: 1abf c13d 4f97 0f3e e846 7e3c 4497 f73c
00000100: 953a 0f3e 3a37 f23d b25e 1e3c 4e18 90bd
00000110: d8dd b33d ce76 3a3d 5bbc c3bd 890a fdbc
00000120: 007a 1d3e 469f c03b 0a2a 9abd 2192 0c3e
00000130: 73cc 9b3c 8ed8 7fbd cb58 86bd 24fa 853c
00000140: d91e d63d d0a0 9d3d dec9 a83c d647 7fbd
00000150: 882b 35bd 0d88 21bd 34c6 edbd cfff 553b
00000160: 4c5e 15be 51b1 023d 500b bbbd 915d fb3c
00000170: dc50 abbd 66f0 ffbd e813 183e 1ce5 1f3e
00000180: 79e5 d5bd 48fa 843c 6875 06bd bf9b 083d
00000190: 9cfc 013e ea11 26bd d95f efbc b6ee a93c
000001a0: 934b 9cbd eacf 5dbd 68f9 c7bd 9aa1 c1bd
000001b0: efa4 eabc d5f7 a0bc 4742 733d 11b5 263d
000001c0: ccbb d03d 22e3 90bd 5e03 c2bb d317 0dbc
000001d0: f01e aabc 2f7c 3abd b453 71bc 0be3 c8bd
000001e0: 752d ecba 954d f0bd 7224 0f3e 384c c6bd
000001f0: 7258 1f3d 9191 6bbd 5748 933c 20e9 8f3c
00000200: 33ed a7bc 17cc af3d 1c06 b23d 31c6 153e
00000210: 6f12 27bd b8c8 e43c 0db9 89bd 8825 1ebd
00000220: bc19 333d 6cd1 263e 231c 48bd ecae 90bc
00000230: ee4d edbd 983d d0bd ec6d 9a3d 7e30 24bc
00000240: 2771 063d 384a 5aba 765e 133e f5e5 98bd
00000250: 46d1 893d 092b 9fbd 0d7b 153d 84da 1d3d
00000260: cb30 dfbd 88d1 ffbb caf1 f2bd a9be 1a3c
00000270: 5876 43be 101b 18bd 97ca 2e3e 0885 233e
00000280: da44 b13c 1051 61bd 7a85 6e3c 90a7 0dbd
00000290: 713f e43c 1f63 b3bd ea23 9bbb 6b18 b1bd
000002a0: d587 693e d612 d23c b660 f7bc 70f7 8cbd
000002b0: 7d49 98be 9b0d bbbb 0986 0b3d 5435 b8bc
000002c0: 11ef 903d 0326 a33d 5f92 09bc b2d8 173d
000002d0: 78b8 e7bd 1af5 4f3e 71fb f6bc d298 03be
000002e0: 3976 fe3d 6b82 b33d 63f7 d1bc 30ed 77bd
000002f0: e33a eb3c 41e3 0ebc 8a46 643e 5364 fc3c
00000300: b59b abbd b835 713d 033e 613d d097 143c
00000310: b2bd 7f3e 4189 263e 15bb d5bd d6df 893d
00000320: 0f0f 033b 9bd9 c3bc 0fe6 b23b 907d 1a3c
00000330: 4afa 093c 3f64 4f3d ace3 a3bd 0f7d 17be
00000340: 79a9 06bc 6bcb d43c 1434 543e 23bd 3b3d
00000350: 16a3 2fbb f657 873d f78b 513d d5d6 b3bd
00000360: c0ba e33c c799 d1ba 2d9c 74bb 7bdf 2cbc
00000370: 6e45 1fbc 60c9 e2bc 5ec8 94bc d46f 403e
00000380: c04f 803d 88bc 6bbd 0f2d 81bc b10b 00bd
00000390: 0206 11bc 13e1 95bd 0068 023d 592b 183e
000003a0: e48f 96bd f560 75bd c800 35bd a434 5bbe
000003b0: 89ca f23c 91c6 f2bd 7aad 2c3d 4166 2fbc
000003c0: 0c63 0e3d bc40 623d 1447 0ebd 69c6 54bb
000003d0: 7ea5 0d3e 1037 533c 3969 ab3d 5b29 d03d
000003e0: e75a e0bc be87 79bd 6a27 e43c ce60 8ebd
000003f0: ceee 4c3d ebdc 5a3d 5a89 8f3d fffa 943d

linear2.bias f4 [256]
-0.016220365 0.05930275 -0.031245252 0.03795367 -0.017313227 0.043746177 -0.008660656 -0.056441557
-0.04818886 0.03453883 0.06623697 -0.05410964 -0.0016871607 0.03662237 0.014224119 -0.0697179
-0.050975196 -0.025420325 -0.051023263 -0.0326552 -0.02191241 -0.046693135 0.013031089 -0.018985042
-0.016320493 -0.021730823 -0.007538224 0.0056621656 0.052070674 0.017798228 0.05649306 -0.0030262994
-0.008081458 -0.021589084 -0.020201249 -0.025475312 -0.035285767 -0.021303624 -0.00065298093 -0.010276311
0.05725803 0.037655246 0.05325095 0.04502749 0.047079533 -0.016283844 0.06000581 0.026616229
-0.036519997 -0.052293774 -0.00027889188 0.01158559 0.05617046 0.05269959 -0.023607878 0.0010144786
0.06384562 0.050908133 -0.0046062395 0.017570166 0.00980846 -0.0029292593 0.06428899 0.026560036
-0.02246161 0.0072099115 -0.035768602 -0.07316559 0.00075700454 0.032967526 0.051423457 -0.039976023
-0.04559392 0.031219997 0.017262237 0.038653836 0.039267782 0.02872787 0.030616283 0.03713556
0.03206017 0.007270143 -0.024292964 -0.03968734 -0.045415867 0.03796031 -0.064402156 0.010505999
0.0026262961 0.030904096 -0.04267405 0.030721307 -0.062398925 -0.016546732 0.051388737 -0.043615926
-0.0047204797 0.042145055 -0.05495627 0.058961287 0.019286655 -0.0066310153 -0.01053566 0.035860546
-0.04448211 -0.004943236 -0.07336516 -0.011641657 -0.040936157 -0.05401265 -0.048415877 0.062350832
0.00654635 -0.034972917 0.017467977 -0.05147705 -0.014422226 0.045842133 -0.04858009 -0.056209363
-0.011239995 -0.054220147 -0.007236748 0.005438694 0.053516526 0.008433705 0.011092976 0.035243284
0.057378918 0.029858978 -0.023085643 -0.054020878 0.050328553 0.01697166 0.052977983 0.013246923
-0.0041638725 -0.030572155 -0.052710004 0.004680995 0.03094225 0.06217783 -0.05285156 0.019397972
-0.053490285 -0.05585939 -0.004750689 0.008866619 -0.054773934 -0.055730645 0.028927093 0.058191836
0.03343641 -0.03634682 0.020424377 -0.022667224 0.007315119 -0.072373405 0.030397575 0.00592418
-0.02899283 0.029975269 0.056694463 0.035722528 -0.0064486316 0.051499426 -0.0001958004 0.045891736
-0.035711583 0.04585525 0.038976118 0.024796918 0.053305734 0.027955035 -0.016205652 0.045130078
0.065485395 0.04844841 -0.036011726 0.023306621 0.031677257 -0.032361876 0.024567332 -0.043378796
-0.031691723 0.008432844 -0.057059087 -0.0051377625 0.005515083 -0.041740783 -0.03933639 -0.044359956
0.01345344 0.0018513856 0.0089778295 0.025232496 0.04005511 0.018276466 0.045426227 0.04434999
-0.0064352094 0.05111012 0.059426222 -0.02405814 0.033810217 0.022759736 -0.002558863 -0.031079415
-0.058612857 0.06342794 -0.0021857289 -0.04341502 -0.025596267 -0.04940323 0.03261798 0.06750576
-0.033967525 0.031381387 -0.0057556885 0.017308973 0.031627323 -0.007841653 -0.048601136 -0.059493717
0.023587512 0.051794298 0.02104337 -0.01677004 -0.027651437 -0.061292913 -0.050988745 -0.042437702
0.0059784153 0.022391858 0.064100906 -0.0596111 -0.03860641 -0.042536836 -0.007350693 -0.010973583
-0.017676143 0.0011790632 -0.027371233 -0.026375737 -0.01306968 0.016420115 -0.0365325 0.04858921
0.02722033 -0.038810868 -0.017146453 0.031841833 -0.004415224 0.010715427 -0.020238265 0.058802254
00000000: 92e0 84bc 71e7 723d 0bf6 ffbc 4f75 1b3d
00000010: 78d4 8dbc 312f 333d 6de5 0dbc 432f 67bd
00000020: af61 45bd 9778 0d3d 40a7 873d 12a2 5dbd
00000030: b823 ddba 5701 163d 470c 693c 42c8 8ebd
00000040: 5ecb 50bd 493e d0bc c5fd 50bd 76c1 05bd
00000050: a881 b3bc 4d41 3fbd 5980 553c 8586 9bbc
00000060: 8eb2 85bc d704 b2bc 3503 f7bb b089 b93b
00000070: 0f48 553d 97cd 913c 4465 673d e154 46bb
00000080: 1768 04bc 97db b0bc 177d a5bc 9ab1 d0bc
00000090: cf87 10bd f084 aebc cf2c 2bba f95d 28bc
000000a0: 6587 6a3d 633c 1a3d ab1d 5a3d bf6e 383d
000000b0: 78d6 403d b265 85bc a7c8 753d 470a da3c
000000c0: fe95 15bd ff31 56bd 3c38 92b9 7dd1 3d3c
000000d0: ff12 663d 86db 573d 4f65 c1bc 41f8 843a
000000e0: 7ec1 823d 0c85 503d f0ef 96bb 4fef 8f3c
000000f0: aab3 203c d1f8 3fbb f2a9 833d 6f94 d93c
00000100: 6901 b8bc 1f41 ec3b 1982 12bd d7d7 95bd
00000110: b771 463a f508 073d 67a1 523d e6bd 23bd
00000120: b1c0 3abd 14c1 ff3c 8969 8d3c 7c53 1e3d
00000130: 41d7 203d b656 eb3c 00cf fa3c 751b 183d
00000140: 8651 033d 613a ee3b 0a02 c7bc 318f 22bd
00000150: fd05 3abd 457c 1b3d 47e5 83bd 5b21 2c3c
00000160: f01d 2c3b 962a fd3c fcca 2ebd 40ab fb3c
00000170: 0496 7fbd 038d 87bc ff7c 523d 9da6 32bd
00000180: 41ae 9abb 4ba0 2c3d d319 61bd 6481 713d
00000190: 0cff 9d3c fd48 d9bb c39d 2cbc 82e2 123d
000001a0: df32 36bd defa a1bb 7940 96bd a6bc 3ebc
000001b0: acac 27bd 5e3c 5dbd ba4f 46bd 9663 7f3d
000001c0: c482 d63b c33f 0fbd 0119 8f3c 99d9 52bd
000001d0: 334b 6cbc f6c4 3b3d ebfb 46bd ca3b 66bd
000001e0: f527 38bc f215 5ebd 3e22 edbb 1237 b23b
000001f0: 2534 5b3d 862d 0a3c 50bf 353c 435b 103d
00000200: 2806 6b3d d19a f43c 1a1e bdbc ff44 5dbd
00000210: 5025 4e3d 2708 8b3c 71ff 583d 9f09 593c
00000220: 1871 88bb 7572 fabc 72e6 57bd 0863 993b
00000230: 9a7a fd3c 2eae 7e3d e17a 58bd 7fe8 9e3c
00000240: a118 5bbd d1cc 64bd abab 9bbb 4c45 113c
00000250: a25a 60bd d145 64bd 83f8 ec3c 905a 6e3d
00000260: 9ef4 083d 67e0 14bd 0651 a73c 9db0 b9bc
00000270: aab3 ef3b 8238 94bd 5604 f93c a01f c23b
00000280: 5f82 edbc b28e f53c 7438 683d c951 123d
00000290: 0b4f d3bb 10f1 523d c54f 4db9 f9f8 3b3d
000002a0: 4f46 12bd b7d2 3b3d 6ca5 1f3d e822 cb3c
000002b0: 1d57 5a3d f501 e53c b7c1 84bc 51da 383d
000002c0: 351d 863d d771 463d 0881 13bd 87ed be3c
000002d0: 03c0 013d e38d 04bd 6e41 c93c f7ad 31bd
000002e0: 2ecf 01bd e929 0a3c cab6 69bd ad5a a8bb
000002f0: dfb7 b43b 62f8 2abd 321f 21bd c9b2 35bd
00000300: d16b 5c3c 31aa f23a bf17 133c 61b4 ce3c
00000310: d410 243d 87b8 953c da10 3a3d 56a8 353d
00000320: 73de d2bb d858 513d e968 733d 9415 c5bc
00000330: 957c 0a3d a072 ba3c 99b2 27bb 429a febc
00000340: 0914 70bd 82e6 813d 723e 0fbb f3d3 31bd
00000350: 43af d1bc 0b5b 4abd 6e9a 053d 7640 8a3d
00000360: 8821 0bbd c589 003d 379a bcbb 8ccb 8d3c
00000370: a78b 013d 477a 00bc fc11 47bd afaf 73bd
00000380: 993a c13c 4226 543d 2563 ac3c 5361 89bc
00000390: 4485 e2bc 470e 7bbd 93d9 50bd 28d3 2dbd
000003a0: 95e6 c33b 216f b73c 5647 833d c52a 74bd
000003b0: c121 1ebd 1b3b 2ebd 15de f0bb 8bca 33bc
000003c0: 8fcd 90bc cc8a 9a3a a339 e0bc ee11 d8bc
000003d0: 3622 56bc 7a83 863c 1aa3 15bd 7b05 473d
000003e0: 2bfd de3c 25f8 1ebd b876 8cbc 956c 023d
000003f0: 95ad 90bb c28f 2f3c b8ca a5bc a2da 703d

linear3.weight f4 [1, 256]
0.14154895 0.13824491 -0.12787192 0.13911618 -0.14837612 0.14474009 0.14743043 0.15708262
-0.12595679 -0.12985452 0.16335662 -0.12883985 0.14043085 -0.1478499 0.15149693 -0.15156527
0.15363702 0.15156035 -0.13623363 0.1455511 0.14328904 0.1392283 -0.13569999 0.13264705
-0.1460478 -0.13394558 0.14125761 -0.13854104 -0.1390666 -0.13885258 0.13887008 0.13905393
-0.15138765 0.1347896 -0.16000901 0.1541534 -0.15570739 0.14318395 0.15669997 -0.14564614
0.13124052 0.16013356 0.15103425 -0.13296725 0.1440129 -0.13248983 0.13710599 -0.13656823
-0.13907595 -0.13801697 0.15462139 0.1419045 0.15109305 0.12644768 -0.14013399 0.13546838
0.13340035 0.12809841 0.1419931 -0.13684939 -0.1389603 -0.13635536 -0.1424747 0.13691868
-0.15197721 -0.13205835 0.14913842 -0.13972594 0.14755356 0.14959505 0.14458473 0.13610457
0.14998671 0.14437611 0.14010964 0.14256918 0.16731769 -0.14367174 -0.14901552 -0.14247392
-0.14893237 -0.15814543 0.15647785 0.13086425 -0.1325018 -0.14614719 -0.14144683 0.13932514
0.15066956 -0.15126544 0.14395131 0.1286513 -0.14170276 -0.13815671 -0.13820298 -0.14772709
-0.14676245 0.12997428 0.1404405 0.1468073 0.14879458 0.14997746 0.14793047 -0.15453427
0.13438247 -0.1507389 -0.13142088 0.140983 0.14870211 -0.15133747 0.13651377 0.15699236
0.13870434 -0.16087908 0.1384028 0.1257455 0.15455265 -0.14800395 -0.13878268 -0.13578473
0.155403 -0.13971709 0.15966588 0.14561366 0.15485969 0.15706985 -0.13628581 0.15120961
-0.13681795 -0.14374562 0.14257886 0.1303484 0.14635257 0.1473705 0.13844231 0.12725937
-0.14517751 0.15559894 0.12779975 -0.13287364 -0.14840654 0.1405389 -0.14156602 -0.1402838
0.13394277 0.13283359 0.15125349 -0.14560986 0.16293342 0.14489077 -0.14435615 -0.13842323
0.1463678 0.14089331 0.14583589 0.1334106 0.12120314 -0.14400905 0.12426246 -0.14521733
0.14606787 -0.14568521 0.13351999 0.14479724 -0.14300743 -0.13367425 -0.14944382 -0.14673944
-0.15366903 0.15559189 -0.14191446 0.1392235 0.13614054 -0.14302377 0.15830255 0.14755559
0.1542612 -0.1294517 -0.14481443 -0.14621514 0.14626645 -0.13942938 0.13859868 0.15050195
-0.14048538 0.14366497 -0.14429308 0.14961518 -0.14225657 0.12663949 -0.1532762 0.1430905
-0.14735496 0.14919347 0.14395158 -0.13452227 0.13908449 0.1413958 -0.13746908 0.1389945
0.14615913 0.1527424 0.14602868 0.13410608 -0.15087727 -0.14637272 -0.14898156 -0.13461782
0.13977107 0.14520556 0.14798284 0.13883126 -0.1394833 0.1262322 0.16078308 0.14914803
-0.14467464 0.14496593 0.13502777 0.13459882 -0.13803247 -0.14282155 0.15381825 -0.13889904
0.14930439 -0.14194497 0.14132771 -0.13458222 0.13979623 -0.15879248 0.14577402 0.14992748
0.15218797 0.13900684 0.14239056 -0.15881835 0.14601256 -0.14534079 0.1387477 -0.13917685
0.15213299 0.15008865 0.13927126 -0.13813715 0.14733335 -0.14671925 0.14605637 -0.15160853
0.13041826 0.13682693 0.14121203 0.13004692 0.1442981 0.13317166 0.14035644 0.15802433
00000000: 35f2 103e 1390 0d3e dbf0 02be 7974 0e3e
00000010: e9ef 17be bf36 143e 01f8 163e 44da 203e
00000020: d1fa 00be 95f8 04be f546 273e 98ee 03be
00000030: 1bcd 0f3e f765 17be 0322 1b3e ed33 1bbe
00000040: 0653 1d3e a332 1b3e d480 0bbe 590b 153e
00000050: 5dba 123e dd91 0e3e f0f4 0abe a1d4 073e
00000060: 8e8d 15be 0829 09be d6a5 103e b4dd 0dbe
00000070: 7a67 0ebe 5f2f 0ebe f533 0e3e 2764 0e3e
00000080: 5d05 1bbe 4906 0a3e 67d9 23be 64da 1d3e
00000090: c271 1fbe d09e 123e f575 203e 4324 15be
000000a0: ea63 063e 0dfa 233e b9a8 1a3e 9128 08be
000000b0: 1e78 133e 6aab 07be 8365 0c3e 8bd8 0bbe
000000c0: ed69 0ebe 5254 0dbe 1255 1e3e 6a4f 113e
000000d0: 23b8 1a3e 807b 013e 497f 0fbe 39b8 0a3e
000000e0: 1a9a 083e 3b2c 033e a466 113e 3f22 0cbe
000000f0: 9c4b 0ebe bda0 0bbe e3e4 11be 6934 0c3e
00000100: ea9f 1bbe 4e3a 07be beb7 183e 5114 0fbe
00000110: 4818 173e 722f 193e 050e 143e ff5e 0b3e
00000120: 1e96 193e 55d7 133e e778 0f3e a8fd 113e
00000130: 5455 2b3e af1e 13be 8697 18be afe4 11be
00000140: ba81 18be e0f0 21be bb3b 203e 4701 063e
00000150: 8dae 07be 9ca7 15be 70d7 10be 40ab 0e3e
00000160: 1f49 1a3e 54e5 1abe f967 133e 2bbd 033e
00000170: 871a 11be f478 0dbe 1585 0dbe c545 17be
00000180: e548 16be fa17 053e a2cf 0f3e a754 163e
00000190: 9b5d 183e b193 193e 167b 173e 3b3e 1ebe
000001a0: 8f9b 093e 4c5b 1abe 3293 06be d95d 103e
000001b0: 5e45 183e 36f8 1abe 44ca 0b3e 9bc2 203e
000001c0: 8308 0e3e 7cbd 24be 77b9 0d3e 6ec3 003e
000001d0: 0d43 1e3e 598e 17be 0c1d 0ebe 270b 0bbe
000001e0: f721 1f3e ff11 0fbe 747f 233e bf1b 153e
000001f0: 8a93 1e3e ebd6 203e 828e 0bbe b1d6 1a3e
00000200: 011a 0cbe 0d32 13be 3100 123e 0d7a 053e
00000210: 73dd 153e 4be8 163e d2c3 0d3e 4850 023e
00000220: 6aa9 14be 5455 1f3e f0dd 023e 0710 08be
00000230: e2f7 17be 6ee9 0f3e aff6 10be 8ea6 0fbe
00000240: 4b28 093e 8705 083e 32e2 1a3e c01a 15be
00000250: 05d8 263e 3f5e 143e 19d2 13be d2be 0dbe
00000260: 71e1 153e 5646 103e 0156 153e ca9c 083e
00000270: 5a39 f83d 1c77 13be 517d fe3d dab3 14be
00000280: d192 153e 812e 15be 77b9 083e ba45 143e
00000290: 8a70 12be e7e1 08be cd07 19be dd42 16be
000002a0: 6a5b 1dbe 7b53 1f3e 0652 11be 9b90 0e3e
000002b0: 6d68 0b3e d374 12be 101a 223e d018 173e
000002c0: a6f6 1d3e fd8e 04be 3c4a 14be 6cb9 15be
000002d0: dfc6 153e 93c6 0ebe d0ec 0d3e 2f1d 1a3e
000002e0: 66db 0fbe e91c 133e 91c1 13be b934 193e
000002f0: b5ab 11be c8ad 013e 70f4 1cbe 5186 123e
00000300: 38e4 16be 2cc6 183e 0b68 133e 35c0 09be
00000310: 2a6c 0e3e 10ca 103e b2c4 0cbe 9354 0e3e
00000320: bdaa 153e 8168 1c3e 8b88 153e 1b53 093e
00000330: 927f 1abe bbe2 15be 9f8e 18be 41d9 09be
00000340: 2620 0f3e c4b0 143e d088 173e c829 0e3e
00000350: b6d4 0ebe 0443 013e 52a4 243e 43ba 183e
00000360: 9725 14be f371 143e b844 0a3e 46d4 093e
00000370: 6258 0dbe d03f 12be 8882 1d3e 8d3b 0ebe
00000380: 40e3 183e 065a 11be 36b8 103e eccf 09be
00000390: be26 0f3e 7f9a 22be c945 153e 9786 193e
000003a0: 2ad7 1b3e cf57 0e3e d5ce 113e 47a1 22be
000003b0: 5184 153e 37d4 14be e113 0e3e 6084 0ebe
000003c0: c0c8 1b3e d7b0 193e 209d 0e3e d373 0dbe
000003d0: 8ede 163e 923d 16be cd8f 153e 443f 1bbe
000003e0: 5d8c 053e 5c1c 0c3e e399 103e 052b 053e
000003f0: e2c2 133e 275e 083e 99b9 0f3e 21d1 213e
