testing/scripts/outputs/DDPG_Env/20221214-223904/models/910actor_checkpoint.pt (torch, 281431 bytes, 5 tensors)

linear1.weight f4 [256, 14]
0	0x3dd841ee	0.1055945
1	0xbe141d96	-0.14464411
2	0x3e5e9700	0.2173729
3	0xbb827046	-0.003980669
4	0xbe466b95	-0.19376977
5	0xbdbae2f3	-0.091253184
6	0x3e1d2612	0.15346554
7	0xbda19d46	-0.07891326
8	0xbe92391c	-0.28559196
9	0x3d8441e5	0.06457881
10	0x3e7d99b0	0.24765658
11	0xbe303466	-0.17207488
12	0xbe8923b1	-0.26785043
13	0xbd03872f	-0.032111343
14	0xbe930b2f	-0.2871947
15	0xbc9a3fc2	-0.01882923
16	0xbe4b9218	-0.19879949
17	0xbe4fd4b8	-0.2029599
18	0x3e1b2bd4	0.15153438
19	0x3e28d80e	0.16488668
20	0xbe26d8ca	-0.16293636
21	0xbde92db2	-0.11385669
22	0x3e88ff7c	0.2675742
23	0xbde529a9	-0.11189587
24	0x3e7a53d9	0.24446048
25	0xbe1e70f9	-0.15472783
26	0x3d7fe9ed	0.06247895
27	0xbe529190	-0.2056334
28	0xbe8322ca	-0.2561248
29	0xbe1cd0f1	-0.1531408
30	0x3e53bda1	0.20677806
31	0x3e85312a	0.26014072
32	0xbe827759	-0.2548168
33	0x3d75f78d	0.060050536
34	0x3e83fac9	0.2577727
35	0x3d6f07ff	0.058357235
36	0x3e1781fa	0.14795676
37	0x3e051438	0.12995994
38	0x3e8c1f8d	0.2736782
39	0xbe0fad9e	-0.14031073
40	0x3e86afaf	0.2630591
41	0x3dadf114	0.08493248
42	0xbeacf651	-0.33781675
43	0xbe8d215b	-0.2756451
44	0xbaa3ef80	-0.001250729
45	0xbe0e38fb	-0.13888924
46	0xbd218197	-0.039430227
47	0xbeb67c95	-0.35641924
48	0xbe877752	-0.26458222
49	0xbd8239a6	-0.06358652
50	0xbd070e26	-0.032972477
51	0x3d845c1c	0.06462881
52	0xbe85761f	-0.26066682
53	0xbdb93491	-0.09043229
54	0x3e9beaa8	0.30452466
55	0x3d3d3b28	0.046198994
56	0x3d1ddfd2	0.03854353
57	0xbdcbdcfb	-0.09954258
58	0xbcb6e635	-0.022326568
59	0xbe2a4df4	-0.166313
60	0xbd2942d5	-0.0413235
61	0xbe0677a5	-0.13131578
62	0xbe170f52	-0.14751938
63	0x3e612c33	0.21989517
64	0x3d8f8d9c	0.07009432
65	0xbdaeef8b	-0.08541783
66	0x3cfb9d75	0.03071473
67	0x3e899f61	0.2687941
68	0xbd82a845	-0.06379751
69	0x3d66c874	0.05634351
70	0x3d915bf7	0.07097619
71	0xbda36e0d	-0.07979975
72	0x3d84ca3e	0.06483887
73	0x3e2b5b20	0.1673398
74	0x3e8e1dcf	0.27757117
75	0xbd87f8a8	-0.06639224
76	0x3d302d36	0.043011867
77	0x3dee851a	0.11646481
78	0x3cdf34a7	0.027246786
79	0x3e2981b5	0.16553386
80	0xbe93f65f	-0.28898904
81	0x3ce51fdc	0.027969293
82	0xbdb8eddf	-0.09029745
83	0x3aa1ef57	0.0012354654
84	0x3dc8b649	0.09800393
85	0x3eb8123c	0.35951412
86	0xbda9b8dd	-0.08287213
87	0xbd3af343	-0.04564215
88	0x3d15df1c	0.036589727
89	0x3e34f9d8	0.17673433
90	0x3df5dd94	0.12005153
91	0xbe59d8f9	-0.21274175
92	0x3db3f696	0.08787267
93	0xbe03e8c8	-0.12881768
94	0xbd31f432	-0.043445773
95	0x3e359c83	0.17735486
96	0xbe3f9f14	-0.18713027
97	0xbd92fb8e	-0.071768865
98	0x3e8abc22	0.2709666
99	0x3e7d8643	0.24758248
100	0xbe02e0bb	-0.1278104
101	0x3e5edf6d	0.21764918
102	0x3e0e0797	0.13870083
103	0x3e290dc2	0.16509154
104	0xbe342ffe	-0.17596433
105	0x3e05d0bf	0.13067912
106	0x3e34e230	0.17664409
107	0xbe25ba90	-0.16184449
108	0x3e940323	0.28908643
109	0x3d0c93f8	0.0343208
110	0xbea50376	-0.32229203
111	0x3c778290	0.015106812
112	0xbe2f0da7	-0.17095052
113	0x3e70e510	0.2352488
114	0x3e19824b	0.14991109
115	0xbdf32ecb	-0.118741594
116	0x3d2d5bb5	0.042323787
117	0xbdabb36d	-0.08383832
118	0x3e414d20	0.18877077
119	0xbe0547d5	-0.13015683
120	0xbe55195f	-0.2081046
121	0xbec74ec6	-0.38927287
122	0xbabf9314	-0.0014615976
123	0x3d494eb6	0.04914733
124	0xbce137e8	-0.027492478
125	0x3e08f194	0.13373405
126	0xbc9a9592	-0.018870149
127	0x3db2a438	0.087227285
128	0x3e750e98	0.23931348
129	0xbe96667e	-0.2937507
130	0xbde0a76e	-0.10969435
131	0x3e2b34ab	0.1671931
132	0x3d2fbfc6	0.0429075
133	0xbe2788aa	-0.16360727
134	0xbeb2f30e	-0.3495106
135	0x3df10e69	0.11770327
136	0x3dcb294a	0.09919985
137	0x3e575054	0.21026736
138	0xbb75ac6c	-0.0037486805
139	0xbdbcd098	-0.092194736
140	0xbecd5e58	-0.4011104
141	0xbe8c04ef	-0.27347514
142	0x3d8b8a67	0.068135075
143	0x3e8494b7	0.2589471
144	0x3eb321c1	0.3498669
145	0x3e7b67f4	0.24551374
146	0xbe491f67	-0.19640885
147	0xbe734fb0	-0.23760867
148	0xbe8e1925	-0.2775356
149	0xbe2866d2	-0.16445473
150	0xbde00f0f	-0.10940372
151	0x3ce7f406	0.028314602
152	0x3d091554	0.033467606
153	0xbe315d66	-0.17320785
154	0xbbc5e836	-0.0060396446
155	0xbe1df109	-0.15423979
156	0x3dab6077	0.083680086
157	0xbdecefaf	-0.115691535
158	0x3e05787d	0.13034244
159	0x3cf3f0d2	0.029777918
160	0x3e976006	0.29565448
161	0x3eb0b443	0.3451253
162	0x3e2af696	0.16695628
163	0x3dc7fc86	0.09764962
164	0x3cfcbe21	0.03085238
165	0x3e08d14e	0.13361093
166	0x3e31538d	0.17317028
167	0x3e1296b0	0.14315295
168	0x3e032752	0.12807968
169	0x3e199332	0.14997557
170	0x3d370fb0	0.044692695
171	0xbe526002	-0.20544437
172	0x3cffbb6d	0.031217301
173	0xbd8e2a90	-0.06941712
174	0x3e08e8f1	0.1337011
175	0x3ce8e0a4	0.02842743
176	0xbd37ee47	-0.044904973
177	0x3e4b5a7d	0.19858737
178	0xbe836a31	-0.25666955
179	0x3e810f58	0.2520702
180	0x3e8947c6	0.2681257
181	0xbc7a765d	-0.015287009
182	0x3e076259	0.1322111
183	0x3e8c76cc	0.27434385
184	0xbe055692	-0.13021305
185	0x3e57f180	0.21088219
186	0xbd1fce0c	-0.03901486
187	0xbd822ea8	-0.06356555
188	0x3dcecca1	0.100976236
189	0x3e0e0f13	0.13872938
190	0x3e31ada7	0.173514
191	0xbe179de0	-0.14806318
192	0x3e879f49	0.26488712
193	0xbe9721d7	-0.29518005
194	0x3e86af0f	0.26305434
195	0xbe8b7fc9	-0.2724593
196	0x3e905183	0.28187189
197	0xbde12b35	-0.10994569
198	0x3e510765	0.20412977
199	0x3d757360	0.059924483
200	0xbdca741e	-0.09885429
201	0x3e3f3eb7	0.18676268
202	0xbe2bc89a	-0.16775742
203	0x3e31a957	0.17349754
204	0xbe7b48fd	-0.24539562
205	0x3d64147d	0.0556836
206	0x3e4b11d3	0.19831018
207	0x3e216d8e	0.15764448
208	0x3d741eb6	0.0595996
209	0xbd958a98	-0.07301825
210	0x3daade79	0.083432145
211	0x3eb34844	0.35016072
212	0xbd577308	-0.052599937
213	0xbed15e55	-0.40892282
214	0xbef77347	-0.48330137
215	0xbea4a16d	-0.32154408
216	0xbd35d27d	-0.04439019
217	0xbc46c3f7	-0.012131683
218	0xbe29e2d2	-0.16590431
219	0x3dbe5816	0.09294145
220	0xbe6c3520	-0.2306714
221	0x3e5360e1	0.20642425
222	0x3e6ceac4	0.23136431
223	0xbcf87412	-0.030328784
224	0x3e321d4a	0.17393985
225	0xbe856e29	-0.26060608
226	0xbd7dd88f	-0.061974104
227	0xbe7b2dba	-0.24529162
228	0xbeb0fbef	-0.3456721
229	0xbe06fdbb	-0.13182728
230	0xbdb97a18	-0.09056491
231	0x3c369ff7	0.011146537
232	0x3e542ca5	0.20720156
233	0xbe120cee	-0.14262745
234	0xbe83ba2c	-0.25727975
235	0xbe639fc9	-0.22228922
236	0x3e91b7bc	0.2846049
237	0x3da88398	0.082282245
238	0x3dfb543c	0.12271926
239	0xbbc14b31	-0.005898856
240	0xbc449aa6	-0.011999762
241	0x3d9dccf0	0.07705104
242	0xbdc62c5a	-0.09676428
243	0xbe0cbd4b	-0.13744085
244	0x3db83c1b	0.08995839
245	0xbe2777d0	-0.16354299
246	0x3e804cbb	0.2505854
247	0xbe856552	-0.26053864
248	0xbe92d22b	-0.2867597
249	0x3e484480	0.1955738
250	0x3e9d218f	0.30689666
251	0x3ab1d41f	0.0013567245
252	0xbe99afa8	-0.30016828
253	0xbe812ba0	-0.25228596
254	0x3d7e056b	0.062016886
255	0xbdc56ea9	-0.096402474

linear1.bias f4 [256]
0	0xbd9e67ba	-0.07734628
1	0xbe6e7962	-0.23288491
2	0xbd8ea2b9	-0.06964631
3	0x3e6da2e9	0.23206677
4	0xbd77feb4	-0.06054564
5	0xbe0a4bee	-0.13505527
6	0xbe6844a4	-0.22682434
7	0xbdb07585	-0.08616165
8	0x3e0afc56	0.13572821
9	0xbea73b95	-0.32662645
10	0xbd3962c7	-0.045260217
11	0x3e751086	0.23932084
12	0x3d42b196	0.04753264
13	0x3e42fc1c	0.19041485
14	0x3e1d9f1a	0.15392724
15	0xbdc44bb7	-0.09584754
16	0xbe5207d7	-0.20510803
17	0x3e72df78	0.23718059
18	0xbddc14ab	-0.107461296
19	0xbe469c08	-0.19395459
20	0xbe007138	-0.1254319
21	0xbe0d04d9	-0.1377138
22	0xbd8b9b63	-0.06816747
23	0xbe4ac9ca	-0.19803539
24	0xbe636c98	-0.22209394
25	0x3e806973	0.2508045
26	0xbe51f2d3	-0.20502786
27	0x3e9be322	0.30446726
28	0x3db7b098	0.089692295
29	0x3d893956	0.06700389
30	0xbd91a0ae	-0.07110725
31	0xbe2542a8	-0.16138709
32	0x3e7bc30d	0.24586125
33	0x3db9e590	0.09076989
34	0x3e3b4a5d	0.18290086
35	0xbe21565a	-0.15755597
36	0xbd9d1b9a	-0.0767128
37	0x3d846fb2	0.06466617
38	0x3d29e127	0.041474488
39	0xbdb2eb5e	-0.08736299
40	0xbe059f0b	-0.13048951
41	0x3e616aa6	0.2201334
42	0xbe2375e5	-0.15962942
43	0x3eb3ffe4	0.35156167
44	0x3d4961e1	0.04916561
45	0x3e59940e	0.21247885
46	0xbe89170f	-0.26775405
47	0x3e33f093	0.1757224
48	0xbe3947da	-0.18093815
49	0xbbb0c9a4	-0.005395131
50	0x3e789b59	0.2427801
51	0xbd86187e	-0.0654764
52	0xbe9056e9	-0.28191307
53	0xbe7f01e3	-0.24903063
54	0xbdea8e7d	-0.11452959
55	0x3db770f5	0.08957092
56	0xbd385a90	-0.045008242
57	0x3e1d3109	0.15350737
58	0xbdd02222	-0.1016276
59	0x3e5f35c0	0.21797848
60	0xbb1ecfb8	-0.0024232697
61	0xbcf21e81	-0.029555561
62	0x3c90614d	0.017624522
63	0xbc7661c1	-0.015037955
64	0xbe90aacc	-0.28255308
65	0xbe8d8e7f	-0.27647778
66	0xbba0d953	-0.0049087196
67	0xbd561779	-0.05226848
68	0xbe104110	-0.1408732
69	0x3e5d3965	0.21603926
70	0xbe45930f	-0.1929438
71	0x394e3e68	0.00019668939
72	0xbdb19747	-0.08671432
73	0x3e9f08ef	0.31061503
74	0x3ead30fc	0.33826435
75	0xbdcc26f3	-0.099683665
76	0xbe8520a0	-0.26001453
77	0xbe3f41f0	-0.18677497
78	0x3e1a47a4	0.15066391
79	0x3e0a477a	0.13503829
80	0xbda72e54	-0.08163133
81	0x3e03bebd	0.1286573
82	0x3e74ba86	0.23899278
83	0x3ad2cb52	0.0016082323
84	0xbdf4e3cd	-0.11957512
85	0x3de77900	0.11302376
86	0xbd75dffb	-0.060028058
87	0x3d9a4a20	0.075336695
88	0xbcb512db	-0.022103718
89	0xbdb84937	-0.089983396
90	0xbe13078d	-0.14358349
91	0x3e23e7f6	0.16006455
92	0xbcce6f54	-0.02519957
93	0xbdb3006e	-0.08740316
94	0x3e6e285d	0.23257585
95	0x3e67a41c	0.22621197
96	0xbdeaf903	-0.114732765
97	0xbe2811ae	-0.16412994
98	0x3d2b1448	0.04176739
99	0xbe2252b1	-0.15851857
100	0x3dd041a6	0.101687714
101	0x3e2f6716	0.17129168
102	0x3e9768bb	0.2957209
103	0x3c89c792	0.016818795
104	0xbe5d9c8c	-0.21641749
105	0x3d72ccdc	0.0592774
106	0xbc88697c	-0.016651861
107	0x3e8f13b3	0.27944717
108	0x3e1449bc	0.14481252
109	0x3bbfeeea	0.005857338
110	0xbe7da7e2	-0.24771073
111	0x3e7230e4	0.23651463
112	0xbe412c90	-0.18864655
113	0xbe43f94f	-0.19138072
114	0x3d68c5e9	0.056829367
115	0x3e5a8bcf	0.21342395
116	0x3e39b131	0.18134
117	0x3e1bfd51	0.15233351
118	0xbd7151fc	-0.058916077
119	0xbc0868c6	-0.008325761
120	0x3d375279	0.044756386
121	0xbe771893	-0.24130468
122	0xbe479203	-0.19489293
123	0x3dd0d8f9	0.10197634
124	0xbd1947ec	-0.037422106
125	0x3e57bbae	0.21067688
126	0x3e6e0dfe	0.23247525
127	0x3cee0d87	0.029059185
128	0x3e6f2052	0.23352173
129	0xbe99eeef	-0.30065104
130	0x3e3678d5	0.17819531
131	0xbe2781c1	-0.16358091
132	0x3ac0858f	0.0014688241
133	0x3e43cd40	0.19121265
134	0xbd1b18cb	-0.03786544
135	0x3e471c3e	0.19444367
136	0x3e2d7b7d	0.16941638
137	0x3b0133ee	0.001971479
138	0xbdf453c7	-0.11930042
139	0xbd5a8c93	-0.05335672
140	0x3d2bbde2	0.041929133
141	0xbd1699d8	-0.03676781
142	0x3d192e45	0.03739764
143	0xbdd4abe7	-0.1038435
144	0x3deacb58	0.11464566
145	0x3dc1a078	0.09454435
146	0xba6c29b2	-0.00090088986
147	0x3c94c783	0.01816154
148	0xbe1e3fe2	-0.15454057
149	0x3d7aafb7	0.06120273
150	0x3c8dd531	0.017313572
151	0x3e232ed7	0.15935837
152	0x3d9a6020	0.07537866
153	0x3d6fba47	0.058527257
154	0xbcf59ffd	-0.029983515
155	0x3e901a0f	0.2814488
156	0x3d5eb6a0	0.054373384
157	0xbe2fa85c	-0.17154068
158	0xbcda3935	-0.026638607
159	0x3d9d7b29	0.076895066
160	0x3e5a48d6	0.21316847
161	0xbbc8ddf5	-0.006129975
162	0xbcac4d71	-0.02103302
163	0xbe0e67cc	-0.13906783
164	0xbd5016ee	-0.050803117
165	0x3c1331fb	0.008984084
166	0xbdac3eda	-0.084104255
167	0x3ca3462d	0.019930923
168	0xbe6aa1ce	-0.22913286
169	0xbccc999d	-0.024975592
170	0x3e6a75ac	0.22896451
171	0xbd2074a2	-0.03917373
172	0xbe3057d9	-0.17221011
173	0xbde3cd58	-0.111231506
174	0x3db4d4e9	0.08829672
175	0x3e27f64c	0.16402549
176	0xbe4b7161	-0.1986747
177	0xbe809408	-0.2511294
178	0xbdfb04cc	-0.12256774
179	0xbc360dd8	-0.011111699
180	0xbdc8299a	-0.0977356
181	0xbd4805c8	-0.04883364
182	0xbe461c7f	-0.19346808
183	0xbe30e20d	-0.17273732
184	0xb81720b2	-3.6031655e-05
185	0x3df17587	0.11789995
186	0xbe4952bd	-0.19660468
187	0x3df44743	0.119276546
188	0x3d86d933	0.06584396
189	0x3e5060ae	0.2034938
190	0x3e17bdad	0.1481845
191	0xbe64bcf8	-0.22337711
192	0xbd89678e	-0.067092046
193	0xbe440937	-0.1914414
194	0x3e05ef33	0.13079529
195	0x3e6339a8	0.22189963
196	0xbe987d66	-0.2978317
197	0xbe97d075	-0.29651228
198	0x3d9fba46	0.07799201
199	0x3d0a2b0a	0.03373245
200	0x3d2fe7cf	0.04294568
201	0xbd88f24c	-0.066868395
202	0xbe4b70d1	-0.19867255
203	0x3e8941c8	0.26808
204	0x3e8e15c2	0.27750975
205	0xbc95e8be	-0.018299457
206	0x3e4b2736	0.19839177
207	0xbe0f5f23	-0.14001136
208	0x3da5e953	0.08101144
209	0xbe8ac023	-0.27099714
210	0xbd9c5375	-0.07633106
211	0xbd1a67b0	-0.03769654
212	0x3dc8fa3d	0.09813354
213	0x3d0db669	0.034597788
214	0x3e827823	0.25482282
215	0xbd72ecdc	-0.059307918
216	0x3d0da87c	0.034584507
217	0x3d870394	0.06592479
218	0xbd13b303	-0.03605939
219	0xbdebeb74	-0.115195185
220	0x3e1c0b7b	0.15238754
221	0x3b116341	0.0022184404
222	0x3cf671ca	0.030083556
223	0x3b742780	0.003725499
224	0x3e2568a7	0.16153203
225	0x3e9069fe	0.28205866
226	0xbdd555f4	-0.10416785
227	0xbd5bbe5a	-0.05364833
228	0xbdcf38c8	-0.10118252
229	0xbea96c0d	-0.3309025
230	0x3e811d2f	0.25217578
231	0xbdf5cae1	-0.12001587
232	0x3ca63510	0.020288974
233	0x3e3ad22a	0.18244234
234	0x3e885cdd	0.2663335
235	0xbeb5bfb1	-0.3549781
236	0x3d8a8de3	0.06765344
237	0xbc7c8383	-0.015412214
238	0xbe2e5036	-0.17022786
239	0x3e030201	0.12793733
240	0xbe06af23	-0.13152747
241	0xbe470f13	-0.19439344
242	0xbe81d5a3	-0.25358304
243	0x3c155da6	0.009116566
244	0x3e64b21f	0.22333573
245	0x3e128aad	0.14310713
246	0x3e01ae55	0.12664159
247	0x3e70aea2	0.23504117
248	0xbd9a481f	-0.07533287
249	0x3bc8f8a4	0.006133156
250	0x3eaf4556	0.34232587
251	0xbe838d13	-0.2569357
252	0x3d632326	0.055453442
253	0x3d9642dc	0.07336971
254	0x3e5990db	0.21246664
255	0xbe114271	-0.14185502

linear2.weight f4 [256, 256]
0	0xbe57176c	-0.21005028
1	0x3d9d2c59	0.07674474
2	0xbd4b15de	-0.0495814
3	0x3e8a60ec	0.2702707
4	0xbd852a85	-0.065022506
5	0x3d12191b	0.035668474
6	0xbca93f7f	-0.02066016
7	0x3d4c59f3	0.04989047
8	0xbe2782ef	-0.16358541
9	0xbe1e886b	-0.15481727
10	0x3e3a56dc	0.18197197
11	0xbce413fc	-0.02784156
12	0xbd9824da	-0.07428904
13	0x3ccf91c3	0.02533806
14	0xbd63bde8	-0.05560103
15	0x3dd0f72b	0.102033935
16	0x3e563153	0.20917253
17	0xbd53ab93	-0.051677298
18	0x3d10d730	0.03536147
19	0x3d354e2d	0.044264007
20	0x3db5d644	0.088787585
21	0xbe769e16	-0.24083742
22	0x3d96f815	0.07371537
23	0xbe31b523	-0.17354254
24	0xbdb2d46d	-0.08731923
25	0xbd845aba	-0.06462617
26	0xbe0b0271	-0.1357515
27	0x3cf384ac	0.029726349
28	0x3cfd1cf4	0.030897595
29	0xbda1cedc	-0.079007834
30	0xbe0e7a56	-0.13913855
31	0xbcefceb0	-0.029273361
32	0xbc9b298c	-0.01894071
33	0x3d7a43dd	0.061099876
34	0xbce6fa3b	-0.028195491
35	0x3d6ad195	0.05732878
36	0x3b96261e	0.0045821806
37	0xbd9438ea	-0.07237418
38	0xbdf45a30	-0.119312644
39	0x3e3adee2	0.18249086
40	0xbd09a3fd	-0.033603657
41	0x3c183512	0.009289997
42	0xbdf15b3a	-0.11784978
43	0xbe01df23	-0.12682776
44	0xbde29f10	-0.11065495
45	0xbc8ae317	-0.016953988
46	0xbdb02689	-0.086011
47	0xbc34fb7b	-0.011046286
48	0x3e524a7d	0.20536228
49	0x3d156403	0.03647233
50	0xbc42135c	-0.011845436
51	0xbdbb4d1a	-0.09145565
52	0xbe89493a	-0.2681368
53	0xbd81a8e7	-0.06331044
54	0x3d68572c	0.05672376
55	0x3dde25c7	0.10847049
56	0xbd9b9df2	-0.07598485
57	0xbd223e8b	-0.039610427
58	0x3d5fd73a	0.054648615
59	0x3cb9d06d	0.022682393
60	0x3dc3c241	0.09558535
61	0x3e14ae10	0.14519525
62	0x3c8a8d74	0.016913153
63	0x3ce9dd07	0.028547777
64	0x3e0d3652	0.13790253
65	0x3e040fd3	0.12896661
66	0x3c3ea941	0.011637033
67	0xbd91ef69	-0.07125742
68	0x3db2c3be	0.08728741
69	0x3d409d88	0.047025234
70	0xbdc54f47	-0.096342616
71	0xbce8d501	-0.02842188
72	0x3e13c9a3	0.14432387
73	0x3bc5cb0e	0.006036169
74	0xbd9d45e3	-0.076793455
75	0x3e139d7f	0.14415549
76	0x3c95a7f0	0.018268555
77	0xbd8cfa51	-0.068836816
78	0xbd87689b	-0.06611749
79	0x3c7e9122	0.015537532
80	0x3dcf6710	0.101270795
81	0x3d9dd414	0.07706466
82	0x3c9a5222	0.018837992
83	0xbd89d573	-0.06730165
84	0xbd31f4cb	-0.043446343
85	0xbd1f4cbc	-0.03889154
86	0xbdee04e3	-0.11622026
87	0x3b55b8a7	0.0032611282
88	0xbe158d35	-0.14604647
89	0x3d004b7d	0.03132199
90	0xbdbbe942	-0.0917535
91	0x3cffdec7	0.031234158
92	0xbdb08636	-0.08619349
93	0xbe02056c	-0.12697381
94	0x3e18a190	0.14905381
95	0x3e1f44c2	0.15553573
96	0xbdd9a277	-0.10626691
97	0x3c8eef3e	0.017448064
98	0xbd2b8b5b	-0.041880947
99	0x3d020e9a	0.031752206
100	0x3e02f56b	0.12788932
101	0xbd325604	-0.043539062
102	0xbce362c0	-0.027757049
103	0x3ca1d425	0.019754479
104	0xbda4e1dd	-0.080508925
105	0xbd59539c	-0.05305825
106	0xbdc5f52a	-0.09665902
107	0xbdc47a18	-0.095936
108	0xbcf35548	-0.029703751
109	0xbc97f6b5	-0.018550256
110	0x3d84b2e0	0.0647943
111	0x3d28ceb6	0.04121276
112	0x3dce6889	0.10078532
113	0xbd97961c	-0.07401678
114	0xbbbc88cb	-0.0057536117
115	0xbbf8fd4f	-0.007598556
116	0xbcb14769	-0.021640496
117	0xbd40606d	-0.04696696
118	0xbc7e15c1	-0.015508116
119	0xbdc8a2d8	-0.09796685
120	0xbb1cee1a	-0.002394563
121	0xbdef8ccc	-0.11696777
122	0x3e028fba	0.1275014
123	0xbdd28a62	-0.10280301
124	0x3d1f287b	0.038856965
125	0xbd76f310	-0.060290396
126	0x3cb456bf	0.02201402
127	0x3c56faef	0.013121351
128	0xbc9d7d3a	-0.019224752
129	0x3db39b99	0.08769912
130	0x3dacdac9	0.084401675
131	0x3e171437	0.14753805
132	0xbd1d7935	-0.03844567
133	0x3cf571c2	0.02996147
134	0xbd87453b	-0.066050015
135	0xbd11f1b2	-0.03563089
136	0x3d36fdab	0.04467551
137	0x3e2e48a4	0.17019898
138	0xbd4b8fbd	-0.049697626
139	0xbc93f883	-0.018062836
140	0xbdf39008	-0.11892706
141	0xbdc8dc69	-0.09807665
142	0x3d9b3881	0.07579137
143	0xbc12d17d	-0.008961079
144	0x3d0ee2dc	0.03488432
145	0xba3065dc	-0.00067290454
146	0x3e12d65b	0.14339583
147	0xbd975848	-0.07389885
148	0x3d8aa7a7	0.067702584
149	0xbd9cd063	-0.07656934
150	0x3d225fa9	0.03964201
151	0x3d14a36e	0.03628867
152	0xbdee9710	-0.11649907
153	0xbc2e6174	-0.010643352
154	0xbde46205	-0.11151508
155	0x3c25dfa7	0.010124124
156	0xbe4784da	-0.19484273
157	0xbd113491	-0.03545052
158	0x3e35dd50	0.17760205
159	0x3e243240	0.16034794
160	0x3cb0e893	0.021595275
161	0xbd5deecb	-0.05418281
162	0x3c724c45	0.014788692
163	0xbd184753	-0.037177395
164	0x3cc99caf	0.024610845
165	0xbdb2b1d0	-0.08725321
166	0xbbd35ddd	-0.0064503984
167	0xbdaf1cd9	-0.08550424
168	0x3e5e077f	0.21682547
169	0x3cd0eb6a	0.02550288
170	0xbcf855e1	-0.030314388
171	0xbd8de64f	-0.069286935
172	0xbe99c0ad	-0.30029812
173	0xbbc3ac77	-0.005971487
174	0x3d0ab1ee	0.033861093
175	0xbcd78607	-0.026309026
176	0x3d88d0d6	0.06680457
177	0x3dae1ce0	0.08501601
178	0xbc0420fe	-0.008064507
179	0x3d138751	0.03601772
180	0xbe083598	-0.13301694
181	0x3e49f4e1	0.1972232
182	0xbd1a3413	-0.037647318
183	0xbe06689d	-0.13125844
184	0x3df370fc	0.118867844
185	0x3db8498c	0.08998403
186	0xbcc3d11b	-0.02390342
187	0xbd80a4e6	-0.06281452
188	0x3ceb90b1	0.028755518
189	0xbc2664e9	-0.010155895
190	0x3e6e0099	0.23242415
191	0x3cf93e1d	0.030425126
192	0xbdb18234	-0.086674124
193	0x3d729ab0	0.059229553
194	0x3d5dd302	0.05415631
195	0x3c156c9f	0.009120136
196	0x3e7ba23b	0.24573605
197	0x3e1efc22	0.15525869
198	0xbdf86ee6	-0.12130527
199	0x3d96884c	0.07350215
200	0xbaf3675f	-0.0018570236
201	0xbcaf5137	-0.021401031
202	0x3bb53e9a	0.0055311443
203	0x3c6906bc	0.014222797
204	0x3c10ec44	0.008845393
205	0x3d4d06b8	0.050055236
206	0xbda4ee64	-0.08053282
207	0xbe15769d	-0.14596029
208	0xbc053de6	-0.0081324335
209	0x3ce4076e	0.027835574
210	0x3e4e89c6	0.20169744
211	0x3d452d8a	0.048139133
212	0xbb052a14	-0.002031927
213	0x3d824a65	0.06361846
214	0x3d534916	0.051583372
215	0xbdbac5bd	-0.09119747
216	0x3cd88ab3	0.026433324
217	0xbab4a5de	-0.0013782342
218	0xbbb68912	-0.0055705393
219	0xbc3320c8	-0.010933109
220	0xbc0db1e1	-0.008648367
221	0xbce9eb06	-0.02855445
222	0xbc885699	-0.016642855
223	0x3e39f20d	0.18158741
224	0x3d7c196b	0.061547678
225	0xbd6fd3b7	-0.058551516
226	0xbc896720	-0.016772807
227	0xbd061d16	-0.032742582
228	0xbc1e3a6a	-0.009657482
229	0xbd8c30ae	-0.068452224
230	0x3d0596ed	0.032614637
231	0x3e18be66	0.14916381
232	0xbd9d0aa6	-0.07668047
233	0xbd784afc	-0.060618386
234	0xbd38d80d	-0.045127917
235	0xbe5fa775	-0.21841224
236	0x3ceeca2f	0.029149143
237	0xbded9f8b	-0.11602696
238	0x3d2a4fe5	0.0415801
239	0xbc34ed19	-0.011042857
240	0x3d128387	0.035769965
241	0x3d69e1ca	0.057100095
242	0xbd1332b1	-0.035937015
243	0xbb4d084f	-0.003128547
244	0x3e0f5b9d	0.13999791
245	0x3c682a65	0.014170264
246	0x3dada1b0	0.08478105
247	0x3dcb50bc	0.09927508
248	0xbcd6dd13	-0.026228463
249	0xbd746708	-0.05966857
250	0x3cfcfe14	0.030882873
251	0xbd9c55b0	-0.07633531
252	0x3d576f8b	0.05259661
253	0x3d6d9711	0.058005396
254	0x3d93b715	0.072126545
255	0x3d98ed75	0.07467166

linear2.bias f4 [256]
0	0xbc83fbbd	-0.01611125
1	0x3d73212f	0.05935782
2	0xbd00d7e7	-0.0314559
3	0x3d1c07dd	0.038093437
4	0xbc8cb616	-0.01717667
5	0x3d32ce1e	0.0436536
6	0xbc0cb07a	-0.008586997
7	0xbd669fde	-0.056304805
8	0xbd44d39d	-0.048053373
9	0x3d0d0c3f	0.034435507
10	0x3d87ec1c	0.06636831
11	0xbd5e092a	-0.05420796
12	0xbad699a2	-0.001637269
13	0x3d1650df	0.03669822
14	0x3c6966fa	0.014245743
15	0xbd8eed18	-0.06978816
16	0xbd5064c3	-0.050877344
17	0xbcd00772	-0.025394175
18	0xbd515416	-0.05110558
19	0xbd05c8d0	-0.032662213
20	0xbcb30c9c	-0.021856599
21	0xbd3f90e4	-0.046769038
22	0x3c51896c	0.012789112
23	0xbc9bd1ad	-0.01902088
24	0xbc857dfd	-0.016295427
25	0xbcb30ecf	-0.021857647
26	0xbbf457fd	-0.007456778
27	0x3bb23f91	0.0054397066
28	0x3d538a47	0.051645543
29	0x3c907252	0.017632637
30	0x3d67c902	0.05658818
31	0xbb3fd4b0	-0.0029271059
32	0xbc0720f5	-0.008247604
33	0xbcb17879	-0.021663891
34	0xbca76071	-0.020431729
35	0xbcd087a8	-0.025455311
36	0xbd10fb59	-0.035395954
37	0xbcad538e	-0.021158006
38	0xba17b177	-0.0005786637
39	0xbc29ab1c	-0.010355737
40	0x3d6ac470	0.057316244
41	0x3d19b74f	0.037528332
42	0x3d5a24ed	0.05325787
43	0x3d386ddc	0.045026645
44	0x3d40f2f5	0.047106702
45	0xbc85e61e	-0.01634508
46	0x3d75d239	0.060014937
47	0x3cd97254	0.026543774
48	0xbd165a18	-0.036707014
49	0xbd560d5f	-0.052258845
50	0xb9e686e8	-0.00043969532
51	0x3c409414	0.011754055
52	0x3d67144c	0.05641584
53	0x3d589650	0.052877724
54	0xbcc22bc2	-0.023702506
55	0x3a97ea78	0.0011590263
56	0x3d82e255	0.06390826
57	0x3d504120	0.050843358
58	0xbb92e71c	-0.004483117
59	0x3c917f9b	0.017761042
60	0x3c1f77d7	0.009733162
61	0xbb4784e4	-0.00304442
62	0x3d835555	0.0641276
63	0x3cdf7de6	0.027281713
64	0xbcb960e6	-0.022629213
65	0x3be9db9d	0.0071367756
66	0xbd11fb8e	-0.035640292
67	0xbd95da9e	-0.073170885
68	0x3a7a0b19	0.0009538397
69	0x3d07c84c	0.033150002
70	0x3d53686c	0.051613256
71	0xbd2291d8	-0.03968987
72	0xbd396ca2	-0.045269616
73	0x3d0061a9	0.031343136
74	0x3c8c9bd8	0.017164156
75	0x3d1f5564	0.038899794
76	0x3d2143e6	0.039371394
77	0x3ceac968	0.028660491
78	0x3cf97845	0.030452857
79	0x3d17ad97	0.037030783
80	0x3d03c25b	0.032167774
81	0x3be55375	0.0069984742
82	0xbcc71499	-0.024301814
83	0xbd21b6e2	-0.03948105
84	0xbd39c94d	-0.04535799
85	0x3d1a26c9	0.037634645
86	0xbd841deb	-0.06451019
87	0x3c2f0c3f	0.010684072
88	0x3b349b64	0.002755844
89	0x3cfd4b4c	0.030919693
90	0xbd2dde61	-0.042448405
91	0x3cfbea5d	0.030751402
92	0xbd80708b	-0.06271466
93	0xbc894520	-0.016756594
94	0x3d51b1a7	0.051194813
95	0xbd329214	-0.043596342
96	0xbb9feabe	-0.0048802784
97	0x3d2d1e8c	0.04226546
98	0xbd60b752	-0.054862328
99	0x3d7189f2	0.058969446
100	0x3c9e9b6a	0.019361217
101	0xbbd67910	-0.0065451935
102	0xbc2e5288	-0.010639794
103	0x3d12c0d4	0.035828426
104	0xbd35a043	-0.04434229
105	0xbba68c78	-0.005082663
106	0xbd9663f1	-0.07343281
107	0xbc3ee65c	-0.011651602
108	0xbd26a7b8	-0.040687293
109	0xbd5e5268	-0.054277807
110	0xbd45d8d9	-0.048302505
111	0x3d7f6a48	0.062357217
112	0x3bdcc258	0.006737035
113	0xbd10d6ac	-0.035360977
114	0x3c8f293a	0.017475713
115	0xbd5350e4	-0.051590815
116	0xbc6d3f31	-0.014480398
117	0x3d3bedb1	0.045880977
118	0xbd47b937	-0.04876062
119	0xbd677500	-0.056508064
120	0xbc391821	-0.011297257
121	0xbd5ee403	-0.054416668
122	0xbbe94f47	-0.0071200463
123	0x3bb78b88	0.00560135
124	0x3d5ba591	0.053624693
125	0x3c0d5ff4	0.008628834
126	0x3c3522d3	0.011055666
127	0x3d125fee	0.035736017
128	0x3d6b9988	0.057519466
129	0x3cf376fc	0.029719822
130	0xbcbadf95	-0.02281169
131	0xbd5c8e30	-0.053846538
132	0x3d4ede53	0.050504994
133	0x3c8a1c5f	0.016859232
134	0x3d599ad0	0.053126156
135	0x3c5a23fb	0.0133142425
136	0xbb8d735a	-0.0043167295
137	0xbcf936ed	-0.030421698
138	0xbd57908c	-0.052628085
139	0x3b90f2b1	0.0044234623
140	0x3cfa9bce	0.030591872
141	0x3d7f4a69	0.062326822
142	0xbd589d93	-0.05288465
143	0x3c9ef789	0.019405143
144	0xbd5b80cc	-0.053589627
145	0xbd645d2c	-0.055752918
146	0xbb93ce11	-0.004510649
147	0x3c105951	0.008810357
148	0xbd5fd682	-0.05464793
149	0xbd63937a	-0.055560566
150	0x3ced2ef5	0.028953055
151	0x3d6db00e	0.058029227
152	0x3d099015	0.033584673
153	0xbd142dd2	-0.03617651
154	0x3ca79a96	0.020459455
155	0xbcb9bad6	-0.022672098
156	0x3bf247e5	0.0073938244
157	0xbd949a68	-0.07256013
158	0x3cf92316	0.030412238
159	0x3bbdad67	0.0057884934
160	0xbcec24fc	-0.02882623
161	0x3cf3a5ae	0.029742088
162	0x3d68c98a	0.056832828
163	0x3d124ef7	0.035719838
164	0xbbd9f78b	-0.006651824
165	0x3d530d31	0.051526252
166	0xb9f4a67b	-0.00046663344
167	0x3d3b6d5d	0.045758594
168	0xbd1272cc	-0.03575401
169	0x3d3d2270	0.04617542
170	0x3d1fc3b4	0.039004996
171	0x3cca2744	0.024676926
172	0x3d5af286	0.053453945
173	0x3ce41c42	0.027845506
174	0xbc841468	-0.016123012
175	0x3d391ee0	0.04519546
176	0x3d8608c0	0.06544638
177	0x3d46dbc0	0.048549414
178	0xbd14413c	-0.036195025
179	0x3cbf5d23	0.02335984
180	0x3d027796	0.031852327
181	0xbd04e798	-0.032447428
182	0x3cc9782f	0.02459344
183	0xbd307dee	-0.043088846
184	0xbd017c2b	-0.031612556
185	0x3c0bbc25	0.008528744
186	0xbd69e75b	-0.057105403
187	0xbba48cb0	-0.005021654
188	0x3bb2a704	0.0054520387
189	0xbd2ab585	-0.041677017
190	0xbd2229fd	-0.039590824
191	0xbd35e7b4	-0.044410422
192	0x3c5b9241	0.013401569
193	0x3b0bbfd3	0.0021324053
194	0x3c1218cd	0.008917046
195	0x3ccd42e9	0.02505632
196	0x3d24109c	0.040054902
197	0x3c953c90	0.018217355
198	0x3d39fbd9	0.045406196
199	0x3d35d7e0	0.044395328
200	0xbbd1af80	-0.006399095
201	0x3d51e4ed	0.05124371
202	0x3d741e1f	0.05959904
203	0xbcc5f9f0	-0.024167031
204	0x3d093774	0.03350015
205	0x3cb9786f	0.022640435
206	0xbb32600c	-0.0027217893
207	0xbd0093dc	-0.03139101
208	0xbd6f4ab6	-0.05842086
209	0x3d81c12b	0.06335672
210	0xbb00c985	-0.0019651365
211	0xbd313b6e	-0.043269567
212	0xbcd0a71b	-0.025470307
213	0xbd4a0f13	-0.049330782
214	0x3d05e9ea	0.03269378
215	0x3d8a6e36	0.06759302
216	0xbd0bbea6	-0.034117363
217	0x3d01c034	0.03167744
218	0xbbafbdaf	-0.005363188
219	0x3c90668f	0.017627029
220	0x3d019ab4	0.031641677
221	0xbc02bcc6	-0.007979577
222	0xbd464a48	-0.048410684
223	0xbd74a121	-0.059723977
224	0x3cc1cb05	0.023656378
225	0x3d53dd67	0.051724818
226	0x3caeb9d3	0.021328842
227	0xbc896e51	-0.016776236
228	0xbce2ecdd	-0.027700836
229	0xbd7b5825	-0.061363358
230	0xbd501b40	-0.050807238
231	0xbd2d56b2	-0.042319007
232	0x3bcd842a	0.0062718587
233	0x3cb76426	0.022386622
234	0x3d837a1a	0.064197734
235	0xbd753900	-0.059868813
236	0xbd1cf37c	-0.038318142
237	0xbd2e8aae	-0.042612724
238	0xbbe879d5	-0.0070946016
239	0xbc372518	-0.011178277
240	0xbc8e98d8	-0.017406866
241	0x3aa00bf2	0.0012210591
242	0xbcde4cf0	-0.027136296
243	0xbcda03b6	-0.026613098
244	0xbc532433	-0.012887049
245	0x3c85f3dd	0.016351635
246	0xbd152bdc	-0.03641878
247	0x3d46553e	0.048421137
248	0x3cdfdb9d	0.0273264
249	0xbd1ea7de	-0.03873431
250	0xbc8b0502	-0.016970161
251	0x3d030b52	0.031993218
252	0xbb8d4495	-0.004311154
253	0x3c306215	0.010765572
254	0xbca4ef73	-0.02013371
255	0x3d70674a	0.058692254

linear3.weight f4 [1, 256]
0	0x3e12daad	0.1434123
1	0x3e0f3c57	0.13987862
2	0xbe0534b6	-0.13008389
3	0x3e106094	0.14099342
4	0xbe1a337d	-0.15058704
5	0x3e15904c	0.14605826
6	0x3e189ba4	0.14903122
7	0x3e227cce	0.15867922
8	0xbe037e39	-0.12841119
9	0xbe072c83	-0.13200574
10	0x3e2941c8	0.16529
11	0xbe062a92	-0.13102177
12	0x3e113cac	0.141833
13	0xbe196996	-0.14981684
14	0x3e1cc659	0.15310039
15	0xbe1d97f3	-0.15389995
16	0x3e1f6b8f	0.15568374
17	0x3e1cd4b6	0.15315518
18	0xbe0dc64d	-0.13845177
19	0x3e16c162	0.14722207
20	0x3e1431da	0.14472142
21	0x3e0fed64	0.14055401
22	0xbe0d6e2c	-0.13811558
23	0x3e0949fc	0.13407129
24	0xbe17c537	-0.14821325
25	0xbe0b58a1	-0.13608028
26	0x3e125c02	0.1429291
27	0xbe10669e	-0.14101645
28	0xbe10c2db	-0.14136831
29	0xbe10b40a	-0.1413118
30	0x3e0fedcd	0.14055558
31	0x3e0fed03	0.14055257
32	0xbe1d5f45	-0.15368374
33	0x3e0b876b	0.13625877
34	0xbe265dec	-0.16246766
35	0x3e1f8c5b	0.15580885
36	0xbe21ce7b	-0.15801422
37	0x3e145d57	0.14488731
38	0x3e223ca3	0.15843444
39	0xbe17621e	-0.14783522
40	0x3e083acb	0.13303678
41	0x3e25f493	0.16206579
42	0x3e1c96d5	0.15291913
43	0xbe0a5bc4	-0.13511568
44	0x3e1508ce	0.1455414
45	0xbe09dbaa	-0.13462701
46	0x3e0e2aaf	0.1388347
47	0xbe0df815	-0.13864167
48	0xbe10d4f0	-0.14143729
49	0xbe0f76ba	-0.14010134
50	0x3e1f7301	0.15571214
51	0x3e138477	0.14406
52	0x3e1d311c	0.15350765
53	0x3e0332d6	0.12812361
54	0xbe11da46	-0.14243421
55	0x3e0cca6a	0.1374909
56	0x3e0a302b	0.13494937
57	0x3e0475a4	0.12935501
58	0x3e132f73	0.14373569
59	0xbe0df40d	-0.13862629
60	0xbe10779a	-0.14108124
61	0xbe0e0b27	-0.13871442
62	0xbe1438e6	-0.1447483
63	0x3e0e4a39	0.13895501
64	0xbe1de2db	-0.1541857
65	0xbe09a6ed	-0.13442583
66	0x3e1a11c6	0.15045843
67	0xbe117514	-0.14204818
68	0x3e192376	0.14954934
69	0x3e1b5b38	0.15171516
70	0x3e15e406	0.14637765
71	0x3e0dae66	0.13836059
72	0x3e1bae9e	0.1520333
73	0x3e15c8df	0.14627407
74	0x3e10d969	0.14145435
75	0x3e146c83	0.14494519
76	0x3e2d7a54	0.16941196
77	0xbe157b9b	-0.14597933
78	0xbe1ae2df	-0.15125607
79	0xbe1452a4	-0.1448465
80	0xbe1abf89	-0.15112127
81	0xbe244473	-0.16041736
82	0x3e21c41e	0.15797469
83	0x3e080f8d	0.13287182
84	0xbe09cbcc	-0.13456649
85	0xbe1828d0	-0.14859319
86	0xbe132df0	-0.14372993
87	0x3e1073f7	0.14106737
88	0x3e1c4631	0.15261151
89	0xbe1ce176	-0.15320382
90	0x3e158456	0.14601263
91	0x3e054a79	0.1301669
92	0xbe13a132	-0.1441696
93	0xbe0feb03	-0.14054494
94	0xbe0fdc75	-0.14048941
95	0xbe198a77	-0.14994226
96	0xbe188ff1	-0.1489866
97	0x3e06d5b5	0.1316746
98	0x3e117448	0.14204514
99	0x3e17d9c2	0.14829162
100	0x3e19d84c	0.15023917
101	0x3e1b5322	0.15168431
102	0x3e1934d3	0.14961557
103	0xbe209e2a	-0.15685335
104	0x3e0ba240	0.13636112
105	0xbe1cc2a8	-0.1530863
106	0xbe08d8fd	-0.13364024
107	0x3e11f4e7	0.14253579
108	0x3e1ab3ec	0.15107697
109	0xbe1d42d7	-0.15357529
110	0x3e0d68b5	0.13809474
111	0x3e2240a1	0.15844966
112	0x3e103588	0.1408292
113	0xbe276de8	-0.1635052
114	0x3e0f176e	0.13973781
115	0x3e01e0cf	0.12683414
116	0x3e1fe39e	0.15614173
117	0xbe196a86	-0.14982042
118	0xbe107074	-0.14105397
119	0xbe0d8658	-0.1382078
120	0x3e20981b	0.15683024
121	0xbe115a64	-0.14194638
122	0x3e254223	0.1613851
123	0x3e171682	0.1475468
124	0x3e208b7f	0.15678214
125	0x3e230e7b	0.15923493
126	0xbe0dbae5	-0.13840826
127	0x3e1dac8e	0.15397856
128	0xbe0e3a86	-0.13889512
129	0xbe154d15	-0.14580186
130	0x3e13e2fd	0.14442058
131	0x3e07b1b6	0.13251385
132	0x3e17b182	0.14813808
133	0x3e182606	0.14858255
134	0x3e0f8d50	0.1401875
135	0x3e03a840	0.12857151
136	0xbe1758f1	-0.14780022
137	0x3e211fb5	0.15734752
138	0x3e0453e5	0.12922628
139	0xbe0a8d4d	-0.13530464
140	0xbe1a7667	-0.1508423
141	0x3e11fc25	0.14256342
142	0xbe1358a4	-0.14389282
143	0xbe122ab4	-0.14274102
144	0x3e0aa25b	0.13538496
145	0x3e09b239	0.13446893
146	0x3e1d0c06	0.15336618
147	0xbe17589c	-0.14779896
148	0x3e28c0f2	0.16479853
149	0x3e166ca5	0.14689882
150	0xbe1627df	-0.14663647
151	0xbe100727	-0.14065228
152	0x3e1830e9	0.14862408
153	0x3e1261ad	0.14295073
154	0x3e16e7bf	0.14736842
155	0x3e0a4bb3	0.1350544
156	0x3dfb8bba	0.1228251
157	0xbe15cad9	-0.14628161
158	0x3e00a6cd	0.1256363
159	0xbe16f791	-0.14742877
160	0x3e179457	0.14802681
161	0xbe17ad26	-0.14812145
162	0x3e0a7140	0.13519764
163	0x3e15cdff	0.14629363
164	0xbe150959	-0.14554347
165	0xbe0afeb3	-0.13573723
166	0xbe1b94b8	-0.1519345
167	0xbe18c488	-0.1491872
168	0xbe1f7f58	-0.15575922
169	0x3e21c4b2	0.1579769
170	0xbe134cd5	-0.14384778
171	0x3e10172d	0.14071341
172	0x3e0d42c4	0.13795
173	0xbe14bca2	-0.14525083
174	0x3e23d780	0.16000175
175	0x3e185e1b	0.14879648
176	0x3e1f9978	0.15585887
177	0xbe06a4b6	-0.1314877
178	0xbe1685bd	-0.14699455
179	0xbe17d5eb	-0.14827697
180	0x3e17adaf	0.14812349
181	0xbe111c4e	-0.14170954
182	0x3e0fbfbc	0.14037985
183	0x3e1c3e74	0.15258199
184	0xbe1260e7	-0.14294778
185	0x3e14cecd	0.14532013
186	0xbe15f6f8	-0.14644992
187	0x3e1b2f47	0.15154754
188	0xbe1414ea	-0.14461103
189	0x3e0338dd	0.1281466
190	0xbe1f4655	-0.15554173
191	0x3e13d3eb	0.14436309
192	0xbe193974	-0.14963323
193	0x3e1b1407	0.15144359
194	0x3e14f316	0.14545855
195	0xbe0c3dcb	-0.13695447
196	0x3e100781	0.14065363
197	0x3e1270d6	0.14300856
198	0xbe0f1ba2	-0.13975385
199	0x3e100e07	0.14067851
200	0x3e17548d	0.14778347
201	0x3e1e45ee	0.15456364
202	0x3e17aa9b	0.14811175
203	0x3e0ab88d	0.13546963
204	0xbe1d4d97	-0.1536163
205	0xbe18745e	-0.1488814
206	0xbe1ae196	-0.15125117
207	0xbe0c5755	-0.1370519
208	0x3e1145ce	0.14186785
209	0x3e163b37	0.14671026
210	0x3e19dd5f	0.15025853
211	0x3e102bba	0.1407918
212	0xbe10d901	-0.1414528
213	0x3e030000	0.12792969
214	0x3e267a71	0.16257645
215	0x3e1ab9cf	0.15109943
216	0xbe16d94a	-0.14731327
217	0x3e160370	0.14649749
218	0x3e0c8afd	0.13724895
219	0x3e0bf5a0	0.13667917
220	0xbe0f9891	-0.14023043
221	0xbe148f6e	-0.14507839
222	0x3e1f63b6	0.1556538
223	0xbe10a0a2	-0.14123777
224	0x3e1a6f16	0.15081438
225	0xbe1373f3	-0.143997
226	0x3e131c1d	0.14366193
227	0xbe0bceaa	-0.13653055
228	0x3e109547	0.14119445
229	0xbe253c48	-0.16136277
230	0x3e17462a	0.14772859
231	0x3e1b7f71	0.15185334
232	0x3e1e595f	0.1546378
233	0x3e0fe70c	0.14052981
234	0x3e13a133	0.14416961
235	0xbe25452a	-0.16139665
236	0x3e178f0c	0.14800662
237	0xbe17094b	-0.14749639
238	0x3e102e07	0.14080058
239	0xbe111127	-0.141667
240	0x3e1e0ac5	0.15433796
241	0x3e1bd64b	0.15218465
242	0x3e10e587	0.14150058
243	0xbe100a0f	-0.14066337
244	0x3e18da78	0.14927089
245	0xbe1889fb	-0.14896385
246	0x3e177cbd	0.14793678
247	0xbe1d8d00	-0.15385818
248	0x3e072674	0.13198262
249	0x3e0dcdc2	0.13848022
250	0x3e12de51	0.1434262
251	0x3e072bee	0.13200352
252	0x3e155f3f	0.14587115
253	0x3e0a0aaa	0.1348063
254	0x3e116755	0.14199574
255	0x3e230975	0.15921576
