testing/scripts/outputs/DDPG_Env/20221213-030633/models/1130actor_checkpoint.pt (torch, 281431 bytes, 5 tensors)

linear1.weight f4 [256, 14]
-0.028152449 0.109355435 0.2830246 -0.08067704 0.20735915 0.12222817 0.34489024 0.36684832
-0.12872186 0.2044594 -0.059426874 0.03627347 -0.07913696 0.13395275 -0.051095314 0.10916543
0.20320205 0.075337075 -0.031900097 -0.28867403 -0.092617705 0.24473579 0.29507604 0.31254643
-0.106112584 0.26462692 0.1429477 0.34287503 0.19815193 0.10521003 -0.23889239 -0.20579363
0.1511006 -0.18133898 -0.14779289 0.13049863 -0.14197214 0.042307347 -0.2527112 0.16370696
-0.0751008 -0.17640567 -0.21512033 0.1341861 0.36293107 0.20567085 0.15313259 0.25417542
0.08321258 0.12636423 0.26845357 -0.24677517 0.03679126 0.12886916 0.07601899 0.27867505
-0.26461634 0.095555514 0.16347538 -0.03419568 -0.037523605 -0.252173 0.22313872 0.12813652
-0.18616696 -0.2090696 -0.18976684 0.26040956 0.14885396 0.08914788 0.00541945 0.048641946
0.300619 -0.05655016 -0.115681246 0.042097595 0.085553244 -0.018468086 0.13429853 -0.20730722
0.08759356 0.0757649 0.23301464 0.027961593 0.2588403 -0.008310716 -0.1591058 0.2631425
0.13757925 -0.08302657 0.08640508 -0.16694906 -0.006035008 0.29302654 0.18400286 -0.109501176
0.18286118 0.045356203 0.26918334 -0.2254987 -0.1438896 0.1258735 -0.065009676 0.22928214
0.13929427 0.061323628 0.15096226 0.06694579 -0.0020326767 0.17658527 -0.019356702 -0.23484044
0.19781183 -0.15385672 -0.5168855 -0.35042378 0.085553095 0.22475252 -0.2716929 -0.30783936
-0.091818966 0.20085566 0.0034601898 -0.19035685 0.1166204 -0.083075605 -0.04567295 0.21718797
0.09266332 0.0245641 -0.12799779 -0.2406944 0.104137324 -0.060984988 0.33386347 -0.21081413
-0.113267735 0.23646998 0.121882945 0.23729183 -0.18568397 0.30262172 0.2048768 -0.016652327
0.1868138 0.1623929 0.17294787 0.0014434065 -0.033329822 -0.121949874 -0.20443107 -0.062085178
0.033937618 -0.10694935 0.08334298 -0.043490376 0.1840501 0.23788913 0.33541584 -0.048477467
-0.10289636 0.19756453 -0.21204306 0.07282907 -0.17051087 -0.07242282 -0.22873348 -0.04915062
0.30954957 -0.08471137 -0.2075743 -0.20583266 0.23727532 0.2587692 0.08675075 -0.07349819
0.05165453 0.2964375 -0.10144926 -0.02095451 -0.15492715 0.2743829 -0.25573125 0.10760982
0.02955171 0.25804356 0.036723442 -0.1977759 0.0019685302 0.32351837 0.25518784 -0.30663082
0.10780393 0.109753564 -0.05816442 0.27129057 -0.0031578674 -0.0032313038 0.29755357 -0.119753376
0.0063535455 0.18757658 -0.028139977 -0.05873253 -0.22309676 -0.15309149 0.036927767 0.0024860138
-0.19842929 -0.021321218 0.22874552 -0.1768011 -0.011220105 0.10888695 0.13239844 0.24026927
-0.1693296 0.30153418 0.053444646 0.22827955 -0.25404075 -0.22173104 -0.12575065 0.14966032
0.15038992 -0.0756204 -0.017090242 -0.22060332 -0.20060639 0.05005073 -0.13604891 -0.21898447
-0.050546113 0.1259957 0.23198423 -0.08112891 -0.04757476 -0.08200281 -0.095451966 -0.13532878
-0.2658342 -0.24813603 0.19756642 0.17470145 0.113650344 -0.19815573 0.051469833 0.16233468
-0.0077594053 0.22711582 0.009284329 0.08253789 -0.032594126 0.00817178 -0.26095137 -0.32582763
00000000: f79f e6bc bef5 df3d 9ae8 903e 013a a5bd
00000010: f555 543e c352 fa3d 7495 b03e 8bd3 bb3e
00000020: aacf 03be ce5d 513e 9869 73bd 7d93 143d
00000030: 8f12 a2bd e92a 093e 5249 51bd 2092 df3d
00000040: 3314 503e 534a 9a3d ada9 02bd 15cd 93be
00000050: 5aae bdbd 059c 7a3e 3514 973e 1606 a03e
00000060: 8e51 d9bd 2e7d 873e e260 123e 518d af3e
00000070: 57e8 4a3e 5b78 d73d 35a0 74be 91bb 52be
00000080: 1eba 1a3e edb0 39be 0557 17be 6fa1 053e
00000090: 2561 11be 784a 2d3d 5d63 81be cca2 273e
000000a0: 73ce 99bd b0a3 34be 8148 5cbe 1568 093e
000000b0: 1ad2 b93e 619b 523e cace 1c3e 4823 823e
000000c0: 5b6b aa3d a065 013e bf72 893e a1b2 7cbe
000000d0: 6fb2 163d 47f6 033e d8af 9b3d 7fae 8e3e
000000e0: cb7b 87be 9cb2 c33d 1766 273e c510 0cbd
000000f0: 5ab2 19bd d21c 81be 7a7e 643e 3836 033e
00000100: 8da2 3ebe 5716 56be 3d52 42be 6754 853e
00000110: 2c6d 183e 2a93 b63d a495 b13b c73c 473d
00000120: bcea 993e 24a1 67bd 4aea ecbd 876e 2c3d
00000130: 8a36 af3d 624a 97bc 8e85 093e 5848 54be
00000140: 4164 b33d a12a 9b3d 649b 6e3e b60f e53c
00000150: b786 843e ab29 08bc a1ec 22be 9dba 863e
00000160: 93e1 0c3e d609 aabd 26f5 b03d b2f4 2abe
00000170: 51c1 c5bb 9307 963e 3f6b 3c3e 2742 e0bd
00000180: f63f 3b3e 6dc7 393d 66d2 893e 22e9 66be
00000190: cc57 13be fce4 003e cb23 85bd f0c8 6a3e
000001a0: 28a3 0e3e 7c2e 7b3d da95 1a3e e01a 893d
000001b0: a836 05bb c5d2 343e f291 9ebc 037a 70be
000001c0: 2f8f 4a3e 9e8c 1dbe 9c52 04bf bf6a b3be
000001d0: 7636 af3d 8625 663e 551b 8bbe 1f9d 9dbe
000001e0: 950b bcbd 1bad 4d3e 5ac4 623b e8ec 42be
000001f0: add6 ee3d 8b23 aabd 8f13 3bbd 8666 5e3e
00000200: 44c6 bd3d a73a c93c da11 03be 9878 76be
00000210: f345 d53d 65cb 79bd 27f0 aa3e a9df 57be
00000220: eaf8 e7bd 3025 723e c49d f93d a1fc 723e
00000230: f023 3ebe 3cf1 9a3e 39cb 513e 766a 88bc
00000240: 1e4c 3f3e 534a 263e 3f19 313e af30 bd3a
00000250: da84 08bd dbc0 f9bd 6156 51be 074d 7ebd
00000260: 2c02 0b3d 4308 dbbd b9af aa3d f722 32bd
00000270: a177 3c3e 3599 733e a0bb ab3e 4f90 46bd
00000280: 54bb d2bd 5b4e 4a3e d121 59be 6827 953d
00000290: 679a 2ebe 6a52 94bd 1c39 6abe 2952 49bd
000002a0: 487d 9e3e 287d adbd 5b8e 54be ccc5 52be
000002b0: 4df8 723e 667d 843e 61aa b13d 3886 96bd
000002c0: b393 533d a8c6 973e a1c4 cfbd cba8 abbc
000002d0: 39a5 1ebe ea7b 8c3e 35ef 82be 8a62 dc3d
000002e0: 6d16 f23c 491e 843e 526b 163d c485 4abe
000002f0: 7502 013b 33a4 a53e fba7 823e b7fe 9cbe
00000300: 4fc8 dc3d 7ac6 e03d d13d 6ebd 99e6 8a3e
00000310: 39f4 4ebb 48c4 53bb f158 983e 4241 f5bd
00000320: 6731 d03b 1314 403e cf85 e6bc 8591 70bd
00000330: 7a73 64be 04c4 1cbe 9241 173d 64ec 223b
00000340: 0c31 4bbe d6a9 aebc 443c 6a3e 590b 35be
00000350: 88d4 37bc 1f00 df3d 7593 073e 2609 763e
00000360: bd64 2dbe b062 9a3e c6e8 5a3d 1dc2 693e
00000370: a111 82be 760d 63be c7c4 00be 8e40 193e
00000380: d1ff 193e dede 9abd d600 8cbc d6e5 61be
00000390: c36b 4dbe ff01 4d3d 6850 0bbe 773d 60be
000003a0: 7109 4fbd 0405 013e 468d 6d3e ea26 a6bd
000003b0: c0dd 42bd 17f1 a7bd 527c c3bd a193 0abe
000003c0: 6c1b 88be 5f17 7ebe da4e 4a3e f0e4 323e
000003d0: 83c1 e83d 56e9 4abe 08d2 523d 103b 263e
000003e0: 9c42 febb 0d91 683e 4c1d 183c a009 a93d
000003f0: 6b81 05bd eee2 053c 6b9b 85be e1d2 a6be

linear1.bias f4 [256]
-0.16576877 -0.0922954 -0.12209117 -0.24195218 0.27178153 0.0358196 0.01661221 0.087562695
0.08442452 -0.07909573 0.16201825 0.2989204 0.05421964 0.22581501 -0.05746003 -0.24999586
-0.028470341 0.22400963 -0.14555195 0.2024144 0.17279474 -0.044153754 -0.14168508 0.16835572
0.012583015 0.14281267 -0.14920256 -0.11614542 0.13270621 0.13252914 0.11234393 -0.22365248
-0.0066043492 0.3195432 0.27316034 0.014384692 -0.20018177 -0.18037568 0.19208045 0.0364506
0.121532 0.08775102 0.17353724 -0.1704785 0.19216254 -0.09201264 -0.08941876 -0.16039793
0.2836952 -0.18199116 -0.07231342 0.049322322 -0.17801282 0.02503465 -0.02009569 -0.0961088
-0.10796134 -0.22275074 -0.08507719 0.18045321 0.2223435 0.014310956 0.013435995 -0.021712003
0.2290617 0.23504263 0.14399467 -0.09868997 0.22280903 0.20275225 0.23130973 -0.07485089
-0.175091 0.027087642 -0.20138839 0.21487252 -0.030212957 0.06809567 0.3058786 -0.15105785
0.22207783 -0.0116016995 -0.17724709 0.22263856 0.24630016 -0.06955418 0.08619779 -0.23478185
0.22901022 0.17795739 -0.07858612 0.22271034 0.035821892 0.24381116 -0.17402022 0.2297498
0.0970712 0.19065236 -0.06752373 0.2430238 0.040352244 0.20550542 -0.106545165 0.111193575
0.15650283 -0.17531662 -0.09779025 0.07685388 -0.06736792 0.06516087 0.26264787 0.06648423
-0.16536371 0.04592841 0.26154193 0.08228331 -0.13431723 0.21533647 0.053447116 -0.14811441
-0.13659734 -0.14112352 -0.0057159173 0.21287747 0.19476093 0.06660713 0.13517292 0.278216
-0.22802074 0.15634425 0.02985537 -0.13517733 0.23965685 -0.10378897 -0.0026469417 0.0558923
-0.122094505 -0.22474833 -0.25993788 -0.100943856 0.031200856 -0.050892908 0.072330624 -0.048254814
0.01633333 -0.0059189443 -0.16816635 0.03225636 0.26095462 -0.117271595 0.12310699 0.19452783
0.124356955 0.18097891 0.14634664 0.13463844 -0.055039912 -0.22120264 0.17271289 -0.22683874
-0.0025731337 -0.08907728 0.20539474 -0.17879115 -0.16769148 -0.0003763345 -0.14003411 0.18563324
0.12274099 -0.1011419 0.17013094 -0.21620652 -0.21760981 -0.1290783 0.09246643 0.0054258066
-0.14876059 -0.21830656 0.23581886 -0.14113489 0.04912552 0.013416887 -0.11496309 0.12991577
0.32662064 -0.022177104 0.067805216 0.20207942 0.06874491 0.25145692 0.09901309 -0.22875153
0.0096231215 -0.011564317 -0.18834348 0.004968654 0.09049159 0.017149715 0.036035474 -0.08282861
-0.22328809 -0.056195963 0.092083484 -0.20423548 -0.028149322 -0.20042208 -0.07754055 -0.12178878
0.2056921 -0.05362058 0.29499868 -0.09620696 0.09542963 -0.022653203 0.0129620535 -0.08812672
0.049777955 0.03976674 0.0964677 0.19057077 -0.081850365 0.17135568 0.06662672 -0.20993939
0.28268093 -0.06129564 0.11256439 -0.121252984 -0.11077018 0.19039726 0.2265196 0.28850904
-0.027196927 0.09017975 0.1709318 0.19554421 0.33044404 0.13016443 -0.25396284 -0.024179718
0.2238593 0.013855431 0.22815664 -0.18478648 -0.14376779 0.27383578 0.0114940675 -0.08532703
0.18402296 0.2961003 0.22329786 -0.060619734 -0.015956646 -0.12175461 0.34659556 -0.010170316
00000000: 4abf 29be 5f05 bdbd ef0a fabd 50c2 77be
00000010: f326 8b3e 93b7 123d 5416 883c 1254 b33d
00000020: c3e6 ac3d f1fc a1bd 1de8 253e 180c 993e
00000030: 6a15 5e3d 0d3c 673e 355b 6bbd eafe 7fbe
00000040: a23a e9bc c862 653e 920b 15be b845 4f3e
00000050: 1bf1 303e 91da 34bd e515 11be 7165 2c3e
00000060: fd28 4e3c 7c3d 123e 8ec8 18be a6dd edbd
00000070: 23e4 073e b8b5 073e 9314 e63d 2805 65be
00000080: 4c69 d8bb 2b9b a33e acdb 8b3e c5ad 6b3c
00000090: 73fc 4cbe 67b4 38be bdb0 443e 394d 153d
000000a0: c5e5 f83d cfb6 b33d bfb3 313e ea91 2ebe
000000b0: 42c6 443e 1f71 bcbd 2f21 b7bd 5b3f 24be
000000c0: 7f40 913e e45b 3abe 0f19 94bd 3406 4a3d
000000d0: fe48 36be 7715 cd3c b79f a4bc b1d4 c4bd
000000e0: d61a ddbd c518 64be f33c aebd bac8 383e
000000f0: 04ae 633e 8078 6a3c a622 5c3c 5fdd b1bc
00000100: 268f 6a3e 04af 703e 5773 133e f81d cabd
00000110: 0d28 643e 499e 4f3e 75dc 6c3e 6c4b 99bd
00000120: 0e4b 33be e7e6 dd3c c238 4ebe 8b07 5c3e
00000130: 2a81 f7bc be75 8b3d 1f9c 9c3e e9ae 1abe
00000140: 5f68 633e 0e15 3ebc 4380 35be 5dfb 633e
00000150: 1c36 7c3e 6c72 8ebd 7888 b03d a76a 70be
00000160: a881 6a3e 763a 363e c2f1 a0bd 2e0e 643e
00000170: fab9 123d a2a9 793e 5b32 32be 8843 6b3e
00000180: 44cd c63d 5f3a 433e e249 8abd 3bdb 783e
00000190: 6548 253d 0370 523e 5a34 dabd 75b9 e33d
000001a0: 4742 203e 3386 33be 4146 c8bd 9165 9d3d
000001b0: 31f8 89bd 1073 853d c879 863e e228 883d
000001c0: 1b55 29be 6e1f 3c3d d3e8 853e 2784 a83d
000001d0: 758a 09be 2a81 5c3e 5deb 5a3d 4eab 17be
000001e0: 2ce0 0bbe af82 10be 974c bbbb 8dfc 593e
000001f0: 696f 473e 5269 883d c56a 0a3e 5472 8e3e
00000200: 457e 69be b518 203e 4093 f43c ed6b 0abe
00000210: 9b68 753e 508f d4bd 5078 2dbb 53ef 643d
00000220: af0c fabd 6d24 66be 9416 85be a7bb cebd
00000230: f098 ff3c 1575 50bd 1422 943d d7a6 45bd
00000240: 7acd 853c b4f3 c1bb cd33 2cbe 3f1f 043d
00000250: d89b 853e 172c f0bd 841f fc3d 4e32 473e
00000260: dcae fe3d 8952 393e e5db 153e a9de 093e
00000270: 8871 61bd f282 62be a6db 303e 6a48 68be
00000280: 05a2 28bb 266e b6bd 0053 523e 0715 37be
00000290: 51b7 2bbe c34e c5b9 1a65 0fbe a416 3e3e
000002a0: a15f fb3d 7c23 cfbd ce36 2e3e 3e65 5dbe
000002b0: 1bd5 5ebe 1a2d 04be 0a5f bd3d f7ca b13b
000002c0: b254 18be c18b 5fbe 807a 713e aa85 10be
000002d0: d737 493d 81d2 5b3c c571 ebbd a408 053e
000002e0: d23a a73e c2ac b5bc 76dd 8a3d e8ed 4e3e
000002f0: 22ca 8c3d f6be 803e 60c7 ca3d d73d 6abe
00000300: 4caa 1d3c 4378 3dbc 1ddd 40be 17d0 a23b
00000310: a853 b93d 8f7d 8c3c ef99 133d 0ca2 a9bd
00000320: a2a5 64be bd2d 66bd 4496 bc3d 1b23 51be
00000330: 6899 e6bc 723b 4dbe 94cd 9ebd 656c f9bd
00000340: f3a0 523e 41a1 5bbd 110a 973e 2808 c5bd
00000350: 9c70 c33d 3693 b9bc cb5e 543c c87b b4bd
00000360: f8e3 4b3d 73e2 223d dc90 c53d fc24 433e
00000370: 2aa1 a7bd dd77 2f3e 9773 883d 5afa 56be
00000380: 8ebb 903e 2311 7bbd 2988 e63d 7c53 f8bd
00000390: 7adb e2bd 80f7 423e c1f4 673e 75b7 933e
000003a0: 17cc debc 29b0 b83d bf08 2f3e be3c 483e
000003b0: f62f a93e d349 053e 6b07 82be 8b14 c6bc
000003c0: 5f3b 653e e401 633c e5a1 693e ab38 3dbe
000003d0: dd37 13be 3434 8c3e 9d51 3c3c f0bf aebd
000003e0: 8470 3c3e 759a 973e 32a8 643e 664c 78bd
000003f0: 83b7 82bc 7b5a f9bd f974 b13e 66a1 26bc

linear2.weight f4 [256, 256]
-0.012889867 0.027485032 -0.0016811077 -0.07665601 -0.03230775 -0.020707447 -0.0060876943 0.009888255
-0.04342503 -0.045904636 0.018719666 0.07042619 0.077034056 -0.034258317 0.015013412 0.0345285
-0.06920759 0.08398367 -0.022742502 -0.07959829 -0.003638322 0.07984686 0.115142636 0.056159675
-0.024607936 -0.02165396 0.050871644 0.052076712 -0.004674683 -0.0651365 -0.010374556 -0.08367912
-0.017753357 -0.0202594 0.057056487 0.004414979 0.029871993 -0.061635077 0.06335127 -0.041416194
-0.019366153 0.06099591 0.08848217 0.055786405 0.0915867 0.0038617102 0.0014938208 0.06246842
0.0038785785 -0.030769885 -0.047594093 -0.016759688 0.054546624 -0.08741126 0.091280006 0.0061612963
0.022772405 -0.08719071 -0.03323349 0.0048867865 0.006394892 0.03167574 0.049505502 -0.03385008
0.052162897 -0.00041368962 0.03862223 -0.03980094 -0.031530336 0.024049805 0.041264903 0.09940143
-0.059477594 -0.010206335 -0.028170787 -0.076393895 0.048261207 0.016844112 -0.016886927 0.0038653784
-0.09048411 0.045790486 0.080837004 0.054460716 -0.04171599 -0.035714883 -0.008105815 0.04884802
-0.006199863 0.056783266 0.032387592 -0.003955064 0.055613074 0.026733803 0.01109388 0.031211942
0.06369027 -0.06453758 -0.011995887 0.080402955 0.01828398 0.148173 0.016202884 0.0830821
-0.026463903 -0.047345053 -0.03761999 -0.0042616273 -0.022048915 0.029433316 -0.023022128 0.12490076
-0.020673916 -0.0048483126 0.06948835 -0.104124926 -0.090403825 -0.057955798 0.018255897 0.20905848
0.035305683 -0.041722484 -0.08900881 0.053653345 0.06664634 0.15562585 -0.06609764 0.054862916
0.05291753 0.029180398 -0.01100445 -0.09424933 -0.04728735 0.08251282 -0.021862773 -0.031680137
0.0032457358 0.023386154 0.0970476 -0.034615345 -0.07694567 0.038414065 0.00530243 0.022305299
0.012072168 -0.05007737 -0.011104259 0.038447082 0.04448095 -0.016894875 0.077700995 0.061894305
-0.001409248 -0.017694289 -0.035145357 -0.056721393 0.113639586 0.1969296 0.007848872 -0.07384343
-0.013431769 0.033967923 -0.032723114 0.013062417 0.01902197 -0.03049677 0.0313328 -0.072807446
-0.0333251 -0.12472226 -0.013938644 0.025634363 0.039241172 0.047755804 -0.062136456 0.010463887
-0.049933337 0.026596798 0.053697567 0.105336726 0.038197376 0.093520455 0.09753875 0.028688166
-0.035251725 0.041457098 -0.0020285805 0.023286825 0.022512805 0.0063468926 -0.06549307 0.017571997
0.048381325 -0.004724543 0.041965168 0.083804555 0.04712758 0.0029169517 0.014112567 0.03172201
-0.017155426 -0.105372585 -0.023497185 0.12852244 0.059892427 -0.08434564 -0.021481482 -0.0383293
-0.049425535 -0.12536593 -0.0076227034 0.042300764 0.006174218 0.05069924 0.06045791 0.06113309
0.051709116 0.017171213 -0.032817278 0.07222204 0.0337733 -0.028984766 0.055255122 0.07964597
-0.0028080465 -0.06197556 0.050724823 -0.05556769 0.09135532 -0.004902394 -0.021887131 -0.03918948
0.07144165 -0.011070933 -0.06328602 -0.031195486 0.054935284 -0.0057240445 0.027732339 -0.061481223
-0.03730337 -0.0074226055 -0.09099878 0.010525901 0.018355047 0.025432998 0.031608816 0.04317323
0.059689485 0.080333166 -0.017417243 0.049145292 0.03449427 -0.030765845 -0.07606455 -0.0033998343
00000000: 0530 53bc 4a28 e13c 9d58 dcba d3fd 9cbd
00000010: 2255 04bd aaa2 a9bc 487b c7bb 5902 223c
00000020: 72de 31bd 8006 3cbd fc59 993c 9b3b 903d
00000030: 08c4 9d3d 7352 0cbd d0fa 753c c26d 0d3d
00000040: b5bc 8dbd a1ff ab3d 7c4e babc 6e04 a3bd
00000050: ea70 6ebb c086 a33d e7cf eb3d b007 663d
00000060: 9596 c9bc a563 b1bc c95e 503d 644e 553d
00000070: 152e 99bb 4966 85bd 0bfa 29bc f55f abbd
00000080: 7d6f 91bc 0bf7 a5bc 10b4 693d 87ab 903b
00000090: 1cb6 f43c 1075 7cbd 50be 813d 07a4 29bd
000000a0: c4a5 9ebc d9d6 793d 2436 b53d 4980 643d
000000b0: cf91 bb3d bf14 7d3b 4fcc c33a e3de 7f3d
000000c0: c02f 7e3b 2011 fcbc 06f2 42bd 9d4b 89bc
000000d0: 486c 5f3d ad04 b3bd 03f1 ba3d b3e4 c93b
000000e0: 328d ba3c 0b91 b2bd d71f 08bd 5621 a03b
000000f0: 3e8c d13b 6cbe 013d 48c6 4a3d 62a6 0abd
00000100: c3a8 553d 7be4 d8b9 5832 1e3d 4f06 23bd
00000110: f425 01bd 1904 c53c 6305 293d fa92 cb3d
00000120: c79e 73bd 7938 27bc 6cc6 e6bc 6774 9cbd
00000130: 8bad 453d aafc 893c 7456 8abc 4a52 7d3b
00000140: bc4f b9bd ce8e 3b3d df8d a53d 3312 5f3d
00000150: 63de 2abd c549 12bd 41ce 04bc dd14 483d
00000160: 3828 cbbb 9295 683d daa8 043d 7b99 81bb
00000170: 89ca 633d d900 db3c 1bc3 353c 30b0 ff3c
00000180: 0b70 823d 472c 84bd 668a 44bc 4eaa a43d
00000190: 49c8 953c aaba 173e e9bb 843c f326 aa3d
000001a0: d4ca d8bc e3ec 41bd 6b17 1abd 1fa5 8bbb
000001b0: ed9f b4bc 231e f13c e798 bcbc f8cb ff3d
000001c0: 585c a9bc 98de 9ebb e84f 8e3d 733f d5bd
000001d0: a425 b9bd 0f63 6dbd 648d 953c 6d13 563e
000001e0: b19c 103d 32e5 2abd 404a b6bd 9cc3 5b3d
000001f0: e07d 883d 625c 1f3e 335e 87bd f0b7 603d
00000200: 0dc0 583d bb0b ef3c 024c 34bc cb05 c1bd
00000210: 61b0 41bd 7bfc a83d 8f19 b3bc 08c3 01bd
00000220: 69b6 543b 5294 bf3c e4c0 c63d d2c8 0dbd
00000230: b195 9dbd 1158 1d3d 02c0 ad3b 9ab9 b63c
00000240: 58ca 453c ee1d 4dbd a3ee 35bc b07a 1d3d
00000250: a831 363d 1f67 8abc b321 9f3d e284 7d3d
00000260: 84b6 b8ba 9df3 90bc 94f4 0fbd b154 68bd
00000270: dfbb e83d eaa7 493e 8e98 003c 393b 97bd
00000280: ec10 5cbc f321 0b3d ac08 06bd bf03 563c
00000290: f6d3 9b3c 5dd4 f9bc d256 003d 121c 95bd
000002a0: e67f 08bd 626e ffbd e95e 64bc 28ff d13c
000002b0: 5abb 203d 979b 433d cc82 7ebd b970 2b3c
000002c0: e686 4cbd 87e1 d93c fbf1 5b3d c8ba d73d
000002d0: da74 1c3d a787 bf3d 65c2 c73d 7203 eb3c
000002e0: 1d64 10bd ebce 293d eff1 04bb 03c4 be3c
000002f0: c66c b83c 98f9 cf3b 3b21 86bd 26f3 8f3c
00000300: 7f2b 463d 57d0 9abb abe3 2b3d b9a1 ab3d
00000310: d908 413d 542a 3f3b 6538 673c f0ee 013d
00000320: 8989 8cbc 95cd d7bd 2b7d c0bc 639b 033e
00000330: c351 753d 68bd acbd eff9 afbc 2fff 1cbd
00000340: 6e72 4abd ed5f 00be dfc7 f9bb 9143 2d3d
00000350: 1851 ca3b 02aa 4f3d b7a2 773d b166 7a3d
00000360: f0cc 533d a5aa 8c3c 696b 06bd 26e9 933d
00000370: df55 0a3d 7671 edbc 3253 623d 6d1d a33d
00000380: 3407 38bb 16da 7dbd d5c4 4f3d f29a 63bd
00000390: 7f18 bb3d 43a4 a0bb a44c b3bc 2685 20bd
000003a0: 0050 923d dc62 35bc 1a9c 81bd ad8d ffbc
000003b0: d203 613d c490 bbbb ee2e e33c bcd3 7bbd
000003c0: 6bcb 18bd 5439 f3bb 925d babd d474 2c3c
000003d0: 535d 963c dd58 d03c 3f78 013d 6ad6 303d
000003e0: f67c 743d b785 a43d 9bae 8ebc 934c 493d
000003f0: dd49 0d3d a708 fcbc bbc7 9bbd c1cf 5ebb

linear2.bias f4 [256]
-0.0059600566 0.015982103 0.04642417 0.019821962 0.034676246 0.0017548148 -0.004246904 -0.05098079
-0.005593439 0.047752008 0.0044954293 0.026946042 -0.04110467 -0.009446213 0.050958004 0.030348275
0.030659456 -0.015767002 -0.045220815 -0.051298544 0.031999372 -0.045050688 0.042123243 0.008178948
0.026914619 0.08172019 -0.033623733 -0.007823672 0.032820076 0.05556164 0.01863313 0.046267282
0.03156181 0.066076964 0.043334395 -0.029535744 0.04805068 0.0020456375 0.06656777 0.035143826
0.0604863 0.0021873892 0.020468276 0.027255252 0.064319745 0.01800193 -0.02974376 0.037480198
0.040728852 0.025088614 -0.023351643 -0.04527108 0.0116375135 -0.004967106 0.06765204 -0.022269718
0.07012669 -0.018358612 -0.048256468 0.03014767 -0.017106092 0.06752151 -0.035700835 0.07149761
-0.056082115 -0.04896899 -0.015941784 0.056177046 -0.046107866 0.05879595 0.03593752 -0.035057195
0.04983849 -0.0028487334 0.09000945 0.025469912 0.00080934004 0.040004555 0.0154045625 -0.009762838
0.048284866 0.056406036 0.05663318 0.020241387 0.0058045043 -0.00806363 0.0421225 0.00049647165
0.055287465 -0.0016233915 0.011239362 -0.004360642 0.0015523499 -0.0045343414 0.012400625 0.028076507
0.02663142 -0.010554424 0.0053764884 -0.03600745 0.013569955 -0.03932214 0.03629577 0.008282929
0.023690024 0.064589255 -0.03307175 0.049446832 -0.016064383 -0.010742593 0.07198714 -0.022399087
0.055543557 0.06985231 -0.056993492 0.017381206 0.027311748 -0.030416425 0.051768634 0.005687806
-0.042625304 0.020849781 0.051391274 0.020587245 0.02817765 0.030956939 -0.012505186 0.025788898
0.0074518854 0.01976496 0.082750805 0.0033684932 0.03852152 0.02801688 0.05139046 0.0033444425
-0.044344433 0.03948114 0.013041093 0.04289748 0.040894523 -0.061563138 -0.059847586 0.043657392
-0.03136638 0.04074295 0.0066439006 -0.03212977 -0.048636347 0.0030189834 0.021829503 -0.057190195
0.019793484 -0.032523375 0.021723235 -0.00042142312 0.03832805 -0.019332338 -0.03341139 0.037556686
0.010754045 -0.004326955 -0.039077453 0.01658523 0.040663913 0.006414738 -0.020018348 -0.020665942
-0.05528322 0.023536133 0.026492534 0.06328219 -0.06016754 -0.0059983535 -0.030990757 -0.0087737935
0.05112888 0.05179879 -0.0186195 -0.039198425 0.022778427 -0.012214678 -0.04383569 -0.010168201
0.0157038 -0.016325647 0.07297322 -0.042859446 0.0092423875 -0.0042100362 0.042546332 -0.039923444
-0.024922775 0.028954271 -0.0052811904 0.031946816 0.013244316 -0.020292532 0.059683327 -0.037392404
0.026758347 0.04083 0.025304561 -0.03624864 0.005433576 0.043514527 0.0012061306 0.06296983
0.060488764 -0.021050893 -0.03778415 0.072729655 0.05075468 0.013746379 -0.023738673 -0.012191996
0.01795847 0.04824789 -0.02571613 -0.028878734 -0.05689136 0.0634623 0.01589448 0.03394009
-0.032650817 0.001093821 0.013728425 -0.05174831 -0.008187059 0.055916645 -0.005867141 -0.040715437
0.045441356 0.0472998 -0.0330467 0.00801878 0.008845334 -0.013700167 0.061079603 -0.038161468
-0.003973114 -0.021352885 0.0028910358 0.0065611787 -0.056721322 -0.007155472 0.042728905 -0.043227907
-0.055494037 0.0667335 -0.023871018 -0.023514885 -0.0038072173 0.017146943 0.06866917 -0.023466676
00000000: 944c c3bb e6ec 823c 4527 3e3d ab61 a23c
00000010: ae08 0e3d d001 e63a 9d29 8bbb 3cd1 50bd
00000020: 2b49 b7bb 9c97 433d 654e 933b f2bd dc3c
00000030: 5f5d 28bd 4ac4 1abc 57b9 503d f29c f83c
00000040: 8a29 fb3c cd29 81bc 7639 39bd 6c1e 52bd
00000050: c611 033d 1287 38bd 6c89 2c3d ff00 063c
00000060: 0c7c dc3c ea5c a73d 0ab9 09bd dc2e 00bc
00000070: 586e 063d 9a94 633d 81a4 983c c382 3d3d
00000080: f546 013d 5c53 873d 687f 313d f2f4 f1bc
00000090: cad0 443d 1a10 063b af54 883d f9f2 0f3d
000000a0: 7cc0 773d 4d5a 0f3b 16ad a73c 6846 df3c
000000b0: 12ba 833d c978 933c 30a9 f3bc d684 193d
000000c0: 4cd3 263d a386 cd3c f24b bfbc 2b6e 39bd
000000d0: 45ab 3e3c 1bc3 a2bb 278d 8a3d fc6e b6bc
000000e0: 959e 8f3d cd64 96bc 93a8 45bd 3ff8 f63c
000000f0: 1322 8cbc b848 8a3d 0a3b 12bd 576d 923d
00000100: 5cb6 65bd b593 48bd 5898 82bc e719 663d
00000110: 9adb 3cbd 06d4 703d 3933 133d 2298 0fbd
00000120: 7223 4c3d d1b1 3abb e056 b83d 47a6 d03c
00000130: e429 543a d1db 233d 6b63 7c3c 4ff4 1fbc
00000140: 5ac6 453d 040a 673d 31f8 673d 44d1 a53c
00000150: b633 be3b 511d 04bc a488 2c3d a625 023a
00000160: 1c75 623d fbc7 d4ba 4d25 383c b7e3 8ebb
00000170: 3878 cb3a d094 94bb fe2b 4b3c b400 e63c
00000180: 232a da3c 76ec 2cbc 412d b03b 8c7c 13bd
00000190: 8454 5e3c 4110 21bd e0aa 143d 1fb5 073c
000001a0: 9511 c23c 5f47 843d 3e76 07bd c388 4a3d
000001b0: 7499 83bc b301 30bc fe6d 933d 4a7e b7bc
000001c0: a481 633d ba0e 8f3d 0272 69bd 0863 8e3c
000001d0: e3bc df3c de2b f9bc 590b 543d c660 ba3b
000001e0: df97 2ebd 29cd aa3c a87f 523d 95a6 a83c
000001f0: d1d4 e63c 6899 fd3c 8de2 4cbc 3d43 d33c
00000200: f22e f43b 20ea a13c 4179 a93d f0c1 5c3b
00000210: bec8 1d3d a883 e53c ce7e 523d 6f2e 5b3b
00000220: 82a2 35bd fab6 213d 4faa 553c 45b5 2f3d
00000230: 0481 273d a129 7cbd be22 75bd 18d2 323d
00000240: 097a 00bd 14e2 263d 14b5 d93b 819a 03bd
00000250: e836 47bd 23da 453b c9d3 b23c 4440 6abd
00000260: f225 a23c 3b37 05bd edf4 b13c 74f2 dcb9
00000270: e0fd 1c3d da5e 9ebc 62da 08bd 0ad5 193d
00000280: bc31 303c 21c9 8dbb ae0f 20bd c0dd 873c
00000290: 348f 263d b932 d23b 85fd a3bc 9f4b a9bc
000002a0: a870 62bd d9ce c03c df06 d93c 189a 813d
000002b0: 3d72 76bd d68d c4bb 54e0 fdbc f5bf 0fbc
000002c0: 846c 513d f82a 543d ec87 98bc 878e 20bd
000002d0: d399 ba3c 1320 48bc 0d8d 33bd 8798 26bc
000002e0: 41a5 803c 5dbd 85bc fc72 953d 638d 2fbd
000002f0: 626d 173c 58f4 89bb 1045 2e3d c486 23bd
00000300: d92a ccbc 8231 ed3c d60d adbb aada 023d
00000310: b0fe 583c 863c a6bc 8176 743d c728 19bd
00000320: 5234 db3c 5c3d 273d 834b cf3c 7479 14bd
00000330: 240c b23b 4a3c 323d 0717 9e3a 54f6 803d
00000340: 11c3 773d ec72 acbc 8ec3 1abd 49f3 943d
00000350: 24e4 4f3d 7e38 613c 9b77 c2bc f0c0 47bc
00000360: a41d 933c 949f 453d a2aa d2bc 1893 ecbc
00000370: ea06 69bd 86f8 813d 2435 823c c404 0b3d
00000380: ddbc 05bd 8b5e 8f3a 30ed 603c 09f6 53bd
00000390: 0423 06bc da08 653d 2541 c0bb 3bc5 26bd
000003a0: b720 3a3d 6fbd 413d fa5b 07bd 3361 033c
000003b0: 05ec 103c aa76 60bc 9b2e 7a3d 334f 1cbd
000003c0: e530 82bb 3fec aebc 8877 3d3b 28ff d63b
000003d0: 9e54 68bd 7378 eabb 8104 2f3d bf0f 31bd
000003e0: b74d 63bd 93ab 883d 278d c3bc 4aa2 c0bc
000003f0: 8282 79bb bf77 8c3c 6ca2 8c3d 303d c0bc

linear3.weight f4 [1, 256]
0.08858934 0.1488729 -0.08426386 -0.08200168 -0.098912604 0.07664771 -0.2526415 0.22865973
-0.095795125 0.07043528 0.09653461 0.10029349 -0.13342598 0.059813015 -0.06869355 -0.10139729
0.06759819 -0.13635227 0.053366438 0.04753488 -0.107423276 0.066629946 0.11659998 -0.09044502
-0.088619515 -0.1814524 0.07121974 -0.09058953 -0.049638204 0.05906247 0.14791115 -0.10421586
0.074474216 0.0710266 -0.118909575 0.07102753 0.103127114 -0.09648966 -0.094170876 -0.10375048
0.08554678 0.08824308 0.079302795 0.08346078 -0.21041435 0.06735478 -0.0996572 -0.17896762
-0.0942302 0.23779458 0.08639651 0.077870116 0.10180641 0.10131249 -0.08033027 0.088660195
0.0848903 -0.09702463 0.11455751 0.0689041 -0.105986044 -0.09858473 -0.18891883 -0.07511304
0.05314875 -0.18274769 -0.08752488 -0.0845367 0.092925176 0.080013804 0.091258734 0.1947397
-0.26701424 0.11652184 0.20351852 0.06375055 0.09181414 -0.10789857 0.0726311 -0.079801604
0.09415397 -0.10396307 -0.072041914 -0.3062307 0.09518708 -0.10115715 0.07982743 -0.09448004
0.060560662 0.11533967 0.06723731 -0.10439036 0.112436116 -0.10919835 0.08461963 0.15170643
-0.10801403 0.06410984 -0.08888391 0.109578215 0.087261535 0.06798654 0.26798242 0.096959166
0.08675111 -0.100213885 0.14808919 -0.09089031 -0.087727964 0.10557017 -0.07469743 -0.1433801
0.07995142 -0.22213787 -0.21136172 -0.09543491 0.086488515 0.06444153 -0.074692585 -0.09659162
0.08483454 0.05492964 0.08806337 0.06680089 -0.09421368 -0.08940743 0.09070859 0.08830248
-0.08246873 -0.089298 -0.09907397 -0.09069919 -0.087473765 0.33228865 0.0653116 -0.0726561
-0.09450513 0.055685733 0.07688016 0.0565761 0.0738628 0.12908062 -0.13853516 0.080359064
-0.15569125 -0.15417704 0.061058458 0.17777686 0.07339142 0.12956312 -0.09110581 0.123167664
0.08177441 0.07050367 -0.09628591 0.07885387 0.07742513 -0.068165585 -0.09988759 -0.105689645
-0.08909308 0.074288644 0.096346825 -0.21804495 0.074857876 -0.103332706 0.0533392 -0.3173334
0.21461967 -0.19800885 -0.08740113 0.06479913 0.046031978 0.0629909 -0.0961308 -0.07753813
0.08551929 0.048622362 0.25654444 0.06413838 -0.14872053 0.10269229 0.08504601 0.08459973
-0.08238726 0.08322153 -0.08848338 0.1636436 -0.1417096 0.14149722 0.12116974 -0.10438272
-0.108007155 -0.21658571 -0.08985512 -0.093376204 0.08344352 0.07843268 0.053065598 0.10515979
0.0782689 0.11169757 -0.08944663 -0.093101375 -0.086954586 0.089266054 0.0969376 -0.08281304
-0.34337294 -0.1379583 0.0010185469 0.07379941 0.09803464 0.058216985 -0.08416332 0.050308052
-0.10076858 0.058051985 -0.090043485 0.07931949 0.11000475 -0.10969174 -0.33749118 0.06839669
0.06830822 0.062190656 -0.09399274 0.092158824 -0.090869166 0.119375736 0.056489736 0.30379367
0.060936492 -0.093590796 0.10045731 -0.09146525 0.079739094 -0.08107527 0.09509169 -0.08726228
0.07255051 0.24311835 -0.07943923 0.08633083 0.06663628 -0.16735291 0.11858665 0.055564687
0.1648844 0.08340041 0.06273003 0.11134487 -0.16869293 0.08965461 -0.0833721 -0.087542735
00000000: 546e b53d 2372 183e 8892 acbd 7ff0 a7bd
00000010: b192 cabd 79f9 9c3d 3a5a 81be c725 6a3e
00000020: 3c30 c4bd 5f40 903d f0b3 c53d ac66 cd3d
00000030: d2a0 08be 7efe 743d 34af 8cbd 62a9 cfbd
00000040: eb70 8a3d ee9f 0bbe c496 5a3d efb3 423d
00000050: bc00 dcbd 4875 883d f8cb ee3d 3d3b b9bd
00000060: 267e b5bd a8ce 39be a8db 913d 0187 b9bd
00000070: 6e51 4bbd 7deb 713d 0576 173e 206f d5bd
00000080: f085 983d 6576 913d dd86 f3bd e276 913d
00000090: 4f34 d33d 5f9c c5bd a9dc c0bd 227b d4bd
000000a0: 2633 af3d cab8 b43d 8169 a23d 7ced aa3d
000000b0: dc76 57be 4ef1 893d 1319 ccbd 4a43 37be
000000c0: c3fb c0bd 6c80 733e a7f0 b03d 5e7a 9f3d
000000d0: e17f d03d ec7c cf3d 3284 a4bd 7a93 b53d
000000e0: f7da ad3d d9b4 c6bd 219d ea3d 981d 8d3d
000000f0: 360f d9bd cae6 c9bd f073 41be ded4 99bd
00000100: 81b2 593d 3622 3bbe 3f40 b3bd 9421 adbd
00000110: 8e4f be3d 47de a33d dce5 ba3d d869 473e
00000120: 17b6 88be 01a3 ee3d 2967 503e a68f 823d
00000130: 0d09 bc3d edf9 dcbd 9dbf 943d 066f a3bd
00000140: ccd3 c03d 97ea d4bd b68a 93bd 45ca 9cbe
00000150: 72f1 c23d 7b2b cfbd 907c a33d c07e c1bd
00000160: 750e 783d 3437 ec3d b7b3 893d 9dca d5bd
00000170: e844 e63d 62a3 dfbd 0e4d ad3d ee58 1b3e
00000180: 7636 ddbd 054c 833d c408 b6bd 8b6a e03d
00000190: 2db6 b23d 873c 8b3d fe34 893e 8792 c63d
000001a0: 91aa b13d f03c cdbd b1a4 173e b324 babd
000001b0: b8aa b3bd 2c35 d83d f7fa 98bd 3cd2 12be
000001c0: 92bd a33d 1c78 63be 356f 58be 6173 c3bd
000001d0: e420 b13d ecf9 833d 6df8 98bd d4d1 c5bd
000001e0: bbbd ad3d e7fd 603d 915a b43d e8ce 883d
000001f0: 1af3 c0bd 3e1b b7bd 6dc5 b93d eed7 b43d
00000200: 5ee5 a8bd dfe1 b6bd 4be7 cabd 7fc0 b9bd
00000210: 7225 b3bd bd21 aa3e 17c2 853d b9cc 94bd
00000220: e88b c1bd b916 643d 5873 9d3d 57bc 673d
00000230: 6145 973d b62d 043e 29dc 0dbe 4b93 a43d
00000240: 876d 1fbe 96e0 1dbe 6f18 7a3d 230b 363e
00000250: 3e4e 963d 32ac 043e af95 babd 543f fc3d
00000260: 5879 a73d 3a64 903d 8c31 c5bd 237e a13d
00000270: 1191 9e3d 669a 8bbd dd91 ccbd d073 d8bd
00000280: 6f76 b6bd a524 983d 7c51 c53d 2d47 5fbe
00000290: 164f 993d 19a0 d3bd 347a 5a3d 8679 a2be
000002a0: 42c5 5b3e d5c2 4abe 5dff b2bd 68b5 843d
000002b0: 078c 3c3d 5f01 813d 3ae0 c4bd 50cc 9ebd
000002c0: bd24 af3d 3e28 473d cb59 833e fc5a 833d
000002d0: 324a 18be 5650 d23d 9a2c ae3d a042 ad3d
000002e0: a7ba a8bd 0d70 aa3d c636 b5bd 3092 273e
000002f0: 521c 11be a6e4 103e d727 f83d 9cc6 d5bd
00000300: db32 ddbd a5c8 5dbe f605 b8bd 063c bfbd
00000310: 70e4 aa3d 50a1 a03d 505b 593d 045e d73d
00000320: 724b a03d b2c1 e43d cb2f b7bd efab bebd
00000330: 3f15 b2bd 1fd1 b63d 3887 c63d e299 a9bd
00000340: 94ce afbe f144 0dbe c380 853a 2524 973d
00000350: 63c6 c83d ef74 6e3d d25d acbd d10f 4e3d
00000360: c25f cebd ebc7 6d3d b868 b8bd 4272 a23d
00000370: 2c4a e13d 10a6 e0bd a5cb acbe 9013 8c3d
00000380: 2ee5 8b3d a1bb 7e3d 447f c0bd c4bd bc3d
00000390: 9d19 babd 447b f43d c861 673d d88a 9b3e
000003a0: 8b98 793d 88ac bfbd 90bc cd3d 2252 bbbd
000003b0: 404e a33d cb0a a6bd 6fbf c23d 91b6 b2bd
000003c0: 5d95 943d 04f4 783e 09b1 a2bd 38ce b03d
000003d0: 9a78 883d 905e 2bbe 8fdd f23d cc97 633d
000003e0: 75d7 283e d6cd aa3d 9a78 803d c708 e43d
000003f0: d7bd 2cbe d69c b73d febe aabd 9b49 b3bd
