testing/scripts/outputs/DDPG_Env/20221213-030633/models/1190critic_checkpoint.pt (torch, 282455 bytes, 5 tensors)

linear1.weight f4 [256, 15]
000000 ae a0 d0 3e a5 55 a7 be ca 31 98 bf 89 09 12 3e
       0.4074759 -0.3268253 -1.1890194 0.1426145
000010 29 a6 11 3f 38 57 b4 3e 99 61 8e 3e 61 75 00 be
       0.56894165 0.35222793 0.27808836 -0.12544776
000020 71 43 64 bf 4a 98 43 3e f9 cc cb bd f1 29 2f 3e
       -0.8916541 0.19101062 -0.09951205 0.17105843
000030 fd 92 09 3e 79 48 2c be ca 52 3a be 3d 4e 64 3b
       0.13434978 -0.16824521 -0.18195644 0.0034836673
000040 50 fd 2a bf 91 06 b2 bf fe 71 48 bf a0 92 de 3e
       -0.66792774 -1.3908254 -0.7829894 0.4347124
000050 30 bf d0 3e 08 4d dd be 45 d9 e3 bd 80 a5 bb 3e
       0.40770864 -0.43222833 -0.11125425 0.36649704
000060 25 4d ed 3e 6a db 06 3d 2d 56 6d 3e ff f2 13 3c
       0.4634792 0.032924093 0.23177405 0.009030103
000070 25 d1 09 bf 8e 4e 7a 3e 36 c8 d7 3d 66 12 17 3f
       -0.53834754 0.24444029 0.10536234 0.5901245
000080 63 f2 87 3e 04 85 0d bf b4 e2 3e bf 97 e7 ab 3e
       0.26552114 -0.5528109 -0.7456467 0.33575127
000090 23 03 7d 3d 65 dc ef be 35 3a 63 bf bd 9c 49 be
       0.06177057 -0.46847835 -0.8876069 -0.19688697
0000a0 18 5a a5 be b2 14 83 3e dc 3a 8d 3e 8f b4 04 3d
       -0.322953 0.25601727 0.2758397 0.032398757
0000b0 c2 ad 75 be 1d c1 d3 be 6b 49 85 bd a6 38 2b be
       -0.23992065 -0.4135827 -0.06508144 -0.16720828
0000c0 c8 ca d6 be a0 b3 e5 bc 26 c6 4a be d1 da 92 bf
       -0.41951585 -0.028039753 -0.1980215 -1.1473027
0000d0 f4 10 bb bf d9 bd 90 3e 97 0d 18 3f cc bc 14 3b
       -1.4614549 0.28269842 0.59395736 0.002269554
0000e0 69 be d0 3d b5 02 b9 bd 9b 35 ad 3c a0 99 48 bd
       0.10192568 -0.090337195 0.021143725 -0.048974633
0000f0 44 fc 49 bf 5a bd e0 bd b1 82 a1 3d 95 ae 3a bf
       -0.7890055 -0.10973616 0.078862555 -0.7292264
000100 dc e8 df bf 4b 17 99 bf 84 13 a9 bf 79 6e f0 be
       -1.7492938 -1.1960233 -1.3209081 -0.46959284
000110 fe 34 66 be 69 5a 1e bf 86 5c 20 bd e5 15 f0 bd
       -0.22481152 -0.61856705 -0.039150737 -0.11722926
000120 78 80 42 bc 97 f5 9e 3e 89 3a c7 bd d9 35 0a bf
       -0.01187145 0.31046745 -0.097279616 -0.53988415
000130 71 a9 19 bc be c9 06 be d6 c8 43 bf 96 78 86 bf
       -0.009378777 -0.13162896 -0.76478326 -1.050555
000140 ef 66 ac bf ec 66 00 c0 74 06 35 bf 90 45 43 be
       -1.3468913 -2.0062819 -0.7071297 -0.19069505
000150 42 7e f5 be 07 4b 93 bd 92 15 11 be ed 56 cb 3c
       -0.4794789 -0.07192045 -0.14168385 0.024821723
000160 89 b4 0b 3d 7c 9a 15 3e a0 3a 29 3e 9f de 8a bd
       0.03410772 0.14609712 0.1652627 -0.06780743
000170 bf 6b c8 bd e8 10 40 bf 5b 2d 44 bf 26 6a c3 3e
       -0.09786176 -0.75025797 -0.76631707 0.38166922
000180 4f 6b 2f 3c 5e 74 06 bf c8 50 48 be a9 73 13 3e
       0.010706737 -0.5252131 -0.19562066 0.1439959
000190 ca 09 94 be 43 3e c1 3e a2 2e 30 3e d3 67 bf bd
       -0.28913718 0.37742814 0.17205289 -0.09345975
0001a0 9a b1 83 bd 76 14 88 3e 5c e1 3f bf 1f 0f af bf
       -0.06430359 0.2657811 -0.74953246 -1.367649
0001b0 6a 88 29 bf b4 03 7f 3e ad 97 34 be fd 8e 43 bf
       -0.66223776 0.24903756 -0.17635985 -0.7639006
0001c0 d3 68 31 bf d8 9c dc 3e 5b e2 ac 3e df af a6 bc
       -0.69300574 0.43088412 0.33766446 -0.020347534
0001d0 57 fa 9b bd 22 4d 5d bd eb 6d 12 3e 99 8b 5d 3d
       -0.07616108 -0.054028638 0.14299743 0.05408821
0001e0 64 41 0f 3e 26 a3 36 3e 23 a3 3d bf 05 31 7d bf
       0.13989788 0.17835674 -0.7407705 -0.9890292
0001f0 a9 03 c6 be e9 fd 46 bc 38 71 b7 be 55 ba cf bd
       -0.38674667 -0.012145498 -0.35828567 -0.10142962
000200 ea 38 03 3e 26 38 95 be 3b 9d 2f be ae 8a 88 3e
       0.1281468 -0.291444 -0.17149822 0.26668304
000210 9e 60 2f be a7 47 25 bd a6 ec 8a 3e 5f 1b 29 be
       -0.171267 -0.040351536 0.27133673 -0.16514347
000220 c1 24 80 bf 60 7b 5f be 12 6a 19 bf 33 1a ce be
       -1.0011216 -0.21824408 -0.59927475 -0.40254363
000230 ae d9 64 be 68 5f 8c be a1 e6 21 bf a9 95 81 bd
       -0.22348663 -0.2741654 -0.63242537 -0.063273735
000240 f1 c4 7f 3e 92 89 0c bd 2e 43 46 bd bd 2f 94 3e
       0.24977471 -0.034310885 -0.04840391 0.2894267
000250 e7 20 20 3e c4 c1 76 3e dc 40 8f 3d ce d7 a5 3e
       0.15637551 0.24097353 0.06994793 0.32391208
000260 e4 60 c9 3e 13 cc 4c 3f 12 db 72 3f 25 d3 7b 3f
       0.39331734 0.7999889 0.94865525 0.98369056
000270 e6 c0 5e 3f 23 5f 1d 3f 2e 83 7a 3e 09 a5 1d 3f
       0.8701309 0.6147329 0.24464104 0.6157995
000280 8e 2a c2 3d 2e 7f 71 bf 90 6b ac 3d 1f a0 29 3e
       0.09480773 -0.94334686 0.084189534 0.16564988
000290 6b ec 25 be 04 62 37 bf 94 05 12 bf 66 49 98 3e
       -0.16203468 -0.71633935 -0.5703976 0.297435
0002a0 9c 51 42 be e6 ce a9 bf 80 83 1c c0 2a d5 12 c0
       -0.18976444 -1.3266265 -2.4455261 -2.2942605
0002b0 f5 fb 31 bf 54 20 d2 3d 07 20 ed be 81 ff 42 3d
       -0.6952508 0.10260072 -0.46313497 0.04760695
0002c0 b7 2c a3 bd 6a 64 4e 3d f4 a2 0d 3d a6 33 3d 3d
       -0.07967513 0.05038873 0.034579232 0.046191834
0002d0 ac 57 4c be f4 e6 3f 3c a2 5e 8a 3e 76 3d 1d bf
       -0.19955319 0.011712778 0.27025324 -0.61421907
0002e0 4f 48 03 bf 95 44 54 be 9f d2 20 bf 16 9d a7 bf
       -0.5128221 -0.20729287 -0.6282138 -1.3094814
0002f0 73 4a d6 3c a7 0c 44 3f a6 a5 0d 3e a9 8e 6b 3e
       0.026158547 0.76581806 0.13832721 0.2300364
000300 64 90 b0 bd aa 42 7f bd aa b6 cb 3d 2a b6 7f bf
       -0.0862129 -0.062319435 0.0994695 -0.99887335
000310 5e 7d 6e 3d 82 1f 4d be 1d 67 84 bf 2c d9 eb bf
       0.05822503 -0.2003155 -1.0343968 -1.8425651
000320 08 7d e3 bf 41 06 cf bf 18 23 32 be d4 69 92 3e
       -1.7772532 -1.6173784 -0.173962 0.28596365
000330 3a d0 4f bf 44 0b 4a 3d e7 9c 42 bd e0 a4 43 3c
       -0.81177104 0.04932715 -0.047512915 0.011941165
000340 8a 5a 9a bd a9 aa 9c bd 46 e1 d0 bc 76 c9 60 be
       -0.075368 -0.07649738 -0.025498044 -0.21951851
000350 39 93 c0 3d 4b 53 04 be 82 24 38 3e b4 be 90 be
       0.094030805 -0.12922399 0.17982677 -0.28270495
000360 d8 a5 08 bf 1e 8a ff be 96 de d6 bd ac 58 49 3e
       -0.5337806 -0.49910063 -0.10491674 0.19662732
000370 c6 7c 86 3e dd 20 89 3e 0a e9 50 3e 40 44 82 bd
       0.2626707 0.26782885 0.20401397 -0.06360674
000380 8d bb 18 3d 8b d8 fb bd 3d 66 f9 3e 4d b9 58 3f
       0.037288237 -0.12297162 0.48710814 0.84657747
000390 75 7e 46 3f 88 4b b1 3e df 5b 9f be 91 54 83 3e
       0.7753671 0.34627938 -0.3112478 0.25650457
0003a0 2f 7d d6 3e 9d 93 f3 bc 2f 60 a5 be 89 5c da bd
       0.41892383 -0.029733473 -0.32299945 -0.10662181
0003b0 66 05 63 bf 0c 61 42 3e 04 77 86 be 08 35 97 be
       -0.8868011 0.18982333 -0.26262677 -0.29532647
0003c0 39 01 cf be 76 99 00 3f f8 f2 d8 bd 67 ca bd bf
       -0.4043062 0.5023416 -0.105932176 -1.4827393
0003d0 fd 21 4b bf ae a8 86 bf 4b 94 f7 bf 3e 59 fb bf
       -0.79348737 -1.0520227 -1.934213 -1.963661
0003e0 81 69 b6 bf 91 8c 67 bf 93 57 8b bb be 0c d4 3b
       -1.4250947 -0.9044886 -0.004252383 0.0064712455
0003f0 96 06 4f bd ba dc 76 be f4 d1 12 3e 0d 4c ae 3b
       -0.05054339 -0.24107638 0.14337903 0.0053191246

linear1.bias f4 [256]
000000 7c 5f 66 be ba 13 8d 3e cf 07 11 3f 99 6c e8 3e
       -0.22497362 0.27554113 0.5665254 0.45395353
000010 74 51 58 3f 0d 03 67 3f 3c 86 7f 3f 7e 85 13 be
       0.8449929 0.9023903 0.998142 -0.14406392
000020 e1 05 05 3f d6 f9 31 be 99 fd 66 3e f6 78 96 3f
       0.51962095 -0.17380461 0.22557677 1.1755664
000030 ce af 99 3e 82 c2 88 3f f5 5c 2b 3f a5 44 03 3e
       0.3001694 1.0684359 0.66938716 0.12819155
000040 c8 27 1c 3f a5 7f 2c be 40 ed 0a 3e f9 71 af be
       0.609982 -0.16845568 0.13567066 -0.34266642
000050 03 29 fb 3e f4 5c 3e bd 58 36 17 3f a4 65 6c be
       0.49054727 -0.046475366 0.59067297 -0.23085648
000060 48 0c 6b 3f aa 7e 42 bf 0d c5 38 3e d9 ea 23 3f
       0.91815615 -0.75974524 0.18043919 0.64030224
000070 8f 58 bd 3d 4b 92 1c 3f 64 23 b0 3e 81 72 92 3e
       0.09245407 0.61160725 0.34402 0.28602985
000080 80 0c 34 3d 74 2c ea 3e 1f f3 ba 3e 33 b8 eb bd
       0.043957233 0.4573704 0.36513612 -0.115097426
000090 fc 57 78 3f 1c ea d2 3e 93 d4 89 3e d0 fc 66 be
       0.97009254 0.41194236 0.26919994 -0.22557378
0000a0 e4 e9 ac bc 1c a6 d8 3e fc 60 90 3f 09 cf 44 3f
       -0.021107621 0.4231423 1.1279597 0.7687841
0000b0 5c 0a c1 3d 0c a6 90 be 80 bc 78 3f f0 eb e0 3e
       0.09425804 -0.28251684 0.9716263 0.43930006
0000c0 26 4f 42 3f 00 b8 8d 3f a0 09 f4 3e b0 fa e4 3e
       0.7590202 1.1071777 0.47663593 0.4472251
0000d0 a4 8c f4 3e 43 e0 10 3f ef 32 37 3f c9 7e 28 3f
       0.4776355 0.56592196 0.71562093 0.6581846
0000e0 82 a6 3b 3e 6f ff 77 3e f8 ca 47 3f 69 2c 15 3f
       0.18325236 0.24218534 0.7804408 0.5827089
0000f0 b6 95 59 bd 96 b9 d9 be 31 7a 2c bc ec e2 f2 3e
       -0.05312129 -0.42524403 -0.01052718 0.47438753
000100 99 66 eb 3d 5f 4c 17 3f b5 fd 09 3f 3d 03 15 3f
       0.11494178 0.5910091 0.5390275 0.58208066
000110 02 c8 0b 3f 20 2d f4 3e e8 69 45 3f 7c 5d 1c 3f
       0.5460206 0.47690678 0.77114725 0.61080146
000120 da 45 82 3e ce 35 b4 3e 4c 6a 37 3f ca 2c 89 3e
       0.25443918 0.351973 0.7164657 0.26791984
000130 d1 20 af 3e 97 b2 2b 3d c0 1c 64 3f e6 03 8f be
       0.34204724 0.041918363 0.8910637 -0.27932662
000140 ae b8 42 3f bc 42 07 bf 1b 22 2c 3e a1 ff 52 be
       0.7606305 -0.52836204 0.16809885 -0.20605327
000150 ab 66 be 3e ee c7 07 3f c6 fe 25 3e dd d2 03 3f
       0.37187704 0.53039443 0.1621047 0.51493627
000160 f7 ba 5c 3f ee c5 62 be b2 11 1a 3c 54 f2 27 3f
       0.86222786 -0.22145817 0.009403633 0.6560414
000170 23 76 92 be 3e 09 77 3f 37 2e 35 3f b6 81 b2 3b
       -0.28605756 0.9649848 0.70773643 0.0054475917
000180 aa 08 65 be 6d b2 83 3e 2e d6 95 3e 83 87 9d be
       -0.22366586 0.25722066 0.2926497 -0.3076745
000190 20 7b a7 3e c9 12 bd 3e d9 ec 13 3f 9c 0c d2 3d
       0.32711124 0.36928394 0.57783276 0.10256311
0001a0 f6 07 0e 3e a6 00 54 3e 63 53 dd 3d 2d 38 38 3e
       0.13870224 0.20703372 0.108069204 0.1799018
0001b0 aa 66 81 3f ea a1 22 3f f8 41 27 3f 74 25 1b 3f
       1.0109456 0.6352831 0.65335035 0.60604024
0001c0 1f 21 ce 3e d7 ad a5 3e 9e 46 b7 3e 38 bd c8 bd
       0.40259644 0.32359192 0.35796064 -0.098017156
0001d0 fe 07 2d 3f bc b7 a1 3e da 15 ca 3e b6 b5 4e 3f
       0.6759032 0.3158549 0.39469796 0.8074602
0001e0 4d 9c 9b be fb d3 03 3f 07 d0 51 3f 97 26 2c 3f
       -0.30392686 0.5149533 0.8195805 0.67246383
0001f0 69 ca cc 3e c3 00 96 3e 37 bc 10 3e 4f cb f0 be
       0.39998177 0.29297456 0.14134298 -0.47030112
000200 7f b0 cd 3e 38 3a b4 bd bb f9 9b 3e 99 0e 07 3f
       0.40173718 -0.08800167 0.30463967 0.5275665
000210 f7 07 3c 3f 80 32 89 be c3 bb d5 be 46 25 a9 3f
       0.73449653 -0.2679634 -0.41744813 1.32145
000220 90 8e 46 3f 20 96 8f 3d 31 88 c8 3e 86 5a d4 3e
       0.77561283 0.07011056 0.39166406 0.41475314
000230 af 1f b2 3d 23 33 be 3e 06 12 6f 3f bd 58 2e 3f
       0.086974494 0.3714839 0.93386877 0.68104154
000240 66 be 00 3f 44 fa 3c 3f 93 fe 96 3f 51 d5 f0 3e
       0.50290525 0.73819375 1.179644 0.47037748
000250 64 78 96 be d1 66 04 3f 25 07 1e 3d 74 b4 36 3f
       -0.29388726 0.51719385 0.038581032 0.713691
000260 87 80 91 3d e5 9b 0f 3e 6e 85 4b 3e 19 fb de 3e
       0.07104593 0.14024313 0.19875118 0.43550947
000270 63 e6 6b be 46 f0 74 3f 9d 39 21 3e 8c f7 31 bf
       -0.23037104 0.9567913 0.15744634 -0.6951835
000280 43 58 bf bd 81 f5 bb 3e f8 f7 b3 3e a1 90 2b be
       -0.093430065 0.36710742 0.35150123 -0.1675439
000290 96 65 4e 3f 39 2c 3b 3f 32 9a 09 3f 87 bd c7 bd
       0.8062376 0.73114353 0.5375091 -0.09752946
0002a0 f3 04 f8 3e 06 4a 4c 3f ae dd 5e 3e de 7f ed 3e
       0.48441276 0.7980045 0.21764252 0.46386617
0002b0 ba 8b 44 3f bb cd 3c 3f 59 7d 9d 3e 3f d7 b8 3d
       0.76775706 0.7375142 0.30759695 0.0902543
0002c0 e4 45 dd be 72 5f b3 3e 08 21 5b bd d3 18 81 3e
       -0.43217385 0.35033756 -0.053498298 0.25214252
0002d0 ef 11 81 3d 9a 28 b5 3e 8f e8 76 3e e5 7f ad 3e
       0.06302249 0.3538254 0.24112152 0.33886638
0002e0 bb a5 31 3f e2 0d 86 3d 6d ca a4 3e 7e af 36 3e
       0.6939351 0.06545617 0.3218569 0.17840382
0002f0 60 bf 07 3f 5c 7c 58 3f 83 ab b5 3e 14 4b dd 3e
       0.5302639 0.8456476 0.35482416 0.43221343
000300 75 1a a7 3e 29 4f 87 3e b9 04 2d be 79 6f 47 3f
       0.32637373 0.26427582 -0.16896333 0.7790447
000310 67 bb c2 3e c3 dd 39 bd fd 25 6d 3e 7b 2c 36 bc
       0.38033602 -0.045377504 0.23159023 -0.011119003
000320 c9 96 70 3f b6 81 8f 3f 26 72 4a be a7 a8 0b 3f
       0.9398008 1.121146 -0.19770107 0.5455422
000330 16 7e d4 bd d0 03 95 3f 89 87 e1 3e e1 be 36 3f
       -0.103756115 1.1641788 0.44048718 0.7138501
000340 c2 9c 5b 3f f2 d8 a0 3c 82 7a e7 3c e9 8f 2f 3e
       0.8578607 0.019634698 0.028256658 0.17144741
000350 a2 a0 10 3f e5 08 b3 3e d5 fc b7 3d 69 7d 47 3f
       0.56495106 0.34967723 0.08983771 0.77925736
000360 50 07 d5 3e ec 11 c4 bd 9e f0 09 3f 16 5c 05 3f
       0.41607141 -0.09573731 0.5388278 0.52093637
000370 cd d0 48 3f 94 62 9e 3e 2d 65 33 be 77 b4 02 3f
       0.78443605 0.30934584 -0.17519064 0.5105662
000380 1a f4 12 3f c0 22 07 3e 02 af e1 3d 43 79 84 3e
       0.5740372 0.1319685 0.11019708 0.25873765
000390 44 e2 0a 3f 84 c3 26 3f c3 7d 8e 3d ba bc 8a 3d
       0.54251504 0.65142083 0.06957581 0.06774278
0003a0 a3 25 a4 3f 1b 11 9c 3e 80 f0 fb bd 67 e4 61 3f
       1.2823986 0.304818 -0.12301731 0.8823914
0003b0 65 af 43 3e 87 92 16 3f db 64 d8 3e 82 8c c9 3e
       0.19109876 0.58817333 0.42264447 0.3936501
0003c0 74 29 45 3f 0e 56 dc 3e 32 c9 3e 3f a3 b2 cd 3e
       0.7701638 0.43034405 0.7452575 0.40175352
0003d0 d1 c1 90 3f da a8 19 3f 7a 5e 23 3f a4 e7 2f 3f
       1.1309148 0.6002327 0.63816035 0.6871283
0003e0 6b 42 1f be ee af 34 3e 14 1a 03 3f dd 60 75 3f
       -0.1555268 0.17645237 0.5121167 0.95850927
0003f0 75 4d 28 3f d6 c3 1d 3f ba 5a 5d 3d e6 be 31 be
       0.6574319 0.61626947 0.0540416 -0.17357978

linear2.weight f4 [256, 256]
000000 d1 5e d0 3e ff 02 12 3f e5 be 21 3d 10 7b c4 3e
       0.4069734 0.5703582 0.03948869 0.3837514
000010 7b 24 b9 3f 19 54 ab 3f 42 eb 35 3e 27 e8 5a 3f
       1.4464258 1.338504 0.17765525 0.85510486
000020 af 0f ea 3e 08 ea 82 3e 04 5d 3c bf e8 a4 f2 3f
       0.4571509 0.25569177 -0.7357943 1.8956575
000030 31 10 8b 3e a8 dc d3 3f 63 84 0d 3e d7 17 74 bf
       0.2716079 1.6551714 0.13820033 -0.95348877
000040 29 95 9c 3f 83 ac 0d be 44 46 ba bf 8a 1e 20 3f
       1.223302 -0.13835339 -1.4552693 0.625466
000050 ab b2 07 3f 13 47 3e 3f 2a fb 02 3f a3 aa 02 3f
       0.53007 0.743272 0.51164496 0.5104162
000060 19 03 c3 3e 92 0e 64 3f 59 d7 f4 3e 17 5f 7f 3e
       0.380883 0.8908473 0.47820547 0.24938618
000070 99 e3 e4 3e be 4c 48 3e 10 8f 6c 3f fd 0c f8 be
       0.44704893 0.19560525 0.92405796 -0.4844741
000080 be c2 91 bf 67 ae 46 3f 61 22 75 3f 4b 80 36 3e
       -1.1387556 0.77609867 0.95755583 0.17822377
000090 53 77 d5 3f dc 42 29 3f 5f 0e 7a 3e 27 62 93 bf
       1.667704 0.66117644 0.24419545 -1.1514329
0000a0 aa 60 30 3e b9 7b 59 3f e0 74 f7 3f 67 30 6b 3f
       0.17224374 0.8495441 1.9332542 0.9187073
0000b0 21 66 95 3e 07 01 ad 3e a0 79 15 3e 73 63 cc 3e
       0.2917948 0.33789846 0.14597178 0.39919624
0000c0 c2 58 85 3f 88 75 55 3e ae 64 c5 3e 0f 2e 7f 3e
       1.0417712 0.20845616 0.38553375 0.24919914
0000d0 a9 c8 db 3d 2b e6 0f 3e 97 3e ed 3e 0e 42 b4 3e
       0.10731632 0.14052646 0.46336815 0.35206646
0000e0 93 da 82 3f f4 1b 1d 3e e9 7f 5f 3f 98 6a bd 3e
       1.0222954 0.15342695 0.8730455 0.36995387
0000f0 f6 3c 37 3f 1b ce 0f 3d df 31 8a 3f 56 f1 62 3f
       0.71577394 0.035108667 1.079647 0.886495
000100 6d 00 d3 3e 53 3e 80 3e dd 7f 45 3e 21 e8 a5 3e
       0.41211262 0.2504755 0.19287057 0.32403663
000110 05 9c 80 be 82 41 1f 3f c1 7f 99 3f 9d 4f 51 bf
       -0.25119033 0.6220933 1.1992112 -0.81762105
000120 39 b6 84 3f 6e a7 a2 3e 11 f5 7e 3e ff a0 82 bf
       1.036811 0.31768364 0.24898173 -1.0205382
000130 e9 28 eb 3e bc 26 a9 bf 75 98 41 3e 1e fc 87 3e
       0.4592965 -1.3214946 0.18905814 0.26559538
000140 c7 e2 ea 3e 7a 1b 0a 3b 17 cd bc bf 0a 50 69 bf
       0.45876142 0.0021073506 -1.4750088 -0.91137755
000150 1a 14 bc 3e ad e7 b9 3e 74 99 3c 3f 36 7a 06 3f
       0.36734086 0.36309567 0.7367165 0.5253023
000160 32 af 34 3d 48 41 45 bf 2a 8c 1b bf 46 ee 82 3e
       0.04411239 -0.77052736 -0.6076075 0.25572413
000170 6e 6f 7e bf af 44 76 3e 25 45 c8 3d e1 13 ff be
       -0.9938878 0.24049638 0.09778813 -0.49819854
000180 9d bb 02 3f 6b a8 43 3e e8 5f 49 3f da 1d 7d bf
       0.51067525 0.19107215 0.78661966 -0.98873675
000190 00 d0 e2 3e 29 e0 d0 3e ed cd 67 3e be 6d 8c bf
       0.44299316 0.4079602 0.22637148 -1.0970991
0001a0 f4 20 d5 3e 83 eb 1e 3f fd 64 24 3a 7a 32 fb 3d
       0.41626704 0.6207811 0.0006271152 0.12265487
0001b0 28 4c b2 3e e8 b8 41 3f b1 84 8e 3f 30 0b bd 3e
       0.34823728 0.7567277 1.1134244 0.36922598
0001c0 47 90 e1 3e 32 65 9d 3e c3 3e a6 3e b2 bb 64 bf
       0.44055387 0.30741268 0.32469758 -0.893489
0001d0 0b ee ce 3e 08 da 62 3e 22 a3 56 3e 20 01 ae 3f
       0.40415987 0.22153485 0.20960668 1.3594093
0001e0 23 93 8a bf 43 eb e6 3e e6 90 87 3e bc 3c 44 3f
       -1.0826153 0.45101365 0.26477736 0.76655173
0001f0 38 c9 2d 3f c5 83 68 3e 2a c3 bb be 3f 3a 23 3e
       0.6788516 0.22706516 -0.36672336 0.15940188
000200 fa 71 2c 3f 7f e8 6b 3f af d7 c5 3e e9 dc 60 bf
       0.67361414 0.92151636 0.38641116 -0.8783708
000210 24 88 2d 3e f5 07 84 bf d8 9b 54 3e fd c0 6f be
       0.16946465 -1.0314928 0.20762575 -0.23413463
000220 4a af 58 3f d5 1c 36 3f 9d 21 a5 3e 55 01 c2 3e
       0.8464247 0.71137744 0.32252207 0.3789164
000230 5b f8 b7 3e 48 98 ab 3e 97 90 94 3f 0b 15 cb 3e
       0.35931668 0.3351462 1.1606625 0.39664492
000240 c3 6a 82 3e a4 1f 66 3e af b9 a1 3e 25 e9 ad 3f
       0.25472078 0.22473007 0.31586978 1.3586775
000250 cb b5 98 bf e2 39 20 3f 74 09 e6 3e fc 39 d7 3e
       -1.1930479 0.6258832 0.44929087 0.42036426
000260 2d 52 07 3f 04 52 fd 3e 74 34 5b 3f 1c c4 2b 3f
       0.52859765 0.49476635 0.8562691 0.67096114
000270 5f 9c 35 bf 4b 31 c9 3d 38 67 4e bf 5f 0a 59 bf
       -0.7094173 0.09823855 -0.8062625 -0.8478145
000280 da 4c f3 3e b8 65 fd 3e e2 ac 81 3f 0a 56 92 3e
       0.4751957 0.49491668 1.0130885 0.28581268
000290 d6 02 b0 be 26 ef 9d 3e a3 93 52 3f aa 19 ad bf
       -0.34377164 0.30846518 0.82256526 -1.3523457
0002a0 39 28 1b 3f e0 52 7a 3e 49 6b c7 3e 56 6a af 3d
       0.6060825 0.24445677 0.3894904 0.08565204
0002b0 7e 5a d2 3f 7d ab d9 3d af f5 a0 3f a1 57 50 3f
       1.6433866 0.10628412 1.2574977 0.8138371
0002c0 6d 47 f2 3e 7d 5f f2 3e 3e b7 fb be de be 36 3e
       0.4732012 0.47338477 -0.4916324 0.17846248
0002d0 90 78 0e 3f a0 5b 71 bd 36 d5 5b bf e2 34 48 3f
       0.55652714 -0.05892527 -0.8587221 0.7820569
0002e0 cb 87 6a 3e f4 60 5a 3f d7 bc 5e 3f e5 28 39 3f
       0.22903363 0.8530419 0.87006897 0.72328025
0002f0 a8 7c d7 3e 3c c5 68 3f 31 f1 4c 3e a2 72 ac 3e
       0.42087293 0.90925956 0.20013882 0.33681208
000300 8b 27 cb 3e 9d 66 ae 3e a6 f5 5d bf ff 1c 91 3e
       0.39678606 0.34062663 -0.86702955 0.28342435
000310 ae 1d 00 3f 37 40 00 bf 5c a5 2f bf 5e 9e f3 3e
       0.5004529 -0.50097984 -0.68611693 0.47581762
000320 22 3a 88 3f 65 4f 32 3e 9f 3c bc 3e 5e d1 15 3f
       1.0642741 0.17413099 0.36765 0.58522594
000330 23 5e 38 bf f7 ee a4 3e c8 c8 57 3f 76 2a 44 3f
       -0.7201864 0.32213566 0.8429074 0.7662729
000340 b8 54 99 3f b4 0c f3 3e a1 f1 1f 3e 01 d1 b7 3e
       1.1978979 0.4747063 0.15619518 0.35901645
000350 97 10 b0 3f 39 04 93 3e 0f 7f 0f bf ac b5 d1 bd
       1.3755063 0.2871416 -0.5605325 -0.10239729
000360 b3 65 c4 3e a9 6d 1c bf 12 ac 10 3f 36 0d 0e 3f
       0.3835884 -0.6110483 0.5651256 0.5548891
000370 c5 9d f2 3e 35 1d 8c bf c6 00 5e 3e 3a 2d 8c 3c
       0.47385994 -1.0946413 0.21679983 0.01711141
000380 ec 78 8d 3e 74 64 f0 3e 94 17 f7 be 99 a6 0c 3f
       0.2763132 0.4695164 -0.48260176 0.5494171
000390 e1 89 12 3f c6 c5 50 3f 1f 1e 36 3f 2c 18 4d 3e
       0.57241637 0.8155178 0.7113971 0.20028752
0003a0 f1 44 1f be c8 12 6c 3e b2 5d 00 bf 67 be 46 3f
       -0.15553643 0.2305404 -0.5014297 0.7763428
0003b0 39 19 eb 3e b1 d8 9b 3e 97 cd 6b 3e 7d 73 09 3f
       0.4591768 0.3043876 0.23027645 0.53691846
0003c0 a8 15 d3 3f 7f 3f 9c 3f 5e 20 54 3e 4c 2a 5a 3f
       1.6490984 1.2206877 0.20715472 0.8522079
0003d0 66 d3 7b 3e 89 7b f4 3e 11 c1 0f 3e 4d c9 91 3e
       0.24592361 0.477505 0.14038493 0.28473893
0003e0 6f 22 11 bf 61 20 60 3f 1f 65 ab 3d 8f 04 88 3e
       -0.56693166 0.87549406 0.08368897 0.26565978
0003f0 90 2d 75 3f 94 3c db 3e 40 01 14 bf 73 b4 22 bf
       0.9577265 0.42819655 -0.5781441 -0.63556594

linear2.bias f4 [256]
000000 bc 58 e1 3e 23 2f c4 3b 34 fe d8 3d 2c 5c d2 3e
       0.4401301 0.0059870644 0.105953604 0.41085947
000010 c8 f7 64 3e f3 22 a0 3e 51 93 b0 3d d8 cd e0 3d
       0.22360146 0.31276664 0.086218484 0.109767616
000020 14 18 3b 3e c3 f5 c0 3e 87 69 20 3e 09 51 e4 3e
       0.18270904 0.376875 0.15665255 0.44593075
000030 3f 71 ed 3d 53 41 27 bd 88 6a 8a 3e 6b e5 7f 3e
       0.115938656 -0.040833782 0.27034402 0.2498986
000040 21 79 60 3f 7e b2 0f bb 13 d3 33 3e be ea 87 3e
       0.8768483 -0.0021926458 0.17560987 0.26546282
000050 96 ef f0 3e b1 f9 d6 3e 4b 05 8b 3f bb 27 a3 3c
       0.4705779 0.41987374 1.086099 0.019916406
000060 c4 4d e2 3e 97 f9 ae 3e 38 42 93 3e a0 36 24 3e
       0.44199955 0.34174797 0.28761458 0.16036463
000070 05 c2 ad 3e c0 14 ed 3d 4e 8a 08 3e 05 06 8a 3e
       0.33937088 0.115762234 0.13334009 0.26957718
000080 21 5e be 3e 07 65 b7 3d a8 0a c9 3d 7d 57 a9 3e
       0.3718119 0.08954816 0.09816486 0.3307456
000090 46 fe e2 3e ef 6e 8c 3f e3 0b b6 3e 45 74 9b 3d
       0.4433462 1.0971354 0.35555944 0.07590536
0000a0 ac 20 f7 3e 42 22 23 3e e5 25 ba 3e 4a 46 85 3e
       0.48267114 0.15931037 0.36357036 0.2603019
0000b0 74 ba a3 3e 7c 42 d4 3e 8c cc b2 3e c3 d3 a1 3d
       0.3197819 0.41456974 0.34921682 0.079017185
0000c0 cd ac 1b 3e 7c 34 3e 3d 4c bb 83 3e ed 70 b6 3e
       0.15202637 0.04643677 0.25728834 0.3563303
0000d0 41 e0 9d bd 69 bb a4 3e 95 bc c4 3e cd fd 29 3e
       -0.07708789 0.32174233 0.38425127 0.16600724
0000e0 a9 ef ba 3e 5c fb 47 be d0 60 63 3e d0 1d d0 3e
       0.3651097 -0.1952948 0.222049 0.40647745
0000f0 7b 44 eb 3d 8d 65 21 3e cd 88 dd 3e ad 5b b5 3e
       0.11487671 0.15761395 0.43268433 0.35421506
000100 59 32 61 3e a9 e6 06 3e db 67 1c bd 22 9f c5 3e
       0.21991862 0.13173927 -0.03818498 0.3859797
000110 88 44 5b 3e d3 9f 1e 3e e0 b5 d6 3e 42 40 db 3e
       0.21412861 0.15490656 0.41935635 0.42822462
000120 92 f6 06 3f a7 c6 06 3e f3 b8 12 3e 61 2d ab 3e
       0.52719986 0.13161717 0.14328365 0.3343306
000130 83 d4 c7 3d 0e 2e 38 bd 6f 25 a4 3e 06 95 87 3e
       0.0975733 -0.044965796 0.3205981 0.26480883
000140 30 22 30 3e ad 6d 85 3d 1b 2c 62 3d ec e0 47 3e
       0.17200541 0.065150596 0.055217844 0.19519395
000150 a7 e4 c4 3e 1b 7c 04 3e 77 1b c5 3e b4 fb 8c 3d
       0.38455698 0.12937967 0.38497517 0.06883946
000160 de ed a7 3c 7e aa 87 3f 11 54 ce 3e 00 a8 1b 3e
       0.020499166 1.0598905 0.40298513 0.15200806
000170 60 2a 28 3e db 3e 5b 3e ed 96 23 3e 1a 23 fb 3e
       0.16422415 0.21410696 0.15975542 0.49050218
000180 03 32 69 3f bd 85 fa 3e 3d 58 48 3d 7a dc 82 3e
       0.91091937 0.4893016 0.048912276 0.25558835
000190 98 0d 9d 3e 06 32 47 3e c9 af e0 3e 09 81 03 3e
       0.30674434 0.19452676 0.43884113 0.12842192
0001a0 c5 ee 76 3f 71 e2 0c 3e bb 4b c2 3e 9e f0 45 3e
       0.96458083 0.13758256 0.37948403 0.1933007
0001b0 fb 8a 39 3e e9 92 c8 3e 4c 09 f3 3d 3c 4a 2a 3e
       0.18119423 0.39174584 0.118670076 0.1662988
0001c0 ac 69 d7 3e 49 34 ad 3e dd 3b be 3d 43 43 ed 3e
       0.4207281 0.33828953 0.09288762 0.4634038
0001d0 1f 59 44 3d 87 2d cd 3e e2 e1 af 3e a9 ea d5 3d
       0.047936555 0.40073797 0.34352022 0.104451485
0001e0 4d 42 f2 3e 9d 6e d8 3e d7 9d c4 3e e7 fe d9 3d
       0.47316208 0.4227189 0.38401672 0.10644322
0001f0 70 85 10 3e 51 62 7b 3e aa d6 c9 3e d6 be 52 3d
       0.14113402 0.24549223 0.39421588 0.051451527
000200 4c b2 2b 3e 2a 0c c1 3e 3c ea 23 3e 18 ba f7 3d
       0.16767234 0.37704593 0.16007322 0.120960414
000210 1e 36 8e 3d 65 b8 72 3e d6 a3 29 3e 5e 65 cc 3e
       0.06943916 0.23703153 0.16566405 0.39921087
000220 f7 1e 3a 3d 8f 90 d4 3d b4 6e c5 3e 83 7c 48 3e
       0.045439687 0.10379135 0.38561022 0.19578747
000230 28 c9 ba 3e 2c ce d1 3e 8d 92 84 3e fb 64 8f 3e
       0.36481595 0.4097761 0.2589306 0.2800673
000240 07 84 96 3e 97 82 e4 3e 4a 7b 47 3e 39 d0 b7 3e
       0.29397604 0.44630882 0.19480625 0.3590105
000250 e1 15 04 3f 5a e3 c3 3e 5e ab 32 bc cc 6d dd 3e
       0.51595885 0.38259393 -0.010905115 0.4324783
000260 9c bd 8e 3e 67 47 cc 3e 22 d5 bb 3e dd 13 92 3e
       0.27879035 0.39898226 0.36686045 0.2853078
000270 a3 e8 68 3d 6c 59 4d 3e 7c 25 a3 3d fa dd 93 3d
       0.056862485 0.20053643 0.07966134 0.07220073
000280 e7 9e bd 3e 80 c4 d4 3e 8f 37 08 3e ff 19 16 3e
       0.37035295 0.41556168 0.13302444 0.14658354
000290 49 75 c4 3e 37 2a 1e 3e 49 db f6 3c 1c 23 cf 3e
       0.3837073 0.15445791 0.03013386 0.40456474
0002a0 6d 90 20 3e cd 93 9e 3c ff 26 ae 3e d6 c4 82 3e
       0.15680094 0.019357586 0.34014127 0.255408
0002b0 ec 04 56 3c 6b 42 53 3f 1e ab 79 bc d8 2c 78 3e
       0.013062697 0.8252322 -0.015238551 0.24235857
0002c0 c3 ba d1 3e 63 39 bd 3e 13 12 42 3e 16 d4 ad 3e
       0.409628 0.36957845 0.18952207 0.3395087
0002d0 1b 7d 99 3e 20 9c 37 3d 12 25 c8 3e c5 fd 87 3d
       0.2997826 0.044826627 0.39090782 0.066401996
0002e0 aa 35 9f 3e 86 da e1 b8 db a8 c7 3e 7c 28 e8 3e
       0.3109563 -0.00010769539 0.38996014 0.45343387
0002f0 c6 ba c9 3e 71 ca 8a 3e a5 20 ed 3e 3c c0 06 3e
       0.3940031 0.27107576 0.46313968 0.13159269
000300 02 ad eb bc 50 81 e0 3e c2 cc 86 3e 7f 65 d3 3e
       -0.02876902 0.43848658 0.26328093 0.41288373
000310 64 73 b6 3e bd 42 d8 3e 70 44 b3 3e cd 56 a2 3e
       0.3563491 0.42238417 0.3501315 0.3170685
000320 e2 7e bc 3e f0 8b 4d 3e 14 55 14 3e a9 91 d8 3e
       0.36815554 0.20072913 0.1448558 0.4229863
000330 18 13 8e 3d df 68 ce 3e f4 87 8c 3e 6f a1 ce 3e
       0.069372356 0.40314385 0.27447474 0.4035754
000340 c5 ac dd 3e 18 84 e3 3e 2f f0 a1 3d 6c 9e d6 3e
       0.43295875 0.44436717 0.079071395 0.4191774
000350 d5 bf d5 3e 55 8b a0 3e bf 2c ae 3e 29 31 40 3e
       0.4174792 0.31356302 0.34018514 0.18768753
000360 b3 dd c1 3e 39 f9 aa 3e b9 4c e5 3e 25 46 5f 3e
       0.37864456 0.33393267 0.44785097 0.21804102
000370 51 04 c4 3e 7b 24 c6 3e 40 f7 cb 3e d9 1d 61 3f
       0.38284543 0.38699707 0.39837074 0.8793617
000380 0c 91 20 3e da 45 b0 3e 61 7e b6 bb 06 ea 8b 3e
       0.15680331 0.34428293 -0.0055692648 0.27326983
000390 3c 88 f7 3d 01 4d ac 3e 98 58 b8 3e f1 15 2a 3e
       0.120865315 0.336525 0.36005092 0.16609932
0003a0 ff 7e 7b bd 68 c8 72 3d b0 5f 17 3e 92 88 4d 3d
       -0.06140041 0.059273154 0.14782596 0.05017907
0003b0 be 9b b3 3e 00 e3 95 3e 5e ea b9 3e 80 7d d8 3e
       0.3507976 0.2927475 0.3631162 0.4228325
0003c0 b3 97 d9 3e 7d 0b 55 3e d2 66 b8 3e b2 5c e3 3e
       0.4249855 0.20805164 0.36015946 0.44406658
0003d0 41 ac ab 3e ea a5 dd 3e 20 2d bd 3e 77 04 70 3e
       0.33529857 0.43290645 0.3694849 0.23439203
0003e0 40 ef bd 3d ac 16 cb 3b 7d 85 f6 3e 95 d3 42 3e
       0.09274149 0.006197771 0.48148718 0.19026025
0003f0 25 ad df 3e 0b 61 ff 3d e7 a5 d8 3e f9 f2 78 3d
       0.43686786 0.12469681 0.42314073 0.06077859

linear3.weight f4 [1, 256]
000000 ee b7 dc bf af ed 03 c0 b8 20 e6 bf a5 e6 da bf
       -1.7243631 -2.061382 -1.7978735 -1.7101637
000010 83 5f 10 3f f9 27 cb bf 50 f0 d4 bf 84 d7 14 c0
       0.5639574 -1.5871574 -1.6635838 -2.325654
000020 c3 e6 e9 bf 9d 6b dc bf 13 f7 e3 bf 84 58 df bf
       -1.8273548 -1.7220341 -1.7809776 -1.7448888
000030 af fe c0 bf 25 ae b0 bf 86 9f c9 bf 15 70 cd bf
       -1.5077723 -1.3803145 -1.5751808 -1.604983
000040 82 e1 13 40 22 0e f0 3f 9a 6a e7 bf fa 3d c7 bf
       2.310639 1.8754313 -1.8079407 -1.5565789
000050 05 60 d6 bf 2a 59 e0 bf 78 4c b8 3f e6 11 aa bf
       -1.6748053 -1.7527211 1.4398336 -1.3286712
000060 19 7f db bf 0a 94 ca bf 0c 37 c8 bf de f1 e0 bf
       -1.7148162 -1.5826428 -1.5641799 -1.7573812
000070 58 90 c7 bf 1d 8f d6 bf 4e 74 bf bf 20 e2 c6 bf
       -1.5590925 -1.6762425 -1.4957368 -1.5537758
000080 f9 d6 d0 bf a2 e6 c3 bf 0b f4 e1 bf 9c 51 d6 bf
       -1.6315604 -1.5304759 -1.7652601 -1.6743655
000090 d9 46 d7 bf 00 33 2e 40 f0 a0 ca bf e1 eb da bf
       -1.6818496 2.7218628 -1.5830364 -1.7103235
0000a0 18 e6 e0 bf c4 79 d9 bf a0 5a db bf 01 bb d1 bf
       -1.7570219 -1.6990285 -1.7137032 -1.6385194
0000b0 a4 18 d1 bf 5d ac dd bf 7e 77 c7 bf 6c 80 cb bf
       -1.6335645 -1.7318226 -1.5583341 -1.5898566
0000c0 ad 94 e6 bf aa 6d c1 bf 97 86 d0 bf 1c 98 d9 bf
       -1.8014122 -1.5111592 -1.6291074 -1.6999545
0000d0 12 4e d5 bf eb 08 c5 bf 24 f6 d1 bf 1f 6b fd bf
       -1.666445 -1.5393347 -1.6403241 -1.9798316
0000e0 c1 11 d9 bf 01 f5 0a c0 b4 aa e0 bf 50 28 d6 bf
       -1.6958543 -2.1712039 -1.7552094 -1.6731052
0000f0 39 e6 e2 bf 45 84 e2 bf c9 b0 d1 bf ae ad cf bf
       -1.7726508 -1.7696615 -1.6382076 -1.6224878
000100 35 52 ce bf 96 43 e8 bf 60 13 ac 3a 4f 98 df bf
       -1.6118838 -1.8145626 0.0013128333 -1.7468356
000110 d5 ca d6 bf 23 b1 d5 bf ed b4 d4 bf c4 f1 d4 bf
       -1.678065 -1.6694683 -1.6617714 -1.6636281
000120 b7 a4 e3 bf 49 a1 05 c0 9c 99 e8 bf 86 47 d5 bf
       -1.7784642 -2.087969 -1.8171878 -1.6662452
000130 c0 62 b8 bf 46 09 3d c0 1c 41 cc bf 78 7f c8 bf
       -1.4405136 -2.953691 -1.595737 -1.56639
000140 76 51 e6 bf c0 de 12 c0 52 00 c3 bf 34 9e d0 bf
       -1.799361 -2.2948456 -1.5234473 -1.629828
000150 f8 52 cf bf ea 04 e4 bf 66 32 e1 bf 89 00 c4 bf
       -1.6197195 -1.7814 -1.7593505 -1.5312663
000160 cd 9e a0 bf 82 53 e6 3f f2 e3 d8 bf c0 79 cc bf
       -1.2548462 1.7994235 -1.6944563 -1.5974655
000170 f9 b9 f6 bf f0 68 d3 bf 86 71 e9 bf 20 14 e9 bf
       -1.9275504 -1.6516399 -1.823777 -1.8209267
000180 ed a6 0a 40 20 a3 e0 bf 98 99 1c c0 2b 42 cb bf
       2.1664383 -1.7549782 -2.4468746 -1.5879568
000190 f5 2d ce bf b6 69 fd bf d6 58 d7 bf c7 3d e4 bf
       -1.6107775 -1.9797885 -1.6823986 -1.7831353
0001a0 e7 8a 43 40 cb c5 e5 bf 25 f5 de bf af d3 e5 bf
       3.055353 -1.7950987 -1.7418562 -1.7955226
0001b0 e1 d9 ea bf 1f 28 d8 bf 75 12 d6 bf 56 85 e4 bf
       -1.8347741 -1.6887244 -1.6724383 -1.7853191
0001c0 2c e6 d1 bf 22 4f cf bf 62 12 e8 bf 56 01 db bf
       -1.6398368 -1.6196024 -1.813061 -1.7109783
0001d0 45 43 0a c0 3e be cf bf c4 e5 d5 bf fc f2 08 c0
       -2.1603558 -1.6229932 -1.6710744 -2.1398306
0001e0 6f e8 ed bf 87 7e cd bf ae d7 d1 bf 4a 32 e2 bf
       -1.8586558 -1.6054238 -1.6393945 -1.7671597
0001f0 d2 41 08 c0 65 d7 cc bf 3c 51 db bf a9 81 01 c0
       -2.1290174 -1.6003233 -1.7134166 -2.0235388
000200 ea a2 d3 bf 14 48 e0 bf 44 e3 e9 bf 37 3c 07 c0
       -1.6534092 -1.7521996 -1.8272481 -2.1130502
000210 90 88 04 c0 97 b8 d3 bf fe 25 ce bf 29 96 e0 bf
       -2.070835 -1.6540707 -1.6105344 -1.7545825
000220 6e c5 03 c0 dd 02 bf bf ea 54 ca bf d8 86 f0 bf
       -2.0589252 -1.4922749 -1.5807164 -1.8791151
000230 74 d5 c7 bf 16 ad d6 bf 51 66 ca bf d7 21 ce bf
       -1.5612016 -1.6771572 -1.5812474 -1.6104077
000240 88 d9 cd bf 0b a9 d9 bf 08 b3 f5 bf 4b f0 d3 bf
       -1.608201 -1.7004713 -1.9195261 -1.6557707
000250 c0 ab db bf de 84 d1 bf 1f 9a a6 bf 9b e9 d5 bf
       -1.7161789 -1.6368673 -1.3015784 -1.6711916
000260 f2 4e cd bf c8 f3 de bf f9 07 ce bf 6b 43 c5 bf
       -1.6039717 -1.7418146 -1.6096183 -1.5411199
000270 b9 da 03 c0 1d 43 e1 bf 13 59 c1 bf eb ba 04 c0
       -2.0602248 -1.7598606 -1.5105308 -2.0739086
000280 db 43 d1 bf 94 9c d4 bf 60 8e cd bf 1d ef cb bf
       -1.6348833 -1.6610284 -1.6059074 -1.5932347
000290 51 da d6 bf b0 07 e3 bf 65 2b 10 c0 f3 84 d8 bf
       -1.6785375 -1.7736721 -2.2526486 -1.6915573
0002a0 06 f6 d2 bf ab 93 30 3a e5 2c c8 bf 38 e4 d4 bf
       -1.648133 0.00067358714 -1.5638701 -1.6632147
0002b0 6c d5 0f 3e a9 f1 12 40 0e 4d a2 ba 22 fd cc bf
       0.14046258 2.2959998 -0.0012382583 -1.601475
0002c0 93 95 d6 bf ee 85 d6 bf 2e 4e d3 bf 6d 00 d2 bf
       -1.6764396 -1.6759622 -1.6508234 -1.640638
0002d0 dc b2 c9 bf 62 37 09 c0 b5 ef d0 bf 7f b3 06 c0
       -1.5757709 -2.1440053 -1.6323153 -2.1047056
0002e0 94 7f ca bf 1f 64 06 c0 65 42 e3 bf d6 ec dc bf
       -1.5820184 -2.099861 -1.7754637 -1.7259777
0002f0 67 6c dc bf bd 39 ce bf 61 fa dc bf 1b ba e8 bf
       -1.7220582 -1.611137 -1.726391 -1.8181795
000300 00 63 b4 bf da cc dc bf e4 3e ca bf 10 56 d7 bf
       -1.4092712 -1.7250016 -1.5800443 -1.6823139
000310 b4 d2 da bf aa 61 d4 bf d5 7a ca bf 69 ba ca bf
       -1.7095551 -1.6592305 -1.5818735 -1.5838138
000320 b5 5e d9 bf 34 f7 df bf 23 2e e7 bf c5 18 df bf
       -1.6982027 -1.7497315 -1.8060955 -1.7429434
000330 b2 7e c5 bf 50 e7 d6 bf c6 3a cf bf 58 c0 cf bf
       -1.5429289 -1.6789341 -1.6189811 -1.6230574
000340 76 59 d8 bf 6d 5f de bf 79 c2 06 c0 a6 8b d1 bf
       -1.6902301 -1.7372872 -2.1056197 -1.6370742
000350 fe cc d7 bf 7a 9b d0 bf 29 93 cf bf 4a f8 e6 bf
       -1.6859434 -1.6297448 -1.6216785 -1.8044522
000360 ec 63 ca bf a9 75 d0 bf 79 a6 d8 bf 1a 3d d5 bf
       -1.5811744 -1.6285907 -1.6925803 -1.6659272
000370 e6 5b d7 bf 46 f7 d1 bf a6 f5 db bf c0 4e 13 40
       -1.682492 -1.6403587 -1.7184341 2.3016815
000380 d1 ae d6 bf ad aa d7 bf ac 70 05 c0 38 95 cc bf
       -1.67721 -1.6848961 -2.085002 -1.5983038
000390 e0 29 e9 bf 72 3f cc bf 74 17 c9 bf 71 e3 d4 bf
       -1.8215904 -1.5956862 -1.5710282 -1.663191
0003a0 58 ff 9e ba 34 1e 06 c0 1b 25 02 c0 82 01 62 b9
       -0.0012130542 -2.0955935 -2.0335147 -0.00021553601
0003b0 df 63 ce bf 25 3a cb bf 04 d3 d5 bf f4 bd da bf
       -1.6124228 -1.5877119 -1.6705022 -1.7089219
0003c0 46 a3 f4 bf 79 90 e4 bf 4d 3b d1 bf e2 f9 dd bf
       -1.9112327 -1.785659 -1.6346222 -1.7341883
0003d0 cc 17 d5 bf 6b fd d6 bf 07 78 d0 bf 9e b3 c7 bf
       -1.6647887 -1.6796087 -1.628663 -1.560169
0003e0 d8 1d c2 bf 29 dd 9f bf f5 a3 df bf b4 19 e6 bf
       -1.5165358 -1.2489368 -1.7471911 -1.7976594
0003f0 1d 9a dd bf 77 f9 c0 bf e2 5f d6 bf e6 71 06 c0
       -1.7312657 -1.5076131 -1.6748011 -2.1007018
