testing/scripts/outputs/DDPG_Env/20221213-030633/models/1320actor_checkpoint.pt (torch, 281431 bytes, 5 tensors)

linear1.weight f4 [256, 14]
000000 ac df b4 bc 30 b7 cc 3d e7 b7 85 3e ce c7 b7 bd
       -0.022079311 0.09995878 0.2611687 -0.089736566
000010 87 cd 61 3e d3 49 06 3e c5 0c ae 3e 3c 8f b5 3e
       0.22051059 0.13114099 0.33994117 0.35460842
000020 8f ea 0f be d4 1f 52 3e 2e 4f 81 bd 41 08 e4 3c
       -0.14054321 0.20519954 -0.063139305 0.027835967
000030 fe 73 ab bd ed 89 0b 3e 26 c3 0d bd e6 93 dc 3d
       -0.08371733 0.13626833 -0.034609936 0.10770397
000040 5a 2f 44 3e dd 18 79 3d b6 c9 06 bd 5b 01 94 be
       0.19158688 0.060814727 -0.03290721 -0.28907284
000050 29 f3 cb bd da 9d 68 3e ed c4 94 3e c1 58 ab 3e
       -0.099584885 0.22716466 0.29056492 0.3346615
000060 0b 4c e1 bd 88 d1 82 3e 51 2c 12 3e 69 4a b3 3e
       -0.11000832 0.25550485 0.14274718 0.35017708
000070 a5 f3 5e 3e cd 43 ce 3d 6f 24 8a be 65 e6 67 be
       0.2177263 0.10071526 -0.26980922 -0.22646482
000080 4b 13 23 3e 26 7c 29 be 62 54 0b be 4c a1 0c 3e
       0.15925328 -0.16551265 -0.13606408 0.13733405
000090 1e a2 ed bd 2f 10 9c 3d 94 ec 7c be 88 61 37 3e
       -0.11603187 0.07620274 -0.24699622 0.17908299
0000a0 cc 23 c1 bd e0 5d 33 be cf 9c 4f be 77 fd 09 3e
       -0.09430656 -0.17516279 -0.20274661 0.13475595
0000b0 03 68 b4 3e b5 55 51 3e d1 56 2b 3e 2b 45 86 3e
       0.35235605 0.20442851 0.16732337 0.26224646
0000c0 52 e9 9c 3d c4 0e dd 3d 9c 3a 7f 3e 64 9c 7c be
       0.0766169 0.10793832 0.24924701 -0.24669033
0000d0 6e f9 0e 3d 27 10 06 3e b3 60 97 3d 55 77 92 3e
       0.034905843 0.13092099 0.07391491 0.28606668
0000e0 b1 dc 79 be 6f 6d b3 3d eb 67 12 3e bb 4c 29 bd
       -0.24400593 0.08761107 0.14297454 -0.04133294
0000f0 62 46 c8 bc 9c fb 78 be a5 a8 62 3e 3e 28 fa 3d
       -0.024447624 -0.24314731 0.22134645 0.12214707
000100 22 6e 35 be 6a 82 3e be a2 29 3d be 19 86 8c 3e
       -0.17717794 -0.18604437 -0.18472913 0.27446058
000110 e4 1a 1c 3e 4c 1f bf 3d 01 32 f1 3c f5 52 73 3d
       0.15244633 0.09332141 0.029442789 0.059405286
000120 0a 23 98 3e a9 aa 58 bd b4 9c d1 bd 1c 12 44 3d
       0.29714233 -0.05289713 -0.10234967 0.047868833
000130 3e 7d 9f 3d cb 86 f6 bc f2 74 0a 3e b7 1b 44 be
       0.0778756 -0.030093571 0.13521174 -0.19151197
000140 98 6b a9 3d f4 68 9e 3d af b0 73 3e 70 06 9e 3c
       0.08272475 0.07734862 0.23797868 0.019290179
000150 53 f9 85 3e bf 5c ad bb 9f 39 27 be fe 40 7f 3e
       0.26166782 -0.005290597 -0.16330574 0.24927136
000160 a3 b5 f2 3d 8c 15 b9 bd 3e 38 bf 3d 89 a7 22 be
       0.11851051 -0.09037313 0.09336899 -0.15884222
000170 80 ae a6 bb a5 f9 94 3e c0 2c 3d 3e d6 6a e1 bd
       -0.00508672 0.29096714 0.18474102 -0.110067055
000180 37 1a 38 3e 10 e9 5e 3d d8 8f 83 3e fe c4 5c be
       0.1797875 0.054421484 0.25695682 -0.21559522
000190 b2 91 f9 bd c9 e3 05 3e 07 35 a1 bd 0d ae 63 3e
       -0.12185992 0.13075174 -0.07871442 0.22234364
0001a0 6f d2 13 3e 0d 3e 8f 3d c2 4a 16 3e 60 59 52 3d
       0.14435743 0.06994257 0.14676955 0.051354766
0001b0 70 ce 33 bb 13 7a 36 3e 10 f7 94 bc 21 13 73 be
       -0.0027436279 0.17820005 -0.018184215 -0.23737766
0001c0 d9 02 3e 3e 3d 90 2b be fa e5 06 bf 0a 8f b6 be
       0.18555774 -0.16754241 -0.52694666 -0.35656005
0001d0 57 41 8f 3d 9a 2e 54 3e 00 89 93 be ff ab a1 be
       0.069948845 0.20720902 -0.2881546 -0.31576535
0001e0 c8 6e b8 bd 37 46 4a 3e 29 bd a3 bb 89 73 45 be
       -0.09005505 0.19753347 -0.004996915 -0.19282354
0001f0 6e 97 e8 3d 9d 19 8e bd 52 37 42 bd 45 c9 47 3e
       0.11357008 -0.06938479 -0.04741604 0.19510372
000200 7f 74 89 3d b4 13 23 ba 53 f0 0f be f3 20 80 be
       0.06711673 -0.00062208925 -0.1405652 -0.25025138
000210 45 9d b7 3d b4 89 a5 bd 81 0c a8 3e 20 cf 4e be
       0.08965544 -0.080829054 0.3282204 -0.201962
000220 76 74 dc bd b1 e7 6a 3e f0 b3 f1 3d 8e b5 82 3e
       -0.10764401 0.22939946 0.118018985 0.2552914
000230 b1 db 29 be 40 63 9c 3e 8a 60 41 3e 39 ce 96 bc
       -0.16587712 0.30544472 0.18884483 -0.018408882
000240 4d 4b 53 3e 34 36 33 3e bd 2b 2d 3e 56 84 02 bc
       0.20634194 0.17501146 0.16911216 -0.007966122
000250 33 0e ce bc 99 d4 cd bd d5 f3 4e be 5d 3b 82 bd
       -0.025153255 -0.100503154 -0.20210202 -0.06358979
000260 b8 15 cd 3c 78 82 d5 bd 46 47 9a 3d 74 83 26 bd
       0.02503477 -0.104252756 0.075331256 -0.040652707
000270 ae 25 50 3e d3 f3 7a 3e 71 f5 a0 3e d7 fd 88 bd
       0.20326874 0.24507074 0.31437257 -0.06689041
000280 38 b0 d0 bd 24 f5 55 3e 86 f4 57 be a2 f7 84 3d
       -0.10189861 0.20894295 -0.21089372 0.06492545
000290 33 49 38 be 87 58 8f bd e3 ab 68 be c1 4b 1e bd
       -0.17996673 -0.06999307 -0.2272182 -0.038646463
0002a0 f1 5d a2 3e a7 49 8f bd ad a0 4c be e6 22 55 be
       0.31712297 -0.0699647 -0.19983168 -0.20814094
0002b0 a5 94 62 3e 41 a2 7d 3e b8 f8 a4 3d 48 a7 a1 bd
       0.22127016 0.24768926 0.08055252 -0.078932345
0002c0 c8 be 21 3d eb c6 8f 3e db c4 c6 bd 75 98 41 bd
       0.039488584 0.2808145 -0.09705516 -0.047264535
0002d0 79 e0 0f be 05 27 97 3e 50 10 71 be 03 7e d1 3d
       -0.14050473 0.29521957 -0.23541379 0.10229113
0002e0 f1 99 36 3c 6e c2 7f 3e 98 9d 44 3d ca ed 41 be
       0.011145101 0.24976513 0.048001856 -0.18938366
0002f0 1f 59 02 39 81 bc a1 3e 6b f8 84 3e a5 24 90 be
       0.00012430966 0.3158913 0.25970778 -0.28152958
000300 56 bd db 3d bf 6f df 3d e3 5a 59 bd a3 13 8a 3e
       0.10729472 0.10909986 -0.053065192 0.26968107
000310 e9 69 44 ba 45 d9 7d 3b 37 ab 96 3e 22 8f eb bd
       -0.00074925885 0.003873424 0.29427502 -0.1150191
000320 06 98 02 3d 49 92 50 3e bd 83 f7 bc 84 4c 8b bd
       0.031883262 0.20368303 -0.030214185 -0.068017036
000330 e6 22 6f be 71 a5 24 be bf 16 4a 3d 58 30 6c ba
       -0.23353156 -0.16078736 0.0493381 -0.00090098893
000340 ca 40 3b be 2f 95 08 bc 80 e9 70 3e b9 f9 27 be
       -0.18286434 -0.008336349 0.23526573 -0.16403855
000350 48 93 a9 b9 70 7d d6 3d 05 dc e0 3d cf 27 66 3e
       -0.00032343925 0.10473144 0.109794654 0.22476123
000360 e9 67 2c be 05 4e a0 3e 23 cc 69 3d 25 29 69 3e
       -0.16836514 0.31309524 0.057079446 0.22769602
000370 17 4d 82 be 97 5c 6d be 79 77 fc bd 5f be 20 3e
       -0.2544944 -0.23179851 -0.12327475 0.15697621
000380 c2 6f 21 3e 0b 4f a1 bd 94 29 5e bc 08 32 4b be
       0.15765288 -0.078764044 -0.013559718 -0.19843304
000390 3d d3 2a be 9c d0 82 3d 7a 63 0d be 03 5d 61 be
       -0.16682144 0.06387445 -0.13807479 -0.22008137
0003a0 e3 a0 58 bd ea 47 05 3e 87 61 76 3e f6 44 a9 bd
       -0.05288781 0.13015714 0.24060641 -0.082651064
0003b0 c4 e6 4c bd fb fe 9d bd a2 1d df bd 7e e1 07 be
       -0.050024763 -0.07714649 -0.10894324 -0.13269612
0003c0 c4 ef 82 be 5b 32 7b be b0 a8 3d 3e 41 de 28 3e
       -0.25573552 -0.24530928 0.1852138 0.16491033
0003d0 db 06 e2 3d 49 5e 4c be 01 41 18 3d 11 ac 0a 3e
       0.11036464 -0.19957842 0.037171368 0.135422
0003e0 1e 74 21 bc b3 c0 6c 3e e2 4b 69 3c 0a 8f b3 3d
       -0.009854345 0.23120384 0.014239283 0.08767517
0003f0 05 60 0e bd 88 73 2e 3d 67 ab 68 be 76 eb a3 be
       -0.03475954 0.042590648 -0.22721635 -0.3201558

linear1.bias f4 [256]
000000 9d c1 32 be 7e 1f d5 bd 95 6b df bd 10 65 80 be
       -0.1745667 -0.10406397 -0.109091915 -0.25077105
000010 1b b3 8b 3e 54 ca 17 3d 1a 1c 83 3c 07 51 b4 3d
       0.27285084 0.03705819 0.01600461 0.08804517
000020 03 a1 a8 3d 17 e6 b9 bd a6 74 24 3e 31 00 9b 3e
       0.082338355 -0.09077089 0.16060123 0.30273584
000030 98 83 43 3d df 20 64 3e 87 2f 7e bd 65 1e 7d be
       0.04773292 0.22278164 -0.062057044 -0.24718626
000040 9f ca 8d bc 68 67 61 3e 21 a7 24 be b1 b9 50 3e
       -0.017308531 0.22012103 -0.1607938 0.20383336
000050 48 2b 2f 3e 53 e3 30 bd 83 fe 12 be bb 50 3a 3e
       0.17106354 -0.043185543 -0.14354901 0.18194859
000060 f6 7a c9 3b 4d d0 19 3e 53 2b 0a be 7f 47 08 be
       0.0061486913 0.15020867 -0.1349309 -0.13308524
000070 3f 75 09 3e 92 c5 05 3e 1f 44 df 3d 97 9e 6a be
       0.13423632 0.13063648 0.10901665 -0.2291206
000080 16 1f 07 bc d8 52 a5 3e 06 1f 8b 3e 9a 6a e9 3c
       -0.008247158 0.32289767 0.27172107 0.028493214
000090 ec c1 57 be 2c 1a 40 be 86 9d 41 3e d3 96 11 3d
       -0.21070069 -0.18759984 0.18907747 0.035544228
0000a0 5f d8 0c 3e 9f dc bd 3d 32 2e 32 3e 14 d3 32 be
       0.13754414 0.09270596 0.17400435 -0.17463332
0000b0 aa 41 38 3e 7e a1 b2 bd 04 a2 d5 bd f1 bd 2d be
       0.17993799 -0.087222084 -0.10431293 -0.16966988
0000c0 36 3c 93 3e f6 78 21 be 80 98 5a bd aa e0 84 3d
       0.28756875 -0.15768799 -0.05336809 0.06488164
0000d0 b0 1f 2a be 8b 99 eb 3c f1 2b 0c bd ca f6 ce bd
       -0.1661365 0.028759738 -0.034221593 -0.10105665
0000e0 a5 10 e5 bd f1 2e 5c be 62 2d 9a bd e7 bc 3b 3e
       -0.11184815 -0.21502282 -0.07528187 0.1833378
0000f0 42 92 68 3e 69 4f 91 3c e8 b4 56 3c 08 e1 dd bc
       0.22712043 0.017738061 0.013104655 -0.027084842
000100 69 e9 75 3e 77 0f 7b 3e 97 e7 1a 3e 2e 5b ca bd
       0.2401482 0.24517618 0.15127407 -0.098806724
000110 45 a0 5a 3e 42 6c 35 3e f5 8e 6c 3e 7e da a1 bd
       0.213502 0.17717078 0.23101409 -0.07903002
000120 fc 63 3e be fe 61 01 3d d8 bc 5f be 1d 16 5e 3e
       -0.18592829 0.031587593 -0.21849382 0.21688123
000130 17 81 92 bc 5b 23 93 3d b6 0c 98 3e 5c dc 1c be
       -0.01788382 0.07184478 0.29697198 -0.15318435
000140 96 5e 5c 3e 60 71 ac bc fb 23 3a be 87 28 5f 3e
       0.21520457 -0.021050155 -0.18177788 0.21792804
000150 a8 fd 7d 3e b2 13 99 bd 97 61 b5 3d c7 11 78 be
       0.24803793 -0.0747446 0.088565044 -0.24225532
000160 b5 67 71 3e 50 a3 2f 3e 47 d7 a0 bd 29 3a 64 3e
       0.23574717 0.17152143 -0.07853561 0.22287811
000170 01 51 1d 3d 60 dc 71 3e 89 6c 27 be ce b9 63 3e
       0.03840733 0.23619223 -0.16349997 0.22238848
000180 c9 1f c9 3d ab d5 40 3e 65 a3 60 bd 53 8a 70 3e
       0.09820516 0.18831508 -0.054843325 0.23490267
000190 a8 6e 0e 3d ad 4e 5a 3e 33 66 cc bd 62 75 ee 3d
       0.0347735 0.21319075 -0.099804305 0.11643483
0001a0 78 7b 1f 3e 24 89 3d be 95 84 d6 bd 9b d2 b0 3d
       0.15574443 -0.18509346 -0.10474507 0.0863392
0001b0 d1 b2 83 bd f3 68 81 3d b5 1b 85 3e d6 0b a7 3d
       -0.06430591 0.063188456 0.259977 0.081565544
0001c0 a9 dc 32 be 0e 4e 32 3d 7d 27 86 3e f8 49 a0 3d
       -0.17466988 0.04353147 0.26202002 0.078266084
0001d0 35 9c fa bd 3f 2b 5b 3e 7f 57 4f 3d 40 21 11 be
       -0.122368254 0.21403216 0.050620552 -0.1417284
0001e0 8e 45 1c be 7c f8 0c be ed c5 f7 bb 28 24 5c 3e
       -0.15260908 -0.13766664 -0.0075614364 0.21498168
0001f0 f6 76 44 3e c8 bc 43 3d ac 09 02 3e 02 f4 95 3e
       0.19186005 0.047787458 0.12699002 0.29287726
000200 2d 82 5f be 65 77 1b 3e 2f 9b e2 3c 0b 13 0b be
       -0.21827002 0.15182264 0.027661888 -0.13581483
000210 56 0b 74 3e 99 07 e0 bd fc 11 c1 3b b6 a9 70 3d
       0.2383245 -0.10938949 0.0058920365 0.0587556
000220 26 36 09 be 61 4f 69 be 64 3a 89 be 0e c5 ef bd
       -0.13399562 -0.22784187 -0.2680236 -0.11707507
000230 56 02 14 3d 2a 7d 33 bd f0 a0 aa 3d b5 9f 5d bd
       0.03613504 -0.043820538 0.08331478 -0.054107387
000240 90 c9 24 bb a9 da b8 bb ad fc 37 be d7 83 12 3d
       -0.0025144555 -0.0056413007 -0.17967482 0.035770264
000250 cd 34 87 3e 41 78 df bd ce fe f2 3d 13 44 3b 3e
       0.2640747 -0.109116085 0.118650064 0.18287687
000260 7f 03 f5 3d d9 a2 48 3e 53 6e 1e 3e 2d 1a 09 3e
       0.119635575 0.19593371 0.15471773 0.13388892
000270 f4 6f 84 bd cd 74 66 be 5b 91 2d 3e 8f d0 72 be
       -0.06466666 -0.22505493 0.1694998 -0.23712371
000280 5a 3a c0 3b b3 7c ab bd 95 6f 61 3e f9 90 43 be
       0.005866331 -0.08373394 0.22015221 -0.19098271
000290 12 90 24 be ed 50 dc 3b d9 ce 01 be bc 1e 3d 3e
       -0.16070583 0.0067235143 -0.12676562 0.18468755
0002a0 02 cb 03 3e b5 a3 e6 bd 00 05 34 3e 15 7f 5d be
       0.1287041 -0.112616934 0.17580032 -0.21630509
0002b0 a8 8f 62 be 14 fd f3 bd 47 36 be 3d b3 39 38 bc
       -0.22125113 -0.11913505 0.09287696 -0.011244225
0002c0 9e d2 0d be f9 b4 4d be fe cb 7a 3e 16 81 07 be
       -0.13849875 -0.20088567 0.2449188 -0.13232836
0002d0 ef e0 12 3d 0b 8d 93 3c c7 27 05 be 1a 28 e4 3d
       0.035859045 0.01801159 -0.13003455 0.11140461
0002e0 4d 37 a5 3e 8f c4 34 bd e9 a6 b3 3d c4 d0 5d 3e
       0.32268754 -0.044132765 0.0877207 0.21661669
0002f0 a1 78 80 3d d4 a5 82 3e f0 69 d3 3d 4f 29 66 be
       0.06273008 0.25517142 0.1032294 -0.22476695
000300 35 b0 44 3c f9 cf a2 bc df 42 41 be 92 4b 3a 3c
       0.012004902 -0.01987456 -0.18873166 0.011370556
000310 f3 7b b6 3d 00 23 f0 3c 9e 03 cd 3c 3c e2 a4 bd
       0.0891036 0.029313564 0.025026139 -0.08050963
000320 b8 8a 5c be 84 d9 65 bd b4 e0 c7 3d 4c 79 53 be
       -0.21537292 -0.056115642 0.097596556 -0.2065174
000330 f1 b1 c4 bc f6 0e 44 be 80 d4 8d bd 75 ff 09 be
       -0.02401063 -0.19146332 -0.06925297 -0.13476355
000340 f9 78 5f 3e 69 f8 8b bd 5b 6d 97 3e f6 c3 ce bd
       0.21823491 -0.0683449 0.2957562 -0.1009597
000350 ba b0 d1 3d 04 76 e4 bc b6 15 02 3d d8 2e b9 bd
       0.10238786 -0.027888305 0.031758986 -0.09042138
000360 e4 ff 24 3d e8 88 0a 3d 40 17 e0 3d ee c3 3e 3e
       0.0402831 0.03382197 0.109419346 0.18629429
000370 8a cc a9 bd 35 84 35 3e f1 f4 8c 3d ff 9d 58 be
       -0.08290966 0.17726214 0.06882656 -0.2115402
000380 5a b6 92 3e 72 df 90 bd a8 e0 e7 3d de 67 f4 bd
       0.28654748 -0.07073869 0.11322147 -0.119338736
000390 2d c0 f2 bd 4b 31 3c 3e ee 36 66 3e 5f 24 96 3e
       -0.11853061 0.18378179 0.22481892 0.29324624
0003a0 4d 64 4f bd 86 8f bb 3d e9 07 32 3e a3 25 52 3e
       -0.050632764 0.09158234 0.1738583 0.2052217
0003b0 33 c4 a9 3e e5 7d 07 3e 6b 07 82 be ee 49 fb bc
       0.331575 0.13231619 -0.25396284 -0.0306749
0003c0 fb 6f 65 3e 07 5f e4 3c fd e1 5b 3e a9 b7 40 be
       0.22405998 0.027877344 0.21472926 -0.18820061
0003d0 d4 fa 11 be 70 e2 86 3e 52 64 c5 3c 74 7e b3 bd
       -0.1425584 0.26344633 0.024095688 -0.087643534
0003e0 bb 72 44 3e 2b a8 9e 3e 0b 13 6a 3e d7 f2 81 bd
       0.19184391 0.30987677 0.22858827 -0.06345146
0003f0 8c 3a 92 bc 14 94 fa bd 58 33 b2 3e 51 05 33 3b
       -0.017850183 -0.12235275 0.34804797 0.0027316401

linear2.weight f4 [256, 256]
000000 85 2a 2a bc 49 bc d5 3c b4 20 82 bb f8 04 9e bd
       -0.010386114 0.026090758 -0.0039711837 -0.077157915
000010 dd 20 db bc a4 e2 a0 bc 57 28 6c bc 0c 79 f6 3b
       -0.026749069 -0.01963932 -0.014413915 0.007521754
000020 b6 09 24 bd 17 c7 47 bd d4 1e 9d 3c 90 4c 97 3d
       -0.040048324 -0.04877385 0.019179739 0.0738765
000030 cf ff 8d 3d 25 8b e1 bc 1d 49 b5 3c f3 84 19 3d
       0.06933557 -0.02753217 0.02212959 0.037480306
000040 71 db 9a bd 94 fe 8e 3d 95 b8 0e bd 37 91 82 bd
       -0.075613864 0.06982151 -0.034844 -0.06375354
000050 fa 1b 2c bc 44 80 9e 3d d3 63 01 3e 6b 10 88 3d
       -0.010504717 0.077393085 0.12635736 0.066437565
000060 3a 85 d1 bc ff aa d9 bc a2 27 a7 3c 64 6a 64 3d
       -0.025576223 -0.026570795 0.02040464 0.055765525
000070 2b 2e 06 bc 7f a4 95 bd 20 6b 94 bb 22 39 b2 bd
       -0.008189718 -0.07306766 -0.004529372 -0.087023035
000080 de d7 9c bc cd 82 8b bc 4a 7d 67 3d 3c a6 df 3b
       -0.019145902 -0.017030144 0.05651597 0.0068252366
000090 15 a2 5d 3d c9 ee 6a bd 2d 58 80 3d 79 29 28 bd
       0.05410965 -0.05735663 0.06266818 -0.041055176
0000a0 71 5c 05 bd d5 17 6c 3d 3d 2b 80 3d cd 66 55 3d
       -0.032558862 0.057639915 0.06258247 0.05209999
0000b0 37 34 ae 3d 3c 21 a8 39 4a f6 38 bc 6a 85 98 3d
       0.08506053 0.0003206822 -0.011289189 0.07447322
0000c0 9b cb 20 bb 29 9d c6 bc 30 88 76 bd d1 8e 0a bd
       -0.002453542 -0.024244862 -0.060188472 -0.033827607
0000d0 0c d1 7a 3d 94 79 b9 bd 61 d3 df 3d b4 14 e8 3b
       0.06123452 -0.09056392 0.10928989 0.007082546
0000e0 ea a2 fe 3b 0e 24 d6 bd 88 79 16 bd a5 63 28 3c
       0.0077708857 -0.10456096 -0.036736995 0.010277663
0000f0 f7 48 97 3b 26 b6 c1 3c fd 03 5e 3d d3 22 d1 bc
       0.0046168524 0.023646425 0.054203022 -0.0255293
000100 f8 48 4a 3d bb df e0 ba d6 89 4d 3d 9e d6 13 bd
       0.049385995 -0.0017156521 0.05018028 -0.036093347
000110 f4 ec bb bc 89 84 e2 3c 25 a5 4d 3d 35 5d cb 3d
       -0.022940136 0.027651088 0.050206322 0.09929887
000120 20 87 28 bd 74 cf 64 bc e2 af e7 bc 13 00 83 bd
       -0.04114449 -0.013965476 -0.02828211 -0.063964985
000130 49 29 16 3d a6 11 eb 3b a5 e6 78 bc 6e 05 32 bc
       0.036660466 0.0071737347 -0.015191709 -0.010865552
000140 70 18 a3 bd 18 a0 20 3d f8 22 ab 3d 97 21 5d 3d
       -0.079636455 0.039215177 0.08356279 0.053987112
000150 0f 4a 36 bd 84 a2 04 bd 54 eb 13 bc 60 5a 98 3d
       -0.04450422 -0.03238155 -0.009028275 0.07439113
000160 42 2f 04 bb bb 20 7f 3d ba 4d 03 3d dd 61 fe bb
       -0.002016977 0.062287074 0.032056548 -0.007763131
000170 54 d8 66 3d d3 0a 06 3d cf f1 bc 3b 74 9e ff 3c
       0.05635865 0.032725167 0.0057661305 0.031203486
000180 62 98 80 3d f8 2f 83 bd 78 13 8d bc 6a d2 a4 3d
       0.06279065 -0.06405634 -0.017221197 0.08047946
000190 1a 2f 8a 3c c3 19 2d 3e c5 7b 58 3c f0 81 9f 3d
       0.016868163 0.16904359 0.013213103 0.077884555
0001a0 b0 df ce bc 5f 73 17 bd 5e 55 f9 bc b2 47 16 bc
       -0.025253147 -0.03697526 -0.030436214 -0.009172367
0001b0 07 90 81 bc 80 28 0a 3d 71 5d ca bc b6 cb 0c 3e
       -0.015815748 0.03373003 -0.02470276 0.13749585
0001c0 1d 12 95 bc 3e 3d 5e 3a 78 eb a0 3d ce 2d d3 bd
       -0.018197114 0.0008477754 0.07857412 -0.10311471
0001d0 b2 0c d2 bd 01 23 65 bd 25 79 c5 3c 95 bf 3e 3e
       -0.10256328 -0.055941585 0.024105618 0.1862777
0001e0 e2 24 14 3d 94 82 07 bd d9 26 ba bd 1c 7d 58 3d
       0.036167987 -0.033083513 -0.09089441 0.05285369
0001f0 bd 80 80 3d 62 1f fa 3d 7a b1 75 bd 5a e7 93 3d
       0.06274555 0.12213017 -0.059983708 0.07221861
000200 ac 82 28 3d 2c 30 be 3c 43 a5 b2 bc 8f c4 ae bd
       0.041140243 0.02321633 -0.021807319 -0.08533584
000210 dc b8 34 bd 6a 20 af 3d 09 51 3e bc 0e 21 1a bd
       -0.04412161 0.08551104 -0.011616 -0.03762918
000220 d9 1a d0 3b d1 6e df 3c 35 25 ba 3d 78 a2 03 bd
       0.0063508567 0.027274521 0.09089128 -0.032137364
000230 c4 b4 97 bd 0f b1 20 3d c8 80 89 3b 94 93 08 3d
       -0.07407525 0.039231356 0.00419626 0.033343866
000240 07 65 75 3c bf e1 48 bd c7 00 1d bc c3 85 1f 3d
       0.0149777 -0.049043413 -0.009582705 0.038945924
000250 3b b1 37 3d d5 21 92 bc 34 e9 90 3d e2 e6 6d 3d
       0.044846755 -0.017838398 0.0707573 0.058081515
000260 9d 15 b6 3b 9f e4 a0 bc 10 7c 2a bd 64 6d 6e bd
       0.0055567757 -0.019640265 -0.04162222 -0.05820979
000270 09 77 08 3e 41 28 45 3e e8 d6 2a 3c 7e 0b 73 bd
       0.13326658 0.19253637 0.010427214 -0.05933713
000280 a7 6b 2c bc dd 4a 11 3d 44 dd f7 bc 1c 83 1c 3c
       -0.010523713 0.035471786 -0.030256875 0.009552743
000290 8e 21 a7 3c 09 20 da bc 93 5c 42 3b fb 0a 94 bd
       0.020401742 -0.026626604 0.002965723 -0.07228657
0002a0 ef 92 0e bd 45 64 fe bd 98 25 5e bc 87 1c b0 3c
       -0.034808096 -0.12421469 -0.013558768 0.021497978
0002b0 34 9d 3f 3d 96 34 c0 3d 4a 9a 78 bd 35 f2 8e 3c
       0.04678078 0.0938503 -0.060694017 0.017449478
0002c0 cf 8c 8b bd d9 96 b6 3c 52 18 33 3d df 6c 2c 3e
       -0.068139665 0.022288727 0.043724366 0.16838406
0002d0 6c 7b 32 3d df ab a8 3d 24 ba c7 3d 99 f1 13 3d
       0.043574736 0.08235907 0.097523004 0.036119077
0002e0 d7 65 19 bd 0a 0b 34 3d 3b bf 88 bc 95 e2 85 3c
       -0.037450638 0.04395584 -0.016692748 0.016343394
0002f0 a1 b0 2e 3d b2 ec 0c 3c 2e ec 85 bd e9 bc b4 3c
       0.042648915 0.008601354 -0.06539188 0.022062736
000300 39 8c 4e 3d 12 e6 06 ba 18 b2 15 3d 5e f2 a2 3d
       0.050426695 -0.00051459775 0.036546797 0.07956384
000310 cc 75 2c 3d 40 4a fa bb df 1b a3 3c 3e 7d 19 3d
       0.042104527 -0.007638246 0.01991075 0.037472956
000320 c6 a5 59 bc 57 9f c8 bd 8a 18 b8 bc 11 0c b0 3d
       -0.013284152 -0.09796017 -0.022472639 0.085960515
000330 05 a5 73 3d 4e e0 c8 bd 0b c7 b9 bc b8 f7 03 bd
       0.059483547 -0.09808408 -0.022677919 -0.032218665
000340 2c ab 59 bd 5a 57 0c be 1d 33 21 bc d8 8b 08 3d
       -0.053141758 -0.13705197 -0.0098388465 0.03333649
000350 ed cf 51 3b 6e 63 4a 3d bf e5 73 3d 6a de 5f 3d
       0.0032014803 0.04941123 0.059545275 0.05465547
000360 16 02 52 3d 30 c0 c4 3c f3 a2 05 bd 00 f1 95 3d
       0.05127152 0.024017423 -0.032626104 0.07321358
000370 f8 c7 06 3d 3d 5c f5 bc cf 48 3f 3d 0b 14 a7 3d
       0.03290555 -0.02995121 0.046700295 0.0815812
000380 8b 15 f4 bb ad be 70 bd aa 11 5f 3d d7 8b 05 bd
       -0.007448857 -0.058775593 0.054460205 -0.032604065
000390 bf 11 9e 3d a0 0e a0 3a 15 13 93 bc ac fa 06 bd
       0.077182285 0.001221139 -0.017953435 -0.032953903
0003a0 6a ea 8c 3d 60 be 35 bc 53 85 70 bd d1 c5 a6 bc
       0.068806484 -0.011092752 -0.058720898 -0.020357998
0003b0 ff e5 4e 3d 5a e9 01 bc ee 2e e3 3c 48 4c b9 bd
       0.05051231 -0.0079291705 0.027732339 -0.090477526
0003c0 7e 8b 0b bd 6e 45 64 bc 88 b6 c1 bd 12 76 ac 3c
       -0.034068577 -0.013932569 -0.09458643 0.021052394
0003d0 c0 70 a9 3c b1 2d f8 3c 2f b7 18 3d 74 12 ed 3c
       0.020683646 0.030295225 0.037284072 0.028939463
0003e0 a4 3a 5b 3d 40 55 96 3d d2 f4 89 bc a7 c6 6e 3d
       0.05352272 0.07340479 -0.016840372 0.05829492
0003f0 f2 3e 21 3d 89 52 e1 bc d3 96 99 bd 3f f7 2d bc
       0.03936667 -0.027505176 -0.074994706 -0.01061803

linear2.bias f4 [256]
000000 de ed d1 bb 56 ea 33 3c 0d 95 34 3d 4d e4 8c 3c
       -0.00640653 0.010981163 0.04408746 0.017198706
000010 6e 92 0f 3d 1b ce f3 b8 43 c6 c7 3a 39 ff 56 bd
       0.035051756 -0.00011625533 0.0015241582 -0.052489493
000020 1e 2b ab bb e2 e3 41 3d 8b 60 fa 3b 96 70 d9 3c
       -0.005223646 0.047336467 0.0076409033 0.026542943
000030 b4 5f 3d bd 93 82 1f bc a4 35 52 3d c6 a5 fb 3c
       -0.046233848 -0.009735721 0.051320687 0.030718695
000040 58 4c 06 3d 43 92 80 bc dc f7 3a bd f4 fd 43 bd
       0.03278765 -0.015694743 -0.045646533 -0.04784961
000050 12 95 04 3d f3 19 3a bd 46 e2 2a 3d 77 0e 0c 3c
       0.032368727 -0.045434903 0.041719697 0.008548371
000060 1b 7a df 3c 11 e3 b3 3d 42 aa 12 bd 97 3e f4 bb
       0.027279904 0.08783544 -0.0358069 -0.0074537504
000070 6f 69 fd 3c ad d4 61 3d 87 7b a8 3c d2 08 3f 3d
       0.030934064 0.055134464 0.020566715 0.04663927
000080 05 a1 f5 3c 2b 78 86 3d a1 99 29 3d 94 5e f5 bc
       0.029984007 0.06565889 0.041406278 -0.029952325
000090 a7 4b 43 3d 22 3d 1e 3b 26 19 89 3d c3 77 11 3d
       0.04767957 0.0024145325 0.0669425 0.035514604
0000a0 d8 0e 76 3d c0 20 63 3b 9d 48 a4 3c 76 0f d9 3c
       0.06007275 0.0034656972 0.020054156 0.02649663
0000b0 54 f8 5d 3d 3b 15 90 3c 59 9f f0 bc 49 7e 1e 3d
       0.054191902 0.017588248 -0.029372858 0.038694654
0000c0 45 56 28 3d b1 7b c6 3c 59 2b d1 bc 32 24 3b bd
       0.041097898 0.024228903 -0.025533365 -0.045688815
0000d0 4b b7 37 3c d2 07 b3 bb 2d 4e 8b 3d 91 aa b9 bc
       0.011213134 -0.0054635787 0.0680202 -0.02266434
0000e0 35 c9 8e 3d b3 60 93 bc ec 8b 45 bd 31 8e f3 3c
       0.06971971 -0.017990446 -0.048229143 0.029730888
0000f0 77 17 89 bc 4d 0c 8b 3d c6 84 19 bd ed 3c 93 3d
       -0.016734822 0.067894556 -0.03748014 0.07189355
000100 a3 71 67 bd 36 89 23 bd ed 38 7f bc 59 1f 6a 3d
       -0.056504857 -0.039925776 -0.015577537 0.0571588
000110 34 98 3e bd d7 22 6f 3d ed 83 11 3d f9 4d 12 bd
       -0.04653187 0.058382835 0.035526205 -0.03571889
000120 f9 5e 61 3d c8 31 eb bb 11 34 c0 3d 59 35 cd 3c
       0.055022214 -0.0071775652 0.09384931 0.025049852
000130 7b 04 cf 39 bd 8d 20 3d be 98 75 3c cb fc 19 bc
       0.00039485455 0.039197672 0.01499003 -0.009398649
000140 f4 1c 44 3d 67 8a 68 3d a9 78 69 3d 80 72 2d 3c
       0.047879174 0.056772616 0.056999836 0.010586381
000150 8c c8 b0 3b bf 24 fc bb 68 d4 2a 3d 57 3e 62 3a
       0.005395001 -0.00769481 0.041706473 0.0008630505
000160 47 bb 60 3d 97 12 3b bb 7e 36 31 3c 98 d0 82 bb
       0.0548661 -0.0028545016 0.010816215 -0.0039921515
000170 4d 1c 8d 3b a7 6f 88 bb fe 7b 44 3c 22 2b 01 3d
       0.004306352 -0.0041637006 0.011992453 0.031535275
000180 d3 cb ae 3c bc 49 0d bc f2 f1 6e 3b 2e 27 15 bd
       0.021337425 -0.008623537 0.0036460129 -0.036414318
000190 08 81 57 3c 22 cc 22 bd 03 e0 1d 3d 3e 0b 3c 3c
       0.013153322 -0.039745457 0.038543712 0.01147729
0001a0 e2 af be 3c c0 0a 85 3d bc 58 12 bd d5 0b 4c 3d
       0.023277227 0.06496191 -0.035729155 0.04981597
0001b0 a4 9d 80 bc b0 39 82 bc ca 30 94 3d 6e f2 d3 bc
       -0.015700169 -0.015896648 0.07235868 -0.025872435
0001c0 51 3c 56 3d a8 db a3 3d 15 74 65 bd 5f b4 56 3c
       0.052303616 0.080008805 -0.056018908 0.013104527
0001d0 22 61 dc 3c 25 a6 fc bc 13 8d 55 3d 94 42 c6 3b
       0.026901785 -0.030840943 0.052136492 0.006050417
0001e0 d1 12 1e bd 17 3c a7 3c a6 d0 50 3d 7b bf 9f 3c
       -0.038592163 0.020414395 0.050980233 0.019500485
0001f0 7c d9 e9 3c 8a 4e 00 3d a2 7d 42 bc 7d d0 ef 3c
       0.028546087 0.0313249 -0.0118707735 0.02927422
000200 4f 13 00 3c ce e8 a4 3c 8e 3c aa 3d 47 a1 74 3b
       0.0078171035 0.020130541 0.08312331 0.0037327574
000210 78 49 1f 3d ab 4f 0f 3d 69 d7 48 3d 80 32 73 3b
       0.038888425 0.034988087 0.049033556 0.0037108958
000220 9d e6 33 bd 41 fd 1f 3d 4f ec 4e 3c 0b f7 2d 3d
       -0.0439211 0.03905988 0.012629583 0.042471927
000230 68 cb 25 3d 61 f4 74 bd a9 8b 83 bd 42 10 31 3d
       0.040477186 -0.05980337 -0.064231224 0.043228395
000240 99 fc d1 bc 8e a3 00 3d 8c f8 a9 3b d3 47 0e bd
       -0.025633143 0.031405978 0.0051871 -0.034736466
000250 93 f0 48 bd 72 b3 2b 3b 0a e4 b5 3c 2d b1 74 bd
       -0.049057554 0.0026199487 0.022203464 -0.05973928
000260 a1 c3 9e 3c 6d dd 06 bd 84 f8 b4 3c 93 0d 5d ba
       0.019380393 -0.03292601 0.022091158 -0.00084325037
000270 ad 8c 1b 3d 36 6e 9b bc 66 55 07 bd 0e 16 dd 3c
       0.037975956 -0.018973451 -0.033040427 0.026988056
000280 86 37 36 3c f1 55 9b bb 45 32 25 bd 75 76 75 3c
       0.011121636 -0.0047404696 -0.040331144 0.014981856
000290 cb e3 24 3d d7 c6 82 3b 94 df a9 bc ac 65 2e bd
       0.040256303 0.0039909887 -0.020736493 -0.04257743
0002a0 eb 0b 40 bd 94 3c f7 3c db 0a dc 3c cc bc 80 3d
       -0.046886366 0.030180253 0.026860645 0.0628601
0002b0 fc 25 6d bd 76 33 d2 bb 8d e0 fa bc bc d8 08 bc
       -0.057897553 -0.006414826 -0.030624652 -0.008352455
0002c0 aa fb 4f 3d 3b 68 52 3d 9b 1d 74 bc ab ba 1e bd
       0.050777115 0.051368933 -0.014899637 -0.03875224
0002d0 33 ae ad 3c cb 23 4e bc 50 09 35 bd 48 6e 7b bc
       0.021201229 -0.012581776 -0.044198334 -0.015346117
0002e0 c9 a5 83 3c da 1d 89 bc 11 38 96 3d 0d c4 4d bd
       0.016070263 -0.016737867 0.073349126 -0.050235797
0002f0 6f 66 59 3c af a5 82 b8 4b dd 34 3d dd 03 22 bd
       0.013269051 -6.229744e-05 0.044156354 -0.039554466
000300 d4 8e c1 bc ad 18 e1 3c 3d 2c f8 bb 44 5e 04 3d
       -0.023627676 0.027477587 -0.007573633 0.03231646
000310 92 54 52 3c ac a9 a9 bc 2d b1 72 3d 53 9e 06 bd
       0.012837546 -0.020710789 0.059251 -0.032865833
000320 72 e2 d7 3c 12 92 25 3d 28 52 d2 3c e7 f4 12 bd
       0.026353095 0.040422507 0.02567394 -0.03587809
000330 de 40 be 3b f2 96 36 3d c6 f6 ad 3a 3f be 81 3d
       0.0058060726 0.044577546 0.0013272397 0.06335115
000340 30 63 8b 3d ac ea b8 bc 8e c3 1a bd f2 36 8f 3d
       0.06806028 -0.022572838 -0.03778415 0.06992902
000350 a5 6b 4e 3d d6 d8 5a 3c 66 70 bf bc 60 de 4e bc
       0.050395627 0.013357362 -0.023369025 -0.0126262605
000360 29 2f 96 3c 8a e1 43 3d 13 b1 cf bc 26 0d f0 bc
       0.018333035 0.047822513 -0.02535299 -0.029303145
000370 0a 39 7c bd 12 7b 85 3d 8d 53 80 3b 63 4b 09 3d
       -0.061577834 0.065176144 0.00391621 0.03351916
000380 55 77 07 bd 68 bf 93 bb 19 09 67 3c 67 a4 55 bd
       -0.03307279 -0.0045089014 0.01410129 -0.05215874
000390 a2 20 00 bc 79 62 63 3d 4b 33 ce bb 00 b2 05 bd
       -0.00782028 0.055513833 -0.0062927357 -0.032640457
0003a0 77 6a 38 3d 55 46 43 3d 6a c4 0e bd 12 6f 09 3c
       0.045023408 0.047674496 -0.034855284 0.008388298
0003b0 3f b4 32 3c a6 b9 55 bc 71 04 87 3d 96 c9 1a bd
       0.010907232 -0.01304475 0.06592644 -0.037789904
0003c0 e2 f1 8f bb ec d5 8c bc b9 4f 55 3b 27 6f c9 3b
       -0.0043928484 -0.01719185 0.003254874 0.0061472836
0003d0 83 0d 6a bd 4e 00 26 bb 2b 70 24 3d 3f c8 32 bd
       -0.057141792 -0.0025329771 0.040146034 -0.043648
0003e0 48 b1 68 bd 23 d3 87 3d f3 09 c7 bc e5 b2 c2 bc
       -0.056809694 0.06632068 -0.024296736 -0.023766944
0003f0 64 46 fd bb d5 1b 89 3c e6 63 8d 3d 42 38 bd bc
       -0.0077293385 0.016736904 0.0690382 -0.023098115

linear3.weight f4 [1, 256]
000000 77 c4 ac 3d d6 6e 1c 3e 47 79 b6 bd bb fd a8 bd
       0.0843591 0.15276656 -0.089098506 -0.0825152
000010 97 73 c8 bd 77 19 97 3d 95 e7 86 be 2c be 70 3e
       -0.09787672 0.07377904 -0.26348558 0.23510045
000020 72 02 be bd 34 58 8b 3d ab 90 cc 3d 46 f2 c4 3d
       -0.0927781 0.06803933 0.09988531 0.096165225
000030 c3 42 0c be 10 cc 8c 3d 1c 58 85 bd c7 36 cf bd
       -0.13697343 0.06874859 -0.06510946 -0.1011787
000040 68 a5 7d 3d 01 10 0b be 40 8e 59 3d 99 13 43 3d
       0.06192532 -0.13580324 0.053114176 0.04762611
000050 8a 2b d8 bd 16 02 8b 3d 9e 28 e6 3d 3c 31 b2 bd
       -0.105551794 0.06787507 0.11238216 -0.08700797
000060 7b bb ae bd cd 1a 41 be 2c f9 9e 3d 75 a6 bd bd
       -0.08531853 -0.1885788 0.077623695 -0.09260265
000070 43 95 63 bd 76 91 73 3d e5 4e 18 3e 99 ca d3 bd
       -0.05556227 0.059464894 0.14873846 -0.10341377
000080 04 e8 9c 3d 64 ec 90 3d 66 bc 00 be ae 15 8b 3d
       0.07661441 0.07076338 -0.12571868 0.067912444
000090 96 1d d1 3d 3e c8 ca bd 1d 9d c1 bd ef 0c d9 bd
       0.10210721 -0.099014744 -0.09453795 -0.1059817
0000a0 ef e3 aa 3d 0c 91 b7 3d 06 77 a0 3d 6b 55 9f 3d
       0.08344256 0.08963212 0.07835202 0.07779964
0000b0 3c e1 67 be d4 6e 87 3d 93 b1 cd bd c3 8b 3b be
       -0.22644514 0.06612936 -0.10043635 -0.18315034
0000c0 22 30 c1 bd 03 b9 7f 3e d5 80 cc 3d 08 cf 95 3d
       -0.09433009 0.2497292 0.0998551 0.07314879
0000d0 59 4a ce 3d 5c c8 c1 3d 9d 19 a4 bd 5b 36 a9 3d
       0.100727744 0.09462044 -0.08012698 0.082623206
0000e0 55 26 a6 3d 3e c4 bf bd 01 15 ea 3d 94 de 86 3d
       0.0811278 -0.09363602 0.114297874 0.06585422
0000f0 23 7d d1 bd bb 07 c8 bd b7 a8 5e be 97 1e 98 bd
       -0.10228946 -0.097670995 -0.21744047 -0.074277095
000100 c8 0d 51 3d 0a 04 4a be a4 a3 a8 bd 20 23 a8 bd
       0.051038533 -0.19728103 -0.08234337 -0.082098246
000110 0e 53 b6 3d c5 57 a6 3d 9b 26 b3 3d bd eb 4a 3e
       0.0890256 0.081222095 0.08747598 0.1981649
000120 92 18 99 be 44 12 01 3e b8 8e 4d 3e f5 cd 7c 3d
       -0.29901558 0.12604624 0.20073974 0.061719853
000130 d3 cd b2 3d 21 b7 d2 bd be 65 8f 3d 63 e7 9d bd
       0.08730664 -0.10288835 0.07001828 -0.07710149
000140 46 e4 c0 3d 5c 8c ce bd a6 c4 90 bd e4 f3 a1 be
       0.0941854 -0.10085365 -0.07068758 -0.31631386
000150 4d 85 bf 3d c5 aa cb bd 24 62 99 3d 2c ea b8 bd
       0.09351597 -0.09944681 0.07489422 -0.0902904
000160 49 a8 6a 3d 7e a5 f5 3d 89 5e 86 3d 04 59 d1 bd
       0.057289395 0.11994456 0.06561 -0.102220565
000170 fc fd e1 3d e9 8f dd bd d2 2d a3 3d 46 bd 1e 3e
       0.11034772 -0.10818464 0.07967724 0.1550189
000180 7c ee dd bd f8 e8 76 3d c6 c0 bd bd 68 a2 d2 3d
       -0.10836503 0.06028077 -0.09265284 0.10284883
000190 d6 a2 b1 3d 6b ce 87 3d bc c3 86 3e 62 e3 c6 3d
       0.086736366 0.06631168 0.26321208 0.097113386
0001a0 bb 8d b0 3d b9 63 ce bd 05 fd 18 3e 3e db ae bd
       0.08620783 -0.10077614 0.1494027 -0.08537911
0001b0 d3 73 b1 bd 99 4c 0e 3e 4c 08 93 bd dc 13 18 be
       -0.0866467 0.13896407 -0.07179317 -0.14851326
0001c0 d2 48 ae 3d 5a c4 6e be 8c 20 52 be 52 a9 c6 bd
       0.08509983 -0.2331709 -0.20520228 -0.09700264
0001d0 4f 26 b3 3d 52 87 86 3d bc 44 98 bd 44 fa bd bd
       0.08747541 0.06568779 -0.07434985 -0.0927625
0001e0 50 0c a8 3d ff ea 57 3d 34 df ab 3d 88 cc 91 3d
       0.082054734 0.052714344 0.08392182 0.07119089
0001f0 56 95 c0 bd 11 02 b2 bd 96 c7 b5 3d aa 65 b3 3d
       -0.094034836 -0.086918004 0.088759586 0.08759625
000200 de ca a1 bd a6 dd ae bd 1c 26 c9 bd 81 80 ba bd
       -0.07900022 -0.0853837 -0.09821722 -0.091065414
000210 3c d3 b6 bd e8 12 ab 3e 09 03 80 3d 9e 24 94 bd
       -0.089270085 0.33412862 0.06250579 -0.07233547
000220 71 76 c2 bd 89 6f 62 3d e8 b7 94 3d d5 fa 64 3d
       -0.09495247 0.05528215 0.0726164 0.055903275
000230 8e 86 90 3d b2 96 fe 3d 26 e8 0e be 66 70 9a 3d
       0.07056914 0.124310866 -0.13955745 0.075409696
000240 37 cd 2f be 28 82 22 be 5e 4f 75 3d 0b df 2b 3e
       -0.17168127 -0.15869963 0.059890144 0.16784303
000250 9d 5b 95 3d d3 27 01 3e 0b 3b b9 bd b2 ec 02 3e
       0.072928645 0.12612848 -0.09044465 0.12785605
000260 fe ee a4 3d 78 0d 89 3d bf d3 bd bd 3c 95 9d 3d
       0.08053397 0.06692022 -0.09268903 0.0769448
000270 da 79 9b 3d 3a 90 88 bd ce 61 c9 bd 9c 2a dc bd
       0.07591601 -0.06668134 -0.09833108 -0.107503146
000280 b5 d9 b6 bd d5 c1 98 3d 21 6e c3 3d 07 55 81 be
       -0.08928243 0.074588455 0.0954249 -0.25260183
000290 83 20 83 3d 36 74 d1 bd d6 f0 4f 3d a6 9b a2 be
       0.064026855 -0.102272436 0.05076679 -0.31759375
0002a0 df da 80 3e 49 ee 5a be fc 0f b4 bd d7 c2 83 3d
       0.25166985 -0.21379961 -0.08792111 0.06433647
0002b0 d7 bd 34 3d de 47 82 3d a3 8c c3 bd dc 6f 96 bd
       0.044126358 0.06361364 -0.09548309 -0.07345554
0002c0 86 6e a7 3d c1 e6 42 3d 82 5c 9b 3e 2e bd 76 3d
       0.081753775 0.047583345 0.30344015 0.06023901
0002d0 b7 5a 1d be 4d d1 cc 3d 59 17 9d 3d a8 04 bb 3d
       -0.15366636 0.100008585 0.07670469 0.091317475
0002e0 a8 0c 9f bd ca 43 9b 3d 38 c0 b4 bd 4c 4c 2f 3e
       -0.07766086 0.07581289 -0.08825725 0.17118949
0002f0 8a 14 1e be ea 24 16 3e 24 4a 03 3e 72 d6 d1 bd
       -0.15437523 0.14662519 0.12821251 -0.1024598
000300 28 56 dc bd 01 f2 5f be 13 08 b8 bd b9 f1 b8 bd
       -0.107586205 -0.21869661 -0.08985915 -0.0903048
000310 62 53 ab 3d fd c9 9b 3d a9 ad 68 3d 4a 0e d2 3d
       0.083655134 0.076068856 0.05680624 0.10256632
000320 e9 f0 94 3d 75 46 dd 3d c7 eb b2 bd 1d 80 bd bd
       0.072725125 0.10804454 -0.08736377 -0.09252951
000330 88 6b b2 bd e3 57 ae 3d 5d 2e c1 3d 9d e2 aa bd
       -0.08711916 0.08512857 0.09432671 -0.08344004
000340 7e 59 b5 be 1b d2 14 be c3 80 85 3a 10 a0 91 3d
       -0.3541984 -0.14533274 0.0010185469 0.071106076
000350 98 51 c4 3d c0 68 61 3d af 8f a8 bd 4f f8 4f 3d
       0.09585875 0.055031538 -0.082305305 0.050773915
000360 46 aa cb bd 57 63 7d 3d 6b ef b5 bd 91 c5 9c 3d
       -0.099445865 0.061862316 -0.08883556 0.0765487
000370 27 a7 f8 3d 25 25 d8 bd 48 c2 ac be 25 15 90 3d
       0.12141257 -0.1055396 -0.33741975 0.07035283
000380 cc 85 86 3d e9 fd 5b 3d 47 01 bd bd 79 4f c6 3d
       0.065684885 0.053708944 -0.09228759 0.09683127
000390 f1 5d b6 bd 87 d3 ec 3d e3 4e 60 3d 3b 90 94 3e
       -0.08904637 0.11563783 0.054762732 0.2901629
0003a0 d4 15 76 3d c1 ee b7 bd 05 9e da 3d 4c 0f b9 bd
       0.06007941 -0.089810856 0.10674671 -0.09036121
0003b0 e5 fa a4 3d 8e 3b 9d bd a2 f1 c0 3d ad dc b1 bd
       0.08055667 -0.07677375 0.09421088 -0.08684669
0003c0 4a ea 8e 3d 4c 16 a4 3e 8e 09 9e bd dd f5 ae 3d
       0.06978281 0.3204826 -0.07716666 0.085429884
0003d0 98 17 7d 3d a9 64 32 be ee cf f6 3d d3 ea 50 3d
       0.06179008 -0.17421211 0.12051378 0.051005196
0003e0 72 77 26 3e 86 55 a3 3d 41 b3 71 3d b5 05 df 3d
       0.16256502 0.07975297 0.05900884 0.108897604
0003f0 f5 1c 2c be 72 bf b1 3d 65 4e ac bd 50 23 af bd
       -0.16807921 0.086790934 -0.0841339 -0.08551657
