testing/scripts/outputs/DDPG_Env/20221213-030633/models/210critic_checkpoint.pt (torch, 282455 bytes, 5 tensors)

linear1.weight f4 [256, 15]
0	0x3df2ca31	0.11854971
1	0xbe869e75	-0.26292768
2	0xbf60a14e	-0.8774613
3	0xbea86e36	-0.32896584
4	0xbb0d68d2	-0.002157737
5	0x3e8dbe55	0.27684274
6	0x3dcb870f	0.0993787
7	0xbe147f9e	-0.14501807
8	0xbec4532a	-0.383447
9	0x3ec9c230	0.39405966
10	0xbe54052d	-0.207051
11	0x3dbc6b6f	0.09200179
12	0x3e952073	0.2912632
13	0xbe0be3c5	-0.13661106
14	0xbe15c3e5	-0.14625509
15	0x3cc49006	0.023994457
16	0xbea74cdc	-0.32675827
17	0xbf9072c2	-1.1285021
18	0xbfa52b6a	-1.2903874
19	0xbe2e059e	-0.1699433
20	0x3d10d4fc	0.035359368
21	0xbef1efab	-0.47253165
22	0x3b90afa3	0.004415469
23	0x3e0f34a0	0.13984919
24	0x3e8343eb	0.25637755
25	0x3e1a6eef	0.1508138
26	0x3ddd90b7	0.10818618
27	0x3e60533d	0.21906753
28	0xbda21bce	-0.079154596
29	0x3e4f6ed1	0.20257117
30	0x3e5115f5	0.20418532
31	0x3dda9bb6	0.10674231
32	0x3d9b472e	0.07581936
33	0xbd22fe89	-0.039793525
34	0xbef2b706	-0.4740526
35	0x3e36fc85	0.17869766
36	0xbe98152d	-0.29703656
37	0xbe93c7fd	-0.28863516
38	0xbea2ac27	-0.31771967
39	0x3e781230	0.24225688
40	0xbd094d7f	-0.03352117
41	0x3e812e62	0.252307
42	0x3db9dc60	0.09075236
43	0xbe0c6afe	-0.1371269
44	0xbd86438c	-0.06555852
45	0xbe454ca0	-0.19267511
46	0xbd1608e9	-0.03662959
47	0xbf0934ad	-0.53596
48	0xbecef1f3	-0.40418968
49	0xbe7ebc3a	-0.2487649
50	0x3d930e9c	0.07180521
51	0xbd62a64a	-0.055334367
52	0xbf1d28e1	-0.613905
53	0x3e29e065	0.16589506
54	0x3e6a63a9	0.2288958
55	0x3eca8868	0.39557195
56	0x3dc9cf08	0.09853941
57	0x3c62c342	0.013840498
58	0xbd80429c	-0.06262705
59	0xbe7544ce	-0.23952028
60	0xbe72ddfd	-0.23717494
61	0xbdb99782	-0.09062101
62	0xbd03a2f4	-0.032137826
63	0xbe821c89	-0.25412396
64	0xbf4f3a96	-0.8094877
65	0xbeae368d	-0.34025994
66	0xbf04fbc9	-0.51946694
67	0xbeb7b6fb	-0.3588179
68	0xbed450d0	-0.41467905
69	0xbefbb741	-0.4916325
70	0x3c3ff931	0.011717127
71	0x3e62a803	0.22134404
72	0xbcf700d2	-0.030151758
73	0x3e53a222	0.20667318
74	0xbe06e5e1	-0.1317363
75	0xbab53015	-0.0013823534
76	0x3d116519	0.035496805
77	0xbea67bc6	-0.32516307
78	0xbec0c037	-0.37646648
79	0xbea346ec	-0.31890047
80	0xbf04539c	-0.5169008
81	0xbf9e7e39	-1.238227
82	0xbefa69a2	-0.48908716
83	0xbee29982	-0.44257742
84	0xbeda4df1	-0.4263759
85	0xbe17dcd8	-0.14830339
86	0x3e87a17e	0.26490396
87	0x3cb4d955	0.022076288
88	0x3cd26b59	0.025685953
89	0x3dc15e5e	0.09441827
90	0x3db91a57	0.09038227
91	0xbed69345	-0.41909233
92	0xbd8dc4c4	-0.06922296
93	0xbda65896	-0.08122365
94	0xbed01564	-0.4064132
95	0x3e16bdd5	0.14720853
96	0xbee13fbb	-0.43993935
97	0xbed9648d	-0.42459527
98	0x3dbba950	0.09163153
99	0x3e96f14b	0.29480967
100	0xbde73302	-0.11289026
101	0x3e950210	0.29103136
102	0x3b549f6a	0.003244365
103	0xbe84e052	-0.25952393
104	0x3c2c71a8	0.010525145
105	0x3e9b105c	0.3028592
106	0xbec5a137	-0.3859956
107	0xbfab499b	-1.3381838
108	0xbfab127d	-1.3365017
109	0xbce1d1e4	-0.027565904
110	0x3d2a9059	0.041641567
111	0xbe9d151b	-0.30680165
112	0xbe7f63a7	-0.24940358
113	0x3eb630e9	0.3558419
114	0x3e845c81	0.25851825
115	0x3e4e296d	0.2013299
116	0x3defd2b1	0.11710108
117	0x3e3a2e15	0.18181641
118	0x3e78ceb9	0.24297608
119	0xbe808a99	-0.25105742
120	0x3cd5819c	0.02606278
121	0x3e8e69ad	0.27815
122	0xbf179f58	-0.59227514
123	0xbf33b075	-0.7019113
124	0xbee5fa94	-0.44917738
125	0xbda5761d	-0.08079169
126	0xbf415f6f	-0.75536245
127	0xbecd67d3	-0.40118274
128	0xbdcfd311	-0.101476796
129	0xbe90fad5	-0.2831637
130	0xbe716014	-0.23571807
131	0x3e9e7156	0.30945843
132	0xbe0b9be2	-0.13633683
133	0xbe140f75	-0.14459021
134	0x3e1fcc8c	0.15605372
135	0x3d8e2a6c	0.06941685
136	0xbf1197f9	-0.56872517
137	0xbe518123	-0.20459418
138	0xbf338b27	-0.70134205
139	0xbe21b274	-0.1579073
140	0x3dd02e8f	0.1016513
141	0xbe880c89	-0.26572064
142	0xbec2ac5e	-0.3802213
143	0x3b912e01	0.004430533
144	0x3ebe3983	0.37153253
145	0xbdaceab1	-0.08443201
146	0xbdc34a44	-0.095356494
147	0x3efe1a5b	0.49629483
148	0xbd8f22be	-0.069890484
149	0x3e0a2245	0.13489635
150	0x3e56deba	0.20983401
151	0x3ebb5289	0.36586407
152	0x3f029ba0	0.51018715
153	0x3f1e5e5c	0.6186273
154	0x3f0cafd3	0.54955786
155	0x3ec0b956	0.376414
156	0x3e8e8ebb	0.2784327
157	0x3f3500b6	0.7070421
158	0x3f03943a	0.5139805
159	0x3f249c3b	0.6430089
160	0x3d8b607f	0.068055145
161	0xbeb2ec6c	-0.34946
162	0x3d36d21e	0.044633977
163	0x3d36f68f	0.04466873
164	0xbe8b2057	-0.2717311
165	0xbe792c6c	-0.24333352
166	0xbf3ec24a	-0.7451521
167	0xbd7f33a9	-0.062305126
168	0xbe1db0b2	-0.15399435
169	0xbf20a554	-0.6275227
170	0xbfcc72d4	-1.5972543
171	0xbfad5482	-1.3541415
172	0xbefd8821	-0.4951792
173	0x3d9a9518	0.075479686
174	0xbe801388	-0.250149
175	0x3d5aaac8	0.053385526
176	0x3df54a7d	0.11977098
177	0xbcaf911a	-0.021431495
178	0xbd6e15ce	-0.058126263
179	0xbda4c344	-0.080450565
180	0xbd2124f3	-0.03934188
181	0xbdb1d855	-0.0868384
182	0xbe00904b	-0.12555043
183	0xbeff7ef0	-0.49901533
184	0xbef6f8b4	-0.4823662
185	0xbde8cb17	-0.11366861
186	0xbe1a30f8	-0.15057743
187	0xbf4e179b	-0.8050477
188	0xbe4acccf	-0.19804691
189	0x3efecaf3	0.49764213
190	0x3ef3aed2	0.47594315
191	0x3d5aa05b	0.053375583
192	0xbb184f60	-0.002324067
193	0xbdc6f705	-0.09715084
194	0x3decc3c5	0.115607776
195	0xbebba5aa	-0.3664983
196	0xbe29fb3a	-0.16599742
197	0xbed98457	-0.4248378
198	0xbedd3ea2	-0.43211848
199	0xbf603f36	-0.8759645
200	0xbf843e88	-1.0331583
201	0xbf69fa92	-0.91397965
202	0xbe656052	-0.22400025
203	0x3e4364d1	0.19081427
204	0xbe833225	-0.25624195
205	0xbd709eed	-0.058745313
206	0x3e154f95	0.1458114
207	0xbe77910a	-0.24176422
208	0xbe37d816	-0.17953524
209	0x3bc02fc7	0.0058650705
210	0x3d8cf7ac	0.06883177
211	0xbe96f128	-0.29480863
212	0xbe3ebe36	-0.18627247
213	0xbde816a4	-0.11332443
214	0xbe326f50	-0.17425275
215	0xbed5f32a	-0.41787082
216	0xbe8fd3ab	-0.28091177
217	0xbe80af72	-0.25133854
218	0xbe2cd9cc	-0.16879958
219	0x3e3d663f	0.18496035
220	0x3ede5f48	0.4343207
221	0x3e401b22	0.1876035
222	0x3e813066	0.25232238
223	0x3ccfbf46	0.025359761
224	0x3ced9330	0.029000849
225	0x3e8d201b	0.27563557
226	0x3ec84cf2	0.39121205
227	0x3f3a97e5	0.7288802
228	0x3eec4c95	0.46152177
229	0x3f2855dd	0.65756017
230	0x3ca6a9ee	0.0203447
231	0x3e2e0936	0.16995701
232	0x3f2bd0bf	0.67115396
233	0x3f0ac762	0.54210484
234	0x3e438a22	0.19095662
235	0xbd831981	-0.06401349
236	0xbec5432f	-0.3852782
237	0x3e38f816	0.18063387
238	0xbe57702c	-0.21038884
239	0xbe24fcf1	-0.16112114
240	0x3e4c5627	0.1995474
241	0x3eb6e663	0.35722646
242	0xbed8214e	-0.4221291
243	0xbf82caa2	-1.0218089
244	0xbf100a8d	-0.562661
245	0xbf0bf46d	-0.5466984
246	0xbf7b6155	-0.9819539
247	0xbfbd8058	-1.4804792
248	0xbf6c624a	-0.9233748
249	0xbea989db	-0.33112988
250	0x3cfb0b79	0.030645119
251	0x3dcc2a2e	0.09968983
252	0xbd93de4b	-0.072201334
253	0xbe66dad6	-0.22544417
254	0x3f160e74	0.58615804
255	0x3d0f21a7	0.034944203

linear1.bias f4 [256]
0	0x3e939abe	0.28828996
1	0x3dbf32c8	0.09335858
2	0x3ecb6c0e	0.39730877
3	0x3edac089	0.42725018
4	0x3f296819	0.66174465
5	0x3f415808	0.7552495
6	0x3f0d59fd	0.55215436
7	0x3d99ad6d	0.075037815
8	0x3f0e9318	0.556932
9	0x3e59966b	0.21248786
10	0xbe338667	-0.17531739
11	0x3f4ecab1	0.8077803
12	0x3e943782	0.289486
13	0x3f475f68	0.77879953
14	0x3f0dfab8	0.5546069
15	0xbdc71f73	-0.09722795
16	0x3f14cc94	0.5812466
17	0x3eaf3d64	0.34226525
18	0xbd29c6b5	-0.041449267
19	0x3e364987	0.17801486
20	0x3f238668	0.6387696
21	0x3dbb50a8	0.09146243
22	0x3ecd3b71	0.40084413
23	0x3dd26a60	0.10274196
24	0x3f1c1354	0.6096699
25	0xbdfed191	-0.12442315
26	0x3f0652c1	0.5247002
27	0x3f2f9029	0.68579346
28	0x3ed42859	0.41437033
29	0x3ec2e668	0.3806641
30	0x3e6d1694	0.23153144
31	0x3cae251d	0.021257931
32	0xbe1d9a54	-0.15390903
33	0x3f0d4621	0.55185133
34	0x3ed5ba81	0.41743854
35	0x3ea63d41	0.32468608
36	0x3f25f528	0.64827204
37	0x3f26c7ff	0.6514892
38	0x3ec9251d	0.39286128
39	0xbec5a09e	-0.38599104
40	0x3f01070c	0.5040138
41	0x3e3c8801	0.18411256
42	0x3f31f7f6	0.69518983
43	0x3f0e10f8	0.5549464
44	0x3e3a2289	0.18177237
45	0x3e3db070	0.18524337
46	0x3f1308d5	0.5743535
47	0x3f3daf41	0.7409554
48	0x3f226537	0.6343569
49	0x3f4596ff	0.77183527
50	0x3f49c42c	0.7881496
51	0x3f0277ae	0.50963867
52	0x3f46a2c3	0.77592105
53	0x3f4bc721	0.7960072
54	0x3f159189	0.58425194
55	0x3f1d7951	0.6151324
56	0x3edd07ec	0.43170106
57	0x3f2d3485	0.67658263
58	0x3f3fb467	0.7488465
59	0x3f10fccb	0.5663573
60	0x3d09d1e4	0.033647433
61	0x3e2092b9	0.1568097
62	0x3e5033f7	0.20332323
63	0x3e57a3c3	0.21058564
64	0x3ded3d40	0.11583948
65	0x3f16169c	0.5862825
66	0x3ef894f4	0.48551142
67	0x3f436445	0.76324874
68	0x3e9b9d70	0.30393553
69	0x3f0d89c3	0.5528833
70	0x3f07e400	0.53082275
71	0x3dfb2fb1	0.12264956
72	0x3e106a4d	0.1410305
73	0x3f064cee	0.52461135
74	0x3f0477d3	0.5174534
75	0xbcbb683f	-0.022876857
76	0x3eb43dcf	0.35203406
77	0xbe99aae5	-0.30013195
78	0x3f41877c	0.7559736
79	0x3dcfe268	0.101506054
80	0x3f3be10c	0.7339027
81	0x3e3e0f24	0.18560463
82	0xbd4ecfdd	-0.050491203
83	0xbee3d073	-0.44494972
84	0x3f3b115a	0.7307335
85	0x3ebfd702	0.37468725
86	0x3e922aa5	0.2854816
87	0x3ee230f1	0.44177964
88	0x3ef897ca	0.48553306
89	0xbedc7572	-0.43058354
90	0xbe81052d	-0.2519926
91	0x3f292ce1	0.66084105
92	0xbedc4981	-0.4302483
93	0x3f04e090	0.51905155
94	0x3f154d18	0.5832076
95	0xbe7d5346	-0.24738798
96	0x3ddcb73c	0.10777137
97	0x3ec970b2	0.39343792
98	0x3e470a2b	0.19437473
99	0xbf08e733	-0.5347778
100	0x3eb0f53b	0.34562096
101	0x3f17e736	0.59337175
102	0x3f4e19c9	0.80508095
103	0xbe1191b2	-0.14215735
104	0x3e427472	0.18989733
105	0x3eebe079	0.46069697
106	0x3e604402	0.21900943
107	0x3f2268ac	0.63440967
108	0x3f2a387a	0.66492426
109	0x3f2bed16	0.6715864
110	0x3f164d2b	0.587115
111	0x3d7e14e5	0.062031645
112	0x3f1abfd0	0.6044893
113	0x3eaef7fe	0.34173578
114	0x3f0eeb45	0.5582774
115	0xbeb03283	-0.34413537
116	0x3eee8ba9	0.46590927
117	0x3ecd6e01	0.4012299
118	0x3f2a231e	0.66459835
119	0x3f23db22	0.64006245
120	0xbef2d0cb	-0.4742492
121	0x3f1167f0	0.5679922
122	0x3f5af495	0.8552945
123	0x3f38613e	0.7202338
124	0x3efe29e9	0.4964135
125	0x3f27186c	0.6527164
126	0xbdef27b9	-0.11677498
127	0x3d9aa4e8	0.075509846
128	0x3e79d490	0.24397492
129	0x3e8a6abd	0.2703456
130	0x3e938800	0.28814697
131	0x3dc80719	0.09766979
132	0x3f51caa7	0.8194985
133	0xbecd1faa	-0.4006322
134	0x3d7f21be	0.06228804
135	0x3ef956f1	0.48699144
136	0x3f2795c7	0.6546292
137	0x3e08de36	0.13366017
138	0x3f05500c	0.52075267
139	0x3f33a31f	0.7017078
140	0x3ebb08c2	0.3653012
141	0x3eb2ccf1	0.34921983
142	0x3f3492ff	0.705368
143	0x3f169e75	0.58835536
144	0x3ed0f644	0.40812886
145	0x3f2db1a2	0.6784917
146	0x3ec77141	0.38953593
147	0x3d85eeb2	0.06539668
148	0xbf128e89	-0.5724874
149	0x3f45e0ed	0.77296335
150	0x3dd6259f	0.104563944
151	0x3ee3ae2d	0.44468823
152	0x3e1cd0d7	0.15314041
153	0x3d5e77d0	0.05431348
154	0x3e07b013	0.1325076
155	0x3ea4a216	0.32154912
156	0xbeee4c11	-0.4654241
157	0x3f2b1ac3	0.6683771
158	0xbe11bff5	-0.14233382
159	0xbf1dd4af	-0.61652654
160	0x3e8323f6	0.25613374
161	0x3ea4e15a	0.3220318
162	0x3e51e1ce	0.20496294
163	0x3d66074e	0.05615931
164	0x3edca966	0.4309799
165	0x3f4e22b8	0.80521727
166	0x3f1fed27	0.6247124
167	0xbeab5c1c	-0.3346871
168	0x3ee0302e	0.43786758
169	0x3f36e85e	0.71448314
170	0x3f153371	0.5828162
171	0x3f3d373a	0.73912394
172	0x3ec43437	0.38321087
173	0x3efb8a08	0.49128747
174	0x3e77ecea	0.2421147
175	0x3ebfd1c0	0.37464714
176	0x3d438f35	0.047743995
177	0x3ecbd2cc	0.39809263
178	0xbe857ee5	-0.26073375
179	0x3e5ccf83	0.21563534
180	0x3e29eeef	0.16595052
181	0x3f276d78	0.6540141
182	0xbdfa2b0c	-0.12215242
183	0x3f033bb8	0.51263
184	0x3f216cff	0.6305694
185	0x3eaa826a	0.33302623
186	0x3eb2b1d5	0.349013
187	0x3db6c116	0.08923547
188	0x3f48c0b2	0.7841903
189	0x3f4118ec	0.7542865
190	0x3f1778a4	0.5916846
191	0x3f470831	0.77746874
192	0x3ebe58cb	0.3717712
193	0x3eb15a41	0.3463917
194	0xbebf7fbc	-0.3740214
195	0x3f2c04b3	0.6719467
196	0x3ed92eaa	0.42418414
197	0xbe8c64f5	-0.27420774
198	0xbd9fd4e6	-0.07804279
199	0x3d13240b	0.035923045
200	0x3f3a5314	0.7278302
201	0x3f5c29b1	0.86001116
202	0x3d7c1994	0.06154783
203	0x3f3e988a	0.74451506
204	0xbe9372b2	-0.28798443
205	0x3f074482	0.5283891
206	0x3ece5d43	0.40305528
207	0x3f44678c	0.767205
208	0x3f10302e	0.56323516
209	0x3e274211	0.16333796
210	0x3ea6a360	0.3254652
211	0x3e21f9e5	0.15817983
212	0x3e7b2c27	0.24528562
213	0x3ecbc586	0.39799136
214	0xbe0b0b4c	-0.13578528
215	0x3edc8119	0.43067244
216	0x3ede41da	0.43409616
217	0xbeabf774	-0.3358723
218	0x3f2654ea	0.6497332
219	0x3eab1cee	0.3342051
220	0x3f0ae606	0.5425724
221	0xbc8a02d4	-0.016847052
222	0x3e56f2ea	0.20991102
223	0x3eff73a2	0.49892908
224	0x3f2660fc	0.64991736
225	0x3eb30e5d	0.34971896
226	0xbe311fca	-0.17297283
227	0x3e151123	0.14557318
228	0x3ec08a5c	0.3760556
229	0x3f2d682a	0.67737067
230	0x3d36d95e	0.04464089
231	0x3db756c5	0.08952097
232	0x3f44adda	0.76827776
233	0x3f31ccd5	0.69453174
234	0xbebb1b44	-0.3654424
235	0x3f2188b5	0.63099223
236	0x3e51b661	0.20479728
237	0x3f0f9121	0.56080824
238	0x3eebd12e	0.4605803
239	0x3ec1f9a1	0.37885764
240	0x3ee70fb2	0.45129162
241	0x3eb589ee	0.35456795
242	0x3ed12879	0.4085119
243	0x3f2502ac	0.644572
244	0x3f26bcb4	0.6513169
245	0x3f1d2785	0.61388427
246	0x3e44ff0b	0.19237916
247	0x3e19b93b	0.15012066
248	0xbeb60028	-0.35546994
249	0x3e7fe0d4	0.24988109
250	0x3f33159e	0.6995486
251	0x3f41f72d	0.75767785
252	0x3f069147	0.52565426
253	0x3efeb351	0.49746183
254	0xbe0adaf4	-0.13560086
255	0xbed4c270	-0.41554594

linear2.weight f4 [256, 256]
0	0x3e5c4dc7	0.21514045
1	0x3ea47eb9	0.32127932
2	0x3d3d4450	0.046207726
3	0x3e2a3af1	0.16624047
4	0x3f0e3389	0.55547386
5	0x3f21c086	0.6318439
6	0x3e0d41ba	0.13794604
7	0x3f0b21da	0.5434853
8	0x3efb10bc	0.49036205
9	0x3ebf8199	0.37403563
10	0xbf265afa	-0.6498257
11	0x3f4f7049	0.8103071
12	0x3e37179b	0.17880099
13	0x3ef82eed	0.48473302
14	0x3de6b5f5	0.11265174
15	0xbf63b107	-0.88942
16	0x3f56c5a0	0.838953
17	0x3e751469	0.23933567
18	0xbf2786fd	-0.6544035
19	0x3eb39cc5	0.35080543
20	0x3f0dc415	0.5537732
21	0x3e977017	0.29577705
22	0x3ea6ca5b	0.3257626
23	0x3eb0a960	0.34504223
24	0x3eb760ae	0.35815948
25	0x3f26247c	0.6489942
26	0x3f1b0c69	0.6056581
27	0x3e76f5de	0.24117228
28	0x3ed97a9c	0.42476356
29	0x3e748401	0.2387848
30	0x3edd9e7f	0.43284985
31	0xbee7096b	-0.45124373
32	0xbf4fbcb9	-0.8114734
33	0x3f3701e5	0.71487266
34	0x3f33fcbc	0.7030752
35	0x3e813833	0.2523819
36	0x3f1d091d	0.6134203
37	0x3ee64a2e	0.4497847
38	0x3e578264	0.21045834
39	0xbf381981	-0.71913916
40	0x3e3b3d92	0.18285206
41	0x3f0d6e78	0.55246687
42	0x3f36ef72	0.71459115
43	0x3f0cc5ad	0.5498913
44	0x3e8b617c	0.27222812
45	0x3ed5ecb2	0.41782147
46	0x3e50b408	0.20381176
47	0x3ecb226b	0.39674696
48	0x3f0b726a	0.54471457
49	0x3e71eb13	0.2362483
50	0x3ed01c4b	0.40646586
51	0x3e89d6d0	0.269217
52	0x3e57ecbd	0.21086402
53	0x3e998033	0.2998062
54	0x3ec8fb1a	0.39254075
55	0x3ea6e6eb	0.3259805
56	0x3f5b370b	0.85630864
57	0x3e454a7b	0.19266693
58	0x3f0e404f	0.5556688
59	0x3ea509ff	0.3223419
60	0x3ed20f30	0.41027212
61	0x3e84ff67	0.25976107
62	0x3f50870c	0.81456065
63	0x3ee95526	0.45572776
64	0x3e0fc138	0.14038551
65	0x3e9856ad	0.29753628
66	0x3ea799ff	0.32734677
67	0x3e516162	0.20447305
68	0x3ddc484a	0.107559755
69	0x3f039984	0.5140612
70	0x3e844e66	0.25841063
71	0xbedc1c5f	-0.42990395
72	0x3ed4d2dd	0.41567126
73	0x3e7b92d8	0.24567735
74	0x3ee1118a	0.43958694
75	0xbf21a66e	-0.63144577
76	0x3e7a906e	0.24469158
77	0xbf7bed81	-0.9840928
78	0x3e7b0853	0.24514894
79	0x3edad143	0.4273778
80	0x3ee242c4	0.44191563
81	0x3eae0a67	0.3399231
82	0xbf72ba02	-0.94815075
83	0xbf73729f	-0.9509677
84	0x3efbe750	0.49199915
85	0x3e741b67	0.23838578
86	0x3ee661ae	0.449964
87	0x3e8d1dde	0.2756185
88	0x3e241015	0.1602176
89	0xbf4049eb	-0.7511279
90	0xbf22e5ad	-0.6363171
91	0x3e8f4f2c	0.2799009
92	0xbf41871e	-0.755968
93	0x3e91c7fd	0.2847289
94	0x3e12a0dc	0.14319175
95	0xbefbf6a1	-0.492116
96	0x3edd524b	0.43226847
97	0x3ea5fa76	0.3241765
98	0x3f1673a1	0.58770186
99	0xbf1fbb72	-0.62395394
100	0x3e8c7ef5	0.2744061
101	0x3ed2ff6a	0.4121049
102	0x3ea43650	0.32072687
103	0xbf2b82da	-0.6699654
104	0x3e676cd4	0.22600108
105	0x3f2f7a7e	0.68546283
106	0x3d16c99c	0.036813363
107	0x3e858ecf	0.26085517
108	0x3ea5ae56	0.3235957
109	0x3f1db86d	0.61609536
110	0x3f27da92	0.65567887
111	0x3e88a917	0.26691505
112	0x3f219d89	0.63131005
113	0x3e3c39c6	0.18381414
114	0x3e80e825	0.25177112
115	0xbf783386	-0.9695362
116	0x3e7c5cbb	0.24644749
117	0x3e4fb0f6	0.20282349
118	0x3eb7caf2	0.35897022
119	0x3e8cad0a	0.27475768
120	0xbf2764f0	-0.65388393
121	0x3eb7b117	0.35877296
122	0x3ea84d13	0.32871303
123	0x3ec18654	0.37797797
124	0x3f1343c7	0.57525295
125	0x3ebc5bc6	0.36788768
126	0xbea76f4f	-0.3270211
127	0x3eb64997	0.3560302
128	0x3f0ce12e	0.55031097
129	0x3f18d1a7	0.59694904
130	0x3e5ff21f	0.21869706
131	0xbf391b69	-0.7230745
132	0x3e799914	0.24374801
133	0xbf3a43f2	-0.72759926
134	0x3e855234	0.26039279
135	0x3e629206	0.22126016
136	0x3eb298fc	0.34882343
137	0x3eed93c5	0.46401802
138	0x3e784283	0.24244122
139	0x3ebfbb11	0.37447408
140	0x3ebf6787	0.37383673
141	0x3ec2169a	0.3790787
142	0x3eaebe07	0.34129354
143	0x3ebeab3a	0.3724001
144	0x3e0538c0	0.1300993
145	0x3e8d3361	0.27578261
146	0x3e6b4621	0.22975971
147	0x3f1db115	0.6159833
148	0xbf7d70cf	-0.9900026
149	0x3f1dae90	0.61594486
150	0x3e51d8bb	0.20492832
151	0x3e70ed4c	0.23528022
152	0x3f0499cc	0.51797175
153	0x3ebb1483	0.36539087
154	0x3f01b577	0.5066752
155	0x3ec64fea	0.38732845
156	0xbf2b91b8	-0.67019224
157	0x3eb34328	0.35012174
158	0xbeefb3a9	-0.46816757
159	0xbf200b14	-0.62516904
160	0x3f3dc272	0.74124825
161	0x3e801725	0.25017658
162	0x3ef2abfd	0.47396842
163	0x3e32fd25	0.1747938
164	0x3d8c3b06	0.06847195
165	0x3e612481	0.21986581
166	0x3ef42d6b	0.476909
167	0xbf623bb4	-0.8837235
168	0x3e8f0a5e	0.27937597
169	0x3e9fd78f	0.31219146
170	0x3e986a09	0.29768398
171	0x3ec721cf	0.3889298
172	0x3f0a62c2	0.5405694
173	0x3e975bd5	0.2956225
174	0x3f20503e	0.6262244
175	0x3f4e3179	0.8054424
176	0x3ec5ba01	0.38618472
177	0x3eb51f81	0.35375598
178	0xbf027537	-0.50960106
179	0x3e69f5eb	0.22847717
180	0x3ea8203c	0.32837093
181	0x3e83b44f	0.25723502
182	0xbf418d76	-0.7560648
183	0x3f47cafc	0.78044105
184	0x3e4af5b4	0.19820291
185	0x3f0e52f1	0.5559531
186	0x3f622c53	0.88348883
187	0x3ecd58d7	0.40106842
188	0x3ee2bdb4	0.44285357
189	0x3ee7df8e	0.45287746
190	0x3e5bd0dc	0.21466392
191	0x3eda839f	0.42678544
192	0x3e5d2a11	0.21598078
193	0x3e4b6826	0.19863948
194	0xbf42031d	-0.75786
195	0x3e07f15d	0.13275667
196	0x3ef0eb3e	0.47054476
197	0xbf0abd55	-0.5419515
198	0xbee21ddc	-0.44163406
199	0x3edd3156	0.43201703
200	0x3f00c207	0.5029606
201	0x3e4a669f	0.1976571
202	0x3eda97a1	0.4269381
203	0x3f35d394	0.7102597
204	0xbf3d4207	-0.73928875
205	0x3e381e00	0.17980194
206	0x3f162743	0.5865366
207	0x3f3988a8	0.72474146
208	0x3eccc363	0.39992818
209	0x3ecd5bc6	0.4010908
210	0x3e812f17	0.2523124
211	0x3e4a39c9	0.19748606
212	0x3eaa6b81	0.33285144
213	0x3e8afdbb	0.27146706
214	0xbf0c94de	-0.54914653
215	0x3e47212d	0.1944625
216	0x3e5f69e6	0.21817741
217	0xbf0a9d4a	-0.54146254
218	0x3f3218a7	0.69568866
219	0x3eb94c9f	0.3619127
220	0x3ee2172b	0.441583
221	0xbf1b17c1	-0.6058312
222	0x3ea6d5ca	0.32584983
223	0x3dd1eb82	0.10249998
224	0x3e7f34d8	0.24922502
225	0x3eec543f	0.46158025
226	0xbef9a56b	-0.48759016
227	0x3e4bf6ca	0.19918361
228	0x3ead80bf	0.33887288
229	0x3f0ca9af	0.54946417
230	0x3ef1ca24	0.47224534
231	0x3e37ff68	0.17968524
232	0x3eab4094	0.33447707
233	0x3e8295d4	0.25504935
234	0xbf02fe1a	-0.5116898
235	0x3eacdf00	0.33763885
236	0x3f22df5f	0.6362209
237	0x3e8a5c17	0.27023384
238	0x3e825dd2	0.25462204
239	0x3ed82df4	0.4222256
240	0x3f23f5df	0.64047045
241	0x3f0b6f10	0.5446634
242	0x3e4c269d	0.19936605
243	0x3f5e99d6	0.86953485
244	0x3e15f457	0.1464399
245	0x3ef93f37	0.48681042
246	0x3e282d5c	0.16423553
247	0x3ddb199e	0.106982455
248	0xbf134fc8	-0.5754361
249	0x3f31ff80	0.6953049
250	0x3dfc8851	0.12330688
251	0x3e5b61eb	0.21424071
252	0x3edc6f4a	0.43053657
253	0x3ee7a169	0.45240334
254	0xbf0f905b	-0.56079644
255	0xbf187bc4	-0.5956385

linear2.bias f4 [256]
0	0x3eefd34d	0.46840897
1	0x3effa8a1	0.4993334
2	0x3eec7913	0.46186122
3	0x3ee06c33	0.4383255
4	0xbd69cb40	-0.0570786
5	0x3ee9170c	0.45525396
6	0x3f026083	0.50928515
7	0x3eb2baa2	0.34908015
8	0x3dd868dc	0.10566875
9	0x3ecc7deb	0.39939818
10	0x3f0cc792	0.5499202
11	0x3ee607b2	0.44927746
12	0x3f0b885a	0.5450493
13	0x3f0bb098	0.54566336
14	0x3edbfe57	0.42967483
15	0x3ecadfad	0.39623776
16	0xbe6260b4	-0.22107202
17	0xbe79dcec	-0.24400681
18	0x3f0b44f6	0.544021
19	0x3ee65078	0.44983268
20	0x3f039aa2	0.51407826
21	0x3ed6c552	0.41947418
22	0xbbcaf465	-0.006193685
23	0x3f1f5c42	0.6225015
24	0x3eee599a	0.46552736
25	0x3ef80054	0.4843775
26	0x3ee2949c	0.44254005
27	0x3f05657c	0.5210798
28	0x3ef4a658	0.4778316
29	0x3ee30373	0.4433857
30	0x3f1c25af	0.60995
31	0x3eeb909d	0.4600877
32	0x3eeb9474	0.46011698
33	0x3f0b8715	0.54502994
34	0x3f0013ea	0.50030386
35	0x3ec77b63	0.38961324
36	0x3ef75540	0.48307228
37	0x3c9e13b7	0.01929651
38	0x3f0469a1	0.51723677
39	0x3efde9c6	0.49592417
40	0x3ef47b9c	0.47750556
41	0x3ef31119	0.47473982
42	0x3ec94ece	0.39317936
43	0x3f0eb32e	0.55742157
44	0x3ed73d4d	0.42038956
45	0x3ee4da46	0.4469778
46	0x3f07b3e4	0.53008866
47	0x3ef29007	0.4737551
48	0x3f02c10c	0.51075816
49	0x3f027aa9	0.50968415
50	0x3f0c0447	0.54694027
51	0x3eced650	0.40397882
52	0x3efdee81	0.49596027
53	0x3f0af2e1	0.54276854
54	0x3ef64137	0.4809663
55	0x3f03656d	0.5132664
56	0x3ed33fc4	0.41259587
57	0xbd436482	-0.047703274
58	0x3f12ebea	0.57391226
59	0x3ee6189a	0.44940645
60	0x3ef87ffc	0.48535144
61	0x3f0cce46	0.5500225
62	0x3f019bc6	0.50628316
63	0x3ef7cfd9	0.48400763
64	0x3f01b6e3	0.5066969
65	0x3f01f7fd	0.50769025
66	0xbd1c67db	-0.03818498
67	0x3ec7bfac	0.39013422
68	0x3f092937	0.53578514
69	0x3ee8fefc	0.45507038
70	0x3ef27f52	0.47362763
71	0x3efe901c	0.49719322
72	0x3f0910f3	0.5354149
73	0x3f018fd0	0.50610065
74	0x3f043fef	0.51660055
75	0x3ec926bb	0.39287362
76	0x3f16afff	0.588623
77	0x3e44b795	0.19210656
78	0x3eee1822	0.46502787
79	0x3ee74223	0.45167646
80	0x3f11fd06	0.5702671
81	0x3ecc9375	0.3995625
82	0x3f021d79	0.5082622
83	0x3effb20a	0.4994052
84	0x3efea796	0.49737233
85	0x3f09468f	0.5362329
86	0x3eeca66f	0.4622073
87	0x3f12dc9d	0.5736788
88	0x3f20c690	0.6280298
89	0xbd497d32	-0.04919166
90	0x3ee6ee8b	0.4510387
91	0x3ee07aef	0.4384379
92	0x3ef7f760	0.4843092
93	0x3f02b336	0.51054704
94	0x3f08ff94	0.5351498
95	0x3eedf8b2	0.46478802
96	0xbe637396	-0.22212061
97	0x3efb3cdf	0.49069878
98	0x3e87f169	0.2655137
99	0x3f05c982	0.522606
100	0x3ee0f6a8	0.43938184
101	0x3f0297f0	0.5101309
102	0x3ef7cbc0	0.48397636
103	0x3f08d752	0.5345355
104	0xbdcb77a7	-0.09934931
105	0x3f05e07c	0.5229566
106	0x3ec6cd70	0.3882861
107	0x3f0ef015	0.55835086
108	0x3ee7e6d8	0.45293307
109	0x3ee28893	0.44244823
110	0x3ee4edcf	0.44712684
111	0x3f09bcde	0.53803813
112	0x3f0160d9	0.505384
113	0x3edc83e0	0.43069363
114	0x3ef7cc6c	0.4839815
115	0x3ef91901	0.4865189
116	0x3edb27c7	0.42803785
117	0x3eff9b49	0.4992316
118	0x3ecbfe9a	0.39842683
119	0x3f0ec1d7	0.55764526
120	0x3eeae7d3	0.45879993
121	0x3f05f966	0.52333677
122	0x3ee77d9f	0.4521303
123	0x3eed5dd9	0.46360663
124	0x3f0217e2	0.5081769
125	0x3ed63ff6	0.41845673
126	0x3ed97e87	0.42479345
127	0x3eff8efe	0.49913782
128	0x3f025903	0.5091707
129	0x3ec07e36	0.3759629
130	0x3f06928b	0.52567357
131	0x3f1f0432	0.62115777
132	0x3ee64ffa	0.44982892
133	0x3f0e879c	0.55675673
134	0x3edd3d60	0.43210888
135	0x3ec81044	0.3907491
136	0x3ee44772	0.44585758
137	0x3f20908a	0.6272055
138	0x3f0b3cd0	0.5438967
139	0x3ef96401	0.4870911
140	0x3f01af3d	0.5065802
141	0x3eefb393	0.46816692
142	0x3ef8aa0b	0.48567232
143	0x3ed5f623	0.4178935
144	0x3ee3cf24	0.44493973
145	0x3efd11e2	0.49427706
146	0x3f04c1e7	0.5185837
147	0x3ed88a55	0.4229304
148	0x3f0938b8	0.5360217
149	0x3ef4b7a9	0.47796372
150	0x3f153e14	0.5829785
151	0x3ef8b291	0.48573735
152	0x3f0490d4	0.5178349
153	0x3ecbf903	0.39838418
154	0x3ef533e8	0.47891164
155	0x3f070e06	0.52755773
156	0x3f0ed4f4	0.5579369
157	0x3f101e42	0.5629617
158	0x3efe2da5	0.496442
159	0x3f14c59c	0.5811403
160	0x3ee8fd28	0.45505643
161	0x3ef58877	0.47955677
162	0x3edef2d1	0.4354463
163	0x3efb873a	0.49126607
164	0x3edc869a	0.43071443
165	0x3f00a8a9	0.50257355
166	0x3ea3cc48	0.31991792
167	0x3ee87d82	0.45408255
168	0x3eebcb0d	0.46053353
169	0x3c9e93cd	0.019357586
170	0x3f05e2b4	0.52299047
171	0x3f0c4f44	0.5480845
172	0xbd711d19	-0.05886564
173	0xbe82f8f5	-0.25580564
174	0xbc79ab1e	-0.015238551
175	0x3efa064f	0.48832938
176	0x3eef5da1	0.4675112
177	0x3ede5ee1	0.43431762
178	0x3ef95af8	0.48702216
179	0x3ed2eeb2	0.41197735
180	0x3efe7e86	0.49705905
181	0x3ef02eab	0.46910605
182	0x3ef988bc	0.48737133
183	0x3f0c9e08	0.54928637
184	0x3efd640e	0.49490398
185	0x3edc6842	0.43048292
186	0x3ec0c6fb	0.3765181
187	0x3ef93991	0.48676732
188	0x3f0679e1	0.5252972
189	0x3ed2ede1	0.41197112
190	0x3ef44d99	0.47715452
191	0x3eff6c82	0.49887472
192	0x3f127511	0.5720988
193	0x3eee5dff	0.46556088
194	0x3ef2bbe8	0.47408986
195	0x3ee9cfe4	0.4566642
196	0x3ec82b5f	0.3909559
197	0x3ef747b2	0.48296887
198	0x3f01f073	0.5075752
199	0x3efeb844	0.4974996
200	0x3ed02657	0.4065425
201	0x3f115964	0.56777024
202	0x3f052df0	0.5202322
203	0x3ed94e2e	0.4244246
204	0x3efa3303	0.48867044
205	0x3ee167ef	0.44024608
206	0x3ecfd06c	0.405887
207	0x3f03bd9f	0.51461214
208	0x3ef1503a	0.4713152
209	0x3ee9f01d	0.45691004
210	0x3f0bac30	0.5455961
211	0x3f02918e	0.5100335
212	0x3ee2d097	0.44299766
213	0x3ecec3e8	0.4038384
214	0x3edc7c43	0.43063554
215	0x3f1563ee	0.58355606
216	0x3f08e18c	0.5346916
217	0x3ed4d9aa	0.41572315
218	0x3efd5b6f	0.4948382
219	0x3f0d7962	0.5526334
220	0x3ee31581	0.44352344
221	0x3ef82553	0.48465976
222	0x3ed224af	0.41043612
223	0xbe634f84	-0.22198302
224	0x3ef47dc3	0.477522
225	0x3ec68a19	0.38777235
226	0x3edda757	0.43291733
227	0x3edca392	0.43093544
228	0x3f019770	0.506217
229	0x3ef19dcb	0.471907
230	0x3f00443c	0.5010412
231	0x3ef9b0ac	0.48767602
232	0xbd6e7c44	-0.058223978
233	0x3ef20f60	0.47277355
234	0x3f0f4ba5	0.559748
235	0x3d63a9f4	0.055582
236	0x3ef22d93	0.47300395
237	0x3ee16e48	0.4402945
238	0x3ecbff75	0.39843336
239	0x3eec1ca0	0.4611559
240	0x3ebc7753	0.36809787
241	0x3ee47725	0.4462215
242	0x3eea6f5c	0.45788085
243	0x3ee7fe30	0.45311117
244	0x3ecda96a	0.40168315
245	0x3effec66	0.49985045
246	0x3ee3ed9c	0.4451722
247	0x3ed3467b	0.4126471
248	0x3f0a46ab	0.5401408
249	0x3f21b8bb	0.631725
250	0x3ef9c709	0.48784664
251	0x3f0d587c	0.5521314
252	0x3ee81a52	0.4533258
253	0x3f12ca64	0.57340074
254	0x3ef057d1	0.46942
255	0x3ee153ef	0.4400935

linear3.weight f4 [1, 256]
0	0xbf48c6ac	-0.7842815
1	0xbf3e3da0	-0.7431278
2	0xbf338c45	-0.7013591
3	0xbf46377a	-0.774284
4	0x3b429c55	0.0029695232
5	0xbf3d39c5	-0.73916274
6	0xbf2fedc7	-0.68722194
7	0xbf08d1ce	-0.53445137
8	0xbf0faf5d	-0.5612696
9	0xbf48811a	-0.78321993
10	0xbf2e5b0e	-0.6810769
11	0xbf47a30d	-0.7798317
12	0xbf2c1da2	-0.67232716
13	0xbf2c977c	-0.67418647
14	0xbf3b29c2	-0.7311059
15	0xbf3bffad	-0.73437005
16	0x3f8d34ca	1.1031735
17	0x3f930b30	1.1487789
18	0xbf31b54a	-0.6941725
19	0xbf38c267	-0.72171634
20	0xbf47086b	-0.7774722
21	0xbf4b2bf8	-0.79363966
22	0x3b14a374	0.0022680433
23	0xbf2e9a6c	-0.6820438
24	0xbf469e27	-0.7758507
25	0xbf3bbfd8	-0.73339605
26	0xbf39dbaa	-0.72600806
27	0xbf3150fa	-0.69264185
28	0xbf3c8ade	-0.73649395
29	0xbf348991	-0.7052241
30	0xbf2e1330	-0.6799803
31	0xbf36c7f2	-0.7139884
32	0xbf3fd3ed	-0.7493275
33	0xbf3159da	-0.6927773
34	0xbf2ecff7	-0.6828608
35	0xbf448007	-0.76757854
36	0xbf481664	-0.78159165
37	0x3f81670e	1.0109575
38	0xbf3bc2f6	-0.7334436
39	0xbf2f25cd	-0.68417054
40	0xbf49037e	-0.78520954
41	0xbf34a891	-0.7056971
42	0xbf471ad5	-0.7777532
43	0xbf3907cd	-0.7227753
44	0xbf40962f	-0.7522916
45	0xbf49dc14	-0.7885144
46	0xbf3cb2d7	-0.7371039
47	0xbf2c85af	-0.67391485
48	0xbf33e9b3	-0.7027847
49	0xbf2d67cf	-0.67736524
50	0xbf37f40c	-0.7185676
51	0xbf458f1f	-0.7717151
52	0xbf435e0e	-0.7631539
53	0xbf34d2fe	-0.7063445
54	0xbf432b87	-0.7623829
55	0xbf4a7fd7	-0.7910132
56	0xbf475214	-0.77859616
57	0xbb283393	-0.0025665506
58	0xbf3081b2	-0.689479
59	0xbf478053	-0.7793018
60	0xbf31096f	-0.6915502
61	0xbf2f7125	-0.6853202
62	0xbf41eff3	-0.7575676
63	0xbf41f4a6	-0.7576393
64	0xbf359683	-0.7093279
65	0xbf32caac	-0.698405
66	0x3aac1360	0.0013128333
67	0xbf47cbe8	-0.7804551
68	0xbf343130	-0.70387554
69	0xbf39338e	-0.7234429
70	0xbf4520f2	-0.77003396
71	0xbf4544cb	-0.77058095
72	0xbf53cf66	-0.8273834
73	0xbf1b95bb	-0.60775346
74	0xbf31cd6c	-0.69454074
75	0xbf455f9f	-0.7709903
76	0xbf2a5c1f	-0.66546816
77	0xbf440ea1	-0.7658482
78	0xbf3c638c	-0.73589396
79	0xbf3832a1	-0.71952254
80	0xbf3100f6	-0.6914209
81	0xbf1f4320	-0.622118
82	0xbf2d62c9	-0.6772886
83	0xbf352745	-0.70763046
84	0xbf3efdee	-0.74606216
85	0xbf3160c3	-0.6928827
86	0xbf55a278	-0.8345103
87	0xbf402695	-0.7505887
88	0xbf29490f	-0.66127104
89	0x3a698d2c	0.0008909281
90	0xbf475704	-0.7786715
91	0xbf34b1f2	-0.70584023
92	0xbf4bc8dd	-0.7960337
93	0xbf37c5ef	-0.717864
94	0xbf321a73	-0.6957161
95	0xbf50ed72	-0.8161231
96	0x3f6ff909	0.9373937
97	0xbf483976	-0.7821268
98	0xbf26001f	-0.64843935
99	0xbf355525	-0.70833045
100	0xbf3f25a0	-0.74666786
101	0xbf4a18ea	-0.78944266
102	0xbf46fb3a	-0.7772709
103	0xbf302cd8	-0.68818426
104	0x3fb7f839	1.4372627
105	0xbf30bba6	-0.6903633
106	0xbf4802d3	-0.7812931
107	0xbf2f6a2b	-0.68521374
108	0xbf4db748	-0.8035779
109	0xbf45b3e9	-0.77227646
110	0xbf3436bd	-0.70396024
111	0xbf308601	-0.68954474
112	0xbf420ae2	-0.75797856
113	0xbf3e51e5	-0.7434371
114	0xbf328a2b	-0.6974208
115	0xbf464eb9	-0.7746387
116	0xbf2477ae	-0.64245117
117	0xbf409e43	-0.7524149
118	0xbf4568ed	-0.7711323
119	0xbf35746a	-0.7088076
120	0xbf571658	-0.8401847
121	0xbf3c301c	-0.7351091
122	0xbf40cbe8	-0.75311136
123	0xbf32212a	-0.69581854
124	0xbf1e721b	-0.6189286
125	0xbf3fadbf	-0.7487449
126	0xbf4544c1	-0.77058035
127	0xbf463c2f	-0.7743558
128	0xbf34ad23	-0.70576686
129	0xbf4674c1	-0.775219
130	0xbf32250c	-0.6958778
131	0xbf40c8ea	-0.7530657
132	0xbf156ab7	-0.5836596
133	0xbf33ce5d	-0.7023676
134	0xbf38fe69	-0.722632
135	0xbf476d8f	-0.7790155
136	0xbf4702e6	-0.777388
137	0xbf3c8f3f	-0.73656076
138	0xbf3afa74	-0.7303841
139	0xbf457733	-0.7713501
140	0xbf3cba17	-0.7372145
141	0xbf4707a6	-0.77746046
142	0xbf365b1f	-0.7123279
143	0xbf3fedc5	-0.7497218
144	0xbf3f0eb8	-0.74631834
145	0xbf482c94	-0.7819302
146	0xbf4af30b	-0.79277104
147	0xbf4630cd	-0.77418214
148	0xbf49a026	-0.7875999
149	0xbf410b0a	-0.7540747
150	0xbf2b3454	-0.6687672
151	0xbf46d859	-0.7767387
152	0xbf3b2bf1	-0.73113924
153	0xbf46e05a	-0.77686083
154	0xbf3e99da	-0.7445351
155	0xbf36be87	-0.7138447
156	0xbf4135b4	-0.7547257
157	0xbf2ec0d4	-0.6826298
158	0xbf2e1318	-0.67997885
159	0xbf402265	-0.7505248
160	0xbf41eb96	-0.757501
161	0xbf457d47	-0.77144283
162	0xbf34f726	-0.7068962
163	0xbefc5036	-0.49279946
164	0xbf477208	-0.7790837
165	0xbf36fdcb	-0.7148101
166	0xbf125d2d	-0.57173425
167	0xbf45f2a0	-0.7732334
168	0xbf3580c6	-0.7089962
169	0x3a3093ab	0.00067358714
170	0xbf39fb34	-0.7264893
171	0xbf3ba417	-0.73297256
172	0x3a960841	0.0011446552
173	0x3f93685d	1.1516224
174	0xbaa24d0e	-0.0012382583
175	0xbf385523	-0.7200491
176	0xbf46c327	-0.7764153
177	0xbf498256	-0.787145
178	0xbf351727	-0.7073845
179	0xbf41c98c	-0.7569816
180	0xbf3cc728	-0.7374139
181	0xbf2bcc02	-0.67108166
182	0xbf41252f	-0.7544736
183	0xbf39e05b	-0.72607964
184	0xbf3798e7	-0.71717685
185	0xbf2947dd	-0.6612528
186	0xbf497cd6	-0.7870611
187	0xbf48931c	-0.7834947
188	0xbf55b9c2	-0.8348657
189	0xbf41191e	-0.7542895
190	0xbf468f2e	-0.77562225
191	0xbf31e9bd	-0.6949728
192	0xbf3f4ca8	-0.74726343
193	0xbf490e8c	-0.7853782
194	0xbf3a38b1	-0.72742754
195	0xbf455937	-0.77089256
196	0xbf46f587	-0.77718395
197	0xbf46a33e	-0.7759284
198	0xbf3cd4fc	-0.7376249
199	0xbf3a3efe	-0.7275237
200	0xbf461150	-0.77370167
201	0xbf3042dd	-0.68852025
202	0xbf31b0a2	-0.69410145
203	0xbf4972fb	-0.7869107
204	0xbf2d7aaf	-0.67765325
205	0xbf4280d6	-0.7597784
206	0xbf413dbf	-0.7548484
207	0xbf4014b3	-0.75031585
208	0xbf45f535	-0.7732728
209	0xbf468d31	-0.7755919
210	0xbf36f527	-0.7146782
211	0xbf40be72	-0.75290596
212	0xbf44b227	-0.7683434
213	0xbf3fbd3e	-0.74898136
214	0xbf3ec475	-0.7451852
215	0xbf2dced5	-0.67893726
216	0xbf3a6bbe	-0.7282065
217	0xbf428de9	-0.7599779
218	0xbf449387	-0.7678761
219	0xbf2f3117	-0.6843428
220	0xbf481f2f	-0.7817258
221	0xbf41f905	-0.757706
222	0xbf46873f	-0.7755012
223	0x3f894b64	1.0726132
224	0xbf34f01a	-0.70678866
225	0xbf47bc46	-0.7802166
226	0xbf252b25	-0.6451896
227	0xbf3c96f1	-0.7366782
228	0xbf32e431	-0.6987944
229	0xbf3ca5b4	-0.7369034
230	0xbf3a4724	-0.727648
231	0xbf326c18	-0.6969619
232	0x3b00aade	0.0019633095
233	0xbf292b43	-0.6608164
234	0xbf1ba222	-0.6079427
235	0x3ac33dd4	0.0014895746
236	0xbf3e32de	-0.7429637
237	0xbf3ce02b	-0.73779553
238	0xbf44bd61	-0.7685147
239	0xbf46c425	-0.7764304
240	0xbf5b1881	-0.85584265
241	0xbf50dc1f	-0.8158588
242	0xbf40af8a	-0.7526785
243	0xbf47ae5c	-0.78000426
244	0xbf44db48	-0.76897097
245	0xbf485e42	-0.78268826
246	0xbf3e7534	-0.7439759
247	0xbf3a11bd	-0.72683316
248	0xbf2f7235	-0.6853364
249	0xbf2afaf8	-0.667892
250	0xbf475c19	-0.77874905
251	0xbf30e456	-0.69098413
252	0xbf4694a6	-0.7757057
253	0xbf30a67f	-0.6900405
254	0xbf46dde3	-0.7768232
255	0xbf1b8a0f	-0.60757536
