testing/scripts/outputs/DDPG_Env/20221213-030633/models/390critic_checkpoint.pt (torch, 282455 bytes, 5 tensors)

linear1.weight f4 [256, 15]
0.28981072 -0.18838611 -0.99483234 -0.10056584 0.56901103 0.5171009 0.26975647 -0.12662527
-0.5043414 0.3980393 -0.19923061 0.045068245 0.159528 -0.17960727 -0.19137374 -0.083029486
-0.5437174 -1.2499257 -0.94850713 0.014323461 0.06791443 -0.47593123 0.049619902 0.28470173
0.2239429 0.13092151 0.09653071 0.056331586 -0.08211902 0.25744906 0.2361745 0.13048027
0.113177896 -0.09127 -0.40615523 0.23594187 -0.25115174 -0.33482495 -0.39465985 0.17072769
0.017277565 0.21103156 0.13403948 -0.11389788 -0.05215068 -0.2379992 -0.11717778 -0.43586612
-0.41325602 -0.22172365 -0.16299367 -0.44673613 -0.9257117 0.21385644 0.35254082 0.28356555
0.08816957 -0.006016825 -0.07421413 -0.226647 -0.46107346 -0.12822573 0.048619118 -0.3148017
-1.1512516 -0.6132214 -0.62506205 -0.26593983 -0.2579784 -0.6781396 -0.012583917 0.22717811
0.02975924 0.22487304 -0.057059564 -0.24721098 -0.028450394 -0.24830078 -0.4844209 -0.64102364
-0.77308565 -1.3167827 -0.3680019 -0.30280226 -0.6424255 0.018674498 0.2668206 0.04638221
0.05364412 0.088337645 0.005299441 -0.44688758 0.0036157353 -0.13514994 -0.5419667 0.010052879
-0.5202034 -0.4004189 0.15468387 0.1735163 -0.10480729 0.28429517 0.0072204787 -0.21020442
0.027749479 0.21837212 -0.6187789 -1.5407528 -0.9521865 0.20097573 0.071324326 -0.30338416
-0.18986118 0.4651593 0.22925243 0.13651218 0.09031801 0.05855429 0.25141737 -0.15204346
0.1285303 0.334107 -0.6728633 -0.7764146 -0.34138885 0.02068669 -0.47691625 -0.18319494
-0.035571966 -0.39338574 -0.17149632 0.30921525 -0.12257658 -0.07493948 0.20934545 -0.017493049
-0.71813947 -0.1736367 -0.6158065 -0.07530328 -0.017214091 -0.3319214 -0.39741188 0.07022706
0.41648433 -0.10587471 -0.046981998 0.43212327 0.004674196 0.17565377 0.18989438 0.43301654
0.5242098 0.7296977 0.53692347 0.35631493 0.22493692 0.64669114 0.5164029 0.7231393
0.05282837 -0.50729686 0.04677559 0.051446266 -0.24311318 -0.43872032 -0.68291765 0.11385312
-0.20224118 -1.0395104 -2.097981 -1.5336593 -0.36093104 0.20342608 -0.4236503 0.021174755
0.09774082 -0.007418488 0.0034424525 -0.0241241 -0.1456795 -0.16793098 0.001763142 -0.53871554
-0.5938169 -0.32251075 -0.41743731 -0.99873734 -0.12049045 0.5494897 0.39208555 0.07637493
-0.035385806 -0.112346426 0.10864928 -0.628063 -0.20240214 -0.35046 -0.52632093 -1.2269328
-1.4538518 -1.1350883 -0.12989557 0.27846527 -0.5154246 0.07540597 0.10864142 -0.04134155
-0.10438568 0.031552505 0.02351531 -0.3415498 -0.039881475 -0.124744385 -0.2011716 -0.5504227
-0.45715162 -0.25183794 -0.01660704 0.27757117 0.38906637 0.17355762 0.21496274 0.018320316
0.044477995 0.14791547 0.47564837 0.79839414 0.5859512 0.40756375 -0.28312346 0.05059565
0.65631515 0.43793175 -0.01742126 -0.020843929 -0.59372175 0.18232939 -0.30147988 -0.26664495
-0.027082575 0.3455869 -0.4440281 -1.2568227 -0.6566535 -0.7281459 -1.3182747 -1.7677381
-1.189874 -0.53522205 0.021318702 0.13793753 -0.089727916 -0.2452791 0.43656892 0.05881834
00000000: 1262 943e 4ae8 40be 55ad 7ebf 77f5 cdbd
00000010: b5aa 113f b960 043f 851d 8a3e 0eaa 01be
00000020: 851c 01bf cfcb cb3e 1c03 4cbe 7b99 383d
00000030: 4f5b 233e f8ea 37be 7af7 43be 5d0b aabd
00000040: 1031 0bbf 91fd 9fbf 5dd1 72bf f3ac 6a3c
00000050: b816 8b3d 42ad f3be 3d3e 4b3d 6dc4 913e
00000060: 4a51 653e 4a10 063e e5b1 c53d f3bb 663d
00000070: 042e a8bd 5dd0 833e bad7 713e 9f9c 053e
00000080: d0c9 e73d c4eb babd 94f3 cfbe bf9a 713e
00000090: f696 80be 2d6e abbe db10 cabe 3dd3 2e3e
000000a0: ae89 8d3c a818 583e a541 093e 4b43 e9bd
000000b0: f49b 55bd 10b6 73be e7fa efbd d829 dfbe
000000c0: 4b96 d3be 860b 63be d0e7 26be 99ba e4be
000000d0: 71fb 6cbf 2ffd 5a3e 3b80 b43e 812f 913e
000000e0: 3f92 b43d c928 c5bb 94fd 97bd 2716 68be
000000f0: d211 ecbe 9b4d 03be d724 473d b02d a1be
00000100: 365c 93bf 14fc 1cbf 1104 20bf 4429 88be
00000110: bf15 84be 8f9a 2dbf c62c 4ebc 61a1 683e
00000120: a6c9 f33c 1e45 663e 4ab7 69bd e024 7dbe
00000130: cd10 e9bc 8f42 7ebe 0406 f8be 201a 24bf
00000140: f1e8 45bf 568c a8bf bf6a bcbe e608 9bbe
00000150: ff75 24bf 43fb 983c b69c 883e 46fb 3d3d
00000160: f0b9 5b3d 5eea b43d efa6 ad3b 73ce e4be
00000170: f9f5 6c3b bf64 0abe 54be 0abf d5b4 243c
00000180: 0d2c 05bf b503 cdbe 7365 1e3e 42ae 313e
00000190: 34a5 d6bd 238f 913e c499 ec3b d43f 57be
000001a0: e052 e33c f19c 5f3e 4b68 1ebf 6337 c5bf
000001b0: 7fc2 73bf 95cc 4d3e 7d12 923d 2b55 9bbe
000001c0: f86a 42be 5c29 ee3e 26c1 6a3e d9c9 0b3e
000001d0: a6f8 b83d a0d6 6f3d c7b9 803e 48b1 1bbe
000001e0: 729d 033e 1310 ab3e c540 2cbf 1bc3 46bf
000001f0: 85ca aebe 2277 a93c 5e2e f4be 7497 3bbe
00000200: e9b3 11bd db69 c9be bb9c 2fbe 7651 9e3e
00000210: 6e09 fbbd df79 99bd a75e 563e 954d 8fbc
00000220: fdd7 37bf d2cd 31be 7fa5 1dbf 9b38 9abd
00000230: 9104 8dbc 9af1 a9be 9279 cbbe 34d3 8f3d
00000240: 6f3d d53e d7d4 d8bd 3270 40bd 433f dd3e
00000250: ff29 993b 95de 333e ac73 423e 58b4 dd3e
00000260: 9d32 063f 78cd 3a3f d173 093f e96e b63e
00000270: dd55 663e 8d8d 253f fb32 043f a81f 393f
00000280: 9062 583d 35de 01bf c397 3f3d 52b9 523d
00000290: a9f2 78be f39f e0be b1d3 2ebf d32b e93d
000002a0: 5018 4fbe ad0e 85bf 5245 06c0 f34e c4bf
000002b0: f4cb b8be ed4e 503e b1e8 d8be ae76 ad3c
000002c0: 572c c83d ca16 f3bb c59a 613b e89f c5bc
000002d0: 022d 15be 19f6 2bbe 3a19 e73a 43e9 09bf
000002e0: 6204 18bf 2120 a5be 58ba d5be 40ad 7fbf
000002f0: b2c3 f6bd 5bab 0c3f 70bf c83e 766a 9c3d
00000300: b5f0 10bd e215 e6bd 8483 de3d bdc8 20bf
00000310: 8242 4fbe 7e6f b3be f8bc 06bf 220c 9dbf
00000320: d117 babf 934a 91bf 5803 05be 0093 8e3e
00000330: def2 03bf 726e 9a3d 657f de3d c255 29bd
00000340: 29c8 d5bd 333d 013d 2ea3 c03c 9edf aebe
00000350: c25a 23bd fc79 ffbd eeff 4dbe 81e8 0cbf
00000360: c70f eabe e7f0 80be 7d0b 88bc cf1d 8e3e
00000370: b533 c73e 17b9 313e 311f 5c3e 7d14 963c
00000380: 8f2e 363d 2777 173e 2f88 f33e 8f63 4c3f
00000390: e600 163f 32ac d03e 8ff5 90be 623d 4f3d
000003a0: 4504 283f 9738 e03e 08b7 8ebc e3c0 aabc
000003b0: 26fe 17bf 8eb4 3a3e 925b 9abe b085 88be
000003c0: 47dc ddbc c4f0 b03e a757 e3be 91df a0bf
000003d0: 721a 28bf c567 3abf 3abd a8bf 3e45 e2bf
000003e0: cb4d 98bf 5004 09bf 8fa4 ae3c 7f3f 0d3e
000003f0: 45c3 b7bd 722a 7bbe f685 df3e 80eb 703d

linear1.bias f4 [256]
0.1295046 0.034654494 0.27727345 0.35936356 0.7963423 0.83071566 0.49485272 -0.040578242
0.5633626 0.059147157 -0.021858048 1.0112834 0.21902207 0.9082854 0.5536676 0.004124642
0.5431743 0.21902508 0.08954552 0.002953776 0.5816984 -0.014304458 0.5520404 -0.021581309
0.5819111 -0.3272561 0.4126644 0.66362023 0.33937678 0.37408987 0.2351778 0.11042482
-0.08492562 0.5407837 0.42932257 0.18680684 0.82671803 0.5205299 0.298579 -0.38950175
0.35478747 0.19582063 0.8937583 0.6250025 0.09766699 -0.038752116 0.539864 0.6335436
0.69328916 0.692002 0.6240737 0.48993173 0.67154676 0.72364485 0.5461979 0.6295821
0.4186981 0.50150067 0.71503067 0.5494808 -0.1013395 -0.014213587 0.10478798 0.2926329
0.09664328 0.5531488 0.45253184 0.669242 0.35905004 0.5988395 0.6351092 0.23690529
0.23041849 0.40379587 0.47016507 0.08665278 0.33149886 -0.20053612 0.70788914 -0.16513735
0.7334455 -0.045136556 0.0957675 -0.35963017 0.6055018 0.36646286 0.26620936 0.4653254
0.55094373 -0.3596239 -0.16716544 0.680265 -0.44089863 0.45889866 0.4969285 -0.15901177
-0.071991265 0.32601726 0.25521407 -0.53200847 0.34788078 0.4638043 0.70389056 -0.10224299
0.17700417 0.37719795 0.18693717 0.44258797 0.63895977 0.6663072 0.6641619 0.00012080618
0.52253073 0.24168628 0.47564703 -0.252901 0.518386 0.37726283 0.5893624 0.6484806
-0.48696035 0.5349258 0.8091066 0.67834616 0.4694793 0.5129222 -0.03442435 -0.13828272
0.30060473 0.19432639 0.32909706 0.21405353 0.7350202 -0.43035242 -0.08243789 0.3490218
0.7578127 0.17111874 0.42628592 0.59813654 0.14632025 0.31718075 0.78546154 0.60759026
0.44239667 0.6357694 0.353959 0.21875349 -0.52585816 0.67606 0.036796033 0.5077088
0.08808931 0.07349085 0.13670434 0.28173915 -0.38487792 0.58347 -0.034491397 -0.6828092
0.13428816 0.29862446 0.20700042 -0.052662157 0.46567392 0.7631711 0.6230392 -0.2801442
0.38087007 0.63639003 0.4583495 0.57880723 0.6166038 0.377659 0.27741632 0.295621
-0.17459804 0.34675848 -0.1858651 0.2363484 0.14336963 0.57106096 0.013756659 0.4367256
0.6397003 0.20257455 0.3842613 0.009758464 0.71625996 0.7562403 0.4843996 0.65907013
0.35765743 0.26001477 -0.28977555 0.6048806 0.4162955 -0.19641614 -0.040506616 -0.029744716
0.7604902 0.7808787 -0.022670668 0.6561366 -0.21993339 0.46323943 0.4156529 0.7281216
0.6981 0.0958602 0.15407963 0.0931446 0.31961626 0.35739917 -0.06668324 0.39131337
0.45599532 -0.24310613 0.6009585 0.4865028 0.47622046 0.21315281 0.016330985 0.43056375
0.6290582 0.16556364 -0.09207455 0.1736813 0.5093036 0.73320115 -0.017788978 0.063644044
0.6767544 0.55002064 -0.2759473 0.6863494 0.12689652 0.5188391 0.42069948 0.36127105
0.60943824 0.36745653 0.43821397 0.4923344 0.60639304 0.5957559 0.14010447 0.09181808
-0.27799302 0.2455065 0.60561883 0.64352155 0.62777907 0.4910938 -0.067325175 -0.31380543
00000000: db9c 043e dff1 0d3d c9f6 8d3e 80fe b73e
00000010: 17dd 4b3f c8a9 543f 565d fd3e 5f35 26bd
00000020: 8838 103f 4a44 723d a60f b3bc bc71 813f
00000030: 5247 603e 6485 683f 29bd 0d3f 0128 873b
00000040: 790d 0b3f 1c48 603e a463 b73d 2394 413b
00000050: 30ea 143f 3f5d 6abc 8552 0d3f 49cb b0bc
00000060: 20f8 143f 1d8e a7be c048 d33e 04e3 293f
00000070: cbc2 ad3e b588 bf3e 73d2 703e 6826 e23d
00000080: 7ced adbd cd70 0a3f 2bd0 db3e 4b4a 3f3e
00000090: cba3 533f 7341 053f 59df 983e c66c c7be
000000a0: b4a6 b53e 3485 483e 58cd 643f 2a00 203f
000000b0: a105 c83d 8aba 1ebd 8734 0a3f ea2f 223f
000000c0: 667b 313f 0b27 313f 4bc3 1f3f 55d8 fa3e
000000d0: 7dea 2b3f ca40 393f a0d3 0b3f 4b2c 213f
000000e0: 995f d63e 5962 003f 400c 373f c6aa 0c3f
000000f0: 158b cfbd 1be0 68bc 159b d63d fbd3 953e
00000100: e9ec c53d 299b 0d3f 41b2 e73e 7253 2b3f
00000110: 68d5 b73e 8c4d 193f 8496 223f 4d97 723e
00000120: d3f2 6b3e 55be ce3e 7ab9 f03e 0377 b13d
00000130: 38ba a93e 5759 4dbe 3938 353f c419 29be
00000140: 16c3 3b3f 1ce1 38bd c021 c43d 7221 b8be
00000150: 2a02 1b3f 05a1 bb3e 984c 883e 213f ee3e
00000160: a60a 0d3f a020 b8be 6b2d 2bbe d925 2e3f
00000170: 77bd e1be c4f4 ea3e 6a6d fe3e fbd3 22be
00000180: 2870 93bd bceb a63e 6bab 823e b531 08bf
00000190: 6e1d b23e c277 ed3e 2c32 343f c664 d1bd
000001a0: 9540 353e 1720 c13e 756c 3f3e e49a e23e
000001b0: de92 233f 1c93 2a3f 8406 2a3f 5359 fd38
000001c0: 93c4 053f 9c7c 773e 0288 f33e 3d7c 81be
000001d0: f2b4 043f 9828 c13e 74e0 163f d302 263f
000001e0: de52 f9be e6f0 083f 9c21 4f3f 18a8 2d3f
000001f0: 975f f03e df4e 033f 8c00 0dbd fc99 0dbe
00000200: dde8 993e 7ffd 463e 697f a83e d930 5b3e
00000210: 492a 3c3f 2757 dcbe 32d5 a8bd fcb2 b23e
00000220: 0300 423f c039 2f3e 2642 da3e 7a1f 193f
00000230: fad4 153e 8465 a23e 0214 493f 098b 1b3f
00000240: d181 e23e c9c1 223f 1d3a b53e ea00 603e
00000250: a49e 06bf 4512 2d3f 70b7 163d 34f9 013f
00000260: 2b68 b43d 5f82 963d 39fc 0b3e 1d40 903e
00000270: b80e c5be 4a5e 153f da46 0dbd 95cc 2ebf
00000280: d682 093e 4ee5 983e ebf7 533e 46b4 57bd
00000290: d06c ee3e 2e5f 433f 7f7f 1f3f 106f 8fbe
000002a0: 6701 c33e 75ea 223f c9ac ea3e b62c 143f
000002b0: bfd9 1d3f 855c c13e 8309 8e3e a35b 973e
000002c0: d4c9 32be 548a b13e 6c53 3ebe 5105 723e
000002d0: 7dcf 123e 0d31 123f 9c63 613c 7f9a df3e
000002e0: 66c3 233f b46f 4f3e e6bd c43e f7e1 1f3c
000002f0: d05c 373f f798 413f 3903 f83e d2b8 283f
00000300: e01e b73e a820 853e 765d 94be 74d9 1a3f
00000310: af24 d53e 5021 49be 44ea 25bd 31ab f3bc
00000320: 7caf 423f abe7 473f d6b7 b9bc 91f8 273f
00000330: 3836 61be b82d ed3e 75d0 d43e 2d66 3a3f
00000340: aeb6 323f 5a52 c43d 0dc7 1d3e 99c2 be3d
00000350: bea4 a33e 06fd b63e 3991 88bd 3a5a c83e
00000360: 3878 e93e d0f0 78be 6bd8 193f e516 f93e
00000370: 2bd3 f33e bb44 5a3e 8fc8 853c da72 dc3e
00000380: f509 213f 8489 293e 9591 bcbd 83d9 313e
00000390: b961 023f 12b3 3b3f 31ba 91bc cf57 823d
000003a0: c73f 2d3f 27ce 0c3f f748 8dbe 98b4 2f3f
000003b0: 29f1 013e a4d2 043f ec65 d73e 85f8 b83e
000003c0: 2504 1c3f 4323 bc3e 955d e03e 4113 fc3e
000003d0: 933c 1b3f 7583 183f 8c77 0f3e 1e0b bc3d
000003e0: 1a55 8ebe 0e66 7b3e d609 1b3f d4bd 243f
000003f0: 21b6 203f a670 fb3e c8e1 89bd 1bab a0be

linear2.weight f4 [256, 256]
0.11655019 0.39884636 0.031374317 0.1465934 0.98050797 0.8944187 0.15002567 0.50877386
0.5307945 0.33373022 -0.8289494 1.3612969 0.17205463 0.9497667 0.11063398 -1.0233766
0.96052736 0.02354684 -1.2035317 0.35163105 0.4850748 0.27393487 0.46969426 0.3578645
0.39360812 0.5752353 0.47804287 0.18174551 0.44997343 0.17031823 0.52374995 -0.57716656
-0.90801364 0.73646533 0.91906303 0.24343623 1.0447143 0.3402693 0.24616694 -0.8518758
0.09577979 0.73725176 1.2216165 0.8514689 0.29920983 0.3616429 0.18586744 0.3415561
0.7138248 0.17565323 0.3255401 0.19152878 0.121917404 0.14762324 0.4111393 0.32989323
0.89076173 0.05856864 0.6520384 0.33717245 0.4183888 0.106353424 0.83845663 0.6912801
0.3102463 0.26175013 0.23249464 0.20954755 -0.050134163 0.5424648 0.5743336 -0.63414437
0.7929462 0.20040247 0.3502355 -0.8783695 0.40948105 -1.2859323 0.13960245 0.36478424
0.4448463 0.10807209 -1.474233 -0.9615537 0.44725463 0.31374124 0.6045413 0.32460082
0.122959 -0.7519699 -0.645772 0.23583628 -0.7357064 0.30305898 0.10726599 -0.5329763
0.43071103 0.2685729 0.8760418 -0.74058664 0.279606 0.3648919 0.24066648 -0.79617566
0.26594153 0.64247954 -0.047297835 0.2273967 0.30531034 0.6357372 1.0454443 0.31527975
0.51943654 0.20830418 0.25665772 -0.9427497 0.3206364 0.13523239 0.3195445 0.5802518
-0.80957377 0.40602538 0.26500678 0.4599641 0.6179162 0.2815284 -0.34022045 0.28556758
0.6537825 0.6394429 0.2927999 -0.87977386 0.17645307 -0.80682135 0.24257873 0.01694753
0.54731244 0.6781266 0.32677373 0.31284812 0.27052188 0.36270997 0.644137 0.33130276
0.20726089 0.23389575 0.3011844 0.98410815 -1.1110377 0.5544517 0.23922448 0.33376363
0.6412114 0.46792626 0.6710676 0.49318802 -0.64094645 0.1992822 -0.70978665 -0.63963526
0.64075255 0.34080315 0.68029284 0.16163747 0.025079131 0.24608348 0.54783 -1.1802211
0.38980848 0.24015772 0.26516858 0.21441272 1.0375454 0.1800332 0.8326703 0.7895137
0.3394357 0.36984402 -0.5318715 0.29579082 0.2651386 0.10107745 -0.92358893 0.7593396
0.17171724 0.64728045 0.8881863 0.43944195 0.42347047 0.608762 0.19318826 0.3445952
0.2681082 0.30770695 -0.77423257 0.20197873 0.51321036 -0.51723427 -0.5363753 0.46869677
0.66917723 0.16394752 0.4625954 0.60976565 -0.72378296 0.21329822 0.6743063 0.7454649
0.7956869 0.36189678 0.1798127 0.27068284 0.573112 0.19807565 -0.5960328 0.094381906
0.29317856 -0.53476626 0.5982437 0.48194605 0.4210619 -0.8516845 0.22190201 -0.022553718
0.26989856 0.39460695 -0.5119458 0.45738167 0.5264725 0.7348676 0.5448939 0.21672077
0.22215825 0.1106423 -0.53933644 0.62510383 0.5177959 0.28282917 0.25029734 0.35435396
1.0440468 0.7975292 0.24645606 0.8431731 0.17954007 0.53423744 0.168447 0.17441106
-0.5896035 0.78234863 0.09629421 0.1483598 0.6278161 0.376054 -0.5856028 -0.55609095
00000000: deb1 ee3d 9735 cc3e 5b82 003d 951c 163e
00000010: 9202 7b3f a0f8 643f 54a0 193e 013f 023f
00000020: 26e2 073f b0de aa3e 0736 54bf fa3e ae3f
00000030: 172f 303e e923 733f 1194 e23d 01fe 82bf
00000040: 1fe5 753f 4de5 c03c 540d 9abf fc08 b43e
00000050: b95b f83e 3141 8c3e c47b f03e 043a b73e
00000060: 0187 c93e 9f42 133f 09c2 f43e 7f1b 3a3e
00000070: eb62 e63e e767 2e3e 7a14 063f 30c1 13bf
00000080: 9573 68bf fe88 3c3f b747 6b3f 5947 793e
00000090: 33b9 853f c737 ae3e 3013 7c3e 8814 5abf
000000a0: 3228 c43d 88bc 3c3f ee5d 9c3f def9 593f
000000b0: 0832 993e 4229 b93e 0954 3e3e 71e0 ae3e
000000c0: 39bd 363f 71de 333e 31ad a63e 1f20 443e
000000d0: d5af f93d 8c2a 173e da80 d23e c4e7 a83e
000000e0: f608 643f ace5 6f3d fdeb 263f dea1 ac3e
000000f0: 0f37 d63e d3cf d93d 18a5 563f bcf7 303f
00000100: 9ad8 9e3e 1d04 863e 1313 6e3e a293 563e
00000110: 7b59 4dbd f9de 0a3f 8707 133f 4957 22bf
00000120: 86fe 4a3f 4e36 4d3e 1152 b33e d3dc 60bf
00000130: 80a7 d13e 6e99 a4bf f2f3 0e3e 00c5 ba3e
00000140: e5c2 e33e e654 dd3d abb3 bcbf 6228 76bf
00000150: 8ffe e43e b1a2 a03e 38c3 1a3f 1432 a63e
00000160: eed1 fb3d 1981 40bf 5051 25bf 117f 713e
00000170: 4157 3cbf 8c2a 9b3e 45ae db3d 2371 08bf
00000180: 2886 dc3e 6382 893e 4744 603f 1697 3dbf
00000190: 8528 8f3e 1cd3 ba3e 4671 763e 2bd2 4bbf
000001a0: 7d29 883e 8a79 243f 60bb 41bd aeda 683e
000001b0: a351 9c3e acbf 223f 1ed1 853f 596c a13e
000001c0: cbf9 043f b14d 553e a468 833e 0b58 71bf
000001d0: 742a a43e 5c7a 0a3e 569b a33e 628b 143f
000001e0: 3a40 4fbf 8fe2 cf3e f8ae 873e 6a80 eb3e
000001f0: c22f 1e3f 7e24 903e 6031 aebe ea35 923e
00000200: 4a5e 273f 88b2 233f dee9 953e dc38 61bf
00000210: 1db0 343e d88b 4ebf 8f66 783e 8cd5 8a3c
00000220: ab1c 0c3f b499 2d3f e34e a73e a12d a03e
00000230: d881 8a3e 1fb5 b93e 2ae6 243f 84a0 a93e
00000240: 333c 543e 5e82 6f3e d734 9a3e 83ee 7b3f
00000250: 7c36 8ebf 8cf0 0d3f 43f7 743e 11e3 aa3e
00000260: 6e26 243f 0894 ef3e 16cb 2b3f 2483 fc3e
00000270: 1115 24bf a210 4c3e 94b4 35bf 23bf 23bf
00000280: 5c08 243f c07d ae3e ac27 2e3f 4b84 253e
00000290: c072 cd3c 4ffd 7b3e 963e 0c3f 7c11 97bf
000002a0: fa94 c73e e8eb 753e 2dc4 873e 028f 5b3e
000002b0: 4ace 843f a05a 383e e129 553f 921d 4a3f
000002c0: 84ca ad3e 325c bd3e bb28 08bf e571 973e
000002d0: 3fc0 873e b201 cf3d 5370 6cbf 1464 423f
000002e0: a5d6 2f3e 2cb4 253f 2d60 633f 89fe e03e
000002f0: 1fd1 d83e d4d7 1b3f 25d3 453e c86e b03e
00000300: 7a45 893e c48b 9d3e 1b34 46bf 83d3 4e3e
00000310: c161 033f 7769 04bf e44f 09bf 06f9 ef3e
00000320: 334f 2b3f dce1 273e 4ed9 ec3e 9a19 1c3f
00000330: d749 39bf d96a 5a3e 569f 2c3f cad6 3e3f
00000340: 23b2 4b3f 894a b93e d220 383e f196 8a3e
00000350: 78b7 123f 58d4 4a3e 9b95 18bf 4d4b c13d
00000360: 801b 963e 71e6 08bf 8026 193f a2c1 f63e
00000370: 6d95 d73e ff07 5abf 483a 633e 93c2 b8bc
00000380: 2530 8a3e ec09 ca3e e10e 03bf ee2d ea3e
00000390: e7c6 063f 4820 3c3f 2b7e 0b3f 0dec 5d3e
000003a0: 747d 633e 6e98 e23d f411 0abf ce06 203f
000003b0: 468e 043f fcce 903e f926 803e e26d b53e
000003c0: 53a3 853f e02a 4c3f fa5e 7c3e 31da 573f
000003d0: 5ad9 373e c9c3 083f 5f7d 2c3e d098 323e
000003e0: 41f0 16bf 0048 483f e635 c53d a2eb 173e
000003f0: 8eb8 203f 268a c03e 11ea 15bf fa5b 0ebf

linear2.bias f4 [256]
0.40975326 0.25325298 0.33694378 0.37301755 -0.0570786 0.38783547 0.39515543 0.20785175
0.2029048 0.33999628 0.42662588 0.393842 0.43581432 0.44606665 0.36040246 0.33400685
0.015708046 -0.25330696 0.4195283 0.37419125 0.4468466 0.3653946 0.21888155 0.5247496
0.4027721 0.41218325 0.36219957 0.40297663 0.4083455 0.33795196 0.51072675 0.36947164
0.3964326 0.44637263 0.37036076 0.3237565 0.41697022 0.24445263 0.44458053 0.3719645
0.42200896 0.3726629 0.3318984 0.45719275 0.35304967 0.38364443 0.45323622 0.3566779
0.38988578 0.4123004 0.4482923 0.3375272 0.39676452 0.44950894 0.4131462 0.40109316
0.34538883 -0.04471551 0.45888188 0.385948 0.35875103 0.41906103 0.44357172 0.42118648
0.41269666 0.3835324 -0.03818498 0.33340073 0.42506415 0.3564281 0.4083193 0.43781516
0.47637844 0.3480414 0.38415074 0.33096442 0.4776886 0.05469219 0.39058524 0.37450644
0.44203886 0.20231754 0.41074002 0.39531177 0.42865807 0.41265887 0.3995362 0.47747388
0.5233946 0.19790494 0.3828923 0.34028092 0.3810009 0.41394132 0.40462956 0.42677012
0.050310113 0.4341905 0.13765791 0.42771733 0.3801696 0.40568715 0.41611707 0.40404135
0.12000069 0.39829433 0.32974628 0.43074462 0.35708869 0.38058114 0.34150282 0.4140978
0.4377317 0.36363828 0.35058144 0.43045998 0.2153306 0.43385714 0.33509687 0.31670466
0.42062992 0.45445684 0.38437742 0.34415752 0.34755072 0.3503586 0.3622208 0.3682197
0.40803418 0.31797713 0.39608184 0.37586144 0.27816486 0.45212546 0.33763835 0.33924267
0.32857484 0.48925093 0.46192047 0.40077746 0.4255688 0.40251592 0.39857674 0.3615006
0.38030273 0.42820403 0.41694385 0.3597655 0.46682182 0.40950155 0.4854802 0.42091328
0.4263427 0.33925974 0.40932047 0.4276513 0.3137541 0.43988642 0.3875004 0.33613274
0.3894044 0.41657093 0.33828878 0.33986327 0.36712188 0.38995337 0.15277742 0.3888633
0.36120313 0.019357586 0.44622293 0.44963452 -0.05886564 -0.03592534 -0.015238551 0.3939723
0.40373465 0.367263 0.3927537 0.34639412 0.41545057 0.23778094 0.41932523 0.30572236
0.40360627 0.19824445 0.33042702 0.4195988 0.44950044 0.34788585 0.41565716 0.36701164
0.4321984 0.40553927 0.38522685 0.38707298 0.33302262 0.41696143 0.44972524 0.42397684
0.34476146 0.4479367 0.38668567 0.36636627 0.3772488 0.37611416 0.3387223 0.44554573
0.40693244 0.39342797 0.30350646 0.4437174 0.37629503 0.34127045 0.36294913 0.4539556
0.4523339 0.35264766 0.42978945 0.44238997 0.37624586 0.41608733 0.34905848 0.018132726
0.36950624 0.3211482 0.1996692 0.36446935 0.3763449 0.4060173 0.43394634 0.38254067
-0.058223978 0.2431634 0.3771438 0.055582 0.4073948 0.3687871 0.3347988 0.39548472
0.33884308 0.36291116 0.39266685 0.3893423 0.3411413 0.43714494 0.37854546 0.34122142
0.442671 0.51221704 0.42710626 0.42904076 0.38907045 0.47505695 0.40660638 0.27131566
00000000: 2ecb d13e 60aa 813e e583 ac3e 28fc be3e
00000010: 40cb 69bd 5f92 c63e d051 ca3e 17d7 543e
00000020: 47c6 4f3e fe13 ae3e b56e da3e a9a5 c93e
00000030: 0e23 df3e d962 e43e ac86 b83e f202 ab3e
00000040: 29ae 803c 73b1 81be 6acc d63e ff95 bf3e
00000050: 14c9 e43e 0015 bb3e 7c22 603e fd55 063f
00000060: 2538 ce3e af09 d33e 3972 b93e f452 ce3e
00000070: a912 d13e 0a08 ad3e fdbe 023f 632b bd3e
00000080: 37f9 ca3e f48a e43e ed9f bd3e 69c3 a53e
00000090: 1f7d d53e ca51 7a3e 0fa0 e33e 2272 be3e
000000a0: 8f11 d83e accd be3e 96ee a93e 2b15 ea3e
000000b0: edc2 b43e 0b6d c43e 940e e83e 7c9e b63e
000000c0: 1c9f c73e 0a19 d33e 9186 e53e 5dd0 ac3e
000000d0: b824 cb3e 0926 e63e e687 d33e 155c cd3e
000000e0: ced6 b03e 9c27 37bd 91f2 ea3e fa9a c53e
000000f0: 37ae b73e 2b8f d63e d51b e33e c1a5 d73e
00000100: fa4c d33e 5c5e c43e db67 1cbd 80b3 aa3e
00000110: 02a2 d93e be7d b63e 3a0f d13e 4f29 e03e
00000120: e0e7 f33e 7b32 b23e 68af c43e 2b74 a93e
00000130: 9a93 f43e eb04 603d cafa c73e 4fbf bf3e
00000140: eb52 e23e 542c 4f3e 844c d23e 4e66 ca3e
00000150: 1279 db3e 0648 d33e 0290 cc3e 7577 f43e
00000160: 30fd 053f 98a7 4a3e 760a c43e 4d39 ae3e
00000170: 8d12 c33e 1ef0 d33e 9b2b cf3e 9d81 da3e
00000180: fa11 4e3d 384e de3e 32f6 0c3e c4fd da3e
00000190: 97a5 c23e 3ab6 cf3e 4c0d d53e 82de ce3e
000001a0: ecc2 f53d 3ced cb3e 81d4 a83e 8f8a dc3e
000001b0: 54d4 b63e 88db c23e 75d9 ae3e a004 d43e
000001c0: 5f1e e03e cc2e ba3e 697f b33e 4065 dc3e
000001d0: a07f 5c3e 8622 de3e d191 ab3e 1d27 a23e
000001e0: ce5c d73e 91ae e83e 1ecd c43e 6a35 b03e
000001f0: 2bf2 b13e 3462 b33e 0175 b93e 4b87 bc3e
00000200: dbe9 d03e e6cd a23e 3dcb ca3e e970 c03e
00000210: a06b 8e3e fd7c e73e efde ac3e 37b1 ad3e
00000220: f63a a83e 197f fa3e d780 ec3e b432 cd3e
00000230: 27e4 d93e 9116 ce3e 4012 cc3e 9b16 b93e
00000240: 0ab7 c23e 8f3d db3e aa79 d53e 2f33 b83e
00000250: 4503 ef3e 30aa d13e dc90 f83e f281 d73e
00000260: 9749 da3e 74b3 ad3e 7492 d13e 1cf5 da3e
00000270: 61a4 a03e cb38 e13e 7466 c63e 9719 ac3e
00000280: 0360 c73e c948 d53e 3034 ad3e 8f02 ae3e
00000290: 66f7 bb3e f8a7 c73e af71 1c3e 1719 c73e
000002a0: 9eef b83e cd93 9e3c 5577 e43e 7f36 e63e
000002b0: 191d 71bd 7326 13bd 1eab 79bc bdb6 c93e
000002c0: 4fb6 ce3e e509 bc3e 0317 c93e 925a b13e
000002d0: f0b5 d43e d97c 733e ccb1 d63e a487 9c3e
000002e0: 7ba5 ce3e 9800 4b3e bb2d a93e a7d5 d63e
000002f0: ec24 e63e 181e b23e 04d1 d43e f3e8 bb3e
00000300: 1c49 dd3e d8a2 cf3e 743c c53e 6e2e c63e
00000310: f181 aa3e f87b d53e 6342 e63e 7e13 d93e
00000320: 9384 b03e f657 e53e aafb c53e 5c94 bb3e
00000330: c126 c13e 0992 c03e 026d ad3e 921e e43e
00000340: 7359 d03e 646f c93e 3365 9b3e ed2e e33e
00000350: bea9 c03e 00bb ae3e 78d4 b93e de6c e83e
00000360: 4f98 e73e 3c8e b43e 5d0d dc3e f080 e23e
00000370: 4ca3 c03e 6609 d53e cbb7 b23e 158b 943c
00000380: ec2f bd3e 896d a43e 1576 4c3e ba9b ba3e
00000390: 47b0 c03e 80e1 cf3e 372e de3e 5fdc c33e
000003a0: 447c 6ebd d4ff 783e fe18 c13e f4a9 633d
000003b0: 0d96 d03e aad1 bc3e c06a ab3e f97c ca3e
000003c0: d77c ad3e 7ecf b93e a10b c93e e057 c73e
000003d0: 13aa ae3e 76d1 df3e b6d0 c13e 93b4 ae3e
000003e0: c6a5 e23e a820 033f acad da3e 3bab db3e
000003f0: 3e34 c73e aa3a f33e b62e d03e e3e9 8a3e

linear3.weight f4 [1, 256]
-1.0838368 -0.731723 -0.900276 -1.0644337 0.0029695232 -0.94739544 -0.8793675 -0.99501014
-1.1650627 -1.0838821 -0.873013 -1.097767 -0.8515317 -0.84838754 -0.93669933 -0.95380646
1.4755967 1.3955137 -0.8937765 -0.9206015 -1.0412399 -1.1157993 0.41973567 -0.8609496
-1.0708183 -0.94233936 -0.9337031 -0.8896704 -0.94049656 -0.9073614 -0.8531845 -0.9147096
-0.9783833 -0.87926096 -0.8778265 -1.0315666 -1.0391963 1.7001085 -0.94306654 -0.8686289
-1.1092685 -0.9063862 -1.0765327 -0.92266166 -0.9820964 -1.0788789 -0.9390357 -0.855672
-0.9033186 -0.8579749 -0.924825 -1.0502175 -0.96932983 -0.8986168 -0.98758787 -1.017444
-1.0461556 -0.0059299595 -0.883165 -1.048277 -0.88508636 -0.8801574 -0.9996554 -0.9761475
-0.9121991 -0.8992514 0.0013128333 -1.0978235 -0.90320534 -0.92729646 -1.030393 -1.01785
-1.1395042 -0.9340057 -0.8902659 -1.0234745 -0.8294887 -1.4454308 -0.9429551 -0.9251854
-0.8922041 -0.88061494 -0.85733074 -0.90469164 -0.96203256 -0.88741547 -1.0684682 -0.9491802
-0.8290099 0.72409695 -1.0492567 -0.9029047 -1.0314664 -0.91971546 -0.89396226 -1.1808143
1.339561 -1.1008852 -1.1553915 -0.90931106 -0.9620748 -1.026572 -1.0319198 -0.88432366
2.070245 -0.8867783 -1.0909843 -0.8812959 -1.0342029 -1.0376897 -0.9015596 -0.8902931
-1.0046684 -0.97315025 -0.9016748 -1.0812124 -0.83768857 -0.9837028 -1.0323496 -0.7421791
-1.2102693 -0.9584962 -0.9887701 -0.89391214 -0.94085974 -0.96086085 -1.058096 -1.0066899
-0.90231615 -1.0955532 -0.9002891 -0.7269812 -0.8796162 -0.90155864 -0.92731327 -1.1121085
-1.0186564 -0.92683196 -0.9339387 -0.99786156 -0.9400819 -1.0377152 -0.91784656 -0.9675649
-0.95810515 -1.0563073 -1.0264134 -1.0255092 -1.0752586 -0.98276967 -0.8464382 -1.0395523
-0.93780583 -1.0888929 -0.968305 -0.90504575 -0.7337041 -0.87902987 -0.8693312 -0.72691315
-0.99545306 -1.0189513 -0.90721065 -0.7067391 -1.0341133 -0.91480315 -0.88510656 -1.0448661
-0.91246676 0.00067358714 -0.9264406 -0.93963826 0.0011446552 1.4724028 -0.0012382583 -0.92391425
-1.0365636 -1.0418489 -0.9130692 -1.0012746 -0.94061893 -0.74424416 -0.98735636 -0.73228383
-0.9200618 -0.72023445 -1.1244706 -1.0750582 -1.0599127 -0.96866626 -1.0806091 -0.8938253
-0.9312857 -1.0806767 -0.9301388 -1.0415156 -1.0742227 -1.0218126 -0.9479367 -0.93322
-1.0544997 -0.88416356 -0.89079523 -1.1018798 -0.86729455 -1.0262601 -0.9686822 -0.97586167
-1.0572668 -1.0824649 -0.7315784 -0.9837976 -1.0363635 -0.9862118 -0.9831414 -0.87702096
-0.93284607 -0.99668586 -1.0380354 -0.87773556 -1.0464426 -0.9889019 -1.0767444 1.4568229
-0.91061825 -1.0455132 -0.68769544 -0.9499937 -0.9040507 -0.950767 -0.9349222 -0.89635843
0.0019633095 -0.77721816 -0.87597144 0.0014895746 -0.9597076 -0.9451509 -1.0345038 -1.0594006
-1.2571617 -1.0432591 -0.9901312 -1.0804973 -1.024522 -1.0326816 -0.9855661 -0.9316208
-0.8717282 -0.8291292 -1.092234 -0.8916628 -1.0776564 -0.8741373 -1.0349835 -0.92190486
00000000: 2abb 8abf 3352 3bbf 7d78 66bf 5d3f 88bf
00000010: 559c 423b 8288 72bf 3a1e 61bf fcb8 7ebf
00000020: c620 95bf a6bc 8abf c87d 5fbf a183 8cbf
00000030: fbfd 59bf ed2f 59bf 87cb 6fbf a92c 74bf
00000040: 5ae0 bc3f 31a0 b23f 89ce 64bf 8aac 6bbf
00000050: 5947 85bf 83d2 8ebf 98e7 d63e 3167 5cbf
00000060: 9310 89bf 273d 71bf 2b07 6fbf 70c1 63bf
00000070: 62c4 70bf d648 68bf 4d6a 5abf 692a 6abf
00000080: 5477 7abf 3f17 61bf 3db9 60bf 600a 84bf
00000090: 6204 85bf 289d d93f cf6c 71bf 775e 5ebf
000000a0: 83fc 8dbf ed08 68bf d3cb 89bf 8e33 6cbf
000000b0: ab6a 7bbf b418 8abf a564 70bf 520d 5bbf
000000c0: e33f 67bf 3ea4 5bbf 55c1 6cbf 876d 86bf
000000d0: 0026 78bf c00b 66bf 8fd2 7cbf 9b3b 82bf
000000e0: 6de8 85bf 1b50 c2bb 1a17 62bf f12d 86bf
000000f0: 0595 62bf ff51 61bf 6be9 7fbf cde4 79bf
00000100: e185 69bf 5735 66bf 6013 ac3a 7b85 8cbf
00000110: 7738 67bf 4d63 6dbf ebe3 83bf e948 82bf
00000120: 46db 91bf ff1a 6fbf 77e8 63bf 3601 83bf
00000130: 5f59 54bf e003 b9bf 8165 71bf f3d8 6cbf
00000140: 7d67 64bf fb6f 61bf 077a 5bbf df99 67bf
00000150: c447 76bf a92d 63bf 91c3 88bf 79fd 72bf
00000160: fe39 54bf 6b5e 393f 0b4e 86bf c324 67bf
00000170: 1707 84bf 7972 6bbf b6da 64bf ec24 97bf
00000180: bc76 ab3f cee9 8cbf dee3 93bf 9cc8 68bf
00000190: 894a 76bf b666 83bf f315 84bf 0963 62bf
000001a0: e57e 0440 e703 63bf 60a5 8bbf 9c9c 61bf
000001b0: c360 84bf 04d3 84bf 9ccc 66bf 40ea 63bf
000001c0: f998 80bf 6020 79bf 29d4 66bf 2b65 8abf
000001d0: c272 56bf f2d3 7bbf 0824 84bf 73ff 3dbf
000001e0: 1bea 9abf 0260 75bf 0a20 7dbf 6dd7 64bf
000001f0: 2fdc 70bf fafa 75bf b16f 87bf 37db 80bf
00000200: 31fe 66bf 163b 8cbf 5979 66bf 711b 3abf
00000210: 872e 61bf 8ccc 66bf 6764 6dbf 9259 8ebf
00000220: 5563 82bf dc44 6dbf 9b16 6fbf db73 7fbf
00000230: 35a9 70bf dad3 84bf fef7 6abf 55b2 77bf
00000240: 6146 75bf 1435 87bf 8461 83bf e343 83bf
00000250: 13a2 89bf cb96 7bbf 2db0 58bf 0d10 85bf
00000260: 0b14 70bf d860 8bbf d6e2 77bf 14b1 67bf
00000270: 08d4 3bbf 1a08 61bf 7d8c 5ebf fb16 3abf
00000280: 03d6 7ebf ff6c 82bf f53e 68bf dbec 34bf
00000290: d35d 84bf 8a30 6abf 5896 62bf 2cbe 85bf
000002a0: 6c97 69bf ab93 303a 362b 6dbf 228c 70bf
000002b0: 4108 963a b277 bc3f 0e4d a2ba a585 6cbf
000002c0: 1eae 84bf 4e5b 85bf e7be 69bf c429 80bf
000002d0: 67cc 70bf c986 3ebf 63c3 7cbf f476 3bbf
000002e0: 2c89 6bbf 4961 38bf a7ee 8fbf 829b 89bf
000002f0: 38ab 87bf 83fa 77bf 6651 8abf bcd1 64bf
00000300: bd68 6ebf 9d53 8abf 941d 6ebf 6250 85bf
00000310: 2180 89bf c1ca 82bf fbab 72bf 82e7 6ebf
00000320: d9f9 86bf 8b58 62bf 280b 64bf 660a 8dbf
00000330: 0407 5ebf 7e5c 83bf 8ffb 77bf 12d2 79bf
00000340: 8554 87bf 368e 8abf b948 3bbf 29da 7bbf
00000350: 8fa7 84bf 6078 7cbf 28af 7bbf 7284 60bf
00000360: 00cf 6ebf ce26 7fbf 58de 84bf 47b3 60bf
00000370: d5f1 85bf ad28 7dbf c3d2 89bf 2c79 ba3f
00000380: 471e 69bf 60d3 85bf cf0c 30bf ca32 73bf
00000390: de6f 67bf 7765 73bf 1057 6fbf bf77 65bf
000003a0: deaa 003b c5f7 46bf aa3f 60bf d43d c33a
000003b0: 66af 75bf 69f5 71bf 9f6a 84bf 709a 87bf
000003c0: adea a0bf 8489 85bf 3d79 7dbf bc4d 8abf
000003d0: 8923 83bf e92e 84bf 0f4e 7cbf b37e 6ebf
000003e0: 9429 5fbf d041 54bf 53ce 8bbf 0344 64bf
000003f0: a5f0 89bf 76c7 5fbf 577a 84bf f501 6cbf
