testing/scripts/outputs/DDPG_Env/20221213-030633/models/420critic_checkpoint.pt (torch, 282455 bytes, 5 tensors)

linear1.weight f4 [256, 15]
0.30079117 -0.19176058 -1.0152254 -0.08909255 0.5957669 0.5132381 0.27717367 -0.13085157
-0.52781844 0.39390117 -0.18084621 0.039055612 0.14233302 -0.17445092 -0.19560546 -0.093968004
-0.55654377 -1.2561604 -0.93248236 0.022769721 0.06603682 -0.50349677 0.025890196 0.28651643
0.21344633 0.14079137 0.099572964 0.039601613 -0.10239607 0.25489888 0.22480029 0.14128461
0.13177492 -0.097838596 -0.43459755 0.22515135 -0.25855666 -0.35389736 -0.4079632 0.1564374
0.033912428 0.21085481 0.14096229 -0.12005052 -0.05830329 -0.24610394 -0.11096356 -0.4241352
-0.42218003 -0.2409587 -0.21995237 -0.52233565 -0.97612053 0.21109307 0.36043853 0.26256108
0.09962136 -0.005145864 -0.08207646 -0.2313533 -0.47497576 -0.11924606 0.06521468 -0.31674507
-1.1833405 -0.66836566 -0.6924092 -0.29168412 -0.25172472 -0.6883078 -0.01657028 0.20501284
0.02841498 0.22007884 -0.054378632 -0.25239012 -0.016769864 -0.22757086 -0.48908395 -0.678061
-0.82395715 -1.3676443 -0.37905717 -0.2818192 -0.63532794 0.022510659 0.25878885 0.04724656
0.054435827 0.088331744 -0.0010508031 -0.43052903 0.028660715 -0.1454062 -0.5781773 0.007917761
-0.519617 -0.409794 0.16252336 0.1667283 -0.09960998 0.29293898 0.0057256543 -0.21299054
0.021479007 0.20806362 -0.6361031 -1.542923 -0.9163604 0.2178662 0.07411758 -0.31291372
-0.2029698 0.46271253 0.21724385 0.1410383 0.09746907 0.055572975 0.24414358 -0.14059742
0.14583406 0.33822253 -0.66649944 -0.78659815 -0.3540365 -0.0017896742 -0.4809267 -0.17992027
-0.022179201 -0.381656 -0.16475515 0.30838057 -0.12036418 -0.08088964 0.20435068 -0.01680566
-0.7318192 -0.16967727 -0.6083979 -0.07643131 -0.02360724 -0.32840797 -0.4111776 0.06979863
0.42394504 -0.10235665 -0.038851175 0.41840616 0.012894772 0.17363697 0.18453565 0.43437985
0.5180819 0.74310696 0.56073546 0.3875699 0.24875146 0.65788794 0.51735616 0.7236403
0.055521082 -0.53959286 0.041653704 0.05464407 -0.23330334 -0.44113314 -0.6693558 0.13168527
-0.21076305 -1.08346 -2.155373 -1.5781561 -0.36736244 0.21055117 -0.42230058 0.012627855
0.07325435 0.0015825898 0.011136848 -0.023110004 -0.1554906 -0.1525942 0.021821063 -0.5447752
-0.6308146 -0.37803406 -0.48121354 -1.0403634 -0.120194584 0.54896116 0.37798628 0.09464022
-0.041719403 -0.11332318 0.1086097 -0.64499205 -0.18184847 -0.33285657 -0.547911 -1.2722677
-1.5110793 -1.1788405 -0.13609697 0.2881352 -0.5286096 0.06525247 0.10049885 -0.029886255
-0.10457206 0.02881068 0.021576427 -0.3315528 -0.023862377 -0.13056765 -0.22175562 -0.5769968
-0.49689457 -0.2778088 -0.011821171 0.28252438 0.38305134 0.17274961 0.21628341 0.009097052
0.038830414 0.14175703 0.4897476 0.8038882 0.6044406 0.41415578 -0.26341653 0.094333105
0.6848014 0.4440473 -0.034962967 -0.022926098 -0.60828865 0.18191898 -0.29957652 -0.2655851
-0.035974946 0.34787598 -0.43463314 -1.2746388 -0.66832 -0.7680924 -1.3767926 -1.7890366
-1.1894529 -0.53105086 0.020636696 0.14222245 -0.080050066 -0.24809553 0.42036638 0.05797713
00000000: 4d01 9a3e e35c 44be e8f2 81bf 2876 b6bd
00000010: 2e84 183f 9263 033f b5e9 8d3e f4fd 05be
00000020: 1c1f 07bf 6aad c93e c02f 39be c7f8 1f3d
00000030: bfbf 113e 43a3 32be cc4c 48be 4c72 c0bd
00000040: a779 0ebf ddc9 a0bf 2ab7 6ebf 9187 ba3c
00000050: 503e 873d 2ae5 00bf ad17 d43c 48b2 923e
00000060: ad91 5a3e 9d2b 103e e9ec cb3d 4d35 223d
00000070: 08b5 d1bd 1b82 823e 0c32 663e eaac 103e
00000080: 01f0 063e 9a5f c8bd 9283 debe 138e 663e
00000090: 8a61 84be 0932 b5be 8de0 d0be 2031 203e
000000a0: c2e7 0a3d 53ea 573e 6b58 103e 0cdd f5bd
000000b0: 6ecf 6ebd ac02 7cbe dd40 e3bd 4028 d9be
000000c0: fb27 d8be e1bd 76be 323b 61be cab7 05bf
000000d0: 09e3 79bf c828 583e 668b b83e 686e 863e
000000e0: 4906 cc3d a39e a8bb b417 a8bd e1e7 6cbe
000000f0: 0630 f3be 4737 f4bd 468f 853d 692c a2be
00000100: b477 97bf 031a 2bbf bb41 31bf 9f57 95be
00000110: 10e2 80be f134 30bf 65be 87bc e3ee 513e
00000120: 88c6 e83c 595c 613e 21bc 5ebd 4739 81be
00000130: f460 89bc 5608 69be 3669 fabe 6895 2dbf
00000140: dbee 52bf f80e afbf c813 c2be 9b4a 90be
00000150: daa4 22bf 4668 b83c f97f 843e 9c85 413d
00000160: 1af8 5e3d 46e7 b43d 1abb 89ba 4d6e dcbe
00000170: e0c9 ea3c 5de5 14be 6d03 14bf 7fb9 013c
00000180: 9f05 05bf 85d0 d1be 866c 263e d3ba 2a3e
00000190: 5100 ccbd 19fc 953e 459e bb3b 311a 5abe
000001a0: bef4 af3c a10e 553e a7d7 22bf 807e c5bf
000001b0: 9896 6abf 5118 5f3e f5ca 973d 3a36 a0be
000001c0: 51d7 4fbe a8e8 ec3e 2c75 5e3e 586c 103e
000001d0: dd9d c73d 7da0 633d c600 7a3e c5f8 0fbe
000001e0: 8655 153e 812b ad3e b59f 2abf 7f5e 49bf
000001f0: 4644 b5be 8093 eaba 063c f6be 053d 38be
00000200: 28b1 b5bc 6a68 c3be 93b5 28be 0fe4 9d3e
00000210: 7f81 f6bd 78a9 a5bd 4e41 513e 06ac 89bc
00000220: 8158 3bbf e1bf 2dbe f7bf 1bbf 0588 9cbd
00000230: f863 c1bc 1725 a8be df85 d2be 96f2 8e3d
00000240: 530f d93e 5da0 d1bd 6922 1fbd 5539 d63e
00000250: 9844 533c e4cd 313e eaf6 3c3e 0967 de3e
00000260: 04a1 043f 423c 3e3f 5c8c 0f3f 906f c63e
00000270: b4b8 7e3e 586b 283f 7471 043f 7e40 393f
00000280: 136a 633d c222 0abf 139d 2a3d 76d2 5f3d
00000290: 12e7 6ebe 34dc e1be e75a 2bbf 81d8 063e
000002a0: 45d2 57be d1ae 8abf a2f1 09c0 0501 cabf
000002b0: ee16 bcbe ba9a 573e c837 d8be 10e5 4e3c
000002c0: 6006 963d e76e cf3a 5377 363c 3151 bdbc
000002d0: ee38 1fbe a741 1cbe 16c2 b23c 6376 0bbf
000002e0: 117d 21bf ae8d c1be 9f61 f6be a12a 85bf
000002f0: 9428 f6bd b888 0c3f 6b87 c13e bbd2 c13d
00000300: f7e1 2abd fc15 e8bd c36e de3d 331e 25bf
00000310: 7c36 3abe 2d6c aabe e543 0cbf abd9 a2bf
00000320: 0c6b c1bf 3fe4 96bf 015d 0bbe 7586 933e
00000330: f552 07bf 16a3 853d 57d2 cd3d 05d4 f4bc
00000340: e029 d6bd 6004 ec3c 0cc1 b03c 4ac1 a9be
00000350: 087b c3bc 87b3 05be e813 63be 10b6 13bf
00000360: f768 febe f43c 8ebe 96ad 41bc 09a7 903e
00000370: 4e1f c43e 46e5 303e 6679 5d3e cd0b 153c
00000380: a40c 1f3d c128 113e 33c0 fa3e 9ecb 4d3f
00000390: 9fbc 1a3f 3a0c d43e 88de 86be b731 c13d
000003a0: 254f 2f3f 2b5a e33e 5435 0fbd 83cf bbbc
000003b0: ceb8 1bbf f848 3a3e 1862 99be c5fa 87be
000003c0: 775a 13bd cd1c b23e 3c88 debe 5d27 a3bf
000003d0: 0517 2bbf b4a1 44bf bd3a b0bf 27ff e4bf
000003e0: fe3f 98bf f3f2 07bf 4a0e a93c c3a2 113e
000003f0: 4af1 a3bd c10c 7ebe 433a d73e 6d79 6d3d

linear1.bias f4 [256]
0.099256165 0.025517773 0.27485815 0.3560366 0.8095125 0.84936905 0.50933653 -0.051840212
0.56163895 0.047081124 -0.009583413 1.0337127 0.21739775 0.92420655 0.55167085 0.024431393
0.55142844 0.19840401 0.093215585 -0.023647953 0.5729731 -0.020665387 0.571878 -0.030749088
0.571076 -0.3518769 0.3941402 0.65167487 0.32706666 0.37187675 0.24527633 0.12894441
-0.074085906 0.5326988 0.42893744 0.16138366 0.8471544 0.511067 0.30334884 -0.38814843
0.33733708 0.2099875 0.91279626 0.6350152 0.09805565 -0.048517987 0.53871036 0.6178251
0.7103704 0.68055606 0.60435206 0.48459774 0.65018934 0.70737725 0.5556034 0.63608307
0.4100358 0.4807576 0.71415025 0.5450327 -0.095488146 -0.047563117 0.09201311 0.30075648
0.1054001 0.5475847 0.44698247 0.6639066 0.36102098 0.6095006 0.64695704 0.24602726
0.23963454 0.38575575 0.45794564 0.10114888 0.34190294 -0.17988834 0.697276 -0.18814164
0.7299419 -0.08023396 0.099631056 -0.34791028 0.58006054 0.3790354 0.26774397 0.47359654
0.5616893 -0.34725258 -0.15407088 0.6726124 -0.44571143 0.45453504 0.48768353 -0.14738533
-0.07936969 0.3215333 0.26227075 -0.514711 0.35273388 0.44636068 0.6898431 -0.098983765
0.18306777 0.36519882 0.17478305 0.41192588 0.6321855 0.6637142 0.6690016 -0.0012560993
0.5069925 0.23196173 0.45980045 -0.23871176 0.54546463 0.37941113 0.586326 0.6625355
-0.47501397 0.546464 0.79966736 0.6891101 0.4643829 0.49330488 -0.019891163 -0.15808876
0.31572098 0.18668127 0.32974803 0.23227318 0.7232627 -0.42009518 -0.1022283 0.3352082
0.7763821 0.18039636 0.419432 0.5823676 0.118098445 0.32097107 0.8005815 0.6108405
0.46303827 0.6222383 0.36517006 0.21864085 -0.51058847 0.6603214 0.042242054 0.5206714
0.09225853 0.09354886 0.15080862 0.2899946 -0.37160134 0.5671526 -0.027239272 -0.68273044
0.11602017 0.31317297 0.20804659 -0.05030695 0.4786398 0.7607543 0.6224217 -0.27013668
0.3862865 0.62165964 0.43264452 0.55586666 0.63527876 0.3690391 0.27963567 0.28617465
-0.19183864 0.3449407 -0.17726189 0.23674338 0.14146973 0.5539965 0.02796346 0.42472878
0.6357461 0.1811736 0.3915279 0.0029254109 0.7008935 0.76813054 0.48037198 0.649238
0.35643917 0.26516187 -0.27877274 0.6149693 0.40119466 -0.18452121 -0.040810816 -0.022275308
0.7646908 0.7732733 -0.0350171 0.6402065 -0.20903555 0.47377852 0.42200422 0.7189089
0.7053739 0.086929575 0.13191181 0.10055863 0.33370674 0.35618445 -0.056764398 0.38138595
0.46011505 -0.22732417 0.59057707 0.50305516 0.4641816 0.22507119 -0.009332372 0.41397178
0.63154835 0.15407139 -0.081832044 0.18728507 0.5221986 0.7432708 -0.019810809 0.06926625
0.664367 0.527268 -0.2644593 0.69245505 0.11710605 0.52558434 0.42185557 0.3649767
0.62457573 0.36591607 0.44427913 0.47395876 0.61082935 0.59762514 0.1355387 0.08615399
-0.26864085 0.25925985 0.5958303 0.6346394 0.64698154 0.4932178 -0.05946366 -0.29915267
00000000: d146 cb3d a60a d13c 35ba 8c3e 6e4a b63e
00000010: 363c 4f3f 4070 593f e163 023f 6756 54bd
00000020: 92c7 0f3f 23d8 403d bf03 1dbc b350 843f
00000030: 849d 5e3e cd98 6c3f 4d3a 0d3f 5824 c83c
00000040: 6a2a 0d3f 6c2a 4b3e d0e7 be3d 5ab9 c1bc
00000050: 5dae 123f 754a a9bc 9966 123f 83e5 fbbc
00000060: 0932 123f 3629 b4be bfcc c93e 2ad4 263f
00000070: 4875 a73e a166 be3e b829 7b3e 010a 043e
00000080: 5aba 97bd f35e 083f b09d db3e c241 253e
00000090: 1cdf 583f 49d5 023f 8a50 9b3e 64bb c6be
000000a0: 72b7 ac3e f706 573e 04ad 693f 5b90 223f
000000b0: 67d1 c83d ccba 46bd ece8 093f c929 1e3f
000000c0: d6da 353f ec38 2e3f d1b6 1a3f 321d f83e
000000d0: cf72 263f ad16 353f 063c 0e3f 57d6 223f
000000e0: 36f0 d13e dc25 f63e 8dd2 363f 4387 0b3f
000000f0: 4a8f c3bd 8bd1 42bd 5f71 bc3d c1fc 993e
00000100: 02dc d73d 832e 0c3f e3da e43e c8f5 293f
00000110: bed7 b83e 3b08 1c3f fa9e 253f 92ee 7b3e
00000120: c262 753e c781 c53e da77 ea3e 2527 cf3d
00000130: e70d af3e a634 38be ae80 323f 34a8 40be
00000140: 79dd 3a3f b451 a4bd 5e0b cc3d 4c21 b2be
00000150: d97e 143f ee10 c23e bd15 893e 3f7b f23e
00000160: dfca 0f3f 17cb b1be c2c4 1dbe 5430 2c3f
00000170: 4a34 e4be d1b8 e83e a8b1 f93e 2eec 16be
00000180: 938c a2bd 03a0 a43e 5a48 863e 1ac4 03bf
00000190: 8999 b43e 6389 e43e 8f99 303f 00b8 cabd
000001a0: 1e76 3b3e 57fb ba3e 54fa 323e f3e7 d23e
000001b0: e9d6 213f 2ce9 293f b043 2b3f b3a3 a4ba
000001c0: 43ca 013f 6087 6d3e f76a eb3e db70 74be
000001d0: 92a3 0b3f 2d42 c23e 7619 163f ed9b 293f
000001e0: 0835 f3be 11e5 0b3f 00b7 4c3f 8569 303f
000001f0: 98c3 ed3e 7592 fc3e cbf2 a2bc 05e2 21be
00000200: 2ea6 a13e 6029 3f3e bcd4 a83e 05d9 6d3e
00000210: bf27 393f b716 d7be 125d d1bd 69a0 ab3e
00000220: fac0 463f d3b9 383e cbbf d63e 0b16 153f
00000230: 99dd f13d 5256 a43e e9f2 4c3f 0b60 1c3f
00000240: 5a13 ed3e 024b 1f3f 92f7 ba3e 63e3 5f3e
00000250: edb5 02bf d30a 293f 0106 2d3d b94a 053f
00000260: 0af2 bc3d 8b96 bf3d 936d 1a3e 2c7a 943e
00000270: 8842 bebe ea30 113f e524 dfbc 6cc7 2ebf
00000280: fc9b ed3d 3558 a03e 2a0a 553e a90e 4ebd
00000290: 4710 f53e cbc0 423f 0757 1f3f 5b4f 8abe
000002a0: 58c7 c53e 1625 1f3f 9583 dd3e 474d 0e3f
000002b0: a1a1 223f b1f2 bc3e 682c 8f3e 7c85 923e
000002c0: 5971 44be 119c b03e 2484 35be db6c 723e
000002d0: 71dd 103e b7d2 0d3f a013 e53c 0d76 d93e
000002e0: 42c0 223f 9285 393e 5876 c83e 40b8 3f3b
000002f0: c26d 333f 34a4 443f 51f3 f53e 7634 263f
00000300: 327f b63e 4cc3 873e 4dbb 8ebe a16e 1d3f
00000310: 6369 cd3e 21f3 3cbe 3e29 27bd b57a b6bc
00000320: c7c2 433f 3df5 453f 176e 0fbd 93e4 233f
00000330: 6a0d 56be 1993 f23e f010 d83e 6a0a 383f
00000340: 6293 343f 2208 b23d e413 073e aff1 cd3d
00000350: 9cdb aa3e cf5d b63e c981 68bd 0545 c33e
00000360: 3394 eb3e abc7 68be 0f30 173f 39c8 003f
00000370: 36a9 ed3e 1079 663e cee6 18bc 1cf4 d33e
00000380: 27ad 213f e4c4 1d3e 8f97 a7bd a8c7 3f3e
00000390: cfae 053f ff46 3e3f 474a a2bc 77db 8d3d
000003a0: f513 2a3f 09fb 063f 3667 87be bc44 313f
000003b0: 4cd5 ef3d b28c 063f 74fd d73e 3ade ba3e
000003c0: 32e4 1f3f 5a59 bb3e 8e78 e33e b9aa f23e
000003d0: 505f 1c3f f6fd 183f a8ca 0a3e 8171 b03d
000003e0: 4b8b 89be b5bd 843e 5688 183f ba77 223f
000003f0: 95a0 253f 0b87 fc3e 2b90 73bd 8a2a 99be

linear2.weight f4 [256, 256]
0.112190984 0.42849934 0.042333934 0.17312813 1.0117222 0.92797834 0.1661639 0.5285013
0.5297969 0.33555076 -0.8370926 1.4177822 0.18592128 1.0078508 0.12137755 -1.0226543
0.96876895 0.0023459496 -1.2510883 0.38587067 0.50942487 0.3082837 0.4834485 0.35311133
0.406115 0.5937426 0.4637395 0.19836846 0.4617192 0.16813985 0.5333484 -0.57187915
-0.9124451 0.73624676 0.933413 0.2369456 1.0942594 0.36208126 0.24581346 -0.85913706
0.104071714 0.75177073 1.2806175 0.8667699 0.29540545 0.36957356 0.19591424 0.3416028
0.7368725 0.17755227 0.34764692 0.18725237 0.124582596 0.14248498 0.4130659 0.3423885
0.8822405 0.072424464 0.67109513 0.3485751 0.42726558 0.08691724 0.86580974 0.71660113
0.32590148 0.26127812 0.2331701 0.22958863 -0.06573959 0.54654 0.61034894 -0.6472906
0.8384049 0.22609238 0.36076635 -0.9032305 0.4224147 -1.2982414 0.1498608 0.37141472
0.45026997 0.08100766 -1.5109168 -0.9586572 0.43947187 0.32660472 0.61324584 0.34653693
0.1280263 -0.7510061 -0.64471024 0.24614719 -0.7624186 0.31315485 0.11489368 -0.5274942
0.45149437 0.2589493 0.88803697 -0.7725492 0.28033698 0.38976634 0.2447054 -0.8069801
0.29622135 0.638443 -0.037750427 0.21955578 0.3287033 0.64257795 1.0695688 0.32959947
0.5029049 0.23768581 0.2617087 -0.93932515 0.3318432 0.15185653 0.3154171 0.64093816
-0.84375644 0.4095972 0.26494768 0.48184523 0.61562824 0.27115598 -0.34168413 0.28162226
0.6576768 0.6777105 0.32073727 -0.88076395 0.18078427 -0.8348451 0.24974626 0.010791616
0.55662674 0.68654066 0.33674675 0.31160173 0.26391056 0.3762657 0.6760127 0.33555046
0.21665132 0.23585507 0.3102232 1.0191394 -1.1185259 0.55289614 0.24677053 0.35315627
0.6476606 0.47125158 0.68587816 0.52390337 -0.64143294 0.17990287 -0.7135423 -0.6451936
0.6300845 0.36420062 0.7081067 0.16289291 0.0115746 0.263659 0.55038804 -1.1977974
0.41077802 0.24967779 0.27088466 0.20999157 1.0877596 0.17163444 0.8652108 0.782114
0.3521971 0.38934913 -0.52711403 0.29002854 0.2886168 0.084208265 -0.93018824 0.74964106
0.17999882 0.63885033 0.88014346 0.46126565 0.41532618 0.6331194 0.18875906 0.3319046
0.28778812 0.3189637 -0.7740518 0.22351262 0.5126645 -0.5163381 -0.543448 0.48163268
0.700038 0.17172426 0.4731453 0.59658885 -0.7247757 0.24393636 0.68841505 0.743552
0.8401164 0.3466873 0.17104697 0.28466207 0.6170706 0.20927338 -0.5909524 0.08822976
0.3181173 -0.5362396 0.58804953 0.49313906 0.4458064 -0.87772536 0.217607 -0.018080898
0.2929106 0.38866717 -0.5103785 0.47676164 0.542083 0.75103724 0.5649635 0.21263789
0.2151783 0.12794544 -0.53493345 0.63791686 0.5010544 0.28721708 0.25504962 0.37252688
1.0821763 0.8204125 0.25861096 0.8399899 0.20590852 0.53684324 0.17912538 0.18778558
-0.5885046 0.7886476 0.10103889 0.16193731 0.64767563 0.3721785 -0.5841706 -0.5537674
00000000: 63c4 e53d 4464 db3e 5966 2d3d 8048 313e
00000010: 1d80 813f fd8f 6d3f df26 2a3e dc4b 073f
00000020: c5a0 073f 4fcd ab3e b34b 56bf e379 b53f
00000030: 2662 3e3e 4101 813f cb94 f83d 56e6 82bf
00000040: 3e01 783f 81be 193b a923 a0bf d790 c53e
00000050: ab69 023f 5cd7 9d3e 9086 f73e 02cb b43e
00000060: 4eee cf3e 84ff 173f 446f ed3e 1a21 4b3e
00000070: 7566 ec3e da2c 2c3e 8589 083f ac66 12bf
00000080: 0196 69bf ab7a 3c3f 28f4 6e3f dea1 723e
00000090: b110 8c3f b762 b93e 86b6 7b3e 68f0 5bbf
000000a0: 8d23 d53d 0c74 403f 46eb a33f a2e4 5d3f
000000b0: 623f 973e bf38 bd3e be9d 483e 90e6 ae3e
000000c0: ada3 3c3f 43d0 353e c7fe b13e 16bf 3f3e
000000d0: 2925 ff3d 95e7 113e 607d d33e 8c4d af3e
000000e0: 83da 613f 4753 943d e4cc 2b3f 6f78 b23e
000000f0: 8ec2 da3e aa01 b23d b5a5 5d3f 2c73 373f
00000100: 8fdc a63e 3fc6 853e 25c4 6e3e 4819 6b3e
00000110: 7aa2 86bd 0cea 0b3f d43f 1c3f d6b4 25bf
00000120: b4a1 563f c384 673e 5eb6 b83e 1d3a 67bf
00000130: bd46 d83e c62c a6bf 1c75 193e 122a be3e
00000140: c989 e63e 58e7 a53d b965 c1bf 8f6a 75bf
00000150: 7502 e13e bc38 a73e aefd 1c3f 4a6d b13e
00000160: 5419 033e f041 40bf bb0b 25bf 020e 7c3e
00000170: de2d 43bf d555 a03e 614d eb3d dc09 07bf
00000180: 452a e73e 0195 843e 6456 633f c9c5 45bf
00000190: 5488 8f3e 748f c73e 0d94 7a3e 3f96 4ebf
000001a0: 53aa 973e 0071 233f 31a0 1abd 3bd3 603e
000001b0: cd4b a83e fd7f 243f a1e7 883f 43c1 a83e
000001c0: 60be 003f e963 733e affe 853e 9d77 70bf
000001d0: 5ae7 a93e 4780 1b3e 5a7e a13e 8614 243f
000001e0: 6c00 58bf b9b6 d13e 39a7 873e 6bb4 f63e
000001f0: d099 1d3f f5d4 8a3e 39f1 aebe cb30 903e
00000200: 825d 283f 6f7e 2d3f ad37 a43e bf79 61bf
00000210: 831f 393e 69b8 55bf 7cbd 7f3e 51cf 303c
00000220: 177f 0e3f 21c1 2f3f 126a ac3e 438a 9f3e
00000230: 491f 873e e6a5 c03e 2b0f 2d3f 45cd ab3e
00000240: d8d9 5d3e fe83 713e 93d5 9e3e 2973 823f
00000250: db2b 8fbf 9a8a 0d3f 6ab1 7c3e e6d0 b43e
00000260: 16cd 253f e347 f13e b695 2f3f 881e 063f
00000270: f334 24bf 7538 383e b5aa 36bf 682b 25bf
00000280: 384d 213f 8178 ba3e 7b46 353f 66cd 263e
00000290: 64a3 3d3c 50fe 863e 3be6 0c3f 6d51 99bf
000002a0: 7f51 d23e 89ab 7f3e 65b1 8a3e 0808 573e
000002b0: b53b 8b3f f0c0 2f3e 747e 5d3f a038 483f
000002c0: 2e53 b43e c558 c73e f2f0 06bf 9f7e 943e
000002d0: 95c5 933e 6275 ac3d d120 6ebf 7ae8 3f3f
000002e0: 9c51 383e b28b 233f 1551 613f 032b ec3e
000002f0: a2a5 d43e 1d14 223f 0e4a 413e 66ef a93e
00000300: f758 933e 364f a33e 4228 46bf 7ee0 643e
00000310: fb3d 033f bc2e 04bf 681f 0bbf 8f98 f63e
00000320: b135 333f 7cd8 2f3e 1a40 f23e 0cba 183f
00000330: e68a 39bf 74ca 793e f83b 303f 6d59 3e3f
00000340: de11 573f ff80 b13e f026 2f3e 3abf 913e
00000350: 57f8 1d3f c34b 563e a848 17bf ceb1 b43d
00000360: 45e0 a23e 0047 09bf 6a8a 163f b97c fc3e
00000370: bd40 e43e 9cb2 60bf 5fd4 5e3e 641e 94bc
00000380: 61f8 953e 62ff c63e 2aa8 02bf 1a1a f43e
00000390: f4c5 0a3f fa43 403f 73a1 103f bfbd 593e
000003a0: b357 5c3e 2104 033e 66f1 08bf 854e 233f
000003b0: 1a45 003f 1e0e 933e dd95 823e d8bb be3e
000003c0: c184 8a3f 8e06 523f a868 843e 9409 573f
000003d0: afd9 523e 8f6e 093f a56c 373e dd4a 403e
000003e0: 3da8 16bf cfe4 493f 7aed ce3d e5d2 253e
000003f0: 12ce 253f 2e8e be3e 348c 15bf b3c3 0dbf

linear2.bias f4 [256]
0.41496566 0.21301062 0.31574377 0.37649342 -0.0570786 0.36831805 0.37077442 0.20522709
0.21654563 0.3473317 0.4011812 0.40423983 0.41152436 0.42039254 0.34155968 0.31595582
0.07256471 -0.25564647 0.39850244 0.35359195 0.4465457 0.37610325 0.27699387 0.49600506
0.4075939 0.39291966 0.34539446 0.38426197 0.39239457 0.31989935 0.48476526 0.35373163
0.3869359 0.4217719 0.3451396 0.31851363 0.4139016 0.2924985 0.42505622 0.3476911
0.43084326 0.3530992 0.3378665 0.43936577 0.3463789 0.38469803 0.43563274 0.3341337
0.36840978 0.38603944 0.43239722 0.3358419 0.3741634 0.43467882 0.40453464 0.37891632
0.3399717 -0.0477453 0.43905222 0.39156199 0.3378752 0.39521044 0.4416723 0.40410098
0.3948587 0.3587201 -0.03818498 0.34156534 0.40390998 0.33840287 0.40912086 0.43636048
0.48598966 0.34245634 0.36147866 0.3297613 0.44820654 0.04537846 0.36983517 0.35535717
0.41664606 0.1919433 0.38443896 0.37415585 0.4127766 0.38736552 0.38396797 0.45500347
0.49550742 0.25179753 0.37932804 0.32377157 0.3603857 0.39598668 0.37988976 0.43745413
0.106605686 0.44344154 0.1330945 0.40948197 0.3616839 0.38773665 0.41118348 0.3801033
0.1611838 0.3725257 0.33897015 0.40931028 0.34078792 0.3746576 0.32047778 0.39348984
0.43730658 0.3575124 0.3302399 0.4374933 0.204957 0.42797935 0.33288592 0.28802416
0.43209645 0.4452408 0.38029093 0.32449618 0.3416254 0.33011958 0.36221433 0.34024176
0.38921842 0.3266265 0.37508842 0.33505878 0.27116126 0.43281612 0.32189888 0.34971008
0.30758718 0.46641567 0.4436207 0.3808667 0.4092341 0.39983362 0.3833831 0.3446471
0.36141735 0.42386907 0.3970633 0.35735866 0.47180527 0.40212286 0.46010306 0.42075697
0.41239035 0.3467651 0.40194345 0.4122291 0.27343488 0.42031854 0.3635101 0.29427978
0.38815576 0.41542548 0.32273462 0.31857312 0.3620872 0.3685884 0.1462426 0.38600647
0.34282625 0.019357586 0.4267215 0.4320622 -0.05886564 0.020976692 -0.015238551 0.3798774
0.39717373 0.366224 0.37609518 0.34397572 0.39712858 0.21773522 0.41566882 0.2694036
0.38564667 0.17510074 0.34125853 0.42070612 0.43469366 0.32872832 0.4229751 0.3454148
0.40482685 0.41022032 0.3710371 0.38489315 0.33715084 0.41557148 0.43045405 0.40424064
0.3423557 0.42958826 0.36320406 0.37628162 0.35423374 0.36899242 0.31929883 0.4387211
0.40851593 0.39890754 0.27058995 0.43857026 0.37089494 0.3379423 0.36091676 0.42754808
0.43296605 0.3505609 0.42406598 0.4216966 0.3711689 0.40895486 0.35724968 0.07500634
0.34898823 0.31831145 0.17257635 0.3457506 0.35459602 0.38919902 0.4152357 0.36182985
-0.058223978 0.2304645 0.36855078 0.055582 0.3915554 0.3505496 0.33396176 0.39445564
0.35419974 0.343386 0.38783962 0.3950966 0.3398195 0.4376248 0.37652647 0.3231798
0.416607 0.4819066 0.43487474 0.4089887 0.39606068 0.44974107 0.40313357 0.264401
00000000: 6176 d43e 751f 5a3e 2ba9 a13e bfc3 c03e
00000010: 40cb 69bd 2f94 bc3e 25d6 bd3e 0d27 523e
00000020: 23be 5d3e 76d5 b13e 9f67 cd3e 86f8 ce3e
00000030: 52b3 d23e b13d d73e e9e0 ae3e f6c4 a13e
00000040: cf9c 943d 18e4 82be 8308 cc3e 010a b53e
00000050: a3a1 e43e 9b90 c03e 24d2 8d3e 60f4 fd3e
00000060: 26b0 d03e c42c c93e 8bd7 b03e fcbd c43e
00000070: f1e7 c83e d9c9 a33e 2733 f83e 501c b53e
00000080: 761c c63e 7df2 d73e 23b6 b03e 3814 a33e
00000090: e9ea d33e 5dc2 953e f8a0 d93e 9104 b23e
000000a0: 7d97 dc3e 6bc9 b43e d6fc ac3e 8df4 e03e
000000b0: 9358 b13e 24f7 c43e 410b df3e 9313 ab3e
000000c0: 35a0 bc3e f6a6 c53e 2b63 dd3e 78f3 ab3e
000000d0: 5892 bf3e 398e de3e 2a1f cf3e 5201 c23e
000000e0: c510 ae3e 9390 43bd 74cb e03e d07a c83e
000000f0: fafd ac3e 0659 ca3e df22 e23e 53e6 ce3e
00000100: eb2a ca3e 29aa b73e db67 1cbd a7e1 ae3e
00000110: 4acd ce3e 2443 ad3e 4a78 d13e a46a df3e
00000120: a3d3 f83e 7056 af3e bb13 b93e 79d6 a83e
00000130: 547b e53e c4de 393d 095b bd3e 60f1 b53e
00000140: a252 d53e c98c 443e 2fd5 c43e 5b91 bf3e
00000150: 7457 d33e c654 c63e 7397 c43e 37f6 e83e
00000160: 26b3 fd3e 9beb 803e 4937 c23e 63c5 a53e
00000170: 7984 b83e c4be ca3e e980 c23e fdf9 df3e
00000180: 1554 da3d c50a e33e ed49 083e 9fa7 d13e
00000190: a22e b93e 6b85 c63e a486 d23e e69c c23e
000001a0: 5e0d 253e b0bb be3e 7f8d ad3e 1e91 d13e
000001b0: c17b ae3e 1fd3 bf3e aa15 a43e 8077 c93e
000001c0: a6e6 df3e de0b b73e 3415 a93e 1fff df3e
000001d0: 3fe0 513e 1c20 db3e 0670 aa3e e777 933e
000001e0: bf3b dd3e 9af6 e33e 7eb5 c23e 5d24 a63e
000001f0: 86e9 ae3e 6f05 a93e 2874 b93e 2b34 ae3e
00000200: a347 c73e 973b a73e 970b c03e d38c ab3e
00000210: a6d5 8a3e 139a dd3e eecf a43e 330d b33e
00000220: 117c 9d3e 09ce ee3e 4122 e33e f600 c33e
00000230: 2287 d13e feb6 cc3e ca4a c43e 9675 b03e
00000240: b20b b93e 5e05 d93e e14b cb3e b7f7 b63e
00000250: 7690 f13e 0ce3 cd3e a192 eb3e 756d d73e
00000260: d424 d33e 328b b13e 88cb cd3e b10f d33e
00000270: a8ff 8b3e fe33 d73e ff1d ba3e d7ab 963e
00000280: 5abc c63e a6b2 d43e 793d a53e 041c a33e
00000290: 7e63 b93e 9eb7 bc3e 9fc0 153e a4a2 c53e
000002a0: ec86 af3e cd93 9e3c 3e7b da3e 4237 dd3e
000002b0: 191d 71bd 50d7 ab3c 1eab 79bc 4a7f c23e
000002c0: 5b5a cb3e b681 bb3e 8c8f c03e 961d b03e
000002d0: 7054 cb3e fbf5 5e3e 8bd2 d43e 45ef 893e
000002e0: 7b73 c53e 9c4d 333e 70b9 ae3e cb66 d73e
000002f0: 2b90 de3e 144f a83e 3190 d83e 35da b03e
00000300: 7745 cf3e 6608 d23e 93f8 bd3e b710 c53e
00000310: 099f ac3e c9c5 d43e 7964 dc3e a1f8 ce3e
00000320: 3f49 af3e fef2 db3e e2f5 b93e fca7 c03e
00000330: 205e b53e 93ec bc3e 237b a33e 0da0 e03e
00000340: 0029 d13e 9c3d cc3e c48a 8a3e 488c e03e
00000350: f1e5 bd3e c606 ad3e 15ca b83e 95e7 da3e
00000360: baad dd3e b87c b33e 2d1f d93e 9ee8 d73e
00000370: da09 be3e 8862 d13e 6ee9 b63e ed9c 993d
00000380: 96ae b23e b8f9 a23e dbb7 303e 3906 b13e
00000390: 9c8d b53e 1845 c73e c699 d43e c341 b93e
000003a0: 447c 6ebd e3fe 6b3e b0b2 bc3e f4a9 633d
000003b0: f379 c83e 3d7b b33e 09fd aa3e 17f6 c93e
000003c0: ab59 b53e 4ad0 af3e ea92 c63e 1a4a ca3e
000003d0: d2fc ad3e 5c10 e03e 14c8 c03e d377 a53e
000003e0: 834d d53e 76bc f63e e7a7 de3e f866 d13e
000003f0: 77c8 ca3e 7644 e63e 8667 ce3e 915f 873e

linear3.weight f4 [1, 256]
-1.1380641 -0.7686156 -0.93611354 -1.1188961 0.0029695232 -0.9820683 -0.91043186 -1.0752512
-1.2228878 -1.1382743 -0.9072105 -1.153324 -0.88136894 -0.87507975 -0.9737697 -0.99217904
1.5431685 1.4261227 -0.9294287 -0.9545935 -1.0908525 -1.1721184 0.5040935 -0.888131
-1.1255138 -0.9770582 -0.9676251 -0.9239723 -0.9735405 -0.9422095 -0.87983394 -0.947795
-1.0215033 -0.9083264 -0.9131475 -1.0817375 -1.088452 1.7901791 -0.97749674 -0.89911264
-1.16688 -0.9412818 -1.1311451 -0.9567205 -1.0260533 -1.1336235 -0.9725361 -0.8864959
-0.9393169 -0.8868045 -0.9594322 -1.1029592 -1.0020086 -0.9306397 -1.0308444 -1.057171
-1.0977156 -0.033391867 -0.9171848 -1.0969846 -0.91973823 -0.9157104 -1.0452894 -1.0150203
-0.9465228 -0.9351608 0.0013128333 -1.1547167 -0.93854266 -0.96179765 -1.0794001 -1.0644766
-1.1942259 -0.9905977 -0.9261576 -1.0707946 -0.85537744 -1.5543996 -0.97951096 -0.9592664
-0.9286882 -0.9546852 -0.88618535 -0.9387893 -1.0017215 -0.9206937 -1.1088798 -0.9801599
-0.8559067 0.817947 -1.1013937 -0.9361748 -1.0707909 -0.9538903 -0.9300193 -1.2389128
1.4090786 -1.1580672 -1.2403396 -0.9432541 -1.000109 -1.0688959 -1.0808233 -0.9199768
2.156009 -0.9222982 -1.146777 -0.91685224 -1.0749564 -1.0884454 -0.93633693 -0.9261152
-1.0506417 -1.017119 -0.93872243 -1.1348326 -0.9049395 -1.0280827 -1.0817286 -0.7958124
-1.2673404 -1.0010377 -1.0332314 -0.92901427 -0.9978544 -0.9963944 -1.1128417 -1.0491729
-0.9354665 -1.1538093 -0.937086 -0.7593596 -0.93599147 -0.93576646 -0.9610636 -1.1684731
-1.0633243 -0.95758474 -0.96749747 -1.0357426 -0.9734027 -1.0862775 -0.951515 -1.0060887
-0.99567944 -1.108542 -1.0645825 -1.0726207 -1.1302538 -1.0267434 -0.8737049 -1.0887246
-0.9715771 -1.1460932 -1.0116026 -0.93724215 -0.76680666 -0.9142532 -0.90006924 -0.7582507
-1.0408745 -1.0655388 -0.9405707 -0.74535865 -1.082258 -0.94990486 -0.9594673 -1.0966066
-0.9473194 0.00067358714 -0.9607049 -0.97467685 0.0011446552 1.5362661 -0.0012382583 -0.95762223
-1.086717 -1.0903486 -0.94763464 -1.0480368 -0.9741759 -0.80689114 -1.031858 -0.7769182
-0.9538949 -0.77815485 -1.1811692 -1.1298462 -1.0980593 -1.0062263 -1.1361537 -0.92994666
-0.9612994 -1.1354793 -0.96337974 -1.0940473 -1.127868 -1.0684105 -0.9829309 -0.96799797
-1.1069825 -0.91857296 -0.9269218 -1.1579618 -0.8988347 -1.0774803 -1.0041642 -1.0191789
-1.1103146 -1.140822 -0.78010565 -1.0281439 -1.0871712 -1.0309216 -1.0284386 -0.9128119
-0.96735644 -1.0420392 -1.089515 -0.9114315 -1.0970049 -1.0330827 -1.1314434 1.5254691
-0.9462214 -1.0961959 -0.7425544 -0.98778814 -0.94133747 -0.9889555 -0.9694132 -0.9306683
0.0019633095 -0.84005636 -0.9304427 0.0014895746 -0.9994647 -0.97987574 -1.0849104 -1.113173
-1.3160291 -1.0817778 -1.0349628 -1.1363342 -1.0720712 -1.0797125 -1.0313743 -0.96555364
-0.9012013 -0.8548547 -1.1496425 -0.9269682 -1.1341444 -0.9031584 -1.0840242 -0.9796882
00000000: 16ac 91bf fec3 44bf 23a5 6fbf fd37 8fbf
00000010: 559c 423b d468 7bbf 1012 69bf d5a1 89bf
00000020: 9687 9cbf f9b2 91bf f33e 68bf 1fa0 93bf
00000030: 65a1 61bf 3a05 60bf f948 79bf 72ff 7dbf
00000040: 8c86 c53f 308b b63f 0aef 6dbf 3d60 74bf
00000050: 0ea1 8bbf fa07 96bf 460c 013f 8e5c 63bf
00000060: d610 90bf 7c20 7abf 47b6 77bf 7389 6cbf
00000070: f339 79bf a434 71bf cc3c 61bf b1a2 72bf
00000080: 9fc0 82bf 1488 68bf 09c4 69bf 6076 8abf
00000090: 6552 8bbf 9724 e53f 3a3d 7abf 3f2c 66bf
000000a0: 535c 95bf d8f7 70bf 5dc9 90bf a2eb 74bf
000000b0: b755 83bf 931a 91bf 20f8 78bf 65f1 62bf
000000c0: 1377 70bf 9f05 63bf 599d 75bf c42d 8dbf
000000d0: d141 80bf 673e 6ebf b6f2 83bf 6151 87bf
000000e0: f281 8cbf e9c5 08bd a0cc 6abf fe69 8cbf
000000f0: f773 6bbf ff6b 6abf 0bcc 85bf 2fec 81bf
00000100: 514f 72bf b366 6fbf 6013 ac3a c2cd 93bf
00000110: 5544 70bf 5f38 76bf c829 8abf c540 88bf
00000120: 65dc 98bf d097 7dbf aa18 6dbf cc0f 89bf
00000130: 04fa 5abf 91f6 c6bf 3bc1 7abf 7c92 75bf
00000140: 83be 6dbf 4066 74bf 0bdd 62bf 7f54 70bf
00000150: 6938 80bf 95b2 6bbf c6ef 8dbf c2eb 7abf
00000160: b41c 5bbf f964 513f 78fa 8cbf 27a9 6fbf
00000170: ad0f 89bf 2832 74bf bf15 6ebf b294 9ebf
00000180: b05c b43f 8c3b 94bf 73c3 9ebf 1a79 71bf
00000190: 9203 80bf 95d1 88bf 6b58 8abf 9983 6bbf
000001a0: 0dfc 0940 bc1b 6cbf 97c9 92bf d4b6 6abf
000001b0: 2c98 89bf 2e52 8bbf c7b3 6fbf e315 6dbf
000001c0: 6d7b 86bf f530 82bf 1d50 70bf 3242 91bf
000001d0: 1daa 67bf 3798 83bf 1576 8abf 5dba 4bbf
000001e0: 3638 a2bf 0122 80bf ed40 84bf e1d3 6dbf
000001f0: 6373 7fbf b413 7fbf 9971 8ebf 4c4b 86bf
00000200: bc7a 6fbf 06b0 93bf dee4 6fbf 6465 42bf
00000210: 239d 6fbf 648e 6fbf 4408 76bf 8790 95bf
00000220: 031b 88bf 4624 75bf eaad 77bf 3793 84bf
00000230: eb30 79bf 240b 8bbf 7d96 73bf 84c7 80bf
00000240: d9e4 7ebf b4e4 8dbf 3d44 88bf a34b 89bf
00000250: 28ac 90bf 546c 83bf 20ab 5fbf 545b 8bbf
00000260: 47b9 78bf 2fb3 92bf 327c 81bf 1aef 6fbf
00000270: 714d 44bf 7f0c 6abf f06a 66bf b81c 42bf
00000280: 603b 85bf 9363 88bf 3ec9 70bf d3cf 3ebf
00000290: 6e87 8abf f72c 73bf a69f 75bf 9b5d 8cbf
000002a0: 8683 72bf ab93 303a c2f0 75bf 6c84 79bf
000002b0: 4108 963a 5ea4 c43f 0e4d a2ba bb26 75bf
000002c0: 8b19 8bbf 8b90 8bbf 2f98 72bf 1226 86bf
000002d0: 9763 79bf 6b90 4ebf ec13 84bf 1ce4 46bf
000002e0: 7532 74bf 2835 47bf 8d30 97bf cd9e 90bf
000002f0: 358d 8cbf 06cc 80bf 7c6d 91bf fc10 6ebf
00000300: b817 76bf 6357 91bf 0ea0 76bf be09 8cbf
00000310: fb5d 90bf adc1 88bf 5ca1 7bbf b7ce 77bf
00000320: 9ab1 8dbf 9927 6bbf bf4a 6dbf 1838 94bf
00000330: 081a 66bf e0ea 89bf 7488 80bf 7474 82bf
00000340: ca1e 8ebf 7506 92bf 01b5 47bf 389a 83bf
00000350: 6d28 8bbf 3df5 83bf e0a3 83bf 0aae 69bf
00000360: aca4 77bf 8a61 85bf 3a75 8bbf 9353 69bf
00000370: a86a 8cbf 0e3c 84bf 23d3 90bf 9242 c33f
00000380: 913b 72bf 2650 8cbf 0c18 3ebf afdf 7cbf
00000390: 7efb 70bf 302c 7dbf 772b 78bf 4740 6ebf
000003a0: deaa 003b ef0d 57bf 7e31 6ebf d43d c33a
000003b0: ebdc 7fbf 23d9 7abf 58de 8abf 747c 8ebf
000003c0: a473 a8bf b277 8abf a979 84bf 6673 91bf
000003d0: a139 89bf 0534 8abf 1304 84bf 862e 77bf
000003e0: 21b5 66bf c2d7 5abf 7c27 93bf ca4d 6dbf
000003f0: a52b 91bf 6435 67bf 4ec1 8abf d9cc 7abf
