testing/scripts/outputs/DDPG_Env/20221213-030633/models/610actor_checkpoint.pt (torch, 281431 bytes, 5 tensors)

linear1.weight f4 [256, 14]
-0.0040758457 0.10175279 0.25864425 -0.10362873 0.19421065 0.10996638 0.33618245 0.36670744
-0.12124508 0.21870399 -0.07838336 0.028724374 -0.09588645 0.14252096 -0.056415323 0.13286602
0.23482871 0.10759798 -0.017331285 -0.2793397 -0.07822842 0.26715943 0.30807102 0.28393477
-0.14506082 0.2568441 0.13000844 0.27908644 0.17548984 0.12809266 -0.18786515 -0.13846625
0.20988779 -0.14180504 -0.13470247 0.09548152 -0.22242543 -0.031585325 -0.25272742 0.12203498
-0.037444748 -0.16554007 -0.23574258 0.09377909 0.33627507 0.19096674 0.14356741 0.24323532
0.076124296 0.1291747 0.26144308 -0.2683613 0.01804681 0.14503922 0.09306484 0.25105608
-0.26015136 0.101023324 0.16289777 -0.037996214 -0.046468053 -0.27248058 0.19972047 0.11673611
-0.19310878 -0.22264056 -0.18844761 0.26676923 0.159856 0.08999212 -0.005592901 0.026244618
0.27854344 -0.071161814 -0.12747279 0.032773238 0.087896295 -0.007929686 0.11606207 -0.24040654
0.09652645 0.07473929 0.22415563 0.025183935 0.22103548 -0.03175279 -0.14790405 0.26769567
0.14024459 -0.07895257 0.0825774 -0.17811684 0.0075410893 0.2966888 0.19618207 -0.10319197
0.16994086 0.043745846 0.24296547 -0.24899775 -0.15684138 0.11409824 -0.06696561 0.23717007
0.14334087 0.050223786 0.14169861 0.065255396 0.010760549 0.15914094 -0.0071003656 -0.24617991
0.23552665 -0.08071767 -0.43289754 -0.2767668 0.15626721 0.29411873 -0.19978534 -0.25949258
-0.09398913 0.21080342 -0.00790715 -0.16555819 0.119827546 -0.087887034 -0.027134929 0.22686361
0.08169867 0.029323582 -0.10923544 -0.22504564 0.11571852 -0.051243424 0.32389194 -0.23610961
-0.12594852 0.24537967 0.13812675 0.1928983 -0.17819367 0.32473433 0.23298852 0.008523483
0.20251296 0.16523959 0.16976963 -0.0014976029 -0.03881466 -0.132313 -0.18638173 -0.045357164
0.018415729 -0.096146174 0.07971882 -0.046958588 0.16528752 0.22114667 0.32243207 -0.051080637
-0.10891233 0.1807807 -0.23420738 0.06832342 -0.19574572 -0.07250998 -0.23847578 -0.041961793
0.2539971 -0.1508679 -0.24843232 -0.23818228 0.2105823 0.24744548 0.08295357 -0.08422875
0.037970055 0.27778345 -0.11015544 -0.035661787 -0.16529316 0.27918485 -0.23379521 0.111284055
0.02058267 0.248189 0.027751293 -0.20961769 -0.0033669893 0.3365539 0.26861227 -0.29175013
0.11258147 0.11953399 -0.06688488 0.25326982 -0.021638926 -0.02090973 0.30609715 -0.10787142
0.02933954 0.2098003 -0.011191647 -0.050479945 -0.21385522 -0.14428814 0.035174504 0.04071193
-0.18286131 0.0018744152 0.21587333 -0.18565685 -0.023247173 0.109275945 0.15068278 0.2761841
-0.13476478 0.31512398 0.042038836 0.21281512 -0.26402956 -0.18425655 -0.08322955 0.16551173
0.16400662 -0.054008834 -0.010968912 -0.21800667 -0.20063753 0.052583657 -0.12025561 -0.18236163
-0.030962704 0.1266817 0.24900846 -0.062039584 -0.015017646 -0.082144596 -0.09086065 -0.12487716
-0.24484153 -0.22990811 0.2121638 0.18955255 0.12036332 -0.20917723 0.04823973 0.18621062
0.009412699 0.21564493 0.0162304 0.0757427 -0.09102827 -0.05983012 -0.2510055 -0.3030105
00000000: ac8e 85bb c463 d03d 056d 843e 4d3b d4bd
00000010: 28df 463e 0e36 e13d 1b20 ac3e 14c1 bb3e
00000020: 574f f8bd f0f3 5f3e 7487 a0bd 614f eb3c
00000030: 1d60 c4bd 04f1 113e c113 67bd 080e 083e
00000040: f076 703e 545c dc3d 57fa 8dbc 9d05 8fbe
00000050: 3936 a0bd 1fc9 883e 7cbb 9d3e e65f 913e
00000060: d38a 14be 1281 833e ef20 053e 6be4 8e3e
00000070: 9cb3 333e b92a 033e b95f 40be 19ca 0dbe
00000080: d3ec 563e 5735 11be 72ef 09be d18b c33d
00000090: 7ec3 63be 9d5f 01bd 7d65 81be 7aed f93d
000000a0: aa5f 19bd 5683 29be 8166 71be 400f c03d
000000b0: 3f2c ac3e c98c 433e 5603 133e ae12 793e
000000c0: 0ee7 9b3d 5f46 043e dedb 853e a766 89be
000000d0: e7d6 933c 2985 143e c798 be3d 6c8a 803e
000000e0: 8f32 85be 51e5 ce3d acce 263e eba1 1bbd
000000f0: 4955 3ebd 9382 8bbe 8683 4c3e 5713 ef3d
00000100: 4fbe 45be e3fb 63be 69f8 40be fa95 883e
00000110: 4bb1 233e ca4d b83d a744 b7bb f4fe d63c
00000120: 3f9d 8e3e 49bd 91bd 3a88 02be 3b3d 063d
00000130: f902 b43d 84eb 01bc f3b1 ed3d 222d 76be
00000140: a9af c53d ea10 993d 0e89 653e 8a4e ce3c
00000150: 2057 623e 370f 02bd 2974 17be 680f 893e
00000160: 479c 0f3e e3b1 a1bd 571e a93d 4364 36be
00000170: 3e1b f73b 98e7 973e f4e3 483e 5056 d3bd
00000180: fa04 2e3e d82e 333d f1cb 783e 44f9 7ebe
00000190: 079b 20be 57ac e93d 4425 89bd b6dc 723e
000001a0: f3c7 123e 75b7 4d3d 7119 113e 9fa4 853d
000001b0: 044d 303c d8f5 223e 2faa e8bb 9616 7cbe
000001c0: e62d 713e 4e4f a5bd bfa4 ddbe 61b4 8dbe
000001d0: 8304 203e bb96 963e 8794 4cbe 36dc 84be
000001e0: 5f7d c0bd dadc 573e fe8c 01bc 1688 29be
000001f0: 2568 f53d 1efe b3bd 124a debc ef4e 683e
00000200: a251 a73d 0238 f03c d5b6 dfbd 5d72 66be
00000210: d5fd ec3d a0e4 51bd 2ad5 a53e b8c6 71be
00000220: a6f8 00be cf44 7b3e 1971 0d3e 2287 453e
00000230: 6778 36be 9443 a63e 8b94 6e3e 14a6 0b3c
00000240: 8f5f 4f3e 9134 293e 17d8 2d3e 374b c4ba
00000250: 1ffc 1ebd 0f7d 07be dada 3ebe 6fc8 39bd
00000260: 95dc 963c 49e8 c4bd 9f43 a33d a657 40bd
00000270: 2241 293e 4674 623e d115 a53e ee39 51bd
00000280: 6d0d dfbd 931e 393e 0fd4 6fbe 26ed 8b3d
00000290: 9171 48be 1d80 94bd ff32 74be 21e0 2bbd
000002a0: e80b 823e 1d7d 1abe 0b65 7ebe 0ee6 73be
000002b0: e3a2 573e 5962 7d3e 90e3 a93d 1f80 acbd
000002c0: 7d86 1b3d a239 8e3e 2d99 e1bd 1812 12bd
000002d0: 9c42 29be 51f1 8e3e 0368 6fbe e5e8 e33d
000002e0: fd9c a83c 4225 7e3e ae56 e33c 05a6 56be
000002f0: b5a8 5cbb cb50 ac3e 8c87 893e 4660 95be
00000300: 1d91 e63d 3dce f43d f1fa 88bd 95ac 813e
00000310: 1e44 b1bc e24a abbc c4b8 9c3e b1eb dcbd
00000320: 7a59 f03c e4d5 563e 2b5d 37bc 0fc4 4ebd
00000330: ddfc 5abe 45c0 13be 2413 103d 8dc1 263d
00000340: ff3f 3bbe f0ae f53a e60d 5d3e d41c 3ebe
00000350: db70 bebc 11cc df3d 964c 1a3e 0168 8d3e
00000360: c7ff 09be ee57 a13e ea30 2c3d 35ec 593e
00000370: e22e 87be c0ad 3cbe 4174 aabd e87b 293e
00000380: 5af1 273e 5e38 5dbd f4b6 33bc 243d 5fbe
00000390: ed73 4dbe f661 573d 9348 f6bd 02bd 3abe
000003a0: 7fa5 fdbc d9b8 013e 13fc 7e3e 381d 7ebd
000003b0: 930c 76bc 6d3b a8bd 2615 babd 99bf ffbd
000003c0: bdb7 7abe 086d 6bbe 7841 593e 101a 423e
000003d0: 0b81 f63d 8e32 56be 0697 453d ffad 3e3e
000003e0: b937 1a3c 06d2 5c3e 9ef5 843c fd1e 9b3d
000003f0: 086d babd 6e10 75bd cb83 80be 3124 9bbe

linear1.bias f4 [256]
-0.16522394 -0.06935536 -0.13245407 -0.24120827 0.26944846 0.033310186 0.013942302 0.07107125
0.09145325 -0.059535578 0.16867726 0.28609136 0.028050037 0.2367065 -0.049552392 -0.23265305
-0.009353739 0.22889142 -0.15045308 0.19125932 0.17738098 -0.060706895 -0.16353136 0.1819857
0.012847568 0.12855987 -0.1538487 -0.12396969 0.13661091 0.17360584 0.10289132 -0.19165324
-0.004633407 0.31909472 0.27078885 -0.006049329 -0.19717734 -0.15913385 0.18905203 0.046435844
0.094191216 0.083719164 0.16084132 -0.12105775 0.17102392 -0.09379457 -0.090583175 -0.1880845
0.26703525 -0.18452369 -0.067946985 0.042830534 -0.19359781 0.00040187943 -0.089301996 -0.08934429
-0.08987971 -0.25596645 -0.07336398 0.16761528 0.22007982 -0.013567744 0.007036212 -0.0052432446
0.22619325 0.21488757 0.16459623 -0.08804102 0.22935154 0.19756366 0.22359337 -0.090869315
-0.16986173 -0.0052414727 -0.16945754 0.20482048 -0.020396711 0.05008607 0.29882038 -0.12030207
0.2392387 -0.016095387 -0.1722075 0.22157477 0.2606863 -0.05561405 0.08408703 -0.24355157
0.21836637 0.15557979 -0.085834794 0.21047305 0.046565067 0.21712275 -0.17615213 0.22993264
0.11199204 0.1950172 -0.07034404 0.21607682 0.05348056 0.19178015 -0.10848525 0.11130549
0.15802354 -0.15475698 -0.1587515 0.051951252 -0.07019715 0.07102046 0.27186486 0.051020008
-0.16909043 0.071276926 0.27085826 0.077599294 -0.12599136 0.21853949 0.06433235 -0.18151042
-0.117744476 -0.12309747 -0.012382182 0.21497028 0.19386569 0.03222489 0.14183074 0.24860261
-0.22788243 0.15311514 0.045459416 -0.16037513 0.23647447 -0.11587785 -0.019352023 0.0636214
-0.151314 -0.23893324 -0.23857708 -0.116503425 0.027378865 -0.03354986 0.05230242 -0.082700044
0.015324552 -0.013959238 -0.16077948 0.03541146 0.27460992 -0.1461916 0.09817944 0.21744686
0.12470933 0.15361227 0.1525381 0.13121086 -0.051307395 -0.21109119 0.19427693 -0.2129328
0.006357553 -0.08326696 0.1758328 -0.15965272 -0.1614359 -0.012031793 -0.09319718 0.1997397
0.13247354 -0.109671704 0.16016363 -0.21183518 -0.21859759 -0.11108451 0.1236149 0.019097738
-0.16924891 -0.20455246 0.2350081 -0.14834341 0.05977609 0.00602355 -0.0969232 0.13782077
0.32613006 -0.0050063734 0.04965797 0.17151989 0.0667091 0.24055412 0.12486911 -0.19502537
-0.022352181 -0.020643925 -0.17805427 -0.033436377 0.106324665 0.0049562175 0.07177893 -0.075712815
-0.20444033 -0.06700159 0.08975384 -0.21318516 -0.03457752 -0.21172868 -0.115531154 -0.12475824
0.17652263 -0.09567604 0.3071483 -0.07595654 0.07154846 -0.044459417 0.0038853348 -0.077027924
0.016327025 0.050196264 0.09163435 0.19986926 -0.08186607 0.16010049 0.019714547 -0.16764581
0.29966423 -0.05327465 0.1280124 -0.11835301 -0.1319039 0.17057864 0.24227011 0.29330066
-0.034487948 0.075535506 0.1695509 0.21453989 0.31776574 0.11113487 -0.25396284 -0.042707864
0.22020346 -0.011438001 0.22512986 -0.18890296 -0.15962306 0.27389517 0.004738626 -0.09691713
0.16183619 0.28273392 0.22558543 -0.0476826 -0.0044325064 -0.12871234 0.3297215 -0.021629099
00000000: 7730 29be 2f0a 8ebd 0aa2 07be 4dff 76be
00000010: 26f5 893e 4370 083d 416e 643c ce8d 913d
00000020: d74b bb3d 94db 73bd bbb9 2c3e 917a 923e
00000030: 31c9 e53c 3063 723e 73f7 4abd 9a3c 6ebe
00000040: 6d40 19bc 8362 6a3e 5f10 1abe 7cd9 433e
00000050: 5ca3 353e cba7 78bd c474 27be 765a 3a3e
00000060: 9b7e 523c 33a5 033e 838a 1dbe d2e3 fdbd
00000070: bbe3 0b3e bbc5 313e afb8 d23d bf40 44be
00000080: d6d3 97bb 6260 a33e d6a4 8a3e 7339 c6bb
00000090: dbe8 49be fcf3 22be db96 413e 8333 3e3d
000000a0: 53e7 c03d f474 ab3d 96b3 243e 20ed f7bd
000000b0: e520 2f3e 5e17 c0bd ac83 b9bd 3999 40be
000000c0: d8b8 883e c7f3 3cbe ca27 8bbd 126f 2f3d
000000d0: 813e 46be 58b3 d239 f7e3 b6bd 24fa b6bd
000000e0: da12 b8bd 090e 83be db3f 96bd 57a3 2b3e
000000f0: 9b5c 613e 3e4b 5ebc 0690 e63b 86cf abbb
00000100: 349f 673e 7d0b 5c3e ea8b 283e da4e b4bd
00000110: 21db 6a3e 214e 4a3e a9f5 643e b119 babd
00000120: 3cf0 2dbe a9c0 abbb 4786 2dbe 76bc 513e
00000130: 0117 a7bc 0d27 4d3d fcfe 983e ef60 f6bd
00000140: fdfa 743e 79da 83bc 2a57 30be 7fe4 623e
00000150: ad78 853e 8fcb 63bd d235 ac3d 9565 79be
00000160: 6f9b 5f3e 4f50 1f3e 27ca afbd 3f86 573e
00000170: 03bb 3e3d 6d55 5e3e 3961 34be 7673 6b3e
00000180: 155c e53d 97b2 473e 8910 90bd 3e43 5d3e
00000190: 6f0e 5b3d 0462 443e 842d debd 22f4 e33d
000001a0: ecd0 213e 9d78 1ebe c18f 22be d6ca 543d
000001b0: 86c3 8fbd 2d73 913d df31 8b3e 5bfa 503d
000001c0: 0b26 2dbe a3f9 913d efad 8a3e 61ec 9e3d
000001d0: e103 01be d1c8 5f3e aec0 833d dedd 39be
000001e0: 0424 f1bd 871a fcbd a3de 4abc 2b21 5c3e
000001f0: ba84 463e 3ffe 033d 143c 113e af91 7e3e
00000200: 035a 69be 37ca 1c3e a733 3a3d 6139 24be
00000210: 5d26 723e 5e51 edbd 2288 9ebc f04b 823d
00000220: 0ff2 1abe eaaa 74be 8d4d 74be 5999 eebd
00000230: a449 e03c 946b 09bd 103b 563d a45e a9bd
00000240: d413 7b3c 4ab5 64bc 60a3 24be 9b0b 113d
00000250: ac99 8c3e 40b3 15be 4d12 c93d 64aa 5e3e
00000260: 9b67 ff3d 894c 1d3e f332 1c3e 245c 063e
00000270: b427 52bd 4a28 58be 88f0 463e 0e0b 5abe
00000280: 0553 d03b de87 aabd 830d 343e 017c 23be
00000290: 744f 25be ff20 45bc 2ade bebd 9088 4c3e
000002a0: 25a7 073e 8f9b e0bd ef01 243e 52eb 58be
000002b0: 0cd8 5fbe 4780 e3bd cf29 fd3d dc72 9c3c
000002c0: 964f 2dbe 3376 51be f7a5 703e 56e7 17be
000002d0: c6d7 743d 3361 c53b ac7f c6bd e320 0d3e
000002e0: 85fa a63e 810c a4bb 2866 4b3d e9a2 2f3e
000002f0: c89e 883d d253 763e 60bb ff3d bbb4 47be
00000300: ec1b b7bc 731d a9bc dc53 36be 95f4 08bd
00000310: bfc0 d93d c467 a23b d500 933d 520f 9bbd
00000320: ce58 51be 2138 89bd dcd0 b73d 364d 5abe
00000330: 28a1 0dbd 67cf 58be 999b ecbd 4081 ffbd
00000340: 59c2 343e cdf1 c3bd 8b42 9d3e 1a8f 9bbd
00000350: 0088 923d 141b 36bd 1aa1 7e3b d1c0 9dbd
00000360: 41c0 853c 999a 4d3d caaa bb3d 87aa 4c3e
00000370: 66a9 a7bd 62f1 233e 6780 a13c 58ab 2bbe
00000380: 976d 993e 8536 5abd af15 033e 1063 f2bd
00000390: d111 07be 2bac 2e3e a815 783e 812b 963e
000003a0: 3c43 0dbd 5cb2 9a3d c09e 2d3e 58b0 5b3e
000003b0: 31b2 a23e ae9a e33d 6b07 82be 71ee 2ebd
000003c0: 047d 613e 7466 3bbc 7188 663e c76f 41be
000003d0: 3a74 23be fd3b 8c3e 7a46 9b3b 7d7c c6bd
000003e0: 63b8 253e 80c2 903e deff 663e d44e 43bd
000003f0: 8f3e 91bb 2bcd 03be 42d1 a83e 822f b1bc

linear2.weight f4 [256, 256]
-0.014383549 0.03961933 0.012793181 -0.064460844 -0.04045564 -0.015493968 -0.0074141817 0.006823039
-0.016789405 -0.032420166 0.02294275 0.073971555 0.08014286 -0.037767097 0.020400299 0.025349375
-0.063614205 0.0778593 -0.01180301 -0.08965584 -0.0024845228 0.07241369 0.09395558 0.044419006
-0.020947324 -0.0068289926 0.0053519798 0.049447216 -0.00060861284 -0.009606565 0.007849208 -0.08524467
-0.019869238 -0.03177817 0.0576425 -0.0062132753 0.0052661337 -0.06885415 0.06538427 -0.043900587
0.006371009 0.062218383 0.0592389 0.053464763 0.055525947 0.019004129 -0.010761383 0.06314765
0.006101709 -0.045645073 -0.07051476 0.010961696 0.038862657 -0.07313626 0.03790573 0.00035899735
0.03843141 -0.03793137 -0.029813522 0.021051062 0.004612039 0.027597966 0.045075994 -0.03067191
0.053078804 -0.0066441293 0.041870307 -0.009998903 -0.032730877 0.024044396 0.0384125 0.09425736
-0.038399536 -0.03158221 -0.0009656993 -0.07338209 0.022570038 0.009865907 -0.0093208505 -0.0013777092
-0.08536961 0.070382096 0.073797315 0.048343763 -0.043725 -0.03015884 -0.00367353 -0.009826491
-0.010065488 0.036981996 0.033751287 -0.014047192 0.054644626 0.03069332 0.015183247 0.034942478
0.065104544 -0.064607926 -0.020957202 0.07842057 0.019530393 0.093132585 0.023539739 0.094542906
-0.020464247 -0.052863922 -0.03110102 0.011167618 -0.022343453 0.03991987 -0.026545338 0.08614351
-0.024734892 -0.011832265 0.057714093 -0.064360045 -0.061732475 -0.05805665 0.016500572 0.17038333
0.036703903 -0.03244064 -0.07875248 0.04701573 0.065804504 0.16376036 -0.06080553 0.030775739
0.06315515 0.029471416 -0.03779102 -0.06881666 -0.047465652 0.08825905 0.01226171 -0.040101692
0.011798847 0.030545618 0.101217255 -0.03673896 -0.07316366 0.039986983 0.000773179 -0.0021204308
0.015362454 -0.050512183 -0.003777041 0.044218823 0.043720443 -0.010724743 0.07359367 0.06728192
-0.0043111052 -0.022804841 -0.03399073 -0.062864326 0.10007891 0.18590178 0.011203512 -0.08761053
-0.0039808676 0.037665173 -0.031917688 0.021084126 0.022062015 -0.018988268 0.027002508 -0.059747815
-0.026902936 -0.10579057 -0.016371831 0.04578995 0.04703169 0.021434113 -0.055020764 0.012606144
-0.017285265 0.015632922 0.046589483 0.055073094 0.03762089 0.090906054 0.118206665 0.032387335
-0.035485424 0.048993807 -0.0014099631 0.027703114 0.007878796 0.008751979 -0.045390286 0.016895836
0.06163069 0.008831351 0.050671328 0.07246971 0.04598786 0.0007170792 0.015529401 0.031717565
-0.010353566 -0.09883014 -0.024909234 0.07840898 0.06514759 -0.021692708 -0.014856215 -0.029371565
-0.052319348 -0.0861822 -0.005533259 0.038913973 0.0057761315 0.0653489 0.056940738 0.06796406
0.068499036 0.016476685 -0.02883366 0.06758002 0.03505802 -0.03293082 0.05673638 0.096996516
0.00961697 -0.054965716 0.039939832 -0.05554206 0.05034547 -0.014505145 -0.024386168 -0.04533622
0.07550382 -0.015250113 -0.059124917 -0.021478964 0.061724864 -0.0055653523 0.027732339 -0.00068310054
-0.040862508 -0.004746256 -0.08447531 0.012770656 0.020554738 0.029643834 0.032296915 0.009130986
0.064938225 0.061187964 -0.018457778 0.04859652 0.037726976 -0.025581483 -0.095682286 -0.00897002
00000000: faa8 6bbc e147 223d 7e9a 513c 0c04 84bd
00000010: d0b4 25bd 69da 7dbc aaf2 f2bb cd93 df3b
00000020: ef89 89bc 02cb 04bd 6ff2 bb3c 667e 973d
00000030: f121 a43d acb1 1abd 871e a73c 7ea9 cf3c
00000040: 2a48 82bd b274 9f3d 6961 41bc 7b9d b7bd
00000050: 60d3 22bb a14d 943d c86b c03d b4f0 353d
00000060: b999 abbc bec5 dfbb a95f af3b 2a89 4a3d
00000070: 518b 1fba db64 1dbc f799 003c c294 aebd
00000080: d0c4 a2bc d429 02bd 8b1a 6c3d bb98 cbbb
00000090: 888f ac3b 6803 8dbd 30e8 853d 1ad1 33bd
000000a0: e6c3 d03b b4d8 7e3d 7da4 723d defd 5a3d
000000b0: 2d6f 633d 8cae 9b3c 8350 30bc 8e53 813d
000000c0: d8f0 c73b 54f6 3abd 0b6a 90bd af98 333c
000000d0: 732e 1f3d 77c8 95bd 0a43 1b3d cf37 bc39
000000e0: 416a 1d3d ed5d 1bbd 7d3b f4bc 4773 ac3c
000000f0: 9620 973b 2115 e23c 9ba1 383d a843 fbbc
00000100: 2969 593d ffb6 d9bb 3380 2b3d 70d2 23bc
00000110: d010 06bd c1f8 c43c 6d56 1d3d 010a c13d
00000120: d548 1dbd 595c 01bd fc26 7dba 5949 96bd
00000130: cde4 b83c 9da4 213c 7bb6 18bc 4094 b4ba
00000140: 43d6 aebd 7d24 903d 0c23 973d 1c04 463d
00000150: fc18 33bd ac0f f7bc 9bbf 70bb 4aff 20bc
00000160: b7e9 24bc 6f7a 173d ca3e 0a3d 3226 66bc
00000170: 0bd3 5f3d 8f70 fb3c 27c3 783c d81f 0f3d
00000180: 8855 853d 2951 84bd 70ae abbc f79a a03d
00000190: 34fe 9f3c 4cbc be3d 69d6 c03c b69f c13d
000001a0: a3a4 a7bc d787 58bd 91c7 febc 63f8 363c
000001b0: 9e09 b7bc 0583 233d 9c75 d9bc 026c b03d
000001c0: d4a0 cabc 1edc 41bc 9d65 6c3d 33cf 83bd
000001d0: 31db 7cbd cfcc 6dbd 352c 873c f878 2e3e
000001e0: d556 163d 7ae0 04bd fb48 a1bd 9193 403d
000001f0: 83c4 863d ccb0 273e 380f 79bd 671d fc3c
00000200: 7d57 813d 0a6e f13c c2ca 1abd c0ef 8cbd
00000210: 586b 42bd 29c1 b43d 57e5 483c ac41 24bd
00000220: f34f 413c ce3a fa3c fe4a cf3d 977b 16bd
00000230: d4d6 95bd 64c9 233d 2aaf 4a3a edf6 0abb
00000240: cdb2 7b3c dde5 4ebd 3c88 77bb cc1e 353d
00000250: 3514 333d d5b6 2fbc 47b8 963d 1acb 893d
00000260: 2c44 8dbb 38d1 babc dd39 0bbd 03bf 80bd
00000270: 2cf6 cc3d 095d 3e3e ef8e 373c 266d b3bd
00000280: f071 82bb cc46 1a3d 1fbc 02bd 9eb8 ac3c
00000290: 66bb b43c 498d 9bbc 5d34 dd3c 20ba 74bd
000002a0: 8c63 dcbc baa8 d8bd 381e 86bc 3e8e 3b3d
000002b0: 4da4 403d 9896 af3c 745d 61bd 008a 4e3c
000002c0: d499 8dbc 9d10 803c 9dd4 3e3d 5394 613d
000002d0: 5d18 1a3d f42c ba3d 5616 f23d 95a8 043d
000002e0: 2a59 11bd bbad 483d 83ce b8ba a4f1 e23c
000002f0: 1116 013c 7664 0f3c 2aeb 39bd 2369 8a3c
00000300: 7670 7c3d 5fb1 103c bd8c 4f3d 006b 943d
00000310: c45d 3c3d 5ffa 3b3a 076f 7e3c 47ea 013d
00000320: 01a2 29bc 7567 cabd 730e ccbc e394 a03d
00000330: 1a6c 853d e8b4 b1bc 7b67 73bc a39c f0bc
00000340: d04c 56bd 4b80 b0bd 5750 b5bb 4264 1f3d
00000350: b445 bd3b a5d5 853d b13a 693d be30 8b3d
00000360: 3949 8c3d 1dfa 863c 9134 ecbc 6567 8a3d
00000370: 0099 0f3d 78e2 06bd 6864 683d 1ca6 c63d
00000380: 7f90 1d3c bb23 61bd f397 233d 1280 63bd
00000390: 0d37 4e3d fda6 6dbc 80c5 c7bc 79b2 39bd
000003a0: bfa1 9a3d 9cdb 79bc f82c 72bd a7f4 afbc
000003b0: 36d3 7c3d 8f5d b6bb ee2e e33c 1a12 33ba
000003c0: 725f 27bd 7b86 9bbb 6401 adbd 033c 513c
000003d0: 6962 a83c a0d7 f23c c549 043d 229a 153c
000003e0: 55fe 843d 3ba0 7a3d c434 97bc 250d 473d
000003f0: 9a87 1a3d 4290 d1bc 13f5 c3bd fef6 12bc

linear2.bias f4 [256]
-0.009744176 0.017451612 0.05818844 0.0300966 0.038566757 -0.0017781553 -0.0055056685 -0.031664856
-0.0016939829 0.043974273 -0.0023100788 0.02316201 -0.03267665 -0.010889483 0.05488144 0.03424897
0.030307075 -0.008237563 -0.04896444 -0.054945454 0.035901967 -0.048804864 0.038320232 0.012088381
0.03082146 0.06958255 -0.034200814 -0.0039160186 0.040260755 0.051800292 0.004135965 0.050159663
0.030436499 0.062309176 0.05994352 -0.033314336 0.044209074 0.0059519527 0.070459664 0.039044246
0.056704096 -0.0071660513 0.01668365 0.023584051 0.072056524 0.01421926 -0.025842428 0.05334892
0.04465048 0.024639582 -0.014787324 -0.049055025 0.007844683 -0.008510162 0.07156873 -0.026079608
0.066331625 -0.014456636 -0.053353783 0.0263665 -0.013205367 0.071425855 -0.016033554 0.07537778
-0.059825867 -0.027999021 -0.012040428 0.059183177 -0.049887754 0.055026576 0.032146927 -0.067878395
0.05897503 -0.004276893 0.08841547 0.021699322 -0.0029795791 0.04950201 0.011634592 -0.0058454094
0.04448341 0.060307775 0.060549542 0.03464115 0.0020040085 -0.004158348 0.038336568 0.0044051604
0.05154564 -0.00065061555 0.007467907 -0.00046039195 -0.0056726183 -0.00064282626 0.008605488 -0.0041892403
0.03514259 -0.012734511 0.013455436 -0.039818347 0.009775769 -0.043087136 0.03291103 -6.151462e-05
0.019912843 0.06848382 -0.032799136 0.05335472 -0.012152788 0.012690673 0.07589863 -0.018733183
0.052553896 0.05318311 -0.0549238 0.02594237 0.023519468 -0.034179706 0.055683643 0.009570684
-0.043789838 0.017097743 0.047603033 0.017860841 0.032081395 0.034861054 -0.001586565 0.018470155
0.011359815 0.023674311 0.08664897 0.0072882464 0.04242955 -0.004506228 0.0555352 0.0072563454
-0.04092245 0.035734583 0.009252838 0.0391484 0.037127677 -0.061691504 -0.046904914 0.03987198
-0.025141083 0.041279614 0.0006005433 -0.03814432 -0.052413527 -0.00092227187 0.025736855 -0.057924945
0.01600631 -0.036281627 0.02562206 -0.0042041466 0.034317877 -0.0153926015 -0.02951051 0.05841032
0.014654209 -0.008110163 -0.042721376 0.025576519 0.03686526 0.0146565875 -0.022464413 0.0039330455
-0.040430035 0.04136181 0.030402321 0.059522647 -0.062542394 -0.009764503 -0.028075708 -0.0047531687
0.046662256 0.048051625 -0.028610164 -0.03824621 0.035819147 -0.016054083 -0.04774373 -0.009837844
0.019614607 -0.020108176 0.07687486 -0.062024858 0.024577318 -0.035164475 0.04320714 -0.036021948
-0.022904037 0.01932994 -0.0010837944 0.03585195 0.009457058 -0.024065431 0.055931874 -0.038024087
0.022937369 0.037024446 0.029216003 -0.032347336 0.009335608 0.038087405 -0.0020402116 0.066824265
0.058438834 -0.0031850094 -0.03778415 0.07551586 0.046742193 0.009689875 -0.019827774 -0.015930442
0.021775791 0.044486605 -0.021812782 -0.032642256 -0.05678865 0.07012022 0.03521744 0.030168982
-0.03641783 0.012040708 0.017623592 -0.05552945 -0.0042792857 0.052103803 -0.009622574 -0.038321648
0.041639592 0.051195 -0.0336129 0.011920151 -0.0007375807 -0.009615918 0.055364426 -0.034257706
-0.007825798 -0.045588396 0.0068116626 0.0027822857 -0.06048301 -0.0026387186 0.043693464 -0.04697178
-0.064188845 0.06294992 -0.027645955 -0.029991403 0.0033915131 0.013351177 0.07258117 -0.019562645
00000000: 09a6 1fbc aff6 8e3c 0057 6e3d 258d f63c
00000010: 2df8 1d3d fe10 e9ba e568 b4bb 02b3 01bd
00000020: a208 deba 5e1e 343d b164 17bb 41be bd3c
00000030: f3d7 05bd cd69 32bc 5ccb 603d a648 0c3d
00000040: 8b46 f83c d8f6 06bc f08e 48bd 7c0e 61bd
00000050: f10d 133d 9ce7 47bd adf5 1c3d 580e 463c
00000060: 497d fc3c 4c81 8e3d 2716 0cbd f251 80bb
00000070: 76e8 243d 8b2c 543d fd86 873b 3874 4d3d
00000080: f755 f93c e837 7f3d 5687 753d 9d74 08bd
00000090: 9314 353d 9908 c33b 284d 903d dcec 1f3d
000000a0: 8e42 683d 32d1 eabb 26ac 883c 5733 c13c
000000b0: 5f92 933d e6f7 683c 80b3 d3bc 6684 5a3d
000000c0: 6ce3 363d f3d8 c93c 8846 72bc eced 48bd
000000d0: fc86 003c 356e 0bbc a092 923d e7a4 d5bc
000000e0: e0d8 873d 87db 6cbc 7f89 5abd 8ffe d73c
000000f0: 535b 58bc b847 923d cd58 83bc aa5f 9a3d
00000100: f80b 75bd 345e e5bc 3745 45bc 0f6a 723d
00000110: 1a57 4cbd 8c63 613d 7fac 033d d403 8bbd
00000120: cd8f 713d 2e25 8cbb 2c13 b53d c7c2 b13c
00000130: 0b45 43bb 9fc2 4a3d 049f 3e3c d98a bfbb
00000140: 3c34 363d 4905 773d cc02 783d e1e3 0d3d
00000150: af55 033b c042 88bb ce06 1d3d 2a59 903b
00000160: 8521 533d 128e 2aba 58b5 f43b c360 f1b9
00000170: 5fe1 b9bb 5783 28ba 08fe 0c3c e545 89bb
00000180: adf1 0f3d 69a4 50bc 3074 5c3c 9018 23bd
00000190: 8c2a 203c 237c 30bd b7cd 063d 6901 81b8
000001a0: 4220 a33c 3f41 8c3d 6358 06bd 7b8a 5a3d
000001b0: 7d1c 47bc 8aec 4f3c be70 9b3d 5576 99bc
000001c0: c142 573d 88d6 593d c7f7 60bd 1885 d43c
000001d0: e6ab c03c 0500 0cbd 8814 643d 5cce 1c3c
000001e0: f95c 33bd 9110 8c3c 66fb 423d e650 923c
000001f0: c867 033d 77ca 0e3d 4af4 cfba b94e 973c
00000200: 841e 3a3c a1f0 c13c 0475 b13d 3ed2 ee3b
00000210: 9cca 2d3d fba8 93bb e178 633d a3c6 ed3b
00000220: 4d9e 27bd 6d5e 123d 3799 173c 135a 203d
00000230: 3113 183d 3bb0 7cbd 5e1f 40bd cd50 233d
00000240: acf4 cdbc d014 293d c76d 1d3a 383d 1cbd
00000250: 91af 56bd 9ec4 71ba 19d6 d23c b542 6dbd
00000260: aa1f 833c 0b9c 14bd 5be5 d13c f0c2 89bb
00000270: e790 0c3d 4031 7cbc 06c0 f1bc a93f 6f3d
00000280: 3518 703c 7de0 04bc 9cfc 2ebd d985 d13c
00000290: 0700 173d 2f22 703c 4a07 b8bc c7e0 803b
000002a0: f799 25bd 006b 293d 4a0e f93c 05ce 733d
000002b0: 3a16 80bd 4bfb 1fbc 07ff e5bc 78c0 9bbb
000002c0: ec20 3f3d c8d1 443d dd5f eabc 0fa8 1cbd
000002d0: 19b7 123d da83 83bc ee8e 43bd e92e 21bc
000002e0: d0ae a03c e7b9 a4bc 9170 9d3d c70d 7ebd
000002f0: 5f56 c93c a008 10bd f8f9 303d c08b 13bd
00000300: 3fa1 bbbc d359 9e3c 1b0e 8eba 7fd9 123d
00000310: c7f1 1a3c de24 c5bc d218 653d 25bf 1bbd
00000320: 26e7 bb3c f2a6 173d 6656 ef3c a47e 04bd
00000330: 61f4 183c 8a01 1c3d 12b5 05bb 29db 883d
00000340: 8f5d 6f3d 97bb 50bb 8ec3 1abd 0fa8 9a3d
00000350: be74 3f3d 48c2 1e3c db6d a2bc 8f80 82bc
00000360: 2563 b23c 9637 363d b8b0 b2bc e3b3 05bd
00000370: 379b 68bd 319b 8f3d 2a40 103d f124 f73c
00000380: dd2a 15bd 6446 453c 5a5f 903c d972 63bd
00000390: 4039 8cbb cc6a 553d 00a8 1dbc 29f7 1cbd
000003a0: 478e 2a3d d9b1 513d aead 09bd bd4c 433c
000003b0: 345a 41ba 158c 1dbc cfc5 623d cf51 0cbd
000003c0: c737 00bc e6ba 3abd 5e34 df3b 0257 363b
000003d0: 08bd 77bd 5aee 2cbb ebf7 323d 7b65 40bd
000003e0: 7175 83bd e3eb 803d c579 e2bc 88b0 f5bc
000003f0: 2644 5e3b e5be 5a3c 70a5 943d d741 a0bc

linear3.weight f4 [1, 256]
0.074968435 0.14859575 -0.07451755 -0.06785425 -0.08323202 0.057636604 -0.22580639 0.17090489
-0.08051766 0.06317527 0.078680195 0.08595456 -0.1088143 0.049414974 -0.05843452 -0.08355258
0.059912264 -0.11363258 0.04221547 0.044151727 -0.08588532 0.057664588 0.096592434 -0.07601743
-0.070261106 -0.14264908 0.058851946 -0.07172607 -0.042726975 0.051726654 0.13601267 -0.088463716
0.063822106 0.0529314 -0.09688842 0.05544598 0.08794997 -0.07493781 -0.07953851 -0.08522091
0.0716579 0.08037524 0.06240917 0.06771034 -0.18479231 0.055666458 -0.07823073 -0.15245648
-0.08081894 0.1683359 0.05895679 0.062945805 0.08064163 0.08560034 -0.06267214 0.07882787
0.065831475 -0.08186042 0.09890572 0.057093877 -0.08654691 -0.079014026 -0.10296068 -0.062067814
0.037624512 -0.14461929 -0.074041575 -0.074185975 0.078389876 0.06760464 0.078493185 0.17434274
-0.20210874 0.09174232 0.18758498 0.050005723 0.077131666 -0.09744066 0.059999574 -0.063089125
0.081359506 -0.08543771 -0.056454454 -0.2605572 0.07759612 -0.08380644 0.06441975 -0.07946243
0.05071227 0.100128815 0.05405048 -0.083961524 0.10777954 -0.091766804 0.06932968 0.100404635
-0.09800314 0.047975097 -0.07756784 0.08629361 0.069874816 0.057603266 0.25780928 0.09454712
0.07510524 -0.08519476 0.13354059 -0.07007911 -0.07270693 0.057162885 -0.06289098 -0.112751506
0.06640689 -0.16757983 -0.1991449 -0.08274101 0.06777413 0.05334834 -0.063240595 -0.08181272
0.08100594 0.04138782 0.07062727 0.051822487 -0.076671325 -0.07603746 0.07603461 0.0817751
-0.06536213 -0.074566305 -0.0821783 -0.0724831 -0.07032681 0.2041608 0.038650803 -0.06403561
-0.0743258 0.044029944 0.06391179 0.042440314 0.058319964 0.12207819 -0.11745777 0.06962319
-0.103796154 -0.13200483 0.046868708 0.1556987 0.0631493 0.10694461 -0.071485676 0.09769057
0.06350386 0.059086014 -0.08276279 0.06644399 0.065157115 -0.049858805 -0.080548786 -0.07453115
-0.07506833 0.05557728 0.072811246 -0.16046043 0.05943884 -0.08956417 0.044541858 -0.2932674
0.13007775 -0.15577604 -0.06619604 0.048796836 0.047202073 0.047309596 -0.07282239 -0.06437021
0.06983306 0.036577247 0.21172488 0.052449472 -0.13733132 0.084091604 0.07301477 0.0636519
-0.06536635 0.07239742 -0.07392792 0.108916424 -0.10279285 0.111064844 0.10071272 -0.08818024
-0.0938297 -0.1459193 -0.079021715 -0.074747905 0.06685972 0.06679099 0.040495235 0.094304934
0.056882523 0.09169746 -0.07382424 -0.077988215 -0.0702897 0.07410475 0.07508334 -0.06079147
-0.28505167 -0.12236334 0.0010185469 0.061687794 0.07684557 0.0449867 -0.070308425 0.0406193
-0.09202405 0.04533532 -0.07393942 0.06228416 0.08872601 -0.10201063 -0.32586342 0.052526478
0.061057262 0.049031086 -0.0848102 0.06685479 -0.07498832 0.08774388 0.047963876 0.27229974
0.04974463 -0.083240986 0.07822548 -0.07685914 0.07135876 -0.06778373 0.0906147 -0.074069396
0.056996237 0.12937722 -0.06119214 0.06791018 0.053840596 -0.14980294 0.10002167 0.045277234
0.14586195 0.073373534 0.05327911 0.08851173 -0.14398175 0.07439717 -0.06960709 -0.073543966
00000000: 0d89 993d 7c29 183e a89c 98bd 2bf7 8abd
00000010: 8d75 aabd 5c14 6c3d ca39 67be b101 2f3e
00000020: 71e6 a4bd 0962 813d 1523 a13d f208 b03d
00000030: 08da debd 5b67 4a3d 0959 6fbd 9d1d abbd
00000040: 9066 753d 33b8 e8bd 21ea 2c3d 71d8 343d
00000050: a5e4 afbd b431 6c3d 41d2 c53d 07af 9bbd
00000060: 0ee5 8fbd 9a12 12be bd0e 713d 1ee5 92bd
00000070: 7b02 2fbd 54df 533d e846 0b3e 772c b5bd
00000080: 2ab5 823d 98ce 583d 706d c6bd 531b 633d
00000090: 1d1f b43d ff78 99bd 16e5 a2bd 4d88 aebd
000000a0: 61c1 923d c69b a43d c2a0 7f3d b8ab 8a3d
000000b0: 323a 3dbe 8302 643d 6f37 a0bd 8d1d 1cbe
000000c0: 6784 a5bd 3f60 2c3e ad7c 713d bbe9 803d
000000d0: 7027 a53d 3b4f af3d 405a 80bd 8270 a13d
000000e0: a7d2 863d 70a6 a7bd 158f ca3d 45db 693d
000000f0: 823f b1bd 1bd2 a1bd 0ddd d2bd d23a 7ebd
00000100: 291c 1a3d 1417 14be 1ca3 97bd d1ee 97bd
00000110: df8a a03d 4d74 8a3d 09c1 a03d e786 323e
00000120: 98f5 4ebe 66e3 bb3d 4716 403e cdd2 4c3d
00000130: 35f7 9d3d f88e c7bd 1dc2 753d df34 81bd
00000140: d09f a63d f7f9 aebd c93c 67bd c167 85be
00000150: b7ea 9e3d b6a2 abbd 80ee 833d 33bd a2bd
00000160: abb7 4f3d 5610 cd3d 0964 5d3d 05f4 abbd
00000170: 85bb dc3d 3cf0 bbbd b8fc 8d3d f2a0 cd3d
00000180: dfb5 c8bd 8981 443d e3db 9ebd b4ba b03d
00000190: 871a 8f3d 67f1 6b3d 94ff 833e eca1 c13d
000001a0: c7d0 993d 977a aebd ddbe 083e a385 8fbd
000001b0: 5fe7 94bd a123 6a3d fccc 80bd 43ea e6bd
000001c0: 5600 883d 0c9a 2bbe a4ec 4bbe 1e74 a9bd
000001d0: 2acd 8a3d ca83 5a3d 4984 81bd 6d8d a7bd
000001e0: 71e6 a53d 4686 293d 08a5 903d d143 543d
000001f0: db05 9dbd 87b9 9bbd 09b8 9b3d b479 a73d
00000200: 95dc 85bd 38b6 98bd 194d a8bd 0572 94bd
00000210: 8107 90bd 870f 513e 4e50 1e3d 1a25 83bd
00000220: 2038 98bd be58 343d 2fe4 823d e5d5 2d3d
00000230: eae0 6e3d 2104 fa3d b38d f0bd 9a96 8e3d
00000240: 1493 d4bd 462c 07be 67f9 3f3d 7b6f 1f3e
00000250: 6c54 813d c705 db3d 1567 92bd fe11 c83d
00000260: 500e 823d 2d04 723d 8a7f a9bd c913 883d
00000270: 1871 853d bf38 4cbd c3f6 a4bd caa3 98bd
00000280: 6dbd 99bd 01a5 633d 101e 953d bd4f 24be
00000290: 2476 733d 6b6d b7bd 8671 363d 2527 96be
000002a0: 1a33 053e c183 1fbe ca91 87bd 31df 473d
000002b0: f656 413d b5c7 413d e823 95bd 87d4 83bd
000002c0: a304 8f3d 06d2 153d 68ce 583e 42d5 563d
000002d0: 95a0 0cbe 3838 ac3d c588 953d ed5b 823d
000002e0: cbde 85bd 1945 943d 8567 97bd 930f df3d
000002f0: 0f85 d2bd f775 e33d 7842 ce3d d797 b4bd
00000300: c929 c0bd de6b 15be 23d6 a1bd 6e15 99bd
00000310: c0ed 883d b7c9 883d 55de 253d f222 c13d
00000320: a6fd 683d e1cb bb3d 2a31 97bd 49b8 9fbd
00000330: 0cf4 8fbd 3bc4 973d 4bc5 993d 7a00 79bd
00000340: 4bf2 91be a199 fabd c380 853a 57ac 7c3d
00000350: 3661 9d3d f943 383d ddfd 8fbd 6c60 263d
00000360: 1b77 bcbd 87b1 393d 8d6d 97bd ad1d 7f3d
00000370: fbb5 b53d f3ea d0bd 92d7 a6be 0126 573d
00000380: 2e17 7a3d d2d4 483d f8b0 adbd 2aeb 883d
00000390: 7a93 99bd 10b3 b33d c575 443d df6a 8b3e
000003a0: 06c1 4b3d 407a aabd ae34 a03d 5368 9dbd
000003b0: 8b24 923d 32d2 8abd 3394 b93d b2b1 97bd
000003c0: e374 693d 767b 043e 9ca4 7abd 7e14 8b3d
000003d0: f587 5c3d f165 19be 29d8 cc3d 9f74 393d
000003e0: d65c 153e dd44 963d 323b 5a3d a345 b53d
000003f0: f46f 13be 8b5d 983d 298e 8ebd 389e 96bd
