testing/scripts/outputs/DDPG_Env/20221213-030633/models/720critic_checkpoint.pt (torch, 282455 bytes, 5 tensors)

linear1.weight f4 [256, 15]
0	0x3eab573b	0.3346499
1	0xbe91f797	-0.2850921
2	0xbf8a316e	-1.0796335
3	0x3e180851	0.14846922
4	0x3f373456	0.71564233
5	0x3edcce1a	0.43125993
6	0x3ea6f3a4	0.32607758
7	0xbdb17d48	-0.086664736
8	0xbf298afd	-0.66227704
9	0x3e9c3251	0.30507138
10	0xbcaeaf3d	-0.021323794
11	0x3e29c6cc	0.16579741
12	0x3deaa891	0.11457933
13	0xbe2a3d8a	-0.16625038
14	0xbe399831	-0.18124463
15	0xbdd4112b	-0.10354837
16	0xbf2e060d	-0.6797798
17	0xbfb19207	-1.3872689
18	0xbf5947a3	-0.84874934
19	0x3e892fc0	0.26794243
20	0x3e8ca0b9	0.27466372
21	0xbf014037	-0.5048861
22	0xbdd41926	-0.10356359
23	0x3e99d60f	0.30046126
24	0x3e806ea6	0.25084418
25	0xbc20a578	-0.009805076
26	0x3e3534da	0.17695943
27	0xbb804b73	-0.0039152442
28	0xbe206ac9	-0.15665735
29	0x3ecf8f21	0.40538886
30	0xbc313096	-0.010814806
31	0x3e998958	0.29987597
32	0x3e372657	0.17885719
33	0xbee80240	-0.45314217
34	0xbf416ccf	-0.75556654
35	0x3eb79bbf	0.35861012
36	0x3d5dc612	0.054143973
37	0xbe9e0349	-0.3086188
38	0xbf27f598	-0.6560912
39	0xbe3d116a	-0.18463674
40	0xbe065324	-0.13117653
41	0x3e7c8787	0.24661075
42	0x3e2bf451	0.16792418
43	0xbea7ef79	-0.3279989
44	0xbeb047d3	-0.34429798
45	0xbe9722ec	-0.2951883
46	0xbd5c45b7	-0.053777423
47	0xbe75a2d9	-0.23987903
48	0xbef511cf	-0.4786515
49	0xbe62be23	-0.22142844
50	0xbec2f489	-0.3807719
51	0xbf6b72d4	-0.9197209
52	0xbf9cb0de	-1.2241476
53	0x3e6d39f1	0.23166634
54	0x3ece986a	0.40350658
55	0x3dee3556	0.11631267
56	0x3dc44a71	0.09584511
57	0xbd014efb	-0.031569462
58	0xbdc37639	-0.095440336
59	0xbe59f617	-0.21285282
60	0xbf26d71e	-0.6517199
61	0xbda1076e	-0.07862745
62	0x3e373e66	0.17894897
63	0xbf05f034	-0.52319646
64	0xbfc68d4b	-1.5511869
65	0xbf824f2b	-1.018041
66	0xbf8cfb64	-1.1014218
67	0xbed0b6f7	-0.4076459
68	0xbe3035f2	-0.17208079
69	0xbf34bd64	-0.7060149
70	0xbce263dd	-0.02763551
71	0xbd59e96f	-0.053201135
72	0xbce89431	-0.028390976
73	0x3e5a7340	0.21333027
74	0xbd3b6886	-0.04575398
75	0xbec4a279	-0.38405207
76	0x3cbaec13	0.022817647
77	0xbdc6591c	-0.09684965
78	0xbf27f807	-0.65612835
79	0xbf7dffd1	-0.9921847
80	0xbf92fb11	-1.1482869
81	0xbfd3a233	-1.6533874
82	0xbee38cef	-0.4444346
83	0xbe40c559	-0.18825282
84	0xbf273d06	-0.6532749
85	0xbcfc92b4	-0.030831672
86	0x3d0bf7d3	0.03417189
87	0x3c1512c1	0.00909871
88	0x3d8fa0a0	0.07013059
89	0x3ddb8317	0.10718363
90	0xbd30a22d	-0.043123413
91	0xbe858c65	-0.26083675
92	0x3c30ba9b	0.010786678
93	0xbf0c9ff4	-0.5493157
94	0xbf5e4185	-0.86818725
95	0x3e7faaa3	0.24967436
96	0xbe28f4b4	-0.16499597
97	0xbef0b011	-0.47009328
98	0xbd757f88	-0.059936076
99	0x3d1dadab	0.0384957
100	0xbe196fb9	-0.14984025
101	0x3eb1a25d	0.34694186
102	0x3c6d7987	0.014494306
103	0xbe9f764d	-0.31144944
104	0xbd66ad22	-0.056317456
105	0x3cf65e9f	0.030074416
106	0xbf5a0a81	-0.8517228
107	0xbfd2e7e5	-1.6477019
108	0xbf6ff265	-0.9372924
109	0x3e1ca5b9	0.15297593
110	0x3d635984	0.05550529
111	0xbec9ac92	-0.39389473
112	0xbebc0f57	-0.36730453
113	0x3edcfba0	0.43160725
114	0x3d46ec01	0.048564915
115	0x3839240d	4.4141012e-05
116	0xbd1ff312	-0.03905017
117	0xbc831b17	-0.016004128
118	0x3e2123a8	0.15736258
119	0xbddb7a10	-0.10716641
120	0x3e566cc2	0.20939925
121	0x3e8f9318	0.2804191
122	0xbf2ec7ff	-0.6827392
123	0xbf72ae0b	-0.9479682
124	0xbedbba77	-0.429157
125	0xbdd94568	-0.10608941
126	0xbefa6f33	-0.48912963
127	0xbe73c48b	-0.23805444
128	0x3cd571a7	0.02605517
129	0xbeaa80f6	-0.33301514
130	0xbd939928	-0.072069466
131	0x3e81f9b4	0.2538582
132	0xbe2fffb6	-0.1718739
133	0xbd96e721	-0.07368303
134	0x3e7ab2f5	0.24482329
135	0xbd912d15	-0.07088677
136	0xbf658ee8	-0.8967118
137	0xbe830e15	-0.2559668
138	0xbf1c1b74	-0.6097939
139	0xbd781a36	-0.06057187
140	0x3cef4255	0.029206434
141	0xbe516fea	-0.20452848
142	0xbf0ba987	-0.54555553
143	0xbd7bc7e0	-0.061469913
144	0x3e9ad349	0.30239323
145	0xbe04c4ea	-0.12965742
146	0xbdff576f	-0.124678485
147	0x3e919dfd	0.28440848
148	0x3d8412b5	0.064488806
149	0x3e2c0c9a	0.16801682
150	0x3dbd42eb	0.09241279
151	0x3ec6cd9c	0.38828743
152	0x3ed60345	0.4179937
153	0x3f5c664a	0.8609358
154	0x3f4b39fd	0.7938536
155	0x3f3984c1	0.7246819
156	0x3f04c150	0.5185747
157	0x3f3fd4d8	0.7493415
158	0x3ee56d29	0.44809845
159	0x3f2d5bb1	0.67718035
160	0x3dd4576f	0.10368239
161	0xbf517b43	-0.8182871
162	0x3d95b870	0.07310569
163	0x3de5b172	0.11215486
164	0xbe4d3602	-0.20040134
165	0xbf0c158b	-0.5472037
166	0xbf144352	-0.5791522
167	0x3e8bb33b	0.2728518
168	0xbe930ebe	-0.28722185
169	0xbfa0ca25	-1.256169
170	0xc012f18b	-2.2959926
171	0xbff9ebbd	-1.9525067
172	0xbf11588f	-0.56775755
173	0x3e1a34ce	0.15059206
174	0xbf017618	-0.5057082
175	0xbd6abc63	-0.057308566
176	0xbde83781	-0.113387115
177	0xb8376af7	-4.373022e-05
178	0x3d3bc53e	0.0458424
179	0xba89e42a	-0.0010520269
180	0xbe2f8503	-0.17140584
181	0xbd5c2dae	-0.0537545
182	0x3e4382b5	0.1909283
183	0xbf20d11e	-0.6281909
184	0xbf2c10d8	-0.672132
185	0xbed6b59b	-0.4193543
186	0xbf34de97	-0.70652145
187	0xbfa26158	-1.2685957
188	0xbdee8d87	-0.11648088
189	0x3f12e486	0.5737995
190	0x3e644177	0.22290598
191	0x3e240894	0.16018897
192	0xbd8e21fa	-0.06940074
193	0xbdd53c58	-0.104119
194	0x3dc88fb1	0.09793032
195	0xbf5c9b10	-0.86174107
196	0xbcff189f	-0.03113967
197	0xbe1082c1	-0.14112379
198	0xbf42b94e	-0.76064
199	0xbfcb7282	-1.589432
200	0xbfe0938d	-1.7545029
201	0xbfc33824	-1.5251508
202	0xbe9de06e	-0.3083529
203	0x3e87f9f8	0.265579
204	0xbf21024d	-0.62894136
205	0xbbfa85ab	-0.007645329
206	0xbdb7cdb3	-0.08974781
207	0xbcbe77bb	-0.023250451
208	0xbdb6d302	-0.08926965
209	0xbd1e4c54	-0.03864701
210	0x3d485662	0.048910506
211	0xbe8591f2	-0.2608791
212	0x3dbb5114	0.09146324
213	0xbe618bfe	-0.22026059
214	0xbe3f0831	-0.18655469
215	0xbf127400	-0.5720825
216	0xbf1f857e	-0.6231307
217	0xbee27e2a	-0.4423688
218	0xbc5a1d97	-0.013312719
219	0x3ea1a8e8	0.31574178
220	0x3e94ba50	0.29048395
221	0x3e4773c3	0.19477753
222	0x3e14c912	0.14529827
223	0xbcfd0c2b	-0.030889591
224	0x3c2adc30	0.010428473
225	0x3d1fca4b	0.03901128
226	0x3f0fd043	0.5617716
227	0x3f4eb8dd	0.8075083
228	0x3f3c9139	0.7365909
229	0x3ea08285	0.31349578
230	0xbe8a8b27	-0.2705929
231	0x3e872d18	0.2640159
232	0x3f43c331	0.76469713
233	0x3e9f3c00	0.31100464
234	0xbe6c826a	-0.23096624
235	0xbd119f68	-0.035552412
236	0xbf3bf5ce	-0.73421943
237	0x3e492aa5	0.19645174
238	0xbeb92652	-0.3616205
239	0xbea9dc9f	-0.33176133
240	0xbe4b1f9c	-0.19836277
241	0x3ed03cc6	0.40671366
242	0xbe7b0e30	-0.24517131
243	0xbfb00205	-1.3750616
244	0xbf4a4f72	-0.79027474
245	0xbf91cbe1	-1.1390344
246	0xbff35752	-1.9011023
247	0xc0017544	-2.0227823
248	0xbfaf19ec	-1.3679786
249	0xbf2fbaeb	-0.6864459
250	0x3bd678ef	0.006545178
251	0x3d4a8aea	0.049448885
252	0xbdbc7abb	-0.092030965
253	0xbe96dd8d	-0.29465905
254	0x3e5fcdc4	0.21855837
255	0x3da6d7f5	0.08146659

linear1.bias f4 [256]
0	0xbe22c7b8	-0.15896499
1	0x3dd89a24	0.10576275
2	0x3ef33d90	0.47507906
3	0x3ed76f60	0.4207716
4	0x3f65faf2	0.8983604
5	0x3f715457	0.9426932
6	0x3f4ca883	0.7994463
7	0xbe2a0e4d	-0.16607018
8	0x3efe9183	0.49720392
9	0xbe0391e1	-0.12848617
10	0x3d894f78	0.067046106
11	0x3f9437f1	1.1579572
12	0x3e6cb30d	0.23115177
13	0x3f85a65a	1.0441391
14	0x3f15e07f	0.5854568
15	0x3df2aee0	0.11849761
16	0x3f1a9234	0.6037934
17	0xbc7b9e4a	-0.015357563
18	0x3da46057	0.08026188
19	0xbe855a1a	-0.26045305
20	0x3f00dfff	0.5034179
21	0xbd305add	-0.043055404
22	0x3f1bc74a	0.60850966
23	0xbe451f52	-0.19250229
24	0x3f1b4b8f	0.6066217
25	0xbf16fba4	-0.58977723
26	0x3e77afa0	0.2418809
27	0x3f1bc6e8	0.6085038
28	0x3e3a339c	0.1818375
29	0x3ec5a6da	0.3860386
30	0x3e8dce34	0.27696383
31	0x3e8a9954	0.27070105
32	0x3c105fa3	0.008811864
33	0x3f00c5b0	0.5030165
34	0x3ebd6982	0.3699456
35	0xbd21f88d	-0.039543677
36	0x3f78cc01	0.97186285
37	0x3edc6ac2	0.430502
38	0x3e8f0da5	0.27940097
39	0xbea004a0	-0.3125353
40	0x3e162e46	0.1466609
41	0x3ea2d135	0.31800237
42	0x3f851201	1.0396119
43	0x3f35901a	0.70923007
44	0x3dc63d8b	0.09679707
45	0xbe2499c7	-0.16074286
46	0x3f286a42	0.65787137
47	0x3efc06ef	0.4922404
48	0x3f472803	0.7779543
49	0x3f466254	0.77493787
50	0x3efd4d83	0.494732
51	0x3ed1721f	0.4090738
52	0x3f0b7760	0.54479027
53	0x3f06687f	0.525032
54	0x3f2a3f8e	0.66503227
55	0x3f2f00e5	0.6836074
56	0x3e90f7b3	0.2831398
57	0x3ea85278	0.3287542
58	0x3f36370b	0.7117774
59	0x3f136381	0.57573706
60	0xbd9ddc2d	-0.07708011
61	0xbeaa1c47	-0.332247
62	0xbd0463f6	-0.032321893
63	0x3ecc6e57	0.39927933
64	0x3e3beaea	0.18351331
65	0x3f0937de	0.5360087
66	0x3ecee556	0.40409344
67	0x3f226825	0.6344016
68	0x3eb97266	0.36220092
69	0x3f1efac7	0.62101406
70	0x3f3483dd	0.7051371
71	0x3e9b204e	0.30298084
72	0x3e6fa36c	0.23402184
73	0x3ea08131	0.31348565
74	0x3ee13e93	0.43993053
75	0x3e50d887	0.20395099
76	0x3ea7e0f1	0.32788804
77	0xba945f88	-0.0011319974
78	0x3f2fef6c	0.68724704
79	0xbeab7a60	-0.33491802
80	0x3f47480b	0.77844304
81	0xbeb60bc0	-0.3555584
82	0x3db728c5	0.08943323
83	0xbe808cbd	-0.25107375
84	0x3ed18e06	0.40928668
85	0x3ee83d39	0.4535921
86	0x3e8a9b27	0.27071497
87	0x3ef1d6fd	0.47234336
88	0x3f197da3	0.5995733
89	0xbe746789	-0.2386762
90	0xbd344fab	-0.04402129
91	0x3f29f818	0.66394186
92	0xbe9fdbd6	-0.3122241
93	0x3f34e821	0.706667
94	0x3f083927	0.5321221
95	0xbd4169e7	-0.047220137
96	0xbe0f9dc9	-0.14025034
97	0x3e94777f	0.28997418
98	0x3e93bdfc	0.28855884
99	0xbeb755b4	-0.35807574
100	0x3eb82ff0	0.35974073
101	0x3eccaa04	0.39973462
102	0x3f1ab129	0.60426575
103	0x3d164739	0.036689017
104	0x3e2b0f36	0.16705021
105	0x3e908751	0.28228238
106	0x3e029f1e	0.12756011
107	0x3e42403b	0.18969814
108	0x3f33eec6	0.70286214
109	0x3f31eb9e	0.6950015
110	0x3f3d4857	0.73938507
111	0x3dba3889	0.090928145
112	0x3ed01e96	0.40648335
113	0x3e69fcb2	0.22850302
114	0x3eb92eb3	0.3616844
115	0xbe0ed252	-0.13947418
116	0x3f259575	0.6468118
117	0x3eaee92a	0.34162265
118	0x3efaf85d	0.4901761
119	0x3f4e2379	0.80522877
120	0xbeac170d	-0.33611336
121	0x3f16cd75	0.5890725
122	0x3f3ee2b4	0.7456467
123	0x3f39b98e	0.7254876
124	0x3ed35898	0.4127853
125	0x3eadbc30	0.33932638
126	0x3ddaeff8	0.10690302
127	0xbed046c2	-0.40678984
128	0x3eda92b7	0.4269006
129	0xbb65f1c0	-0.0035086721
130	0x3eb89ca0	0.36056995
131	0x3eba40bd	0.36377516
132	0x3f2dc38b	0.678765
133	0xbe90a2c1	-0.2824917
134	0xbe862230	-0.26197958
135	0x3f69d7ee	0.9134511
136	0x3f56aafa	0.8385464
137	0x3e3c6478	0.18397701
138	0x3ec3b627	0.3822491
139	0x3eeab63d	0.45842162
140	0x3c3d486b	0.01155291
141	0x3e967174	0.29383433
142	0x3f68a1c0	0.9087181
143	0x3f282440	0.65680313
144	0x3f05d96e	0.52284896
145	0x3f213515	0.6297162
146	0x3f25af4c	0.64720607
147	0x3ea123e8	0.31472707
148	0xbed1e03f	-0.409914
149	0x3f0b11df	0.54324144
150	0x3d59a6af	0.053137477
151	0x3f1c9fa4	0.6118109
152	0x3da38ba5	0.079856195
153	0x3e3eab66	0.18620071
154	0x3e42df0b	0.19030397
155	0x3ec02ae4	0.37532723
156	0xbe816824	-0.25274765
157	0x3f241d8d	0.6410759
158	0x3d704898	0.05866298
159	0xbf37bf59	-0.7177635
160	0x3cc24e8d	0.023719097
161	0x3ea0eb20	0.31429386
162	0x3e87531f	0.26430604
163	0xbe28c964	-0.16483074
164	0x3f27a8fd	0.6549223
165	0x3f44c9d1	0.7687045
166	0x3f1735c3	0.5906641
167	0xbe1cc970	-0.15311217
168	0x3ed8cc9d	0.42343608
169	0x3f18c1c4	0.5967066
170	0x3e8765de	0.26444906
171	0x3eda7def	0.42674205
172	0x3f3653e7	0.71221775
173	0x3f03d48d	0.514962
174	0x3eafd568	0.34342504
175	0x3e460332	0.19337156
176	0xbeac2737	-0.3362367
177	0x3e9abb4c	0.3022102
178	0xbdbc35b1	-0.09189928
179	0x3e63d09f	0.22247551
180	0x3d8b17e5	0.06791667
181	0x3ebbef53	0.36706027
182	0x3e079f9f	0.13244484
183	0x3eac660d	0.3367161
184	0x3f285950	0.6576128
185	0x3c9ae01e	0.018905696
186	0x3eb55c80	0.35422134
187	0x3d9b28ef	0.07576167
188	0x3f1200ed	0.5703266
189	0x3f5e29cf	0.86782545
190	0x3ed8bdda	0.42332345
191	0x3f02021a	0.50784457
192	0x3eabbd01	0.33542636
193	0x3e986794	0.29766524
194	0xbe4f08be	-0.20218179
195	0x3f2b5d20	0.6693897
196	0x3ea70f0d	0.3262867
197	0xbdb30d4e	-0.08742772
198	0xbc752470	-0.014962301
199	0xbd38c8f6	-0.045113526
200	0x3f5dcff8	0.8664546
201	0x3f692c47	0.91083187
202	0xbde715c8	-0.11283451
203	0x3f0db4fc	0.55354285
204	0xbde83635	-0.11338464
205	0x3f544c4e	0.8292893
206	0x3ee83c5f	0.4535856
207	0x3f320f16	0.6955427
208	0x3f4a3fe3	0.79003733
209	0x3db5aca2	0.08870818
210	0x3dacc994	0.084368855
211	0x3e01ebcd	0.12687607
212	0x3ee3a707	0.4446337
213	0x3eb7c8ca	0.35895377
214	0x3d16c302	0.036807068
215	0x3f07d7cd	0.5306366
216	0x3f05aa52	0.52213013
217	0xbdf1b12a	-0.118013695
218	0x3f0b5d8b	0.5443961
219	0x3f0d9327	0.5530266
220	0x3efef350	0.49795008
221	0x3ea78eaa	0.32726032
222	0xbe013831	-0.12619092
223	0x3eba5a48	0.36397004
224	0x3f1c5503	0.6106722
225	0x3dc62c04	0.09676364
226	0x3ce1aa47	0.027547015
227	0x3e83ac62	0.25717455
228	0x3f0ea2bb	0.55717057
229	0x3f495199	0.78640133
230	0x3d277611	0.04088408
231	0x3dd3c8b6	0.10341017
232	0x3f5bf700	0.8592377
233	0x3ec4b041	0.3841572
234	0xbe2cc356	-0.1687139
235	0x3f49c87b	0.78821534
236	0x3e04267e	0.12905309
237	0x3f15991a	0.5843674
238	0x3ed469f3	0.41487083
239	0x3eb3ccce	0.3511719
240	0x3f348184	0.70510125
241	0x3ea99111	0.3311849
242	0x3f134f7d	0.57543164
243	0x3eec8994	0.46198714
244	0x3f56447e	0.8369826
245	0x3f28e426	0.65973127
246	0x3ea8a84f	0.3294091
247	0x3e5328a9	0.2062098
248	0xbe3fdc65	-0.18736418
249	0x3e889c8a	0.2668193
250	0x3f0f33b0	0.55938244
251	0x3f17afb8	0.592525
252	0x3f38eb07	0.72233623
253	0x3f04a299	0.51810604
254	0x3c8314bc	0.016001098
255	0xbe51d87f	-0.20492743

linear2.weight f4 [256, 256]
0	0x3e2f1c3c	0.17100614
1	0x3f01efd4	0.50756574
2	0x3db79d92	0.08965601
3	0x3e6ec3f4	0.23316938
4	0x3fae8e5e	1.3637197
5	0x3f9958eb	1.1980261
6	0x3e4d24d7	0.20033585
7	0x3f0b63a7	0.5444893
8	0x3efe633c	0.49685085
9	0x3e8c8dc9	0.27451923
10	0xbf427fec	-0.75976443
11	0x3fe7b53f	1.8102187
12	0x3e56536c	0.2093026
13	0x3fba55f6	1.4557483
14	0x3e0407a2	0.12893537
15	0xbf7616a2	-0.96128285
16	0x3f87bc16	1.0604274
17	0xbe113eb9	-0.14184083
18	0xbfb12a2e	-1.3840997
19	0x3f04af91	0.51830393
20	0x3f02cf1d	0.5109728
21	0x3f0ea9b2	0.55727684
22	0x3f00bd9e	0.5028933
23	0x3e9f3d3d	0.3110141
24	0x3ec2596b	0.37958845
25	0x3f3e60a4	0.7436621
26	0x3ee910c6	0.4552061
27	0x3e686740	0.22695637
28	0x3ee3066f	0.44340846
29	0x3e24f383	0.16108517
30	0x3f309fb4	0.6899369
31	0xbf033c55	-0.51263934
32	0xbf849a23	-1.0359539
33	0x3f4567b7	0.7711138
34	0x3f7fc73c	0.9991338
35	0x3e167246	0.1469203
36	0x3fc0da92	1.5066702
37	0x3ef89f12	0.4855886
38	0x3e865869	0.26239327
39	0xbf86eb35	-1.054053
40	0x3e239b75	0.15977271
41	0x3f4a85e3	0.79110545
42	0x3fe09efe	1.754852
43	0x3f6d1d46	0.9262279
44	0x3e8f0a41	0.2793751
45	0x3ea61648	0.32438874
46	0x3e2b6253	0.16736726
47	0x3ec3e00d	0.38256875
48	0x3f64bca6	0.89350355
49	0x3e3e70a9	0.18597664
50	0x3ee70c4f	0.45126578
51	0x3e38aec4	0.18035418
52	0x3ddddfef	0.108337276
53	0x3e0732c4	0.1320296
54	0x3eca4cea	0.39511806
55	0x3eb5e2e8	0.35524678
56	0x3f6577cf	0.8963594
57	0x3e1aa426	0.1510168
58	0x3f3fc101	0.74903876
59	0x3eb2ad17	0.34897682
60	0x3f021b17	0.50822586
61	0x3c51fedb	0.01281711
62	0x3f801410	1.0006123
63	0x3f586901	0.84535223
64	0x3eba96d6	0.36443204
65	0x3e42d78d	0.19027539
66	0x3e35fcbf	0.17772196
67	0x3e9de193	0.30836162
68	0xbe2205a3	-0.15822463
69	0x3f1d373f	0.61412424
70	0x3f778c5f	0.96698564
71	0xbf11d15a	-0.5696007
72	0x3f6adaba	0.9174
73	0x3ea2f51f	0.31827638
74	0x3e9a0a6a	0.3008607
75	0xbf83b25d	-1.0288807
76	0x3eec05c2	0.46098143
77	0xbfab618f	-1.3389148
78	0x3e2ccb7e	0.16874501
79	0x3ea81007	0.32824728
80	0x3ee78388	0.45217538
81	0xbceb9e74	-0.02876208
82	0xbfc3a475	-1.5284563
83	0xbf70c885	-0.9405597
84	0x3eb3b74e	0.35100788
85	0x3ebd9f44	0.37035573
86	0x3f38a38d	0.7212456
87	0x3ed2a2b1	0.4113975
88	0x3d7198c1	0.058983568
89	0xbf47d7e8	-0.7806382
90	0xbf22a9c8	-0.63540316
91	0x3e6af88c	0.22946376
92	0xbf7c6773	-0.9859535
93	0x3e7c1e04	0.24620825
94	0x3e1956c2	0.14974502
95	0xbf0514fe	-0.51985157
96	0x3efe8fd3	0.49719104
97	0x3e30f245	0.17279918
98	0x3f5f67d0	0.8726778
99	0xbf7d9c8b	-0.9906699
100	0x3ebb4bd3	0.36581287
101	0x3ee396e9	0.44451073
102	0x3e6d6d29	0.23186173
103	0xbf7c1b75	-0.98479396
104	0x3ebf0a0e	0.3731236
105	0x3f288080	0.65821075
106	0xbd26e277	-0.040743317
107	0x3dee9545	0.11649565
108	0x3eb92b0b	0.36165652
109	0x3f383cc8	0.71967745
110	0x3f91679f	1.1359748
111	0x3ebce57c	0.36893833
112	0x3ee1043f	0.43948552
113	0x3ea1dbee	0.31613106
114	0x3e9d8c4d	0.30771104
115	0xbf6cb409	-0.9246221
116	0x3ec80de5	0.390731
117	0x3e612411	0.21986414
118	0x3e6436e2	0.22286561
119	0x3f95f74e	1.1716096
120	0xbf874725	-1.0568587
121	0x3ecedd4e	0.40403217
122	0x3e70fdf1	0.23534371
123	0x3f198622	0.59970295
124	0x3f2c8a78	0.67398787
125	0x3e933bb3	0.28756484
126	0xbebc4d41	-0.3677769
127	0x3e59ab05	0.21256645
128	0x3f25323c	0.64529777
129	0x3f542df9	0.8288265
130	0x3eca3483	0.39493188
131	0xbf576a4c	-0.8414657
132	0x3e3d331d	0.1847653
133	0xbf81fe9a	-1.0155823
134	0x3e4bc3ba	0.19898883
135	0xbdae6d19	-0.085169025
136	0x3f3c533c	0.73564506
137	0x3f312e37	0.69211143
138	0x3ebb0bbc	0.3653239
139	0x3eb65b53	0.3561655
140	0x3e9a007e	0.300785
141	0x3eb5986f	0.3546786
142	0x3f723a4d	0.9462021
143	0x3ea43649	0.32072666
144	0x3e8b6974	0.27228892
145	0x3e4e55e8	0.20149958
146	0x3edfa76a	0.43682414
147	0x3f9fdb2c	1.2488761
148	0xbf953ecd	-1.165979
149	0x3f1d5573	0.6145851
150	0x3ea0a3dd	0.31375018
151	0x3ecace6c	0.39610612
152	0x3f19834c	0.5996597
153	0x3eeb3ab5	0.45943227
154	0x3f3696c6	0.7132381
155	0x3f2f916c	0.6858127
156	0xbf31d38b	-0.69463414
157	0x3df4afae	0.11947571
158	0xbf253809	-0.6453863
159	0xbf54804e	-0.8300828
160	0x3f18b5c8	0.59652376
161	0x3ed8d325	0.4234859
162	0x3f759e41	0.959446
163	0x3e42ae0b	0.19011705
164	0xbe30ccfa	-0.17265692
165	0x3e9a381d	0.30120936
166	0x3f2f5ffa	0.68505824
167	0xbfa6805b	-1.3007921
168	0x3f01febe	0.5077933
169	0x3e980e12	0.29698235
170	0x3eb17a7e	0.34663767
171	0x3e05caca	0.13065639
172	0x3fb80ddc	1.437923
173	0x3d9d1f3f	0.07671975
174	0x3f918bc7	1.1370782
175	0x3f4c130d	0.7971657
176	0x3ec934d0	0.39298105
177	0x3ee05286	0.4381296
178	0xbf053ee5	-0.52049094
179	0x3e30a3a9	0.17249931
180	0x3ec8728e	0.39149898
181	0xbd83a832	-0.06428565
182	0xbf5b9e0f	-0.85788053
183	0x3f494b8e	0.7863091
184	0x3e3e7c3f	0.18602084
185	0x3f0a30af	0.53980535
186	0x3f5fba2f	0.8739347
187	0x3f12d740	0.57359695
188	0x3ed69bec	0.41915834
189	0x3f4b5fb4	0.79442906
190	0x3e56cca0	0.20976496
191	0x3eb3de7c	0.3513068
192	0x3eaade27	0.33372614
193	0x3eb1e3d5	0.34744135
194	0xbf5456d6	-0.82945
195	0x3e9596ed	0.2921671
196	0x3f05b297	0.5222563
197	0xbf07db7d	-0.5306929
198	0xbeea08a9	-0.45709732
199	0x3eff0248	0.49806428
200	0x3f63c332	0.8896972
201	0x3e4c3b09	0.19944395
202	0x3eda1bbe	0.4259929
203	0x3f1c0662	0.6094724
204	0xbf3e2bfa	-0.7428585
205	0x3ea470d9	0.32117346
206	0x3f4b1688	0.79331255
207	0x3f4b29a4	0.79360414
208	0x3f86849d	1.050922
209	0x3ed1c138	0.40967727
210	0x3e3d27c8	0.18472207
211	0x3ead49dc	0.33845413
212	0x3f729ab4	0.9476731
213	0x3e87df20	0.26537418
214	0xbf142cd8	-0.57880926
215	0xbbade54d	-0.005306876
216	0x3ebbba4b	0.36665568
217	0xbf139e7d	-0.5766371
218	0x3f178786	0.5919117
219	0x3f08e4bd	0.53474027
220	0x3eeefe5c	0.46678436
221	0xbf742b11	-0.95378214
222	0x3e287320	0.16450167
223	0xbc0e90d9	-0.008701527
224	0x3ea733a9	0.326566
225	0x3ecfe309	0.40602902
226	0xbf01c247	-0.5068707
227	0x3f0a0375	0.53911525
228	0x3f0eb3bc	0.55743
229	0x3f514d70	0.81758785
230	0x3f1b765e	0.6072749
231	0x3e2ea074	0.17053396
232	0x3e0d6df2	0.13811472
233	0x3e52d8e7	0.20590554
234	0xbf076ebb	-0.52903336
235	0x3f3b3bba	0.7313801
236	0x3efe5fb6	0.49682397
237	0x3e94c887	0.2905924
238	0x3e803d7e	0.25046915
239	0x3ed829b8	0.4221933
240	0x3fb189fd	1.3870236
241	0x3f792e55	0.9733632
242	0x3e7649f6	0.24051651
243	0x3f56a869	0.83850724
244	0x3e84492f	0.25837085
245	0x3f0a348d	0.53986436
246	0x3e2a0fc5	0.16607578
247	0x3e5bfcfc	0.21483225
248	0xbf187cda	-0.5956551
249	0x3f57c746	0.8428844
250	0x3db03e8e	0.08605681
251	0x3e855760	0.26043224
252	0x3f446c75	0.7672799
253	0x3ed49ca2	0.4152575
254	0xbf181c51	-0.5941821
255	0xbf15b449	-0.5847822

linear2.bias f4 [256]
0	0x3ee5ab73	0.44857368
1	0x3dccde40	0.10003328
2	0x3e11af87	0.14227115
3	0x3ed3ac35	0.4134232
4	0xbd69cb40	-0.0570786
5	0x3e8de5a8	0.27714276
6	0x3e16eeee	0.14739582
7	0x3e29791c	0.16550106
8	0x3e723bbb	0.23655598
9	0x3ec3759e	0.38175672
10	0x3e4c765c	0.19967026
11	0x3ee33ef9	0.44383982
12	0x3e47f97a	0.19528762
13	0x3e7a1056	0.24420294
14	0x3e8e11f7	0.2774808
15	0x3e818071	0.25293306
16	0x3f0e3ac0	0.55558395
17	0xbe726ba7	-0.23673879
18	0x3e5765cd	0.21034928
19	0x3e871821	0.26385596
20	0x3ee7c9ca	0.4527114
21	0x3ed5e0fc	0.41773212
22	0x3f43a6ae	0.7642621
23	0x3ea9296b	0.33039412
24	0x3ee1c759	0.44097403
25	0x3e987909	0.29779842
26	0x3e782cbd	0.24235816
27	0x3e4c3fdb	0.19946234
28	0x3e931899	0.28729704
29	0x3e2406a7	0.16018163
30	0x3e81d70f	0.2535939
31	0x3e70bfa4	0.23510605
32	0x3eb10357	0.3457286
33	0x3e47d28a	0.19513908
34	0x3e1719c3	0.14755921
35	0x3eac6822	0.33673197
36	0x3eda79ff	0.426712
37	0x3f4745db	0.77840966
38	0x3ea5a450	0.32351923
39	0x3e026bbd	0.12736411
40	0x3ef32e8a	0.47496444
41	0x3e4d556f	0.20052122
42	0x3ebe5d76	0.3718068
43	0x3e9628cd	0.29328004
44	0x3e9f5e11	0.31126454
45	0x3ed55d8f	0.41672942
46	0x3eacf231	0.33778527
47	0x3dfcf382	0.12351133
48	0x3e4039ca	0.18772045
49	0x3e22d2b4	0.1590069
50	0x3e924cca	0.2857421
51	0x3ebac78d	0.3648037
52	0x3e56e6b6	0.20986447
53	0x3e974a3e	0.2954883
54	0x3eba2300	0.36354828
55	0x3e5bc298	0.2146095
56	0x3ebb3165	0.36561123
57	0xbe00ffbc	-0.12597555
58	0x3e860805	0.26177993
59	0x3ec9c128	0.3940518
60	0x3e1dc575	0.15407355
61	0x3e511080	0.2041645
62	0x3ed476b8	0.41496825
63	0x3eb01d91	0.34397557
64	0x3e81e48f	0.2536969
65	0x3e286736	0.16445622
66	0xbd1c67db	-0.03818498
67	0x3ec39044	0.38196003
68	0x3e83a6af	0.25713107
69	0x3e443af9	0.19163121
70	0x3ed4ae3f	0.4153919
71	0x3ed5a6f4	0.41728938
72	0x3f057b2a	0.5214106
73	0x3e7c93a7	0.246657
74	0x3e304f43	0.17217736
75	0x3ea1e44e	0.31619495
76	0x3e68f60b	0.22750108
77	0xbc447c3a	-0.011992509
78	0x3e96b011	0.29431203
79	0x3e834827	0.25640985
80	0x3e5d2034	0.21594316
81	0x3de8dd5b	0.11370345
82	0x3e231709	0.15926756
83	0x3e6dad75	0.232107
84	0x3eb5ef51	0.35534146
85	0x3e33bbd2	0.17552117
86	0x3ea03e84	0.31297696
87	0x3e9bc1c8	0.3042128
88	0x3ea8944e	0.32925647
89	0x3f3cfd8f	0.738244
90	0x3ed1c54e	0.40970844
91	0x3e358ef7	0.17730318
92	0x3e529081	0.20562936
93	0x3e8101da	0.25196725
94	0x3e4a09b0	0.19730258
95	0x3ef923ee	0.48660225
96	0x3f16f2cb	0.5896422
97	0x3ef92ff6	0.48669404
98	0x3dce2808	0.10066229
99	0x3e8b39a1	0.27192405
100	0x3e98e9a0	0.29865742
101	0x3e74ea47	0.23917495
102	0x3ed42485	0.41434112
103	0x3e3f3c0e	0.18675253
104	0x3f24fc88	0.6444783
105	0x3e34c2aa	0.17652383
106	0x3ec14b87	0.37752935
107	0x3e684cb7	0.22685514
108	0x3e67177c	0.22567552
109	0x3ecae6b4	0.39629138
110	0x3e21e779	0.15810956
111	0x3e53d5d8	0.20687044
112	0x3ed3971e	0.4132623
113	0x3ea5f49a	0.3241318
114	0x3e07dbac	0.13267392
115	0x3eef1a9e	0.46699995
116	0x3df99232	0.12186088
117	0x3ec8a28a	0.39186507
118	0x3eaf8fc1	0.34289363
119	0x3e415215	0.18878968
120	0x3ef28d66	0.47373503
121	0x3ecec2f7	0.4038312
122	0x3eb58170	0.35450315
123	0x3e13e1d5	0.14441617
124	0x3e7e52e2	0.24836305
125	0x3e782e35	0.24236377
126	0x3ecbcd1e	0.3980493
127	0x3e25145c	0.16121048
128	0x3e5db29f	0.2165017
129	0x3ebeeb25	0.37288776
130	0x3e42c17f	0.19019125
131	0x3e5799de	0.2105479
132	0x3e31b38d	0.1735365
133	0x3e8c12cb	0.27358088
134	0x3e36e352	0.17860153
135	0x3ec8e18a	0.39234573
136	0x3e0c79c8	0.13718331
137	0x3ea08ba5	0.3135654
138	0x3eae8be1	0.34091094
139	0x3e6bfd9d	0.23045965
140	0x3e9f5787	0.31121466
141	0x3ecf294b	0.40461192
142	0x3e7f69ea	0.24942747
143	0x3e92dbb1	0.28683236
144	0x3e976ab9	0.2957361
145	0x3ee7a7e1	0.4524527
146	0x3e72a11b	0.2369427
147	0x3eb44d75	0.35215345
148	0x3f02ea74	0.51139
149	0x3ebbc2b6	0.3667199
150	0x3e95cab7	0.29256222
151	0x3ed884ed	0.42288914
152	0x3e8c352c	0.27384317
153	0x3ec892ee	0.39174598
154	0x3eba1e1d	0.363511
155	0x3e8b8733	0.27251586
156	0x3e15d22a	0.14630952
157	0x3e71507f	0.23565863
158	0x3e19b039	0.1500863
159	0x3e281060	0.16412497
160	0x3eb9e8ff	0.36310574
161	0x3ecc6482	0.3992043
162	0x3e2b49a5	0.16727312
163	0x3e7157b0	0.23568606
164	0x3eba191c	0.36347282
165	0x3e48c547	0.19606505
166	0x3dbfa3fe	0.09357451
167	0x3ed2aa0b	0.41145357
168	0x3e422240	0.18958378
169	0x3c9e93cd	0.019357586
170	0x3eac3fd9	0.33642462
171	0x3e97b88a	0.2963298
172	0xbd711d19	-0.05886564
173	0x3f010377	0.5039591
174	0xbc79ab1e	-0.015238551
175	0x3e770a7a	0.2412509
176	0x3ed5341d	0.41641322
177	0x3ebb57de	0.36590475
178	0x3e60a359	0.21937312
179	0x3ea8e14e	0.32984394
180	0x3e9805d1	0.29691938
181	0x3dff98e6	0.12480335
182	0x3ec454d0	0.38345957
183	0x3e1a516a	0.1507012
184	0x3e8a8978	0.27058005
185	0x3dadb202	0.08481218
186	0x3ec4c943	0.384348
187	0x3ee8ca88	0.4546702
188	0x3eb62e9d	0.35582438
189	0x3e84e0f9	0.2595289
190	0x3eec0d64	0.46103966
191	0x3e2de159	0.16980495
192	0x3e832303	0.2561265
193	0x3ee430a2	0.44568354
194	0x3e74358a	0.23848549
195	0x3ed46d6d	0.41489735
196	0x3eba8d8b	0.36436114
197	0x3ecce69a	0.40019685
198	0x3eb0c340	0.34523964
199	0x3e9f4c30	0.31112814
200	0x3ebf35e1	0.37345794
201	0x3e79eed7	0.24407516
202	0x3e36af0e	0.17840216
203	0x3ed576d5	0.41692224
204	0x3e1788aa	0.14798227
205	0x3eca1428	0.39468503
206	0x3e6b5460	0.22981405
207	0x3ecbebda	0.39828378
208	0x3ee1c6ba	0.4409693
209	0x3ee2d6bf	0.44304463
210	0x3e2ddbec	0.16978425
211	0x3ed05de9	0.40696648
212	0x3ec74888	0.38922524
213	0x3e9d3097	0.30701134
214	0x3eaac765	0.3335525
215	0x3e6b7cec	0.22996873
216	0x3ea9ea3d	0.33186522
217	0x3ea6d5f9	0.32585123
218	0x3ee6b16b	0.45057234
219	0x3e848d91	0.25889257
220	0x3ec8a68e	0.3918957
221	0x3ebe1a3e	0.37129396
222	0x3ec88c23	0.39169416
223	0x3f0ededf	0.55808824
224	0x3e4915db	0.19637243
225	0x3eabf399	0.33584288
226	0x3d94188f	0.07231247
227	0x3e8f846b	0.28030714
228	0x3e23cb7c	0.15995592
229	0x3ea5418d	0.32276574
230	0x3ea664a3	0.32498655
231	0x3e543a64	0.207254
232	0xbd7b7eff	-0.06140041
233	0x3e158098	0.14599836
234	0x3e86b22c	0.2630781
235	0x3d5a8b59	0.05335555
236	0x3eaab223	0.33339033
237	0x3e84b28e	0.25917476
238	0x3eb39cb0	0.3508048
239	0x3edae8d2	0.42755753
240	0x3eccbebf	0.39989278
241	0x3e71f6fb	0.23629372
242	0x3eb4fb42	0.35347944
243	0x3ede05c5	0.43363777
244	0x3ea92dbd	0.33042708
245	0x3ed6ad05	0.41928878
246	0x3eb62170	0.35572386
247	0x3e657e89	0.2241155
248	0x3e4271a7	0.18988667
249	0x3ea4ca4a	0.32185584
250	0x3ef4d2d0	0.47817087
251	0x3e6161c8	0.22009957
252	0x3ede6f90	0.4344449
253	0x3e60927a	0.21930876
254	0x3ed27199	0.41102293
255	0x3e2c23c1	0.16810514

linear3.weight f4 [1, 256]
0	0xbfbf8de5	-1.4965178
1	0xbfbb3f67	-1.4628724
2	0xbfa39727	-1.2780503
3	0xbfbd645b	-1.4796251
4	0x3b429c55	0.0029695232
5	0xbfa5bc65	-1.2948118
6	0xbf988b21	-1.1917459
7	0xbfe73b57	-1.8064984
8	0xbfcada2f	-1.5847834
9	0xbfbf2373	-1.4932693
10	0xbf9dd014	-1.2329125
11	0xbfc23116	-1.517123
12	0xbf8f3d23	-1.1190532
13	0xbf89f419	-1.0777618
14	0xbfa6dbc9	-1.3035823
15	0xbfaa4973	-1.3303665
16	0x4004a411	2.0725138
17	0x3fda670b	1.7062696
18	0xbfa2c52b	-1.2716421
19	0xbfa24eaf	-1.2680262
20	0xbfb7ca67	-1.4358643
21	0xbfc3e7b1	-1.5305082
22	0x3f8fa5c4	1.1222463
23	0xbf8cc042	-1.0996172
24	0xbfbe2396	-1.485461
25	0xbfa44eef	-1.2836589
26	0xbfa08019	-1.2539092
27	0xbf9fa09b	-1.2470888
28	0xbfa0a604	-1.2550664
29	0xbfa14f8c	-1.2602401
30	0xbf8b49fa	-1.0881951
31	0xbf9e5c45	-1.2371908
32	0xbfae1320	-1.3599586
33	0xbf9289ed	-1.1448342
34	0xbf9d7e9d	-1.2304264
35	0xbfb7eaf7	-1.436858
36	0xbfb82444	-1.4386067
37	0x401b98d2	2.4312024
38	0xbfa43a6a	-1.2830327
39	0xbf9913ce	-1.1959169
40	0xbfc471c3	-1.5347217
41	0xbfa1ccee	-1.2640665
42	0xbfbe52c0	-1.4869003
43	0xbfa24a35	-1.2678896
44	0xbfaf73e9	-1.3707248
45	0xbfbfc1b7	-1.4980992
46	0xbfa323e0	-1.2745323
47	0xbf94104b	-1.1567472
48	0xbfa350fb	-1.2759088
49	0xbf8e58f6	-1.1120899
50	0xbfa2276e	-1.2668283
51	0xbfbb65e2	-1.4640467
52	0xbfa6730e	-1.3003862
53	0xbf9b3e37	-1.2128361
54	0xbfaf5f8c	-1.3701034
55	0xbfb8e8ec	-1.4446082
56	0xbfbae87a	-1.4602196
57	0xbf9b2f5c	-1.2123828
58	0xbf9f251f	-1.2433203
59	0xbfb7c29f	-1.4356269
60	0xbfa07f71	-1.2538892
61	0xbf9de278	-1.2334738
62	0xbfb0e325	-1.3819319
63	0xbfac600b	-1.346681
64	0xbfa07fd6	-1.2539012
65	0xbfa37f4f	-1.2773226
66	0x3aac1360	0.0013128333
67	0xbfc293c0	-1.520134
68	0xbfa15533	-1.2604126
69	0xbfa3b462	-1.2789423
70	0xbfb6aeb0	-1.427206
71	0xbfb47764	-1.4098935
72	0xbfc69a3c	-1.5515819
73	0xbfcce6ba	-1.6007912
74	0xbfa2c3c1	-1.2715989
75	0xbfb4fc8c	-1.4139571
76	0xbf8748f5	-1.056914
77	0xc01a6b35	-2.4127934
78	0xbfa766e2	-1.3078272
79	0xbfa24422	-1.2677042
80	0xbfa1320e	-1.25934
81	0xbfde6204	-1.7373662
82	0xbf8eea21	-1.11652
83	0xbfa019ce	-1.2507875
84	0xbfab844c	-1.3399749
85	0xbf9f3d18	-1.2440519
86	0xbfb94623	-1.4474529
87	0xbfa2b48d	-1.271135
88	0xbf875a77	-1.0574483
89	0x3fbc79c8	1.4724665
90	0xbfbaca77	-1.4593037
91	0xbf9e8e41	-1.2387162
92	0xbfb8bfc4	-1.4433522
93	0xbfa23cd9	-1.2674819
94	0xbfa37b76	-1.2772052
95	0xbfcd20c5	-1.6025625
96	0x3ff83942	1.9392474
97	0xbfc38b07	-1.5276803
98	0xbffa3aa6	-1.9549148
99	0xbf9fa514	-1.2472253
100	0xbfaa86f7	-1.3322438
101	0xbfb9f1eb	-1.4526953
102	0xbfb763d4	-1.432734
103	0xbf9eace9	-1.2396518
104	0x40318f56	2.7743735
105	0xbfa03f0e	-1.2519243
106	0xbfc19a5d	-1.5125233
107	0xbfa11a7b	-1.2586206
108	0xbfb59076	-1.4184711
109	0xbfb95708	-1.4479685
110	0xbfa11eca	-1.2587521
111	0xbfa100b8	-1.2578344
112	0xbfb16e6b	-1.3861822
113	0xbfadc791	-1.3576528
114	0xbfa25b1d	-1.2684056
115	0xbfbe833b	-1.4883798
116	0xbfcf58ca	-1.6198971
117	0xbfaedec5	-1.3661734
118	0xbfb77433	-1.4332336
119	0xbfc51961	-1.539837
120	0xbfd0e519	-1.6319915
121	0xbfab5f6d	-1.3388497
122	0xbfb001fe	-1.3750608
123	0xbfa1911b	-1.2622408
124	0xbfcfaebd	-1.6225201
125	0xbfa7db70	-1.3113842
126	0xbfbd5ba6	-1.4793594
127	0xbfbb904d	-1.4653412
128	0xbf9e9f78	-1.2392416
129	0xbfc33c6f	-1.5252818
130	0xbfa4faff	-1.2889098
131	0xbfbf7367	-1.4957093
132	0xbfc79953	-1.5593666
133	0xbf9fbbb9	-1.2479163
134	0xbfa1899f	-1.2620124
135	0xbfc3d7e2	-1.5300257
136	0xbfc03016	-1.5014675
137	0xbf9f3ea1	-1.2440988
138	0xbfa243d3	-1.2676948
139	0xbfb32dd2	-1.3998358
140	0xbfa118b0	-1.2585659
141	0xbfb7ba79	-1.4353782
142	0xbf9f3c4e	-1.2440279
143	0xbfab44b8	-1.3380346
144	0xbfaa468f	-1.3302783
145	0xbfbbd478	-1.4674215
146	0xbfb7772e	-1.4333246
147	0xbfb51742	-1.4147723
148	0xbfbee956	-1.4914958
149	0xbfaf5c76	-1.3700092
150	0xbf8a7199	-1.0815917
151	0xbfb79a7b	-1.4344019
152	0xbfa19906	-1.2624824
153	0xbfc1c040	-1.5136795
154	0xbface1fb	-1.3506464
155	0xbf9c2ba2	-1.2200816
156	0xbfbcd662	-1.4752924
157	0xbf9ef78f	-1.2419299
158	0xbf933452	-1.1500342
159	0xbfbca4d0	-1.4737797
160	0xbfb0c3a5	-1.3809706
161	0xbfb4722a	-1.409734
162	0xbf9d9c3b	-1.2313303
163	0xbf9770e9	-1.1831332
164	0xbfb6dd84	-1.4286351
165	0xbfa40e9c	-1.2816958
166	0xbfd99fec	-1.7001929
167	0xbfba553f	-1.4557265
168	0xbfa1179a	-1.2585328
169	0x3a3093ab	0.00067358714
170	0xbfa361ed	-1.276426
171	0xbfa58326	-1.2930648
172	0x3a960841	0.0011446552
173	0x400372da	2.053885
174	0xbaa24d0e	-0.0012382583
175	0xbfa0e97b	-1.2571253
176	0xbfb8a4af	-1.4425257
177	0xbfb7e6bd	-1.4367291
178	0xbfa0ba97	-1.2556943
179	0xbfb25dda	-1.3934891
180	0xbfa428e5	-1.282498
181	0xbfc6fa9f	-1.5545233
182	0xbfafc9ee	-1.3733499
183	0xbfc20ed5	-1.5160776
184	0xbfa0f672	-1.2575209
185	0xbfc12e07	-1.5092171
186	0xbfc5fb33	-1.5467285
187	0xbfbf5d89	-1.495042
188	0xbfb45f68	-1.4091616
189	0xbfaab3ee	-1.333616
190	0xbfbfd7a5	-1.4987684
191	0xbfa356df	-1.2760886
192	0xbf9b52ad	-1.2134606
193	0xbfbf98d7	-1.4968518
194	0xbfa008aa	-1.2502644
195	0xbfb9ac02	-1.4505618
196	0xbfbdc306	-1.4825141
197	0xbfb4306b	-1.4077276
198	0xbfa61dbd	-1.2977825
199	0xbfa4358d	-1.2828842
200	0xbfbb6ff0	-1.4643536
201	0xbf9ecb57	-1.2405804
202	0xbfa29714	-1.2702355
203	0xbfc244c1	-1.5177232
204	0xbf92fa4d	-1.1482636
205	0xbfb8414f	-1.4394931
206	0xbfa8a128	-1.3174181
207	0xbfae4da2	-1.3617442
208	0xbfbb3e8c	-1.4628463
209	0xbfc1a884	-1.5129552
210	0xbfc0bc05	-1.5057379
211	0xbfaf91fa	-1.3716424
212	0xbfb84bfe	-1.4398191
213	0xbfaf8b3f	-1.371437
214	0xbfaf15ac	-1.3678489
215	0xbf9ff98e	-1.2498033
216	0xbfa2e9f3	-1.2727646
217	0xbfb072d3	-1.3785042
218	0xbfb9ec78	-1.452529
219	0xbf9d4dc9	-1.2289363
220	0xbfb9b441	-1.4508134
221	0xbfb02662	-1.3761714
222	0xbfbee8d7	-1.4914807
223	0x4003ddbc	2.0604086
224	0xbfa29115	-1.2700526
225	0xbfb91bc9	-1.4461604
226	0xbfbeb2f0	-1.4898357
227	0xbfa8a7f7	-1.3176259
228	0xbfa38f51	-1.2778112
229	0xbfa8d1ae	-1.3188989
230	0xbfa32036	-1.2744205
231	0xbf9fc171	-1.2480909
232	0xba9eff58	-0.0012130542
233	0xbfc4e5e0	-1.5382652
234	0xbfc45f69	-1.5341617
235	0x3b420a4d	0.002960819
236	0xbfab36d3	-1.3376106
237	0xbfa5137c	-1.2896571
238	0xbfb7aa5e	-1.4348867
239	0xbfbcd10d	-1.4751297
240	0xbfd763c3	-1.682732
241	0xbfb4ffb8	-1.4140539
242	0xbfb03ec8	-1.3769159
243	0xbfc032bf	-1.5015486
244	0xbfb5ad7a	-1.4193566
245	0xbfb65fde	-1.4248006
246	0xbfafa12e	-1.3721063
247	0xbfa21d7e	-1.266525
248	0xbf921f7f	-1.1415862
249	0xbf870bc5	-1.0550467
250	0xbfc284e8	-1.519681
251	0xbfa1fad0	-1.2654667
252	0xbfc04e81	-1.5023957
253	0xbf91f085	-1.1401526
254	0xbfb7b33d	-1.4351574
255	0xbfccdb54	-1.6004434
