testing/scripts/outputs/DDPG_Env/20221213-030633/models/950critic_checkpoint.pt (torch, 282455 bytes, 5 tensors)

linear1.weight f4 [256, 15]
0	0x3ebf3f6d	0.37353078
1	0xbe9910e9	-0.29895714
2	0xbf8ee06c	-1.1162238
3	0x3e0027bd	0.12515159
4	0x3f1b7688	0.6072774
5	0x3ea183a3	0.31545743
6	0x3e674537	0.22584997
7	0xbdf3cb6d	-0.11904035
8	0xbf49efb9	-0.7888141
9	0x3e7ba1c0	0.24573421
10	0xbdaf95a4	-0.085734636
11	0x3e3c600e	0.18396017
12	0x3e300498	0.17189252
13	0xbe4df5c9	-0.20113291
14	0xbe4d82d1	-0.20069434
15	0x3ca6e4f4	0.020372845
16	0xbf2bd336	-0.6711916
17	0xbfb752de	-1.4322164
18	0xbf656a82	-0.89615643
19	0x3e941759	0.28924063
20	0x3e9fe81a	0.31231767
21	0xbeff1c15	-0.49826112
22	0xbe420af8	-0.18949497
23	0x3ea80328	0.32814908
24	0x3ee3898d	0.4444088
25	0xbcd53640	-0.026026845
26	0x3e60b6cd	0.21944733
27	0x3cb4484d	0.022007132
28	0xbeae0a72	-0.33992344
29	0x3eb0163d	0.34391966
30	0xbc9e9cf8	-0.019361958
31	0x3eeca6e1	0.46221069
32	0x3e677fd0	0.2260735
33	0xbf03a004	-0.5141604
34	0xbf4a6d26	-0.790728
35	0x3ebd4e3c	0.3697375
36	0x3da3c212	0.07996
37	0xbeed2007	-0.46313497
38	0xbf5c6363	-0.8608915
39	0xbe9c9680	-0.30583572
40	0xbe7c6dc5	-0.24651249
41	0x3e779e4c	0.24181479
42	0x3e78b013	0.24285917
43	0xbe29d386	-0.16584596
44	0xbeac1644	-0.33610737
45	0xbea7360a	-0.32658416
46	0xbce5679c	-0.028003506
47	0xbe248a39	-0.16068353
48	0xbf06df45	-0.5268443
49	0xbe50b83e	-0.20382783
50	0xbecb7973	-0.39741096
51	0xbf943783	-1.1579441
52	0xbfb3d480	-1.4049225
53	0x3e3e168b	0.18563287
54	0x3edb75a5	0.42863193
55	0x3dc73d32	0.09728469
56	0x3dbfd8c1	0.093675144
57	0xbd2436fb	-0.040091496
58	0xbd61ea03	-0.05515481
59	0xbe1a5807	-0.15072642
60	0xbf35b593	-0.70980185
61	0xbd688234	-0.056764796
62	0x3e4c9f98	0.19982755
63	0xbf1d01a9	-0.6133066
64	0xbfda3890	-1.7048512
65	0xbf97b7d9	-1.1852981
66	0xbfa2ac61	-1.2708856
67	0xbef52b96	-0.47884816
68	0xbe3a7caa	-0.18211618
69	0xbf2e46d4	-0.68076825
70	0xbd1843e0	-0.037174106
71	0xbdb6259a	-0.08893891
72	0xbd60f2fe	-0.054919235
73	0x3e5d6c8e	0.21623442
74	0xbda558f9	-0.08073611
75	0xbee4ca2d	-0.44685498
76	0x3c0f3c3d	0.008742389
77	0xbd95aabb	-0.07307955
78	0xbf3aa0e2	-0.7290174
79	0xbf8d5bcd	-1.104364
80	0xbfa8d166	-1.3188903
81	0xbff2ba98	-1.8963194
82	0xbf1c4bb4	-0.61053014
83	0xbe5b6496	-0.21425089
84	0xbf191863	-0.59802836
85	0xbcbdc388	-0.023164526
86	0xbd5d7358	-0.05406508
87	0xbb8d31f4	-0.0043089334
88	0x3d8e226a	0.06940158
89	0x3de9b77c	0.1141195
90	0x3d61dfc5	0.055145044
91	0xbe09b45d	-0.1344771
92	0xbd815288	-0.0631457
93	0xbf3bdb43	-0.7338144
94	0xbf63b6f3	-0.88951033
95	0x3eafc9cf	0.34333655
96	0xbcbcbfc0	-0.023040652
97	0xbefdbdbe	-0.49558824
98	0xbdd94151	-0.10608161
99	0x3e05184a	0.12997547
100	0xbe4f2f23	-0.20232825
101	0x3ebe3ab5	0.37154165
102	0x3e08beed	0.13354082
103	0xbe0c3614	-0.13692504
104	0xbdb18e77	-0.08669751
105	0x3db010b1	0.08596934
106	0xbf58b465	-0.8465026
107	0xbfc61a5a	-1.5476792
108	0xbf6a2543	-0.91463107
109	0xbbcd7fc7	-0.0062713358
110	0xbe424f37	-0.1897553
111	0xbf1e5353	-0.6184589
112	0xbf0d2a51	-0.55142695
113	0x3ed03c7f	0.40671155
114	0x3dda3447	0.10654502
115	0xbae9d8d4	-0.0017841109
116	0xbdbd4c8b	-0.09243115
117	0xbda94d0e	-0.0826665
118	0x3dea05da	0.11426897
119	0xbc696cdf	-0.014247148
120	0x3e472d2e	0.19450828
121	0x3e8cc3a4	0.27493012
122	0xbf2861bd	-0.65774137
123	0xbf81154b	-1.0084623
124	0xbee8af7b	-0.4544638
125	0xbd9fc9e6	-0.07802181
126	0xbed218d6	-0.41034573
127	0xbe660b66	-0.22465286
128	0x3d11f2db	0.035631996
129	0xbe9fc2da	-0.31203347
130	0xbe15b87d	-0.14621158
131	0x3e8880d0	0.26660776
132	0xbe4b01b8	-0.19824874
133	0xbd61588b	-0.05501608
134	0x3e74136d	0.23835535
135	0xbe1f064c	-0.15529746
136	0xbf738774	-0.9512856
137	0xbe73cae3	-0.23807864
138	0xbf0d563c	-0.5520971
139	0xbe22b871	-0.15890671
140	0xbda60b96	-0.081076786
141	0xbe7015ef	-0.23445867
142	0xbf1ad9d1	-0.6048861
143	0xbe0acf37	-0.13555609
144	0x3e496efa	0.1967124
145	0xbde00bbb	-0.109397374
146	0xbdbad87e	-0.09123324
147	0x3e9441b8	0.2895639
148	0x3dd92bfe	0.10604094
149	0x3e3b9c90	0.18321443
150	0x3d2b3189	0.041795287
151	0x3eb8cb3f	0.36092564
152	0x3ed26d3d	0.41098967
153	0x3f693143	0.9109079
154	0x3f774cfa	0.9660183
155	0x3f72f6dc	0.9490793
156	0x3f36f260	0.71463585
157	0x3f265f34	0.6498902
158	0x3ea4cc4f	0.32187125
159	0x3f1f0618	0.62118673
160	0x3dabf3e2	0.08396126
161	0xbf6ae18e	-0.9175042
162	0x3d621822	0.055198796
163	0x3e0ec852	0.13943604
164	0xbe49f753	-0.19723253
165	0xbf167b06	-0.5878147
166	0xbf0fcb4d	-0.5616959
167	0x3e9435cd	0.28947297
168	0xbea0b8ea	-0.31391078
169	0xbfabad2b	-1.3412222
170	0xc018c2bc	-2.3868856
171	0xc0089eac	-2.1346846
172	0xbf24a5f9	-0.64315754
173	0x3de530c9	0.11190946
174	0xbf071882	-0.5277177
175	0xbcb04a6d	-0.021519864
176	0xbdc899a3	-0.09794929
177	0xbb659bc6	-0.0035035475
178	0x3dcb04d0	0.09913027
179	0x3ce1e99c	0.027577214
180	0xbe3c7dc4	-0.18407351
181	0xbc739a13	-0.014868277
182	0x3e87f060	0.2655058
183	0xbf2dc037	-0.6787142
184	0xbf26df7b	-0.65184754
185	0xbec36579	-0.38163355
186	0xbf3f08f7	-0.74623054
187	0xbfada521	-1.3566018
188	0xbdcc7319	-0.09982891
189	0x3f1de2b0	0.6167402
190	0x3e29ca26	0.1658102
191	0x3e42232d	0.18958731
192	0xbcd25c22	-0.025678698
193	0xbde63909	-0.11241347
194	0x3d9f91cd	0.07791481
195	0xbf71614f	-0.94289106
196	0x3ced9809	0.02900316
197	0xbdfdab4a	-0.123861864
198	0xbf70708b	-0.93921727
199	0xbfe4cdc2	-1.7875292
200	0xbfe652f8	-1.799407
201	0xbfc559f2	-1.5418074
202	0xbe7dd956	-0.24789938
203	0x3e84c4f4	0.25931513
204	0xbf30b879	-0.6903148
205	0x3c7faf61	0.015605778
206	0xbd90edf8	-0.07076639
207	0xbca09fb7	-0.019607408
208	0xbdbc0ae0	-0.09181762
209	0xbdbeb6c1	-0.09312201
210	0x3b30b313	0.0026962205
211	0xbe8428e3	-0.25812444
212	0x3db4633c	0.0880799
213	0xbe837bce	-0.25680393
214	0x3d451a00	0.0481205
215	0xbea20320	-0.3164301
216	0xbefa148b	-0.48843798
217	0xbf0016b3	-0.50034636
218	0xbd862c3d	-0.065514065
219	0x3ea25484	0.31705105
220	0x3e59b9c9	0.21262278
221	0x3e802811	0.25030568
222	0x3e45e556	0.19325766
223	0xbd5e4579	-0.054265473
224	0xbd158e84	-0.036512867
225	0x3b34248f	0.002748761
226	0x3f1121b9	0.5669208
227	0x3f5347ef	0.82531637
228	0x3f4c3fc9	0.7978483
229	0x3eb4267b	0.35185608
230	0xbe8121e7	-0.25221178
231	0x3e930fe5	0.28723064
232	0x3f0f5f23	0.5600454
233	0x3e06868a	0.1313726
234	0xbe99695d	-0.29963198
235	0xbdfe81a9	-0.124270745
236	0xbf49bd60	-0.7880459
237	0x3e4f9e3e	0.20275208
238	0xbeb09da7	-0.3449528
239	0xbeb3c6fb	-0.35112748
240	0xbe9f874d	-0.31157914
241	0x3ee7a866	0.45245665
242	0xbe16feb6	-0.14745602
243	0xbfbbafdd	-1.4663044
244	0xbf60568d	-0.87632066
245	0xbf9a0188	-1.2031717
246	0xbffac3aa	-1.9590962
247	0xc001400f	-2.0195348
248	0xbfbbac3b	-1.4661936
249	0xbf55b0c4	-0.8347285
250	0xbce11978	-0.027477965
251	0xbd0db60d	-0.034597445
252	0xbd5a1031	-0.053238098
253	0xbe8bf9ab	-0.2733892
254	0x3e0dbb39	0.13840951
255	0x3d69a79f	0.05704462

linear1.bias f4 [256]
0	0xbe6763f0	-0.22596717
1	0x3e3b2252	0.18274811
2	0x3eff5ea3	0.4987689
3	0x3edc7278	0.43056083
4	0x3f6db16c	0.9284885
5	0x3f7548e1	0.9581433
6	0x3f7280fe	0.94728076
7	0xbe2e69cf	-0.1703255
8	0x3f030872	0.5118476
9	0xbe4518e9	-0.19247784
10	0x3e44f0b0	0.1923244
11	0x3f99013e	1.1953504
12	0x3e859bb2	0.2609535
13	0x3f8bbfb7	1.0917882
14	0x3f27b1d4	0.6550572
15	0x3e35f469	0.17769016
16	0x3f20651d	0.62654287
17	0xbe0382de	-0.1284289
18	0x3da2fa9c	0.07957956
19	0xbeaa2f71	-0.3323932
20	0x3efcff6b	0.49413618
21	0xbd22a063	-0.039703738
22	0x3f1452a4	0.579386
23	0xbe8ddf34	-0.27709353
24	0x3f44dd6e	0.76900375
25	0xbf35b6a0	-0.7098179
26	0x3e4ed73e	0.20199296
27	0x3f1be751	0.60899836
28	0x3e079e51	0.13243987
29	0x3efd0595	0.4941832
30	0x3eaf25af	0.34208438
31	0x3eb6c8eb	0.35700163
32	0x3d996c40	0.0749135
33	0x3ef2efd3	0.47448596
34	0x3ecd9bf4	0.40158045
35	0xbdb6940c	-0.089149565
36	0x3f7ae7d2	0.9800998
37	0x3ec99c4e	0.39377064
38	0x3e926434	0.28592074
39	0xbe64369d	-0.22286458
40	0x3d3140ec	0.043274805
41	0x3edfe4a9	0.4372914
42	0x3f8a4310	1.0801716
43	0x3f41a98f	0.7564935
44	0x3e13fdc3	0.14452271
45	0xbe785cf4	-0.24254209
46	0x3f58b65d	0.84653264
47	0x3ef1aa19	0.47200087
48	0x3f4e3ab7	0.8055834
49	0x3f789e60	0.9711666
50	0x3efec6fe	0.49761194
51	0x3ee2588d	0.44208184
52	0x3f0024a1	0.5005589
53	0x3f0a3daa	0.5400034
54	0x3f366a8b	0.7125632
55	0x3f2d9762	0.67809117
56	0x3e6fa680	0.23403358
57	0x3e8bdd23	0.2731715
58	0x3f3e9cb3	0.74457854
59	0x3f1890b8	0.59595823
60	0xbd0246de	-0.031805865
61	0xbeccdcc4	-0.4001218
62	0xbcbe5b46	-0.023236882
63	0x3eee1d42	0.46506697
64	0x3e162550	0.14662671
65	0x3f12b694	0.5730984
66	0x3eee3c5b	0.46530423
67	0x3f1c4ff6	0.6105951
68	0x3ecc3d71	0.39890626
69	0x3f190d86	0.5978626
70	0x3f3d23bd	0.7388266
71	0x3ef68676	0.4814946
72	0x3e83b10b	0.2572101
73	0x3e9d075c	0.30669677
74	0x3f0b22d5	0.54350024
75	0x3e8284f5	0.25492063
76	0x3ea18585	0.3154718
77	0x3d39adab	0.04533164
78	0x3f5dee9c	0.86692214
79	0xbeb7e363	-0.3591567
80	0x3f47919a	0.77956545
81	0xbeec3a3c	-0.4613818
82	0x3e096e2f	0.13420938
83	0xbe5b7e5e	-0.21434924
84	0x3ec9e0e0	0.39429379
85	0x3f07f313	0.53105277
86	0x3e8f2a2c	0.27961862
87	0x3ef31cb5	0.4748284
88	0x3f2f5e72	0.6850349
89	0xbe552674	-0.2081545
90	0xbaafb0ce	-0.0013404132
91	0x3f2e4f01	0.680893
92	0xbe8af87b	-0.271427
93	0x3f5c29d9	0.86001354
94	0x3f2568fb	0.6461331
95	0xba575518	-0.0008214279
96	0xbe38cf39	-0.18047799
97	0x3e87bcdf	0.26511285
98	0x3e95dfa6	0.29272193
99	0xbe9f1ce8	-0.3107674
100	0x3ec6eb89	0.38851574
101	0x3ec86629	0.39140442
102	0x3f16d728	0.5892205
103	0x3dd12ccb	0.10213622
104	0x3e302422	0.17201284
105	0x3e6e49f2	0.23270395
106	0x3e01bd5f	0.12669896
107	0x3e2fa606	0.17153177
108	0x3f585d96	0.845178
109	0x3f35cc4f	0.71014875
110	0x3f3de68c	0.7417991
111	0x3eb7d82d	0.35907117
112	0x3ecfd5f8	0.40592933
113	0x3ea36b81	0.31917956
114	0x3eb83032	0.3597427
115	0xbddae12e	-0.10687481
116	0x3f2de671	0.6792975
117	0x3e9c1bed	0.30490056
118	0x3ef11f4e	0.47094196
119	0x3f52bf0c	0.82322764
120	0xbe9311f4	-0.28724635
121	0x3f11dbe0	0.5697613
122	0x3f497bb5	0.78704387
123	0x3f360148	0.71095705
124	0x3ed10ee1	0.40831664
125	0x3e9e9170	0.30970335
126	0x3e1e1c8a	0.15440574
127	0xbeef8522	-0.4678126
128	0x3ed90edc	0.4239415
129	0xbd3213d9	-0.04347596
130	0x3ebcf154	0.3690287
131	0x3ee54a80	0.447834
132	0x3f355802	0.70837414
133	0xbe79680e	-0.243561
134	0xbec44e73	-0.38341102
135	0x3f8d989c	1.1062198
136	0x3f5914cc	0.8479736
137	0x3e0841d3	0.1330636
138	0x3ebeffda	0.37304574
139	0x3ee1a34f	0.44069907
140	0x3d8e5eca	0.06951673
141	0x3eaa5df1	0.33274797
142	0x3f6de67a	0.92929804
143	0x3f30a4dc	0.69001555
144	0x3f0407fb	0.5157468
145	0x3f366de5	0.71261436
146	0x3f72d27a	0.9485241
147	0x3eb80573	0.35941657
148	0xbeac803e	-0.3369159
149	0x3f09c18e	0.53810966
150	0x3d0671a9	0.03282324
151	0x3f34c68e	0.7061547
152	0x3dd09404	0.10184482
153	0x3e43fed7	0.19140182
154	0x3e57da86	0.21079454
155	0x3ee08d10	0.43857622
156	0xbe6ff465	-0.23433073
157	0x3f5d5c3c	0.86468863
158	0x3d4d3f16	0.05010899
159	0xbf38c070	-0.72168636
160	0xbcd43ef4	-0.025908925
161	0x3e9de168	0.30836034
162	0x3e9ee73f	0.31035802
163	0xbe28d754	-0.16488391
164	0x3f432524	0.7622855
165	0x3f4926c4	0.78574777
166	0x3f16a02c	0.5883815
167	0xbde2b25d	-0.11069176
168	0x3edd7045	0.43249717
169	0x3f2e2450	0.6802416
170	0x3e68fc1a	0.22752419
171	0x3edc042f	0.42971942
172	0x3f3f8071	0.7480536
173	0x3f2d615a	0.6772667
174	0x3ead8912	0.3389364
175	0x3e0f29e5	0.13980825
176	0xbeceb224	-0.40370286
177	0x3e994461	0.2993498
178	0xbd4fc65c	-0.05072628
179	0x3e77b51b	0.2419018
180	0x3d731daf	0.05935448
181	0x3eb0555d	0.34440127
182	0x3e54ce38	0.20781791
183	0x3eaaeb98	0.3338287
184	0x3f350975	0.70717555
185	0x3d45ecef	0.04832166
186	0x3ea90bc4	0.3301679
187	0x3e0edee8	0.1395222
188	0x3f0dd60d	0.5540474
189	0x3f5eb4f3	0.86994857
190	0x3ed311a7	0.41224405
191	0x3eea3b2b	0.45748267
192	0x3ea0cd1c	0.31406486
193	0x3e82afde	0.255248
194	0xbe381f3c	-0.17980665
195	0x3f3cc926	0.7374443
196	0x3ebc83b3	0.3681923
197	0xbd4ec82b	-0.050483864
198	0x3e02ba71	0.12766434
199	0xbce800dd	-0.028320724
200	0x3f6ca954	0.92445874
201	0x3f8d6d64	1.1049008
202	0xbe47ad2e	-0.19499657
203	0x3f0b7daa	0.54488623
204	0xbdb57064	-0.088593274
205	0x3f817e36	1.0116642
206	0x3ef3adc7	0.4759352
207	0x3f34b73f	0.7059211
208	0x3f542d94	0.82882047
209	0x3d8107d8	0.06300324
210	0x3dcc8fd2	0.09988369
211	0x3de6f76e	0.11277662
212	0x3effcbd2	0.4996019
213	0x3ebd87ca	0.3701766
214	0x3da88d21	0.08230043
215	0x3f380e3f	0.7189674
216	0x3f05a279	0.5220104
217	0xbddad9d1	-0.106860764
218	0x3f0e85cc	0.5567291
219	0x3f078f17	0.5295271
220	0x3f2ccab7	0.6749682
221	0x3e9bd644	0.3043691
222	0xbe2c722d	-0.1684043
223	0x3ef80ab4	0.48445666
224	0x3f204c9f	0.62616915
225	0x3e0af4a8	0.13569891
226	0x3dce2c0c	0.10066995
227	0x3e7e9da5	0.24864824
228	0x3f0b9be9	0.54534775
229	0x3f43ec1b	0.76532143
230	0x3d8cd152	0.06875862
231	0x3daa800a	0.08325203
232	0x3f92cd95	1.1468989
233	0x3eaad18a	0.3336299
234	0xbe024806	-0.12722787
235	0x3f597663	0.8494627
236	0x3e3e07ca	0.18557659
237	0x3f12d01f	0.5734882
238	0x3ee8c48a	0.45462447
239	0x3eb45cb7	0.35226986
240	0x3f42c5a9	0.76082855
241	0x3ece8049	0.4033225
242	0x3f251f82	0.645012
243	0x3eeffe31	0.4687362
244	0x3f82d67e	1.0221708
245	0x3f2b9c4e	0.6703538
246	0x3f0aa80d	0.54162675
247	0x3edef610	0.43547106
248	0xbe1d9bc3	-0.1539145
249	0x3e6e693b	0.2328233
250	0x3f05574b	0.52086323
251	0x3f504bcc	0.81365657
252	0x3f33bd38	0.702106
253	0x3f123b94	0.5712216
254	0x3d6c65de	0.057714336
255	0xbe2e7f96	-0.17040858

linear2.weight f4 [256, 256]
0	0x3e5133fb	0.20429985
1	0x3f042827	0.5162377
2	0x3d9fa3fd	0.0779495
3	0x3e914ece	0.28380436
4	0x3fc52f19	1.5404998
5	0x3fb200b9	1.390647
6	0x3e462cdd	0.19353051
7	0x3f2e4e02	0.6808778
8	0x3ef13476	0.47110337
9	0x3e8581e7	0.2607567
10	0xbf49631c	-0.78666854
11	0x3ff56dcb	1.9174131
12	0x3e86c5f0	0.2632289
13	0x3fcd4725	1.6037337
14	0x3e0c5d08	0.13707364
15	0xbf813f94	-1.0097528
16	0x3f98d91d	1.1941258
17	0xbe10f81c	-0.14157146
18	0xbfb96e04	-1.4486699
19	0x3f07d8ed	0.5306538
20	0x3ef583e6	0.47952193
21	0x3f1505c5	0.5821193
22	0x3efa4f7c	0.48888767
23	0x3eafb919	0.34320906
24	0x3eb4c464	0.35306084
25	0x3f53796f	0.8260717
26	0x3ee61a6e	0.4494204
27	0x3e5e563b	0.21712582
28	0x3ecfa780	0.4055748
29	0x3e342c66	0.17595062
30	0x3f50eb4c	0.81609035
31	0xbf0841c5	-0.53225356
32	0xbf92c56c	-1.1466498
33	0x3f436524	0.76326203
34	0x3f857401	1.0426027
35	0x3e1769b7	0.14786421
36	0x3fd55e04	1.6669316
37	0x3f0056b6	0.5013231
38	0x3e87f77c	0.26556003
39	0xbf967037	-1.1752995
40	0x3e356b28	0.17716658
41	0x3f5697d8	0.83825445
42	0x3ff44ef1	1.9086591
43	0x3f74b8a6	0.9559425
44	0x3e91de01	0.28489688
45	0x3ea4f668	0.32219243
46	0x3e0f91f2	0.14020517
47	0x3ec48084	0.383793
48	0x3f86e8d9	1.053981
49	0x3e43c133	0.19116668
50	0x3edd91d9	0.43275335
51	0x3e591d56	0.21202597
52	0x3db7a938	0.08967823
53	0x3e071f73	0.1319559
54	0x3ed03804	0.40667737
55	0x3eb84b07	0.3599474
56	0x3f6eab40	0.93230057
57	0x3e23c0f1	0.1599157
58	0x3f54e521	0.8316212
59	0x3eb69d95	0.356671
60	0x3f233c3f	0.63763803
61	0x3d5622d0	0.052279294
62	0x3f811e3a	1.008735
63	0x3f61ad8c	0.88155437
64	0x3edbc545	0.42923942
65	0x3e56e4c5	0.20985706
66	0x3e2dd18e	0.1697447
67	0x3e9cc5b4	0.30619586
68	0xbe374209	-0.17896284
69	0x3f284734	0.6573365
70	0x3f92fa21	1.1482583
71	0xbf2b06c0	-0.66807175
72	0x3f712a4e	0.94205177
73	0x3e987c59	0.2978237
74	0x3e84f268	0.2596619
75	0xbf87556f	-1.0572947
76	0x3ef4efdd	0.4783925
77	0xbfaa192b	-1.3288931
78	0x3e3356c5	0.17513569
79	0x3e98a3a3	0.29812345
80	0x3ee832d8	0.4535129
81	0x3d008623	0.031377923
82	0xbfbfa190	-1.497118
83	0xbf768412	-0.96295273
84	0x3eb179b6	0.3466317
85	0x3eba189a	0.36346895
86	0x3f5b1a12	0.85586655
87	0x3ee2e72f	0.44317004
88	0x3d35906a	0.044327177
89	0xbf4f68df	-0.81019396
90	0xbf277e0a	-0.65426695
91	0x3e646dbd	0.22307487
92	0xbf83d200	-1.0298462
93	0x3e6a518a	0.22882667
94	0x3e28ff53	0.16503648
95	0xbf0cc132	-0.5498229
96	0x3efceb0e	0.49398082
97	0x3e18ad72	0.14909914
98	0x3f564f3e	0.83714664
99	0xbf832167	-1.0244569
100	0x3edb8dec	0.42881715
101	0x3ed2443d	0.41067687
102	0x3e55fe41	0.20897771
103	0xbf8d02a2	-1.1016428
104	0x3ec52c73	0.38510475
105	0x3f22a223	0.6352865
106	0xbc3454a4	-0.011006508
107	0x3da733a6	0.08164148
108	0x3eaf3461	0.3421965
109	0x3f48ce7b	0.78440064
110	0x3f978501	1.1837465
111	0x3eb56610	0.3542943
112	0x3ed176cd	0.4091095
113	0x3ea6a96e	0.3255114
114	0x3e9cb76f	0.306087
115	0xbf7155f0	-0.94271755
116	0x3ecc5026	0.39904898
117	0x3e720c27	0.23637448
118	0x3e25aa21	0.1617818
119	0x3fad59dd	1.3543049
120	0xbf8b997c	-1.0906215
121	0x3ecd73bf	0.4012737
122	0x3e6be095	0.2303489
123	0x3f3e9423	0.7444479
124	0x3f2c72fa	0.6736294
125	0x3e92aa9b	0.28645787
126	0xbecdb917	-0.40180275
127	0x3e52a244	0.20569712
128	0x3f259431	0.6467925
129	0x3f4faefc	0.8112638
130	0x3ec7ec30	0.39047384
131	0xbf68faf8	-0.9100795
132	0x3e246841	0.16055395
133	0xbf865108	-1.0493479
134	0x3e0d7cb5	0.13817103
135	0xbdc21583	-0.09476759
136	0x3f662a9f	0.89908785
137	0x3f3baf1e	0.7331408
138	0x3ebc928c	0.36830556
139	0x3eb68834	0.3565079
140	0x3ebb93a8	0.3663609
141	0x3eb63e23	0.35594282
142	0x3f90ef39	1.1323005
143	0x3ebd4aba	0.36971074
144	0x3e94d043	0.2906514
145	0x3e417667	0.18892823
146	0x3ef46f8b	0.4774135
147	0x3fa7bd3d	1.3104626
148	0xbf9928db	-1.1965593
149	0x3f1f1c59	0.6215263
150	0x3ec58093	0.38574657
151	0x3ed4ff43	0.41601
152	0x3f0d1d9f	0.55123323
153	0x3eeba1a2	0.46021754
154	0x3f523bb0	0.82122326
155	0x3f323da4	0.69625306
156	0xbf3a712f	-0.72828954
157	0x3dab86b5	0.08375303
158	0xbf366c4a	-0.71258986
159	0xbf595cd2	-0.8490726
160	0x3f00be03	0.50289935
161	0x3effc550	0.49955225
162	0x3f817b83	1.0115818
163	0x3e8ea81e	0.27862638
164	0xbe95f353	-0.29287204
165	0x3e99bf3f	0.30028722
166	0x3f589ccb	0.8461425
167	0xbfaa51be	-1.3306196
168	0x3f15dda4	0.5854132
169	0x3e927a81	0.28609088
170	0x3eb80bce	0.35946506
171	0x3d4972b5	0.04918166
172	0x3fca3bfb	1.5799555
173	0x3daff6a6	0.08591966
174	0x3f9e7ebf	1.238243
175	0x3f4ebf32	0.8076049
176	0x3ebe26af	0.37138888
177	0x3efdef73	0.49596748
178	0xbf0cc084	-0.54981256
179	0x3e3cd1f5	0.18439467
180	0x3eeb678c	0.45977437
181	0xbdaaebd4	-0.08345762
182	0xbf62bd4b	-0.8857009
183	0x3f4b8762	0.7950345
184	0x3e53624e	0.20642969
185	0x3f45726e	0.7712773
186	0x3f5c47af	0.8604688
187	0x3f29838e	0.6621636
188	0x3ee068e0	0.43830013
189	0x3f671dfa	0.90280116
190	0x3e61824d	0.22022362
191	0x3eb601f8	0.35548377
192	0x3eb25d0c	0.34836614
193	0x3ec7ed78	0.39048362
194	0xbf629622	-0.88510334
195	0x3e98aee4	0.2982093
196	0x3f031eeb	0.5121905
197	0xbf0e3ae7	-0.5555863
198	0xbf0be294	-0.54642606
199	0x3ee5bc66	0.448703
200	0x3f8823cb	1.0635923
201	0x3e53fa92	0.20701054
202	0x3eb06903	0.34455118
203	0x3f1ac7c8	0.6046109
204	0xbf44c985	-0.76869994
205	0x3ea32721	0.3186579
206	0x3f61b93b	0.88173264
207	0x3f49e0ec	0.7885883
208	0x3f8c0be3	1.0941128
209	0x3ef556e1	0.47917846
210	0x3e34727f	0.17621802
211	0x3ebf3b29	0.37349823
212	0x3f938efa	1.1528008
213	0x3e9f843f	0.31155583
214	0xbf1b9dee	-0.60787857
215	0xbda133ed	-0.07871232
216	0x3ec6d4b4	0.38834155
217	0xbf1d00d5	-0.61329395
218	0x3f14d3aa	0.58135474
219	0x3f09e2a1	0.53861433
220	0x3ee2bfa0	0.44286823
221	0xbf7e752b	-0.99397534
222	0x3e3139d5	0.17307217
223	0xbc76f211	-0.015072362
224	0x3e9f496d	0.31110707
225	0x3ed99064	0.42492974
226	0xbf09c5a2	-0.5381719
227	0x3f160101	0.5859528
228	0x3f09e757	0.5386862
229	0x3f4dfe12	0.80465806
230	0x3f2b6e93	0.669656
231	0x3e21018b	0.15723245
232	0xbc9fe08c	-0.019516252
233	0x3e61112b	0.21979205
234	0xbf0d8ac9	-0.55289894
235	0x3f4e60bb	0.8061635
236	0x3ef7c57c	0.48392856
237	0x3e8b5be5	0.27218547
238	0x3e8797ee	0.264831
239	0x3ee6f873	0.45111427
240	0x3fce5e06	1.6122444
241	0x3f969be3	1.1766323
242	0x3e5506d0	0.2080338
243	0x3f5e4210	0.86819553
244	0x3e818620	0.25297642
245	0x3f06b74d	0.52623445
246	0x3def20c0	0.116761684
247	0x3e87e844	0.26544392
248	0xbf1f14ed	-0.62141305
249	0x3f5cec0e	0.8629769
250	0x3d8c2964	0.06843832
251	0x3e8c9c43	0.27462968
252	0x3f66deae	0.9018353
253	0x3ee3ad02	0.44467932
254	0xbf2064dc	-0.626539
255	0xbf23c89b	-0.63977975

linear2.bias f4 [256]
0	0x3edd241d	0.43191615
1	0x3d37bc8c	0.044857547
2	0x3dfffed6	0.12499778
3	0x3ecede74	0.40404093
4	0x3dfb4bd1	0.1227032
5	0x3e8fdcaf	0.28098056
6	0x3df52015	0.1196901
7	0x3e10f264	0.14154965
8	0x3e55b9b7	0.20871626
9	0x3ebd0354	0.36916602
10	0x3e31fb4a	0.17381015
11	0x3edf494b	0.43610606
12	0x3e0607e7	0.13088952
13	0x3d366f15	0.04453953
14	0x3e8b4548	0.27201295
15	0x3e8331fc	0.25624073
16	0x3f46e3ea	0.7769152
17	0xbe0ff469	-0.14058079
18	0x3e432a42	0.19059089
19	0x3e86ee43	0.26353654
20	0x3ee55146	0.4478857
21	0x3ed0184e	0.40643543
22	0x3f7c7189	0.9861074
23	0x3e008ac2	0.12552932
24	0x3edc8141	0.43067363
25	0x3e9b6a95	0.30354753
26	0x3e8eea02	0.2791291
27	0x3e3c91e9	0.18415035
28	0x3e9a34f3	0.30118522
29	0x3e2d3cc3	0.1691771
30	0x3e120783	0.14260678
31	0x3e8135d3	0.25236377
32	0x3eb33290	0.34999514
33	0x3df10858	0.117691696
34	0x3deea876	0.11653225
35	0x3ea5e78a	0.32403213
36	0x3ed9a79b	0.42510685
37	0x3f7f46f0	0.9971762
38	0x3ea64bc7	0.3247969
39	0x3dcc8fb2	0.09988345
40	0x3ef1215f	0.47095773
41	0x3e50e28f	0.20398925
42	0x3eb69c8b	0.35666308
43	0x3e9d62f9	0.30739573
44	0x3ea04d2f	0.31308886
45	0x3ed2f6c8	0.41203904
46	0x3ea8ead2	0.32991654
47	0x3dec6d55	0.11544291
48	0x3e29a78b	0.16567819
49	0x3d4602fe	0.048342697
50	0x3e9c23e2	0.30496126
51	0x3eb8fc48	0.36129975
52	0x3ccd0a12	0.025029216
53	0x3ea70889	0.326237
54	0x3ebc00f1	0.36719468
55	0x3e4c8fa8	0.19976676
56	0x3eb8df86	0.36108035
57	0xbe367044	-0.17816263
58	0x3e77230b	0.24134462
59	0x3ec511ec	0.38490236
60	0x3e0a2e68	0.13494265
61	0x3e3eb8ed	0.18625231
62	0x3ed5c112	0.41748863
63	0x3eaf0a12	0.3418737
64	0x3e8eef05	0.27916732
65	0x3e165335	0.14680178
66	0xbd1c67db	-0.03818498
67	0x3ec236a6	0.37932318
68	0x3e86a143	0.26294908
69	0x3e542ca4	0.20720154
70	0x3ecee557	0.40409347
71	0x3ed74791	0.42046788
72	0x3f02c7fe	0.51086414
73	0x3e271e62	0.16320184
74	0x3e1e3351	0.15449263
75	0x3ea346df	0.31890008
76	0x3dea70a6	0.11447267
77	0xbd3a2bec	-0.045452043
78	0x3e995750	0.29949427
79	0x3e83dbaa	0.25753528
80	0x3e3ee51f	0.1864209
81	0x3db0c327	0.08630972
82	0x3d889bae	0.066703185
83	0x3e810836	0.25201577
84	0x3eba09a7	0.3633549
85	0x3e0dd374	0.13850194
86	0x3eb55e9d	0.35423747
87	0x3e13bdc2	0.14427856
88	0x3e089c1d	0.13340802
89	0x3f75bc71	0.95990664
90	0x3ecbdd40	0.39817238
91	0x3e469f86	0.19396791
92	0x3e5667a1	0.20937969
93	0x3e8a9a8f	0.27071044
94	0x3e2d9d64	0.16954571
95	0x3ef7a758	0.4836986
96	0x3f4f9d0e	0.8109902
97	0x3ef75a48	0.48311067
98	0x3da937ac	0.08262572
99	0x3e92ad68	0.28647923
100	0x3e9a2aed	0.30110875
101	0x3e69c8dd	0.2283053
102	0x3ed5ce14	0.41758788
103	0x3e214380	0.15748405
104	0x3f5d58fd	0.8646391
105	0x3e1e2b41	0.15446188
106	0x3ec0ee6f	0.3768191
107	0x3e4fd1a3	0.20294814
108	0x3e6ff597	0.23433529
109	0x3ec98027	0.39355585
110	0x3e2a98c0	0.16659832
111	0x3e41905d	0.18902726
112	0x3ed40f29	0.41417816
113	0x3ea792f0	0.32729292
114	0x3dcdf769	0.10056955
115	0x3ee832eb	0.45351347
116	0x3dac1145	0.084017314
117	0x3ec886ac	0.39165246
118	0x3eacedd4	0.33775198
119	0x3e123a43	0.14280038
120	0x3ef2843a	0.47366506
121	0x3ecf81e1	0.40528777
122	0x3eb8c215	0.36085573
123	0x3e01c5ac	0.12673062
124	0x3e2db322	0.16962865
125	0x3e759a86	0.23984727
126	0x3ec9e80d	0.39434853
127	0x3deebc5d	0.11657021
128	0x3e62a37c	0.22132677
129	0x3ebfae73	0.37437782
130	0x3e306821	0.17227222
131	0x3e212ee9	0.15740551
132	0x3dc3ad72	0.095545664
133	0x3e8eb3fa	0.27871686
134	0x3e4e5f07	0.20153438
135	0x3ec503ea	0.3847955
136	0x3dcdac78	0.100426614
137	0x3e2aaf48	0.16668427
138	0x3eb3b744	0.35100758
139	0x3e6f7c8a	0.23387352
140	0x3eab9cfc	0.33518207
141	0x3ec7c0d1	0.39014295
142	0x3e8bb730	0.27288198
143	0x3e907e6b	0.2822145
144	0x3e9718e6	0.29511184
145	0x3ee5d78d	0.44891015
146	0x3e709242	0.23493293
147	0x3eb14a49	0.34626988
148	0x3f0081a8	0.5019784
149	0x3ebd58c8	0.36981797
150	0x3dbecb2d	0.093160965
151	0x3ed28ce8	0.41123128
152	0x3e96233c	0.29323757
153	0x3ec51316	0.38491124
154	0x3eb80a44	0.35945332
155	0x3e940f23	0.28917798
156	0x3dbb7409	0.09152991
157	0x3e5f3e41	0.21801092
158	0x3ddc0104	0.10742381
159	0x3ddc9dbd	0.10772274
160	0x3eb83f49	0.35985783
161	0x3ecd6e8d	0.40123406
162	0x3e33679b	0.17519991
163	0x3e3a05c8	0.18166268
164	0x3ebabd13	0.36472377
165	0x3e3808d5	0.17972119
166	0x3d88ac8e	0.06673537
167	0x3ed04f96	0.4068572
168	0x3e4e6826	0.20156917
169	0x3c9e93cd	0.019357586
170	0x3eab5236	0.3346116
171	0x3ea38f90	0.31945467
172	0xbd711d19	-0.05886564
173	0x3f39ad01	0.7252961
174	0xbc79ab1e	-0.015238551
175	0x3e853788	0.2601893
176	0x3ed0b653	0.40764102
177	0x3eb39990	0.35078096
178	0x3e6aef6f	0.22942899
179	0x3ea84a40	0.32869148
180	0x3e959b1c	0.29219902
181	0x3dac6a09	0.08418662
182	0x3ec50f3e	0.3848819
183	0x3dcd3ce6	0.10021381
184	0x3e927a63	0.28609
185	0x3d1d2bc1	0.038371805
186	0x3ec136fe	0.37737268
187	0x3ee68cd9	0.45029333
188	0x3ecbdf4f	0.39818808
189	0x3e859fbe	0.26098436
190	0x3ee669d7	0.45002624
191	0x3e0dc0da	0.13843098
192	0x3d9c1190	0.07620537
193	0x3ee2abe9	0.44271782
194	0x3e8968a7	0.26837656
195	0x3ecde96f	0.40217158
196	0x3eb3a9c6	0.35090464
197	0x3ece2c02	0.4026795
198	0x3eaffd72	0.3437305
199	0x3e9f0de2	0.3106528
200	0x3ebb49d2	0.36579758
201	0x3e676e63	0.22600703
202	0x3e1c99d7	0.1529306
203	0x3ed08af6	0.4073102
204	0x3dab2d8e	0.08358298
205	0x3ec7a299	0.3899124
206	0x3e72a0f3	0.2369421
207	0x3ece34dc	0.40274704
208	0x3edbea30	0.42952108
209	0x3ee55305	0.447899
210	0x3df0b771	0.11753739
211	0x3ed2ac91	0.41147283
212	0x3ec7f5b7	0.39054653
213	0x3e9e9400	0.3097229
214	0x3eaaf6dd	0.33391467
215	0x3e549e16	0.2076343
216	0x3eb13247	0.3460867
217	0x3ea6d408	0.32583642
218	0x3ee27aa4	0.44234192
219	0x3e88349e	0.26602644
220	0x3ec1f0cc	0.37879026
221	0x3ebf931d	0.37416926
222	0x3ec5053a	0.3848055
223	0x3f47888a	0.7794272
224	0x3e546019	0.20739783
225	0x3ea72e25	0.32652393
226	0x3cfb7409	0.030694978
227	0x3e8c7472	0.2743259
228	0x3e051e96	0.12999949
229	0x3ea69acb	0.32539973
230	0x3ea6020d	0.3242344
231	0x3e621b05	0.2208062
232	0xbd7b7eff	-0.06140041
233	0x3dcb9df9	0.0994224
234	0x3e314ce1	0.17314483
235	0x3d4d8892	0.05017907
236	0x3eabcf5d	0.33556643
237	0x3e850385	0.25979248
238	0x3eafcb6a	0.3433488
239	0x3ed7ac08	0.42123437
240	0x3ecfb152	0.40564972
241	0x3e7d9fae	0.24767944
242	0x3eb6490b	0.35602602
243	0x3ed9ac61	0.42514327
244	0x3ea41052	0.320437
245	0x3ed90c85	0.42392364
246	0x3eb66cf1	0.3562999
247	0x3e649911	0.22324015
248	0x3dfb1a65	0.12260894
249	0x3e00a6cc	0.12563628
250	0x3ef47575	0.47745863
251	0x3e4fc7ee	0.20291111
252	0x3ede3be0	0.43405056
253	0x3e255bee	0.1614835
254	0x3ececefc	0.40392292
255	0x3db80e33	0.08987083

linear3.weight f4 [1, 256]
0	0xbfdb7978	-1.7146444
1	0xbfe82c12	-1.8138449
2	0xbfcd72af	-1.6050624
3	0xbfd9eab7	-1.7024754
4	0x3e9d9f76	0.30785722
5	0xbfc3b7ab	-1.5290426
6	0xbfbd603d	-1.4794995
7	0xc006168c	-2.0951262
8	0xbfee84e2	-1.8634303
9	0xbfdb34e0	-1.7125511
10	0xbfc9c3ea	-1.5762913
11	0xbfdea43e	-1.7393873
12	0xbfadae85	-1.3568884
13	0xbf9fab2e	-1.2474115
14	0xbfc491ee	-1.5357034
15	0xbfc7f664	-1.5622067
16	0x400ef062	2.2334218
17	0x3fe6189a	1.7976258
18	0xbfce27a1	-1.6105844
19	0xbfc0a51f	-1.5050391
20	0xbfd35cea	-1.651273
21	0xbfe012a8	-1.7505693
22	0x3faac438	1.3341131
23	0xbf9bb30b	-1.2164015
24	0xbfdab779	-1.7087241
25	0xbfc25f1b	-1.5185274
26	0xbfbde56f	-1.4835643
27	0xbfc89205	-1.5669562
28	0xbfbe4562	-1.4864924
29	0xbfc42ef0	-1.5326824
30	0xbfaa4fd7	-1.3305615
31	0xbfbc2e60	-1.4701653
32	0xbfcb3f8b	-1.5878767
33	0xbfb0f5fd	-1.382507
34	0xbfc85e0e	-1.5653703
35	0xbfd45bd8	-1.6590528
36	0xbfd3face	-1.6560915
37	0x4027fe98	2.6249142
38	0xbfc2bebf	-1.5214461
39	0xbfc21c84	-1.5164952
40	0xbfe096de	-1.7546041
41	0xbfc4fdfe	-1.5390012
42	0xbfda1d17	-1.7040128
43	0xbfc2953a	-1.520179
44	0xbfccaa50	-1.5989475
45	0xbfdc82fa	-1.7227471
46	0xbfc0cede	-1.5063131
47	0xbfb71170	-1.4302197
48	0xbfcda8bd	-1.606712
49	0xbfaba39e	-1.3409307
50	0xbfc218f5	-1.5163866
51	0xbfd7ea4d	-1.6868378
52	0xbfc285f0	-1.5197124
53	0xbfb97476	-1.4488666
54	0xbfcce149	-1.6006252
55	0xbfe50519	-1.7892181
56	0xbfd7a383	-1.6846775
57	0xbfe4ddd9	-1.7880203
58	0xbfc8268b	-1.5636762
59	0xbfd31f04	-1.649384
60	0xbfca40ed	-1.5801064
61	0xbfc95492	-1.5728934
62	0xbfcd54b6	-1.6041477
63	0xbfca3985	-1.5798804
64	0xbfc05f88	-1.5029154
65	0xbfcf1f31	-1.6181394
66	0x3aac1360	0.0013128333
67	0xbfdee8ad	-1.7414757
68	0xbfc3a503	-1.5284733
69	0xbfc50849	-1.5393153
70	0xbfd2d754	-1.6471963
71	0xbfd10da2	-1.6332285
72	0xbfe34291	-1.775469
73	0xbff23e14	-1.8925195
74	0xbfcef025	-1.6167036
75	0xbfd12b4f	-1.6341342
76	0xbfa37392	-1.2769644
77	0xc02e40d8	-2.7227077
78	0xbfc5a7ff	-1.5441893
79	0xbfc0e387	-1.5069436
80	0xbfcc4ce8	-1.596097
81	0xc0039330	-2.0558586
82	0xbfae08e9	-1.3596469
83	0xbfc0a7b1	-1.5051175
84	0xbfc93160	-1.5718193
85	0xbfca9389	-1.5826274
86	0xbfd7d533	-1.6861938
87	0xbfb69b74	-1.426619
88	0xbf932a30	-1.149725
89	0x3fd84834	1.6897035
90	0xbfd707a3	-1.6799206
91	0xbfbe46d5	-1.4865366
92	0xbfe146a9	-1.7599689
93	0xbfc34929	-1.5256702
94	0xbfcfe082	-1.6240389
95	0xbfe8e38c	-1.8194442
96	0x400612a5	2.094888
97	0xbfe04691	-1.7521535
98	0xc00e4bd6	-2.2233787
99	0xbfbecd32	-1.4906371
100	0xbfc85a12	-1.5652487
101	0xbfe56950	-1.7922764
102	0xbfd36857	-1.6516217
103	0xbfcab000	-1.5834961
104	0x403d9e1b	2.962775
105	0xbfcc1651	-1.594431
106	0xbfddfcc4	-1.7342763
107	0xbfccb5cd	-1.5992981
108	0xbfd917d6	-1.6960399
109	0xbfd60c7a	-1.6722558
110	0xbfc4337f	-1.5328215
111	0xbfcbab07	-1.5911568
112	0xbfcdc48b	-1.6075605
113	0xbfcb19a7	-1.5867203
114	0xbfce8850	-1.6135349
115	0xbfda3d1c	-1.7049899
116	0xbff703e3	-1.9298061
117	0xbfcbc4f4	-1.591948
118	0xbfd3e87e	-1.6555326
119	0xbff20ad4	-1.8909554
120	0xbfec7bbb	-1.847526
121	0xbfc8dd11	-1.5692464
122	0xbfccc1b3	-1.5996612
123	0xbfca629a	-1.5811341
124	0xbff66421	-1.9249307
125	0xbfc60ae1	-1.547207
126	0xbfd9c18e	-1.7012193
127	0xbfea2231	-1.8291684
128	0xbfc1be17	-1.5136136
129	0xbfdf756b	-1.7457708
130	0xbfd07971	-1.6287061
131	0xbfee8cbe	-1.8636701
132	0xbfeec63f	-1.865425
133	0xbfc1f4ee	-1.5152872
134	0xbfc0e35c	-1.5069385
135	0xbfe03b97	-1.7518185
136	0xbfef77ba	-1.8708413
137	0xbfb18178	-1.3867636
138	0xbfc08b6c	-1.5042548
139	0xbfdb5592	-1.7135489
140	0xbfbe7c1e	-1.4881628
141	0xbfd41ab6	-1.6570652
142	0xbfbe0342	-1.4844744
143	0xbfc8e8a4	-1.5695996
144	0xbfc838a2	-1.5642283
145	0xbfd8654d	-1.6905915
146	0xbfdfdd46	-1.7489402
147	0xbfd17f65	-1.6367003
148	0xbfdb902b	-1.7153372
149	0xbfccf7ae	-1.6013086
150	0xbf990785	-1.195542
151	0xbfd356e4	-1.6510892
152	0xbfc07913	-1.5036949
153	0xbfde6245	-1.737374
154	0xbfca6ca2	-1.5814402
155	0xbfba44cd	-1.4552246
156	0xbfe94798	-1.8224974
157	0xbfc8cf69	-1.5688297
158	0xbfb0290c	-1.3762527
159	0xbfeaaa2d	-1.8333184
160	0xbfcdef68	-1.6088686
161	0xbfd09b71	-1.6297437
162	0xbfbdf963	-1.4841732
163	0xbfb3511b	-1.4009126
164	0xbfd2d5fd	-1.6471554
165	0xbfcb4305	-1.5879828
166	0xc0008cb0	-2.008587
167	0xbfd6e5cb	-1.6788877
168	0xbfc24e64	-1.5180173
169	0x3a3093ab	0.00067358714
170	0xbfc1d69c	-1.5143619
171	0xbfc5c998	-1.5452147
172	0x3a960841	0.0011446552
173	0x400dd7a0	2.2162857
174	0xbaa24d0e	-0.0012382583
175	0xbfc00f16	-1.5004604
176	0xbfd4e748	-1.6633081
177	0xbfd404eb	-1.6564001
178	0xbfc2454a	-1.5177395
179	0xbfcea946	-1.6145408
180	0xbfc28c86	-1.5199134
181	0xbff2b3bc	-1.89611
182	0xbfcd2a51	-1.6028539
183	0xbfeeb74c	-1.8649688
184	0xbfbfe0eb	-1.4990515
185	0xbfece359	-1.8506881
186	0xbfe27203	-1.7691044
187	0xbfdbc626	-1.7169845
188	0xbfd235af	-1.6422633
189	0xbfc8a547	-1.5675439
190	0xbfdc441c	-1.7208285
191	0xbfcf0f2d	-1.6176506
192	0xbfa8e35b	-1.3194383
193	0xbfdbbe53	-1.7167457
194	0xbfbea679	-1.4894553
195	0xbfd645be	-1.6740034
196	0xbfd9be17	-1.7011136
197	0xbfcfeb62	-1.6243708
198	0xbfc438b9	-1.532981
199	0xbfc2eb5c	-1.5228076
200	0xbfd7c81e	-1.6857946
201	0xbfc7dcc1	-1.5614244
202	0xbfcdc2ec	-1.607511
203	0xbfdea2d2	-1.7393439
204	0xbfb20438	-1.3907537
205	0xbfd45ef5	-1.6591479
206	0xbfc6c0dd	-1.5527607
207	0xbfcbd644	-1.5924764
208	0xbfd72e9c	-1.6811099
209	0xbfddeb8f	-1.7337512
210	0xbfed89e1	-1.8557702
211	0xbfcd1972	-1.602339
212	0xbfd3c712	-1.6545126
213	0xbfcc9a29	-1.5984546
214	0xbfcbaf45	-1.5912863
215	0xbfcd0999	-1.6018554
216	0xbfc126c9	-1.5089961
217	0xbfccefd2	-1.6010687
218	0xbfd6c9c0	-1.6780319
219	0xbfc1211f	-1.5088233
220	0xbfd5ae45	-1.6693808
221	0xbfcd7c53	-1.6053566
222	0xbfdb66c5	-1.7140738
223	0x400e4c2a	2.2233987
224	0xbfc477e0	-1.5349083
225	0xbfd50057	-1.6640729
226	0xbfeb6277	-1.8389424
227	0xbfc6cd67	-1.5531434
228	0xbfcf595f	-1.6199149
229	0xbfc67e0f	-1.550722
230	0xbfc123d8	-1.5089064
231	0xbfc2963d	-1.5202099
232	0xba9eff58	-0.0012130542
233	0xbfedae95	-1.8568903
234	0xbfeb9568	-1.840497
235	0xb9620182	-0.00021553601
236	0xbfc8e03c	-1.5693431
237	0xbfc35d2e	-1.5262811
238	0xbfd32aae	-1.64974
239	0xbfd93162	-1.6968195
240	0xbff2c09e	-1.8965032
241	0xbfd6000c	-1.6718764
242	0xbfcd4700	-1.6037292
243	0xbfdd55ef	-1.729185
244	0xbfd24761	-1.6428033
245	0xbfd300f4	-1.6484666
246	0xbfcc4d35	-1.5961062
247	0xbfc05d02	-1.5028384
248	0xbfaf652e	-1.3702753
249	0xbf926a62	-1.1438715
250	0xbfded825	-1.7409712
251	0xbfccd585	-1.6002661
252	0xbfdccc4b	-1.7249845
253	0xbfaea4c8	-1.3644037
254	0xbfd3a312	-1.653414
255	0xbff2faa0	-1.8982735
