testing/scripts/outputs/DDPG_Env/20221213-030633/models/980critic_checkpoint.pt (torch, 282455 bytes, 5 tensors)

linear1.weight f4 [256, 15]
0.38663313 -0.30023718 -1.1290022 0.12861706 0.59697473 0.29637137 0.20741463 -0.10905027
-0.80966306 0.23072551 -0.07940009 0.1931082 0.1640082 -0.21299556 -0.20527326 0.03003031
-0.6676576 -1.4294411 -0.8870187 0.31007987 0.33607414 -0.4807186 -0.19573481 0.31842342
0.4577374 -0.018631557 0.22015147 0.028108753 -0.37100253 0.3052575 -0.0072828494 0.49639016
0.24071226 -0.525125 -0.7940406 0.37235945 0.090054475 -0.47547063 -0.8635801 -0.29750937
-0.25749713 0.23942086 0.24746856 -0.14550248 -0.33743533 -0.33242205 -0.027901394 -0.16217475
-0.5198473 -0.19272798 -0.3950843 -1.1931919 -1.4420341 0.1689252 0.40897998 0.097422466
0.08190978 -0.03680287 -0.044819057 -0.12769857 -0.72532344 -0.05547039 0.19257374 -0.62196547
-1.7133615 -1.1912013 -1.2700795 -0.46956882 -0.17620245 -0.6773794 -0.046263438 -0.08555977
-0.058967687 0.23508908 -0.070960246 -0.4505403 0.01845751 -0.07536784 -0.7373079 -1.0999656
-1.3191594 -1.9065171 -0.61557245 -0.20424968 -0.5858328 -0.0362411 -0.061658833 -0.011401091
0.07194299 0.12921898 0.07843806 -0.10787809 -0.06450515 -0.74989873 -0.87881273 0.36129194
-0.00765261 -0.52024966 -0.12844697 0.14905567 -0.21643563 0.36758763 0.14485224 -0.12144007
-0.10238385 0.09052289 -0.845521 -1.5195515 -0.8926196 -0.0003943094 -0.21019721 -0.6353612
-0.5615571 0.41332853 0.106769964 -0.0044865315 -0.097146995 -0.07623952 0.12948993 0.008173578
0.19146322 0.27043292 -0.66713184 -1.013195 -0.45272917 -0.07521976 -0.39680195 -0.19537601
0.04245222 -0.33293366 -0.16294837 0.26308626 -0.20237888 -0.047923002 0.24270307 -0.16744146
-0.9634036 -0.24692556 -0.55298644 -0.1885397 -0.09474945 -0.22610627 -0.5879588 -0.11729929
0.19202243 -0.098839045 -0.07272765 0.29477242 0.10376901 0.20465916 0.04585581 0.36449593
0.41340184 0.8941525 0.9687446 0.9750881 0.7337671 0.61589366 0.30485794 0.6389906
0.08184946 -0.93205374 0.06262945 0.14803801 -0.1901215 -0.61204565 -0.56521356 0.28658813
-0.3019346 -1.339139 -2.4055948 -2.1596806 -0.6477039 0.102739885 -0.5534452 -0.0075942213
-0.10055886 -0.0022190425 0.104839034 0.046360895 -0.18637216 -0.014243669 0.26009938 -0.6844069
-0.6421803 -0.35817143 -0.7351883 -1.3659555 -0.09998908 0.60358363 0.1750987 0.18545252
-0.015286248 -0.10871917 0.085303515 -0.96943194 0.029278776 -0.13400725 -0.95338017 -1.8008392
-1.7900194 -1.5314981 -0.21373841 0.2627555 -0.7349734 0.016577179 -0.06434213 -0.0241791
-0.08677403 -0.09483109 -0.0063652443 -0.2603449 0.075484246 -0.26075882 0.065942556 -0.3002819
-0.48523626 -0.49987486 -0.09478702 0.2809485 0.21513405 0.24927334 0.20594357 -0.05534628
-0.034461886 -0.009070203 0.5722031 0.8371207 0.79017884 0.3460548 -0.24134974 0.29708531
0.526451 0.12068336 -0.29313013 -0.13645841 -0.7961487 0.20046261 -0.32419747 -0.3502104
-0.3217874 0.46041566 -0.14019835 -1.4699597 -0.8648909 -1.1919595 -1.9880663 -2.0446897
-1.4718357 -0.84059066 -0.021923834 -0.039068885 -0.056765407 -0.2619959 0.14410393 0.04447444
00000000: c7f4 c53e b0b8 99be 2583 90bf 31b4 033e
00000010: 56d3 183f fdbd 973e 8064 543e bf55 dfbd
00000020: 1446 4fbf 4f43 6c3e 849c a2bd 28be 453e
00000030: c4f1 273e 821b 5abe 2733 52be 2002 f63c
00000040: 9ceb 2abf edf7 b6bf a813 63bf cac2 9e3e
00000050: e911 ac3e c020 f6be b56e 48be 6508 a33e
00000060: 8e5c ea3e 35a1 98bc 636f 613e 5444 e63c
00000070: 0bf4 bdbe b64a 9c3e f8a4 eebb da26 fe3e
00000080: 467d 763e 986e 06bf 3f46 4bbf e6a5 be3e
00000090: 7b6e b83d e370 f3be 9613 5dbf 2653 98be
000000a0: aad6 83be be2a 753e 6668 7d3e 9afe 14be
000000b0: 53c4 acbe 3933 aabe 7791 e4bc 2311 26be
000000c0: b614 05bf 7c5a 45be 7d48 cabe 83ba 98bf
000000d0: 9394 b8bf bafa 2c3e d365 d13e 6e85 c73d
000000e0: 51c0 a73d 9bbe 16bd 3094 37bd 6ac3 02be
000000f0: ccae 39bf eb34 63bd 0d32 453e 2139 1fbf
00000100: 6e4f dbbf 4979 98bf f791 a2bf 536b f0be
00000110: 6a6e 34be bd68 2dbf bb7e 3dbd f639 afbd
00000120: 1a88 71bd 31bb 703e 9b53 91bd 38ad e6be
00000130: 3434 973c 745a 9abd 36c0 3cbf accb 8cbf
00000140: 37da a8bf c108 f4bf 2896 1dbf d426 51be
00000150: 23f9 15bf 8c71 14bd f98d 7cbd a4cb 3abc
00000160: d956 933d fb51 043e 22a4 a03d 30ef dcbd
00000170: 471b 84bd 5df9 3fbf dff9 60bf 42fb b83e
00000180: bfc2 fabb 152f 05bf 9a87 03be 0da2 183e
00000190: 4da1 5dbe 7234 bc3e 2554 143e 92b5 f8bd
000001a0: a0ae d1bd 1164 b93d 1074 58bf aa80 c2bf
000001b0: b882 64bf 50bb ceb9 f03d 57be 08a7 22bf
000001c0: 35c2 0fbf cc9f d33e 36aa da3d c103 93bb
000001d0: 01f5 c6bd 7723 9cbd 0299 043e 79ea 053c
000001e0: ef0e 443e 2f76 8a3e 27c9 2abf 60b0 81bf
000001f0: 1ecc e7be d10c 9abd a029 cbbe a610 48be
00000200: 61e2 2d3d 4876 aabe f0db 26be 3eb3 863e
00000210: 693c 4fbe e94a 44bd 2787 783e c675 2bbe
00000220: 9ea1 76bf 0eda 7cbe 8590 0dbf 8d10 41be
00000230: 000c c2bd 6788 67be 7884 16bf 9c3a f0bd
00000240: 87a1 443e 206c cabd 3cf2 94bd 69ec 963e
00000250: d984 d43d 2c92 513e 4dd3 3b3d 369f ba3e
00000260: 68a9 d33e 2ee7 643f a5ff 773f 609f 793f
00000270: 29d8 3b3f 35ab 1d3f 5716 9c3e e394 233f
00000280: b1a0 a73d 139b 6ebf de43 803d 4797 173e
00000290: 36af 42be 06af 1cbf d6b1 10bf aebb 923e
000002a0: 2c97 9abe e868 abbf 44f5 19c0 3538 0ac0
000002b0: eccf 25bf 4a69 d23d 96ae 0dbf f2d8 f8bb
000002c0: cef1 cdbd 5b6d 11bb d9b5 d63d ece4 3d3d
000002d0: 58d8 3ebe 475e 69bc bf2b 853e 4a35 2fbf
000002e0: ee65 24bf 3f62 b7be 4d35 3cbf a1d7 aebf
000002f0: 13c7 ccbd 7584 1a3f 134d 333e 44e7 3d3e
00000300: 2c73 7abc 28a8 debd 9cb3 ae3d b12c 78bf
00000310: 0bda ef3c 3239 09be b910 74bf e681 e6bf
00000320: 5b1f e5bf 2108 c4bf 3ede 5abe e487 863e
00000330: 3727 3cbf ddcc 873c cfc5 83bd 3f13 c6bc
00000340: 95b6 b1bd cd36 c2bd 8a93 d0bb ed4b 85be
00000350: 7c97 9a3d 2e82 85be e40c 873d 8dbe 99be
00000360: e370 f8be 99ef ffbe b21f c2bd 7bd8 8f3e
00000370: 1a4c 5c3e 8341 7f3e dfe2 523e c8b2 62bd
00000380: e827 0dbd 309b 14bc e77b 123f 8b4d 563f
00000390: 2949 4a3f 182e b13e 6324 77be 911b 983e
000003a0: 7ec5 063f d628 f73d 2715 96be c1bb 0bbe
000003b0: 67d0 4bbf 1246 4d3e 36fd a5be c74e b3be
000003c0: 51c1 a4be 9abb eb3e 2890 0fbe a427 bcbf
000003d0: 7d69 5dbf 2192 98bf f578 febf 32dc 02c0
000003e0: 1d65 bcbf f330 57bf 9d99 b3bc b206 20bd
000003f0: d882 68bd 5424 86be fb8f 133e d52a 363d

linear1.bias f4 [256]
-0.21798757 0.1889391 0.50587404 0.42095128 0.92655784 0.9598562 0.9525348 -0.1685128
0.5151837 -0.18211474 0.19240661 1.1851313 0.25434026 1.0960351 0.64841723 0.17600723
0.6262114 -0.1367075 0.08117754 -0.33710393 0.4998992 -0.046152186 0.5796013 -0.28935602
0.78101176 -0.7183628 0.19926208 0.6090146 0.13747762 0.51758 0.3446756 0.3510904
0.07930583 0.47629333 0.39580032 -0.08663317 0.98006535 0.39058045 0.28564453 -0.22210725
0.032755017 0.4345772 1.0901606 0.75281715 0.14570494 -0.24166143 0.853305 0.4709403
0.8095329 0.98621505 0.49067527 0.45307612 0.50264806 0.5459708 0.71066326 0.6680335
0.23788859 0.26767007 0.75363076 0.59244925 -0.025976442 -0.4043427 -0.007569892 0.465131
0.14273588 0.5850859 0.4712264 0.59867 0.4098101 0.5874336 0.7498503 0.49666366
0.24581192 0.30766106 0.56739366 0.26395628 0.3121975 0.050191794 0.87665886 -0.3506233
0.7732293 -0.4686795 0.13832761 -0.2144571 0.39649475 0.52590233 0.27032682 0.46548337
0.69856775 -0.2142683 -0.0010758567 0.67676824 -0.27438793 0.87216836 0.6596928 -0.00030629957
-0.1878238 0.26442835 0.29233104 -0.30791178 0.3907526 0.38589743 0.5915813 0.10609416
0.15615568 0.22891963 0.12222233 0.1742208 0.85914624 0.70352626 0.73322904 0.39435688
0.41074342 0.31781432 0.36386833 -0.107257046 0.6795977 0.2943962 0.4648252 0.81671125
-0.28563023 0.56492674 0.7924065 0.7112748 0.4158963 0.30995542 0.15010265 -0.46753734
0.40124452 -0.041485842 0.35096872 0.45357987 0.7137896 -0.24229595 -0.38258094 1.1405947
0.844782 0.122450925 0.37310064 0.43865344 0.08817791 0.32447535 0.9296089 0.6999845
0.51882166 0.7158819 0.98988384 0.38246244 -0.33267683 0.53989977 0.031767786 0.71091634
0.10505142 0.17574736 0.20747714 0.43638685 -0.23905472 0.88837665 0.057183467 -0.72243726
-0.039123926 0.29185724 0.31085315 -0.17182834 0.7645871 0.7731731 0.58727527 -0.09814431
0.4213015 0.6946372 0.23033275 0.43835047 0.75900966 0.688397 0.33459693 0.13412122
-0.4246642 0.28634492 -0.050500534 0.24093129 0.04223993 0.36023888 0.21276794 0.33968797
0.70684797 0.06079182 0.3386705 0.1353968 0.5562945 0.87256604 0.40744328 0.4589368
0.30763906 0.2476344 -0.17973173 0.7393614 0.37508625 -0.050650407 0.11546066 -0.022301393
0.93604594 1.1142049 -0.19834569 0.5432779 -0.091558196 1.0201088 0.46349013 0.711341
0.83950835 0.07605879 0.0952445 0.1241379 0.5010176 0.3620324 0.08274949 0.7303349
0.49370742 -0.10861258 0.55858475 0.5207245 0.6997366 0.29970762 -0.16619301 0.4907653
0.61526936 0.1338233 0.10256807 0.23220971 0.55185515 0.75217384 0.06500792 0.08542763
1.1647403 0.33511892 -0.12691103 0.84655714 0.19077665 0.5754924 0.4324167 0.3462422
0.7653201 0.40969673 0.64610666 0.463152 1.0247092 0.6657212 0.5520506 0.48111746
-0.1540819 0.22215892 0.5210521 0.8445473 0.6933989 0.5810547 0.05538239 -0.17429088
00000000: 2238 5fbe 4079 413e f680 013f ed86 d73e
00000010: e532 6d3f 23b9 753f 52d9 733f 9f8e 2cbe
00000020: 14e3 033f 497c 3abe 3d06 453e 62b2 973f
00000030: e338 823e e14a 8c3f acfe 253f 3d3b 343e
00000040: 644f 203f 0dfd 0bbe 6940 a63d e398 acbe
00000050: caf2 ff3e 130a 3dbd c060 143f 7926 94be
00000060: 63f0 473f a0e6 37bf 5c0b 4c3e 61e8 1b3f
00000070: efc6 0c3e 1f80 043f 5279 b03e 1fc2 b33e
00000080: 186b a23d b8dc f33e 57a6 ca3e bb6c b1bd
00000090: 90e5 7a3f 29fa c73e 0040 923e 1570 63be
000000a0: 202a 063d e780 de3e 628a 8b3f a0b8 403f
000000b0: ad33 153e 1876 77be 3272 5a3f 161f f13e
000000c0: 8c3d 4f3f 9778 7c3f ca39 fb3e 98f9 e73e
000000d0: 8bad 003f bec4 0b3f 07ee 353f 3e04 2b3f
000000e0: 1199 733e 0d0c 893e f2ed 403f c1aa 173f
000000f0: 8ccc d4bc 0206 cfbe db0c f8bb a725 ee3e
00000100: 5b29 123e 31c8 153f 9644 f13e 7042 193f
00000110: a1d2 d13e 0c62 163f 30f6 3f3f b34a fe3e
00000120: 1fb6 7b3e c085 9d3e b640 113f 4725 873e
00000130: 5ad8 9f3e e995 4d3d b76c 603f e684 b3be
00000140: 5bf2 453f c2f6 efbe c1a5 0d3e a49a 5bbe
00000150: 5c01 cb3e 89a1 063f 4768 8a3e d653 ee3e
00000160: 56d5 323f 2669 5bbe c303 8dba af40 2d3f
00000170: 937c 8cbe 6d46 5f3f a1e1 283f d596 a0b9
00000180: e254 40be 2763 873e 6aac 953e 9da6 9dbe
00000190: ba10 c83e 5994 c53e df71 173f e547 d93d
000001a0: 46e7 1f3e e869 6a3e b34f fa3d f066 323e
000001b0: 02f1 5b3f 4c1a 343f e6b4 3b3f 25e9 c93e
000001c0: f64c d23e 8fb8 a23e f34c ba3e 95a9 dbbd
000001d0: 1dfa 2d3f 19bb 963e 92fd ed3e fd13 513f
000001e0: 203e 92be 0a9f 103f 27db 4a3f 1b16 363f
000001f0: 5cf0 d43e 7ab2 9e3e 82b4 193e 0e61 efbe
00000200: ec6f cd3e 0fed 29bd 2cb2 b33e 9f3b e83e
00000210: eaba 363f 6e1c 78be a6e1 c3be 02ff 913f
00000220: a243 583f 8dc7 fa3d 0c07 bf3e 2f97 e03e
00000230: 9f96 b43d a221 a63e d9fa 6d3f 2f32 333f
00000240: 7fd1 043f 0944 373f 0769 7d3f 1ed2 c33e
00000250: 9e54 aabe df36 0a3f f01e 023d 9dfe 353f
00000260: 3325 d73d 1ef7 333e e374 543e 196e df3e
00000270: c3ca 74be a76c 633f 3639 6a3d a6f1 38bf
00000280: 6940 20bd 506e 953e 2528 9f3e c5f3 2fbe
00000290: fbbb 433f acee 453f ac57 163f e2ff c8bd
000002a0: d5b4 d73e bed3 313f 59dc 6b3e 796f e03e
000002b0: 754e 423f c93a 303f 4a50 ab3e 1357 093e
000002c0: 966d d9be cd9b 923e a6d9 4ebd b1b6 763e
000002d0: c703 2d3d 3b71 b83e d7df 593e 95eb ad3e
000002e0: fdf3 343f d800 793d 3866 ad3e 75a5 0a3e
000002f0: 5169 0e3f 7d60 5f3f 689c d03e c4f9 ea3e
00000300: de82 9d3e df93 7d3e 980b 38be ca46 3d3f
00000310: 4e0b c03e cd76 4fbd a376 ec3d 69b1 b6bc
00000320: b5a0 6f3f 449e 8e3f 221b 4bbe 4314 0b3f
00000330: dd82 bbbd ed92 823f 944e ed3e 721a 363f
00000340: 05ea 563f b6c4 9b3d 8c0f c33d 033c fe3d
00000350: b042 003f 505c b93e 9178 a93d 3af7 3a3f
00000360: 38c7 fc3e 4670 debd 69ff 0e3f 334e 053f
00000370: f021 333f 4773 993e 802e 2abe 9745 fb3e
00000380: 4b82 1d3f fa08 093e 350f d23d 62c8 6d3e
00000390: 6146 0d3f 778e 403f df22 853d aef4 ae3d
000003a0: 3616 953f b594 ab3e f7f4 01be f8b7 583f
000003b0: f45a 433e 7853 133f b965 dd3e a846 b13e
000003c0: 05ec 433f c5c3 d13e 3f67 253f 4222 ed3e
000003d0: ac29 833f b46c 2a3f 3053 0d3f 0755 f63e
000003e0: a5c7 1dbe a17d 633e ac63 053f 4034 583f
000003f0: 9782 313f 00c0 143f a5d8 623d 4f79 32be

linear2.weight f4 [256, 256]
0.24995545 0.49908128 0.078028716 0.27502194 1.5463612 1.4067078 0.18405479 0.7038712
0.4699845 0.23684016 -0.77688175 1.9145739 0.26051033 1.6074201 0.13708247 -1.0098182
1.2072915 -0.14017591 -1.4476597 0.5612307 0.48388925 0.5728301 0.4800036 0.358678
0.35194623 0.8548245 0.45977664 0.21695955 0.41532686 0.17979918 0.8309225 -0.5198701
-1.164736 0.77417725 1.0380503 0.15054652 1.6791342 0.49248603 0.26012906 -1.1891973
0.18498309 0.83655304 1.9106972 0.94848883 0.2784137 0.32142043 0.13853414 0.38640544
1.0634913 0.19648454 0.4222839 0.22147602 0.090419024 0.13455734 0.39224583 0.3577461
0.9590066 0.16834225 0.8313764 0.35538596 0.6558336 0.05834336 1.0117861 0.8784145
0.4285101 0.21112722 0.17733696 0.3047965 -0.18521442 0.6583873 1.1527781 -0.663797
0.93859947 0.27791867 0.26213425 -1.0584412 0.4707699 -1.336972 0.18033335 0.28943965
0.4516782 0.037041817 -1.4841205 -0.9592052 0.3475538 0.35516986 0.847556 0.44051388
0.0388994 -0.8048702 -0.65168965 0.22493523 -1.023964 0.23201208 0.15680249 -0.546334
0.48069724 0.14134242 0.8291094 -1.019837 0.44538233 0.40249693 0.20499757 -1.1160678
0.37722337 0.63801396 -0.010515387 0.08652835 0.33940738 0.7823878 1.1760292 0.33425972
0.41911575 0.32190806 0.3075586 -0.9406843 0.38039064 0.237094 0.16023476 1.3613247
-1.0906302 0.39970264 0.23740666 0.7558886 0.68585014 0.2927176 -0.3949904 0.19341157
0.6338582 0.8048889 0.3727695 -0.91550004 0.16044095 -1.0509537 0.14783637 -0.08947141
0.90501547 0.7358172 0.35834765 0.3622503 0.359957 0.3508092 1.1430949 0.37560055
0.27856904 0.19314517 0.480291 1.316501 -1.2036781 0.6261587 0.39281175 0.4168126
0.53817225 0.4508874 0.8309718 0.6907585 -0.7252899 0.09667 -0.71521646 -0.8509629
0.50506717 0.48901802 1.0106145 0.2650717 -0.293054 0.29963696 0.8518961 -1.3319479
0.5808642 0.27798352 0.3608735 0.06418077 1.5889806 0.09218985 1.2434788 0.81402224
0.36737177 0.48568946 -0.543476 0.18473022 0.47134835 -0.07575569 -0.88305897 0.80602705
0.21293472 0.7889176 0.8637811 0.65198606 0.45210016 0.9103845 0.22338493 0.36062047
0.35035795 0.38568345 -0.89190316 0.28523996 0.51548254 -0.55107987 -0.5515587 0.44559452
1.0681717 0.20017956 0.34593284 0.6118337 -0.75948226 0.31823784 0.8792257 0.7939587
1.0963851 0.47132346 0.16621463 0.36387002 1.1721249 0.31115374 -0.6035272 -0.07408718
0.3706084 -0.61454463 0.58237284 0.53014344 0.44327974 -1.0068433 0.18080059 -0.0078509785
0.30134138 0.42898247 -0.5354664 0.57385373 0.53114265 0.7915548 0.6512017 0.15008757
-0.031143086 0.23077169 -0.54777455 0.8009603 0.48942515 0.26232502 0.26131445 0.45366007
1.6089514 1.18284 0.20611884 0.8772729 0.2492707 0.5220504 0.11350791 0.28009754
-0.6168791 0.8670225 0.06329667 0.27708364 0.9065861 0.44391105 -0.6189747 -0.6433811
00000000: 52f4 7f3e 9587 ff3e 85cd 9f3d adcf 8c3e
00000010: 2aef c53f 000f b43f dc78 3c3e e730 343f
00000020: cfa1 f03e 3a86 723e b9e1 46bf c210 f53f
00000030: 9c61 853e f1bf cd3f 595f 0c3e b941 81bf
00000040: 8788 9a3f 468a 0fbe ea4c b9bf d1ac 0f3f
00000050: 55c0 f73e fea4 123f 08c3 f53e a5a4 b73e
00000060: 4c32 b43e c7d5 5a3f d867 eb3e a52a 5e3e
00000070: b9a5 d43e 471d 383e 56b7 543f 3516 05bf
00000080: 1216 95bf 7b30 463f d5de 843f de28 1a3e
00000090: dfed d63f 2127 fc3e a32f 853e 9e37 98bf
000000a0: 356c 3d3e 5728 563f ba91 f43f 2ad0 723f
000000b0: 3e8c 8e3e 3891 a43e e5db 0d3e efd6 c53e
000000c0: 7c20 883f 3e33 493e 9835 d83e 9cca 623e
000000d0: 9c2d b93d 66c9 093e 72d4 c83e 7f2a b73e
000000e0: 7581 753f e961 2c3e 15d5 543f 26f5 b53e
000000f0: b6e4 273f 72f9 6e3d 3582 813f c6df 603f
00000100: ad65 db3e bc31 583e d297 353e 490e 9c3e
00000110: d9a8 3dbe 128c 283f 3c8e 933f 9aee 29bf
00000120: 0e48 703f 5b4b 8e3e 7636 863e 007b 87bf
00000130: c108 f13e e621 abbf 4ea9 383e 6f31 943e
00000140: 5d42 e73e 29b9 173d a9f7 bdbf 798e 75bf
00000150: 92f2 b13e d3d8 b53e 6ef9 583f 098b e13e
00000160: fa54 1f3d f90b 4ebf 22d5 26bf 6c55 663e
00000170: 4111 83bf 9394 6d3e d590 203e 8cdc 0bbf
00000180: f31d f63e 11bc 103e 8340 543f 058a 82bf
00000190: 2709 e43e 1414 ce3e e2ea 513e 4fdb 8ebf
000001a0: 6c23 c13e e254 233f bb48 2cbc c735 b13d
000001b0: cec6 ad3e 914a 483f 2088 963f 1724 ab3e
000001c0: 5796 d63e 22d1 a43e 5278 9d3e b0d0 70bf
000001d0: 90c2 c23e c5c8 723e 9514 243e e33f ae3f
000001e0: c599 8bbf d3a5 cc3e bb1a 733e ea81 413f
000001f0: e093 2f3f 15df 953e 2f3c cabe af0d 463e
00000200: 8844 223f 330d 4e3f a5db be3e 365e 6abf
00000210: a24a 243e a785 86bf 6b62 173e c93c b7bd
00000220: 18af 673f 845e 3c3f 5879 b73e df78 b93e
00000230: 494c b83e 439d b33e ef50 923f b74e c03e
00000240: 9aa0 8e3e d9c7 453e b4e8 f53e 1b83 a83f
00000250: 2012 9abf f04b 203f 9f1e c93e 7668 d53e
00000260: a8c5 093f b7da e63e 91ba 543f 8dd5 303f
00000270: 99ac 39bf ecfa c53d 6d18 37bf b4d8 59bf
00000280: 154c 013f 9260 fa3e d15b 813f 7ab7 873e
00000290: 2d0b 96be 046a 993e dd15 5a3f 457d aabf
000002a0: 84b3 143f db53 8e3e 69c4 b83e 3571 833d
000002b0: b763 cb3f 08ce bc3d 502a 9f3f c363 503f
000002c0: 2718 bc3e 4aac f83e 3e21 0bbf eb29 3d3e
000002d0: 9254 f13e cd25 9bbd 2710 62bf ca57 4e3f
000002e0: 8f0b 5a3e 81f6 493f c220 5d3f 8fe8 263f
000002f0: ac79 e73e f50e 693f 05bf 643e 3fa3 b83e
00000300: 1e62 b33e 4d78 c53e c453 64bf f90a 923e
00000310: aaf6 033f 9213 0dbf f332 0dbf f724 e43e
00000320: dab9 883f dffb 4c3e 1c1e b13e 22a1 1c3f
00000330: 6e6d 42bf 12f0 a23e ef14 613f e140 4b3f
00000340: 5956 8c3f 4f51 f13e 2b34 2a3e 2c4d ba3e
00000350: 3008 963f 8b4f 9f3e c280 1abf 05bb 97bd
00000360: 62c0 bd3e cc52 1dbf 6316 153f 7bb7 073f
00000370: 90f5 e23e 3ee0 80bf ca23 393e 64a1 00bc
00000380: 6b49 9a3e 97a3 db3e 5314 09bf 14e8 123f
00000390: f7f8 073f 56a3 4a3f 28b5 263f 8eb0 193e
000003a0: c91f ffbc 6a4f 6c3e f43a 0cbf bc0b 4d3f
000003b0: ef95 fa3e 774f 863e 02cb 853e 2246 e83e
000003c0: 1ff2 cd3f 4d67 973f d110 533e f594 603f
000003d0: d240 7f3e 18a5 053f d676 e83d f268 8f3e
000003e0: caeb 1dbf 30f5 5d3f afa1 813d e8dd 8d3e
000003f0: 0716 683f 4f48 e33e 2075 1ebf a0b4 24bf

linear2.bias f4 [256]
0.43078148 0.041484512 0.13167894 0.40287456 0.13676149 0.29250416 0.124025725 0.14218937
0.20222619 0.3692335 0.18316682 0.4338638 0.13020308 0.025020346 0.27445725 0.2579638
0.79077613 -0.12447575 0.1998465 0.26631647 0.45332852 0.4056295 0.9999746 0.10843881
0.4295323 0.31879693 0.2817959 0.19013265 0.31527945 0.15953146 0.14517541 0.26632097
0.35603133 0.112156145 0.12429788 0.32511666 0.42993832 1.0110378 0.33498368 0.10741794
0.4694732 0.20198971 0.35447642 0.30122733 0.3175001 0.41223925 0.33676705 0.10790376
0.17336512 0.051764943 0.29704925 0.3643388 0.009330096 0.32716665 0.3723931 0.19207539
0.36100245 -0.17945825 0.24788028 0.39269537 0.14180039 0.18657386 0.4212656 0.34544796
0.27388632 0.15531796 -0.03818498 0.3764415 0.25872934 0.19823632 0.40448448 0.42480925
0.5099147 0.16492471 0.16143575 0.32347128 0.10857317 -0.038093004 0.30636066 0.26177487
0.19569519 0.090824634 0.06610033 0.24469088 0.37153676 0.15054314 0.36100855 0.13792533
0.115079924 0.97377527 0.40007967 0.18818545 0.20676255 0.26145872 0.17999923 0.4809391
0.8248503 0.4797685 0.08153557 0.29529622 0.30286992 0.22724955 0.42251483 0.16241409
0.8784989 0.16288806 0.37622944 0.21162519 0.22592515 0.39658162 0.16020365 0.19615895
0.41837218 0.3307116 0.111323014 0.45106453 0.0844409 0.39614588 0.3377264 0.13961008
0.4727796 0.41118312 0.36649534 0.13273078 0.17109556 0.24407579 0.39468703 0.10073475
0.21127553 0.37356737 0.17891257 0.156554 0.09790705 0.27145085 0.1972481 0.38461688
0.08714436 0.15944542 0.36563113 0.2339388 0.34688157 0.39190283 0.2685313 0.28418285
0.29987222 0.44796768 0.23276924 0.34753338 0.50007397 0.3749174 0.07593406 0.41146094
0.2883277 0.3839533 0.36135814 0.29833135 0.09278457 0.22510675 0.099972785 0.107906245
0.36156166 0.40596396 0.16807744 0.18215996 0.37078 0.18429644 0.06430639 0.40958804
0.19273636 0.019357586 0.3378086 0.3118385 -0.05849011 0.73915774 -0.015238551 0.2548087
0.4075052 0.35113958 0.22207738 0.33306378 0.2979254 0.08124243 0.3876984 0.10146611
0.3020317 0.035435975 0.37592825 0.45019448 0.39302775 0.26514953 0.4497493 0.14839418
0.06546057 0.44235942 0.2684664 0.40102443 0.3501365 0.40752155 0.34737298 0.3178046
0.3673377 0.2323311 0.16316026 0.4052238 0.08303888 0.3920318 0.25210145 0.4065326
0.42996678 0.44368777 0.11371329 0.41512454 0.39700517 0.3131006 0.33882296 0.21228671
0.3615461 0.3311861 0.44427446 0.26047456 0.3801623 0.3776181 0.38396817 0.79328865
0.1999693 0.331738 0.027566887 0.27754948 0.13954586 0.32905263 0.33335224 0.21261258
-0.06140041 0.0961609 0.17590345 0.05017907 0.34184137 0.27107742 0.35065117 0.42104664
0.40878543 0.2382841 0.35891932 0.42488375 0.32007435 0.4274655 0.36108485 0.22835357
0.116739646 0.10748034 0.47598255 0.21049938 0.43490255 0.15434813 0.40668255 0.09100567
00000000: 648f dc3e aaeb 293d d8d6 063e 9345 ce3e
00000010: 340b 0c3e 1bc3 953e 3301 fe3d 179a 113e
00000020: 6214 4f3e 2c0c bd3e 1590 3b3e 6523 de3e
00000030: f553 053e 78f7 cc3c a985 8c3e d513 843e
00000040: 4e70 4a3f 24ed febd 90a4 4c3e a25a 883e
00000050: ad1a e83e abae cf3e 56fe 7f3f 2b15 de3d
00000060: a8eb db3e 5a39 a33e 8d47 903e 22b2 423e
00000070: 4f6c a13e 375c 233e dda8 143e 395b 883e
00000080: bd49 b63e 1fb2 e53d e38f fe3d b175 a63e
00000090: e020 dc3e b069 813f fb82 ab3e f0fd db3d
000000a0: cb5e f03e 64d6 4e3e ef7d b53e 783a 9a3e
000000b0: 608f a23e 0611 d33e bb6c ac3e a6fc dc3d
000000c0: a086 313e 7a07 543d d716 983e 9d8a ba3e
000000d0: 42dd 183c 6382 a73e 4faa be3e 69af 443e
000000e0: 50d5 b83e e7c3 37be 54d4 7d3e 5e0f c93e
000000f0: 1f34 113e 380d 3f3e 20b0 d73e 8ede b03e
00000100: d43a 8c3e ac0b 1f3e db67 1cbd f1bc c03e
00000110: 2c78 843e 76fe 4a3e 9718 cf3e 9980 d93e
00000120: c589 023f 06e2 283e 6a4f 253e 079e a53e
00000130: 9c5b de3d 6907 1cbd 4edb 9c3e 5b07 863e
00000140: 5264 483e 4402 ba3d 9c5f 873d 3f90 7a3e
00000150: 113a be3e fb27 1a3e 1dd6 b83e 4c3c 0d3e
00000160: 06af eb3d 5649 793f 3ed7 cc3e b0b3 403e
00000170: 90b9 533e ebdd 853e b851 383e a63d f63e
00000180: 6429 533f 38a4 f53e 1ffc a63d 1131 973e
00000190: c411 9b3e 1bb4 683e dd53 d83e e14f 263e
000001a0: 4ee5 603f 21cc 263e 25a1 c03e 46b4 583e
000001b0: ec58 673e bf0c cb3e 6d0c 243e e4dd 483e
000001c0: e134 d63e 0853 a93e 52fd e33d eef1 e63e
000001d0: 5aef ac3d a2d3 ca3e 7aea ac3e f2f5 0e3e
000001e0: 2b10 f23e 9886 d23e 47a5 bb3e 94ea 073e
000001f0: ad33 2f3e 01ef 793e 6b14 ca3e 054e ce3d
00000200: 9d58 583e 3944 bf3e db34 373e b14f 203e
00000210: 7e83 c83d 9bfb 8a3e 68fb 493e 81ec c43e
00000220: be78 b23d a945 233e 0134 bb3e a78d 6f3e
00000230: 769a b13e 7da7 c83e ef7c 893e 6a80 913e
00000240: da88 993e 055c e53e 0f5b 6e3e e5ef b13e
00000250: d904 003f 2cf5 bf3e 5183 9b3d 02ab d23e
00000260: b09f 933e 8795 c43e ef03 b93e e3be 983e
00000270: d605 be3d 6282 663e 88be cc3d f3fd dc3d
00000280: 9c1e b93e 82da cf3e 7e1c 2c3e 2488 3a3e
00000290: e0d6 bd3e 35b8 3c3e 12b3 833d 86b5 d13e
000002a0: ae5c 453e cd93 9e3c 40f5 ac3e 4ca9 9f3e
000002b0: 5393 6fbd 7139 3d3f 1eab 79bc 4976 823e
000002c0: 86a4 d03e 91c8 b33e 4168 633e 5687 aa3e
000002d0: ae89 983e 6e62 a63d 6880 c63e 77cd cf3d
000002e0: e6a3 9a3e 5025 113d ab79 c03e e47f e63e
000002f0: ef3a c93e aec1 873e 8a45 e63e a5f4 173e
00000300: 3110 863d ef7c e23e 6e74 893e 1353 cd3e
00000310: 1745 b33e aaa6 d03e dfda b13e 49b7 a23e
00000320: b013 bc3e 34e8 6d3e 7c13 273e 7e79 cf3e
00000330: 4a10 aa3d 64b8 c83e 7113 813e 0a25 d03e
00000340: 9b24 dc3e 0b2b e33e 83e2 e83d 348b d43e
00000350: 4344 cb3e b94e a03e 347a ad3e b061 593e
00000360: 921c b93e 3991 a93e f177 e33e ec5c 853e
00000370: a2a4 c23e 2957 c13e 7a97 c43e f714 4b3f
00000380: c1c4 4c3e 90d9 a93e f4d3 e13c f71a 8e3e
00000390: 1ce5 0e3e 9679 a83e 25ad aa3e 1db7 593e
000003a0: ff7e 7bbd 02f0 c43d 0920 343e 9288 4d3d
000003b0: d505 af3e a9ca 8a3e 8d88 b33e 6d93 d73e
000003c0: 534c d13e bf00 743e 46c4 b73e 5d8a d93e
000003d0: c9e0 a33e c2dc da3e 1de0 b83e 85d5 693e
000003e0: 3215 ef3d a71e dc3d fcb3 f33e 268d 573e
000003f0: 8cab de3e 700d 1e3e b238 d03e 2e61 ba3d

linear3.weight f4 [1, 256]
-1.7214763 -1.8692514 -1.6435406 -1.7086606 0.34983313 -1.5438246 -1.5186063 -2.143392
-1.8741597 -1.7192794 -1.6171988 -1.7454401 -1.3910658 -1.2740505 -1.5473843 -1.57502
2.2440147 1.8036165 -1.6500953 -1.5193201 -1.6594014 -1.7561007 1.3501354 -1.2382563
-1.7150764 -1.5344155 -1.5059072 -1.6051499 -1.5053445 -1.5627773 -1.3671743 -1.4927148
-1.6004152 -1.4142627 -1.6049253 -1.666866 -1.6645589 2.6384401 -1.5365062 -1.5566484
-1.7598461 -1.5724 -1.7107162 -1.5484701 -1.6103739 -1.729886 -1.521034 -1.4635235
-1.6446058 -1.37654 -1.5449349 -1.6943239 -1.5507487 -1.4736232 -1.612661 -1.8256286
-1.6917007 -1.8712784 -1.6017942 -1.6580657 -1.6186086 -1.609741 -1.6147424 -1.5923843
-1.5305713 -1.657727 0.0013128333 -1.7471399 -1.560781 -1.5691963 -1.6553706 -1.6435887
-1.7816846 -1.9374906 -1.6555392 -1.6445171 -1.3091341 -2.7714138 -1.5577861 -1.5220723
-1.6366518 -2.1062257 -1.3953973 -1.5331868 -1.5853958 -1.6222626 -1.70577 -1.4510374
-1.1675723 1.7063891 -1.6875122 -1.5147663 -1.7969601 -1.5546283 -1.6618508 -1.8243171
2.1044536 -1.7578957 -2.2696393 -1.516444 -1.5777372 -1.8308065 -1.6615782 -1.6205941
2.9755955 -1.6345302 -1.7403574 -1.6378223 -1.7290325 -1.6801941 -1.5634645 -1.6309502
-1.6176842 -1.5977675 -1.652574 -1.7110561 -1.9794962 -1.6025395 -1.6631153 -1.9453892
-1.8534832 -1.5812309 -1.6115835 -1.6186056 -1.9712203 -1.5615382 -1.7077571 -1.8647705
-1.5435672 -1.7509651 -1.666906 -1.9190756 -1.9122168 -1.5464661 -1.5343902 -1.7575064
-1.9071556 -1.4108392 -1.5235283 -1.7508662 -1.5076767 -1.665594 -1.5110562 -1.5811199
-1.5773057 -1.6971285 -1.7866757 -1.6446844 -1.7212182 -1.6130393 -1.2153789 -1.6590887
-1.5310276 -1.7431108 -1.59159 -1.4792073 -1.8752991 -1.6071212 -1.4058434 -1.8871906
-1.6182976 -1.6403209 -1.5141648 -1.4395155 -1.6576482 -1.6244029 -2.0595782 -1.6861362
-1.5479066 0.00067358714 -1.5281438 -1.5737966 0.009409829 2.2272315 -0.0012382583 -1.5277392
-1.670701 -1.6649102 -1.5489879 -1.623483 -1.5349231 -1.950036 -1.6127325 -1.9177979
-1.5190277 -1.9054396 -1.7749956 -1.7236362 -1.6654211 -1.5801182 -1.7271576 -1.6563647
-1.3388294 -1.722622 -1.5145597 -1.6809919 -1.708038 -1.634221 -1.5468253 -1.5376735
-1.6930591 -1.5999887 -1.6456321 -1.7451997 -1.4258885 -1.6676474 -1.5696564 -1.6038107
-1.6874694 -1.7387676 -1.9111423 -1.6137044 -1.6639267 -1.6086788 -1.6019539 -1.6400328
-1.5270005 -1.6110618 -1.6860816 -1.5407387 -1.6766565 -1.616393 -1.7201611 2.2342315
-1.5662591 -1.6724389 -1.8927366 -1.5659398 -1.6592206 -1.564032 -1.5233831 -1.5514387
-0.0012130542 -1.9091734 -1.886205 -0.00021553601 -1.582339 -1.5409764 -1.6582958 -1.7035899
-1.9016637 -1.703098 -1.6144322 -1.7352854 -1.6515656 -1.6584699 -1.6065316 -1.5169276
-1.401446 -1.1617892 -1.7467096 -1.6389139 -1.730991 -1.3948529 -1.6616105 -1.9443353
00000000: 5659 dcbf a143 efbf 8a5f d2bf 64b5 dabf
00000010: 541d b33e 0b9c c5bf b161 c2bf 562d 09c0
00000020: 77e4 efbf 5911 dcbf 5f00 cfbf 956a dfbf
00000030: 720e b2bf 1614 a3bf b010 c6bf 419a c9bf
00000040: f09d 0f40 e8dc e63f 5336 d3bf 1579 c2bf
00000050: 4467 d4bf e8c7 e0bf 3dd1 ac3f 2f7f 9ebf
00000060: a087 dbbf ba67 c4bf 91c1 c0bf 8d75 cdbf
00000070: 21af c0bf 1609 c8bf 91ff aebf 4711 bfbf
00000080: 68da ccbf 8f06 b5bf 316e cdbf dd5b d5bf
00000090: 4410 d5bf 34dc 2840 3cac c4bf 4140 c7bf
000000a0: a342 e1bf 6744 c9bf c0f8 dabf 4534 c6bf
000000b0: bb20 cebf e86c ddbf 3eb1 c2bf bd54 bbbf
000000c0: 7182 d2bf 7632 b0bf 6dc0 c5bf 9bdf d8bf
000000d0: ef7e c6bf af9f bcbf ad6b cebf 33ae e9bf
000000e0: a689 d8bf 0d86 efbf 9807 cdbf 7f3b d4bf
000000f0: 912e cfbf fe0b cebf e1af cebf 40d3 cbbf
00000100: c3e9 c3bf 6630 d4bf 6013 ac3a 48a2 dfbf
00000110: acc7 c7bf 6ddb c8bf 2fe3 d3bf 1d61 d2bf
00000120: 3e0e e4bf b1ff f7bf b5e8 d3bf 897f d2bf
00000130: b591 a7bf d85e 31c0 8965 c7bf 44d3 c2bf
00000140: ce7d d1bf 67cc 06c0 619c b2bf 773f c4bf
00000150: 40ee cabf 4da6 cfbf ac56 dabf 98bb b9bf
00000160: 0273 95bf f56a da3f 6600 d8bf dde3 c1bf
00000170: ca02 e6bf 0ffe c6bf 87b7 d4bf 3983 e9bf
00000180: 5eaf 0640 ba02 e1bf c541 11c0 d61a c2bf
00000190: 4bf3 c9bf de57 eabf 98ae d4bf a16f cfbf
000001a0: 2870 3e40 4938 d1bf 08c4 debf 29a4 d1bf
000001b0: f050 ddbf 9a10 d7bf 9b1f c8bf fac2 d0bf
000001c0: 4710 cfbf a583 ccbf 8b87 d3bf e303 dbbf
000001d0: 2260 fdbf 0420 cdbf f6e0 d4bf 8302 f9bf
000001e0: f03e edbf c665 cabf 5e48 cebf 782e cfbf
000001f0: f250 fcbf 7ce0 c7bf c997 dabf cdb0 eebf
00000200: 9c93 c5bf a01f e0bf 2d5d d5bf 45a4 f5bf
00000210: 85c3 f4bf 9af2 c5bf e666 c4bf f8f5 e0bf
00000220: ad1d f4bf 6196 b4bf fa02 c3bf 621c e0bf
00000230: 8dfb c0bf 2f32 d5bf 4a6a c1bf 2362 cabf
00000240: 27e5 c9bf 823b d9bf cab1 e4bf 0585 d2bf
00000250: e150 dcbf 1278 cebf 8991 9bbf 055d d4bf
00000260: b6f8 c3bf 411e dfbf 39b9 cbbf aa56 bdbf
00000270: cd09 f0bf 26b6 cdbf adf2 b3bf 768f f1bf
00000280: 6024 cfbf 09f6 d1bf 27d0 c1bf 0b42 b8bf
00000290: d12d d4bf 6fec cfbf 21d0 03c0 50d3 d7bf
000002a0: ce21 c6bf ab93 303a 379a c3bf 2b72 c9bf
000002b0: af2b 1a3c f68a 0e40 0e4d a2ba f58c c3bf
000002c0: 88d9 d5bf c71b d5bf 3c45 c6bf 4ace cfbf
000002d0: 5c78 c4bf c89a f9bf 056e cebf 677a f5bf
000002e0: 806f c2bf 72e5 f3bf 0e33 e3bf 1ca0 dcbf
000002f0: 852c d5bf 5041 cabf 8013 ddbf c203 d4bf
00000300: c35e abbf e17e dcbf 18dd c1bf be2a d7bf
00000310: fda0 dabf 272e d1bf 5ffe c5bf 7cd2 c4bf
00000320: 29b6 d8bf 6ecc ccbf 13a4 d2bf b462 dfbf
00000330: 8483 b6bf 7875 d5bf 80ea c8bf ab49 cdbf
00000340: fffe d7bf f08f debf 50a0 f4bf de8d cebf
00000350: 8dfb d4bf 30e9 cdbf d30c cdbf 98ec d1bf
00000360: c174 c3bf 4637 cebf 86d1 d7bf ed36 c5bf
00000370: ae9c d6bf f7e5 cebf 3d2e dcbf a6fd 0e40
00000380: 2e7b c8bf 7a12 d6bf 3145 f2bf b770 c8bf
00000390: 5761 d4bf 3332 c8bf 38fe c2bf 8b95 c6bf
000003a0: 58ff 9eba cb5f f4bf 2a6f f1bf 8201 62b9
000003b0: 168a cabf b73e c5bf 0943 d4bf 3c0f dabf
000003c0: b769 f3bf 1eff d9bf b7a5 cebf d51d debf
000003d0: 8066 d3bf be48 d4bf d4a2 cdbf af2a c2bf
000003e0: 9562 b3bf 82b5 94bf 2e94 dfbf eec7 d1bf
000003f0: 1d91 ddbf 8a8a b2bf a7af d4bf fbdf f8bf
