testing/scripts/outputs/DDPG_Env/20221216-051603/models/220critic_checkpoint.pt (torch, 282455 bytes, 5 tensors)

linear1.weight f4 [256, 15]
0	0x3e69f7a8	0.2284838
1	0x3d992e65	0.07479552
2	0xbeaa9498	-0.33316493
3	0xbf1dc80d	-0.6163338
4	0xbf0d8b77	-0.5529093
5	0xbf2d967c	-0.67807746
6	0xbe44b9f9	-0.19211568
7	0xbeb73b2a	-0.35787326
8	0xbea836a3	-0.32854185
9	0xbea9ff2a	-0.33202487
10	0x3e616c8f	0.22014068
11	0x39f1d8c3	0.00046128602
12	0xbe9e52d5	-0.3092257
13	0xbd459c7b	-0.048244935
14	0xbe403e24	-0.18773705
15	0x3edd518d	0.4322628
16	0x3de67d4a	0.11254366
17	0xbf039683	-0.5140154
18	0xbe39fc30	-0.18162608
19	0xbec93ea6	-0.3930561
20	0x3e597017	0.21234165
21	0xbc5b0ead	-0.013370198
22	0xbee9118e	-0.45521206
23	0xbe9d4807	-0.30719015
24	0x3e641c1a	0.22276345
25	0x3e695743	0.22787194
26	0x3b27f96f	0.0025630852
27	0x3d0f05b4	0.03491755
28	0xbe03a3dd	-0.12855478
29	0x3d7e9ed2	0.06216318
30	0x3ea05dea	0.3132165
31	0xbe8d9fc2	-0.27660948
32	0xbeb571ee	-0.35438484
33	0xbf41d948	-0.7572217
34	0xbf0d26ff	-0.5513763
35	0xbe4f7957	-0.20261131
36	0xbe428695	-0.18996651
37	0xbd0bec27	-0.03416076
38	0x3d982a73	0.074299715
39	0x3c3c360b	0.011487494
40	0x3e234f02	0.15948108
41	0x3cd40772	0.025882456
42	0xbddef659	-0.10886831
43	0xbe274e5d	-0.16338487
44	0xbe8c5c46	-0.2741415
45	0x3da6732a	0.081274346
46	0xbdcba4fb	-0.09943577
47	0xbeb3b66e	-0.3510012
48	0xbf2afbd5	-0.66790515
49	0xbe83e184	-0.25757992
50	0x3ea555bc	0.32291973
51	0x3db0445b	0.08606788
52	0xbe6883e7	-0.22706567
53	0x3e530314	0.20606643
54	0xbd4fb993	-0.050714087
55	0xbd706549	-0.058690343
56	0x3bf8d2b2	0.007593476
57	0x3eafd765	0.3434402
58	0xbd1bec5a	-0.0380672
59	0xbe945a85	-0.2897531
60	0xbe3c61a0	-0.18396616
61	0xbd4ae47d	-0.04953431
62	0x3ea52582	0.3225518
63	0xbf112ad8	-0.56706
64	0xbf38556e	-0.72005355
65	0xbf5c8098	-0.8613372
66	0xbf78ff31	-0.9726439
67	0xbf749547	-0.9554028
68	0xbf96cb20	-1.1780739
69	0x3e184ef2	0.14873865
70	0x3d85b5de	0.06528829
71	0xbd0b55a5	-0.034017224
72	0xbe07711b	-0.1322674
73	0xbd962f6b	-0.07333263
74	0x3d991dbb	0.07476374
75	0xbe263637	-0.16231619
76	0x3e812f19	0.25231245
77	0xbcbce52c	-0.023058496
78	0xbf3ae50b	-0.7300574
79	0xbed3eb6b	-0.41390547
80	0xbf30908a	-0.6897055
81	0xbf4071f1	-0.7517386
82	0xbf2c4304	-0.6728976
83	0xbeb92d10	-0.36167192
84	0xbe81b362	-0.2533217
85	0x3da12450	0.07868254
86	0x3da75981	0.081713684
87	0xbe36b655	-0.17842992
88	0xbe3dd550	-0.18538404
89	0xbdb08ae2	-0.0862024
90	0xbe111be4	-0.14170796
91	0x3e299773	0.1656168
92	0xbe0d7fb5	-0.13818248
93	0xbf4b9101	-0.79518133
94	0xbf68b814	-0.9090588
95	0xbf180d43	-0.59395236
96	0xbf3abe8e	-0.72947013
97	0xbf33a85b	-0.70178765
98	0xbf6e26ef	-0.9302816
99	0x3e46b340	0.19404316
100	0x3d80f13a	0.0629601
101	0xbde7d220	-0.11319375
102	0xbe197105	-0.1498452
103	0xbd90b6b7	-0.070661
104	0xbe9745a8	-0.2954533
105	0x3e2aa7ed	0.16665621
106	0x3f02b37c	0.5105512
107	0x3eb9d163	0.36292562
108	0x3f14e934	0.5816834
109	0x3d948934	0.07252732
110	0xbf1600d3	-0.5859501
111	0xbeca4161	-0.39503005
112	0x3eeeedd9	0.46665838
113	0xbe35b0ef	-0.17743276
114	0x3e190ed4	0.14947063
115	0x3e515aef	0.20444845
116	0xbe8cfbcb	-0.27535853
117	0x3e1e8ebe	0.1548414
118	0xbeab5db8	-0.3346994
119	0xbe2f0574	-0.17091924
120	0x3a2268fe	0.00061954546
121	0x3e9b6d46	0.30356807
122	0x3d997cab	0.07494482
123	0xbf2eb708	-0.68248034
124	0xbe70f9c1	-0.23532774
125	0x3e9f6fa7	0.3113987
126	0x3e58765e	0.21138903
127	0xbf13d0f0	-0.5774069
128	0xbf0b6772	-0.5445472
129	0xbe0e889b	-0.13919298
130	0xbe8ffa44	-0.28120625
131	0x3cbd79f5	0.023129443
132	0x3eef8aec	0.46785676
133	0x3d2ebf48	0.04266289
134	0xbd1769d9	-0.03696618
135	0x3dbb68ab	0.09150823
136	0x3e22c37f	0.15894888
137	0xbea41395	-0.3204619
138	0xbf14c95d	-0.58119756
139	0xbf31690d	-0.6930092
140	0xbee25a7d	-0.44209662
141	0xbed32c68	-0.41244817
142	0xbf4860bf	-0.7827262
143	0xbf8bdc9a	-1.0926697
144	0x3ce6c7b4	0.028171398
145	0xbcc0729d	-0.023492152
146	0x3e034ab7	0.1282147
147	0xbde4682a	-0.1115268
148	0xbd6de329	-0.058077965
149	0x3d4a9356	0.049456917
150	0x3e3d1da0	0.18468332
151	0x3e94d98c	0.29072225
152	0x3ef20b51	0.4727426
153	0x3ebcfcd6	0.3691165
154	0x3e00bef5	0.12572844
155	0x3e278662	0.16359857
156	0xbe170236	-0.14746937
157	0x3ec9c720	0.39409733
158	0x3f039ab0	0.5140791
159	0x3e17a388	0.14808476
160	0x3d7ab533	0.06120796
161	0xbf5e157c	-0.8675153
162	0xbdd4cec4	-0.10391
163	0xbd945d97	-0.07244413
164	0xbe031d4e	-0.12804148
165	0xbd94883a	-0.07252546
166	0x3e5ae432	0.21376112
167	0xbea84712	-0.32866722
168	0xbf1784b9	-0.59186894
169	0xbf262bd2	-0.64910614
170	0x3cb757dd	0.022380764
171	0xbc99cd6c	-0.01877471
172	0xbeb79286	-0.35853976
173	0xbda55b63	-0.08074071
174	0x3b35aa2b	0.0027719836
175	0x3c24f90f	0.010069146
176	0x3e1a3d82	0.15062526
177	0x3d83a5df	0.06428122
178	0xbe558392	-0.20850971
179	0x3e1ed926	0.15512523
180	0x3d8fcfc1	0.07022048
181	0x3e81a07c	0.25317752
182	0xbd21d771	-0.0395121
183	0xbeb62775	-0.35576978
184	0xbd6616c4	-0.056174055
185	0x3dbf2dad	0.09334884
186	0xbe208e57	-0.15679298
187	0xbef0bef2	-0.4702068
188	0x3cab5d2a	0.020918448
189	0x3e52d2aa	0.20588174
190	0x3d81324f	0.06308424
191	0xbd885d5e	-0.066584334
192	0xbd77ab7f	-0.060466286
193	0xbee3b412	-0.4447332
194	0xbe9d7946	-0.30756587
195	0xbb89dd33	-0.004207277
196	0xbd19ca84	-0.03754665
197	0xbdcfc395	-0.10144726
198	0xbec7d9da	-0.39033395
199	0xbceff70c	-0.029292606
200	0x3e607412	0.21919277
201	0x3e9b30a8	0.3031056
202	0xbdfa4cdf	-0.12221693
203	0xbdcfec22	-0.10152461
204	0xbe713156	-0.23553976
205	0xbea22df1	-0.31675676
206	0x3c478534	0.012177754
207	0x3ed09e7a	0.40745908
208	0x3d779343	0.060443174
209	0xbd82df55	-0.063902535
210	0xbe6c13dd	-0.23054452
211	0x3eb157e1	0.3463736
212	0xbde894a9	-0.1135648
213	0xbe3cd4cf	-0.18440555
214	0xbf3fd5e0	-0.7493572
215	0xbf413c8c	-0.7548301
216	0xbec09ded	-0.37620488
217	0xbf5f5e26	-0.87253034
218	0xbe99f32b	-0.30068335
219	0xbe27c26c	-0.1638276
220	0x3e68fb03	0.22752003
221	0x3d150dea	0.036390223
222	0xbe90fd10	-0.2831807
223	0xbd5dfb9e	-0.05419504
224	0x3d31212c	0.043244526
225	0xbe950ce2	-0.2911139
226	0xbf590622	-0.8477498
227	0xbe701e26	-0.23449
228	0xbe4e1738	-0.20126045
229	0xbead6c75	-0.3387181
230	0xbf9bfab8	-1.2185888
231	0xbf8c9c2f	-1.0985163
232	0xbf7d33d7	-0.98907226
233	0xbc14ebd7	-0.009089432
234	0x3eb516cf	0.35368964
235	0xbdcbb8a4	-0.09947327
236	0x3e12dddf	0.1434245
237	0x3cc18a02	0.023625378
238	0xbe7c454a	-0.24635807
239	0x3dae0f28	0.084989846
240	0x3d1bc621	0.038030747
241	0xbece247f	-0.4026222
242	0xbeaf7df6	-0.34275788
243	0xbf2a4923	-0.6651785
244	0xbf0c8acd	-0.54899293
245	0xbf330d4c	-0.69942164
246	0xbe9a7fc6	-0.30175608
247	0xbe95decc	-0.29271543
248	0xbd9f323c	-0.07773253
249	0xbc6e3005	-0.014537816
250	0x3e5b2384	0.21400267
251	0x3df98265	0.12183074
252	0xbe87f0a9	-0.26550797
253	0xbe14dcb8	-0.14537323
254	0xbd89b1b2	-0.06723346
255	0xbec00a9e	-0.375081

linear1.bias f4 [256]
0	0x3e9c166c	0.30485857
1	0x3f06d6f4	0.5267174
2	0x3f255a3e	0.64590824
3	0x3f35bdec	0.7099292
4	0x3f02af99	0.5104919
5	0x3f0a0642	0.539158
6	0x3ebbf854	0.36712897
7	0xbe05a369	-0.13050617
8	0x3e67fe75	0.22655661
9	0x3ed93605	0.42424026
10	0x3db8374e	0.089949235
11	0x3ec9f13a	0.39441854
12	0x3f3260de	0.6967906
13	0x3e5a252c	0.21303242
14	0x3e935945	0.28779045
15	0x3f3c071a	0.73448336
16	0x3efc2e21	0.49253944
17	0x3ebacd5a	0.36484796
18	0x3f34238e	0.7036675
19	0x3ea350b9	0.31897524
20	0xbe62ec47	-0.22160445
21	0xbd37125d	-0.044695247
22	0x3ee720f3	0.45142326
23	0x3f0f4a1b	0.5597245
24	0x3efe4e99	0.4966934
25	0xbe8988dc	-0.26862228
26	0x3f0a6384	0.540581
27	0x3f02c9e5	0.51089317
28	0x3f3ac854	0.72961926
29	0xbecc31a7	-0.39881632
30	0x3db6b364	0.08920935
31	0x3e00e3b5	0.12586863
32	0xbefbd386	-0.49184817
33	0x3f297fff	0.6621093
34	0xbe850f97	-0.25988457
35	0x3f194aae	0.5987958
36	0x3f0fce3e	0.56174076
37	0x3ec2fe24	0.3808452
38	0x3ead7903	0.33881387
39	0xbd9c9c50	-0.07647002
40	0x3e0838bd	0.13302894
41	0x3ef28213	0.47364864
42	0x3da64900	0.081193924
43	0x3f0cab41	0.5494881
44	0x3de510dd	0.11184857
45	0x3eec727f	0.46181104
46	0x3f267c4e	0.65033424
47	0xbe18e8e9	-0.14932598
48	0x3e6f98f0	0.23398185
49	0x3cdc98f3	0.0269284
50	0x3f26d880	0.651741
51	0x3f0cdd61	0.550253
52	0x3e7d7511	0.24751689
53	0x3f0b90ef	0.54518026
54	0x3e766198	0.24060667
55	0x3f2ec72d	0.6827267
56	0x3ec58bc7	0.38583204
57	0xbe5bca05	-0.21463783
58	0x3ea2f0b8	0.3182428
59	0xbe9a6369	-0.3015397
60	0x3ed13c57	0.40866348
61	0xbed783ed	-0.4209284
62	0x3ec51706	0.38494128
63	0xbbb7d6f0	-0.0056103393
64	0xbed8bcee	-0.42331642
65	0x3f2f148c	0.6839073
66	0x3ee7d3ad	0.45278683
67	0x3f0dc1ce	0.5537385
68	0xbe89cdc1	-0.2691479
69	0xbe64325c	-0.22284836
70	0x3f135906	0.57557714
71	0x3f039a3b	0.5140721
72	0xbe55d619	-0.20882453
73	0x3f15a280	0.5845108
74	0x3e7f1c70	0.24913192
75	0x3ee00781	0.43755725
76	0x3f1ae4c9	0.6050535
77	0x3f09267b	0.5357434
78	0xbf1c6cab	-0.61103314
79	0x3eb60984	0.35554135
80	0xbeba68b8	-0.3640802
81	0x3f15128b	0.5823142
82	0xbec766d5	-0.38945642
83	0xbe204f8b	-0.15655343
84	0x3f30fb36	0.6913332
85	0xbea3317c	-0.3187369
86	0xbe281089	-0.16412558
87	0x3ea8c75b	0.32964596
88	0xbe6d5705	-0.23177727
89	0xbefd4533	-0.49466857
90	0x3f0a81a5	0.5410407
91	0x3e94e058	0.2907741
92	0x3ea453e8	0.32095265
93	0x3e8b1660	0.27165508
94	0xbeb437bd	-0.35198775
95	0x3e0a0e00	0.13481903
96	0x3ef6d97a	0.48212796
97	0x3f2d5df1	0.6772147
98	0x3e9f5e35	0.31126562
99	0x3e85f39b	0.2616242
100	0x3f206cbc	0.62665915
101	0x3f028abd	0.5099295
102	0x3ed14385	0.40871826
103	0x3f161e90	0.58640385
104	0x3f2a9bd3	0.6664402
105	0x3f1804f2	0.59382546
106	0x3f1961e0	0.5991497
107	0x3f1ae69e	0.60508144
108	0x3f3a553b	0.727863
109	0x3e7ece89	0.24883474
110	0x3f18d75e	0.59703624
111	0x3ee8eb5a	0.4549206
112	0x3f159f6c	0.58446383
113	0x3f1a6925	0.6031669
114	0xbe503219	-0.2033161
115	0xbf12339a	-0.5710999
116	0x3f2a679b	0.6656434
117	0x3e0267b7	0.12734877
118	0xbe9d47a7	-0.3071873
119	0x3d4881b6	0.048951827
120	0x3f309e2c	0.6899135
121	0x3f04b264	0.518347
122	0x3f1953bd	0.598934
123	0x3f0b18da	0.54334795
124	0xbf184cf5	-0.5949243
125	0x3f3a2d0e	0.72725
126	0x3ed9a900	0.4251175
127	0x3da99ca6	0.082818314
128	0xbe7bcfa0	-0.24590921
129	0x3ec1e810	0.37872362
130	0x3ee77566	0.45206755
131	0x3e808a63	0.2510558
132	0xbd2d3f7f	-0.042296883
133	0x3efc6d2d	0.49302045
134	0xbe30754d	-0.17232247
135	0x3ea8b528	0.3295071
136	0xbe78469b	-0.24245684
137	0x3f309700	0.6898041
138	0x3ebcec28	0.36898923
139	0x3e988562	0.29789263
140	0x3eafa924	0.34308732
141	0xbc92e7ad	-0.017932737
142	0x3e3569f5	0.177162
143	0x3e0b909e	0.13629386
144	0x3e99f38a	0.30068618
145	0x3e9cbee4	0.30614388
146	0x3f225e10	0.6342478
147	0x3eb76c93	0.35825023
148	0x3f0660e4	0.52491593
149	0x3e8f9127	0.2804043
150	0x3ec18e2a	0.37803775
151	0x3e5c39c2	0.21506408
152	0x3eb7b579	0.3588064
153	0x3f0cc491	0.54987437
154	0x3f274ab3	0.65348357
155	0x3f15c091	0.5849696
156	0x3e60ae95	0.21941598
157	0x3e20c3bc	0.15699667
158	0xbdea9b6f	-0.11455428
159	0x3e6f5c3c	0.23375028
160	0x3ec54f10	0.38536882
161	0x3e5c8fc0	0.21539211
162	0xbf185d00	-0.59516907
163	0x3ed50661	0.4160643
164	0x3f25840b	0.64654607
165	0x3edf477e	0.43609232
166	0x3f2af6db	0.6678292
167	0x3e39b605	0.18135841
168	0x3f1b96e7	0.60777134
169	0x3b627a1c	0.0034557646
170	0x3f213857	0.6297659
171	0x3f09bdde	0.5380534
172	0x3e4fcc2f	0.20292734
173	0xbdac2012	-0.084045544
174	0x3ec959ab	0.39326224
175	0x3dedad05	0.116052665
176	0x3f411a57	0.75430816
177	0x3ecdaf98	0.4017303
178	0x3f15eae3	0.58561534
179	0x3f1b5782	0.606804
180	0x3e6068ad	0.2191493
181	0x3ed154b6	0.40884942
182	0x3f284a6a	0.65738547
183	0xbe84ba89	-0.25923565
184	0x3e62fdbb	0.22167103
185	0x3ef2ca69	0.47420052
186	0x3f16fd6d	0.5898045
187	0xbe2343fa	-0.159439
188	0x3ec17723	0.37786207
189	0x3eb80619	0.35942152
190	0x3f16df52	0.5893451
191	0x3f199fe9	0.6000963
192	0xbe42730f	-0.18989204
193	0x3e9f3771	0.31096986
194	0x3ddab2e0	0.10678649
195	0x3f27f56a	0.6560885
196	0xbe45b278	-0.19306362
197	0x3f1f5589	0.6223989
198	0x3e9bc919	0.30426863
199	0xbe7580ff	-0.2397499
200	0x3ed1211e	0.4084558
201	0x3f07d1ec	0.5305469
202	0xbe758378	-0.23975933
203	0x3eba356c	0.36368883
204	0x3e5a461d	0.21315809
205	0xbe127326	-0.14301738
206	0x3f127980	0.57216644
207	0x3e5ff82a	0.21872011
208	0x3eaf68ac	0.34259546
209	0x3f27ecc4	0.6559565
210	0x3e0a29f9	0.13492574
211	0x3f26007c	0.6484449
212	0x3e8670ac	0.26257837
213	0x3f28469b	0.65732735
214	0x3f314ac6	0.6925472
215	0x3ed7a2cb	0.4211639
216	0x3f127569	0.57210404
217	0xbe2a92c8	-0.16657555
218	0x3f11215b	0.5669152
219	0x3ed13220	0.40858555
220	0x3e726cdc	0.23674339
221	0x3eb8cd65	0.36094204
222	0x3f15a34e	0.5845231
223	0xbea0a863	-0.3137847
224	0x3e9a96f9	0.30193308
225	0x3ecb6ba6	0.39730567
226	0x3f055c3d	0.5209387
227	0xbe30c1d9	-0.17261447
228	0x3e79ccdb	0.24394552
229	0x3f168630	0.58798504
230	0x3ecd7af9	0.40132883
231	0x3f077f47	0.52928585
232	0x3eaf51ab	0.34241995
233	0x3f14b1da	0.5808388
234	0xbe8ffe3a	-0.28123647
235	0x3e840332	0.25783688
236	0x3eb6f8be	0.3573665
237	0xbe06d0fe	-0.13165662
238	0x3ee17092	0.44031197
239	0x3f1bb031	0.6081572
240	0x3eb96aea	0.3621438
241	0x3e27c7ec	0.16384858
242	0x3f32af40	0.6979866
243	0x3f1a6886	0.6031574
244	0xbe8516f4	-0.25994074
245	0x3ebe76fb	0.3720015
246	0x3eb00d23	0.34385023
247	0xbd9bfc3d	-0.0761647
248	0x3edc6907	0.4304888
249	0xbee0fe25	-0.43943897
250	0x3f355fa8	0.70849085
251	0x3f002342	0.500538
252	0x3e6d876e	0.23196194
253	0x3f0580b3	0.52149504
254	0x3eb23af6	0.3481061
255	0x3e90206b	0.28149733

linear2.weight f4 [256, 256]
0	0x3e4ac2f1	0.19800927
1	0x3eb3a0b7	0.35083553
2	0x3eb928be	0.36163896
3	0x3ea58502	0.3232804
4	0x3f11763e	0.5682105
5	0x3e51bb6e	0.20481655
6	0x3e89cd7e	0.2691459
7	0xbf26a3e6	-0.6509384
8	0x3e92eda3	0.28696927
9	0x3ed4aac5	0.41536537
10	0xbf3383af	-0.7012281
11	0x3e795092	0.24347141
12	0x3e377149	0.17914309
13	0x3ed97770	0.42473936
14	0x3e820e81	0.2540169
15	0x3f5076a1	0.81431013
16	0x3def682a	0.116897896
17	0x3f094a44	0.53628945
18	0x3e94e416	0.29080266
19	0x3e81a41c	0.25320518
20	0xbf7279e1	-0.9471722
21	0xbf0b691f	-0.5445728
22	0x3ebba121	0.3664637
23	0x3ef6697f	0.48127362
24	0x3e0e3157	0.13886009
25	0xbf2440e1	-0.641615
26	0x3eaa30e2	0.3324042
27	0x3eb5195a	0.35370904
28	0x3e43f96c	0.19138116
29	0xbf6ef48c	-0.933419
30	0x3e8e0272	0.2773624
31	0x3e90e143	0.2829686
32	0xbf1a5f66	-0.60301816
33	0x3efbc305	0.49172226
34	0xbf10fa33	-0.56631774
35	0x3e8a77ba	0.2704447
36	0x3e8e9500	0.27848053
37	0x3eaf0b46	0.34188288
38	0x3e344a52	0.17606476
39	0xbf16ad00	-0.5885773
40	0x3e998ad6	0.29988736
41	0x3e9bcc87	0.3042948
42	0xbee1f582	-0.4413262
43	0x3f00d5d0	0.5032625
44	0x3dc382df	0.09546446
45	0x3f1af61c	0.60531783
46	0x3e2f2de0	0.17107344
47	0xbf0082af	-0.5019941
48	0x3eac201d	0.3361825
49	0x3e0ee2e8	0.13953745
50	0x3e2cce9e	0.16875693
51	0x3ed56d1e	0.41684812
52	0x3dcc62d7	0.0997979
53	0x3ee0e5ac	0.43925226
54	0x3eaf2e5a	0.3421505
55	0x3e9f694e	0.3113503
56	0x3ee17494	0.44034255
57	0xbfae6f89	-1.3627788
58	0x3e9e6020	0.30932713
59	0xbf8e10fd	-1.1098934
60	0x3e93c38d	0.2886013
61	0xbf79c403	-0.97564715
62	0x3f4e9a54	0.80704236
63	0xbec18ae3	-0.37801275
64	0xbf29bf2e	-0.6630734
65	0x3ea12398	0.31472468
66	0x3ea0b44b	0.31387553
67	0x3ec58e76	0.38585252
68	0xbee0b2e6	-0.4388649
69	0xbe7e0df7	-0.24810015
70	0x3e3f769a	0.18697587
71	0x3ef70041	0.4824238
72	0xbf390c80	-0.722847
73	0x3edcfebe	0.43163103
74	0x3e0d335c	0.13789123
75	0x3e862041	0.26196483
76	0x3eb1a5fb	0.34696946
77	0x3e9096e2	0.28240114
78	0xbf4a1d09	-0.78950554
79	0x3e5b0470	0.21388412
80	0xbf6637bc	-0.89928794
81	0x3f02445b	0.5088555
82	0xbef52d44	-0.47886097
83	0xbf5f3270	-0.87186337
84	0x3e6b8985	0.23001678
85	0xbf565f66	-0.83739316
86	0xbec0fee8	-0.37694478
87	0x3e6aa093	0.22912817
88	0xbee85310	-0.45375872
89	0xbf36e0a2	-0.7143651
90	0x3e8b4e14	0.27208006
91	0x3e9ee151	0.31031278
92	0x3ea2773a	0.31731588
93	0x3eaeab4e	0.3411507
94	0xbec513ba	-0.38491613
95	0x3e9ac799	0.30230406
96	0x3e50e75c	0.20400757
97	0x3eb97427	0.3622143
98	0x3ec7b647	0.39006254
99	0x3eb49254	0.3526789
100	0x3e97f4af	0.29678866
101	0x3e8ae00a	0.27124053
102	0x3ed74d5a	0.42051202
103	0x3ef86c0d	0.48519936
104	0x3e9bb353	0.3041025
105	0x3eb8d235	0.36097875
106	0x3e5904e4	0.21193272
107	0x3e9d39f4	0.30708277
108	0x3e102d9b	0.14079897
109	0x3e85279c	0.26006782
110	0x3ea63b28	0.32467008
111	0x3e7fcdaa	0.24980798
112	0x3ed0e043	0.40796098
113	0x3e87da19	0.26533583
114	0xbf512989	-0.81704
115	0xbf894fdc	-1.0727496
116	0x3e96db7f	0.29464337
117	0x3dd73547	0.10508209
118	0xbf547055	-0.82983905
119	0xbf1dfb1d	-0.61711293
120	0x3f235b68	0.6381135
121	0x3e820113	0.25391445
122	0x3e6b7729	0.22994675
123	0x3ec6f620	0.38859653
124	0xbf6a9fd4	-0.9165013
125	0x3ec67fab	0.38769278
126	0x3e4000c6	0.18750295
127	0xbf0e2222	-0.5552083
128	0xbf208f1c	-0.6271837
129	0x3e919d51	0.28440335
130	0x3f00b95c	0.50282836
131	0x3e532706	0.20620355
132	0xbeb2bd31	-0.34909967
133	0x3e5aa4f0	0.21351981
134	0xbf5e7d85	-0.8691028
135	0x3f3a644c	0.7280929
136	0xbf48e9a2	-0.78481495
137	0x3e0a46b6	0.13503537
138	0x3ed577c1	0.41692927
139	0x3f04380b	0.51648015
140	0x3ec554fd	0.38541403
141	0xbf5052b3	-0.8137619
142	0x3e861bd8	0.26193118
143	0x3f157516	0.58381784
144	0x3eb3c81c	0.3511361
145	0x3e77a0a7	0.24182378
146	0x3e863f39	0.2622011
147	0x3ea2f547	0.31827757
148	0x3eb869a9	0.36018112
149	0x3eab55e8	0.3346398
150	0x3e64e315	0.2235225
151	0x3e811738	0.25213027
152	0x3e0d8f66	0.13824233
153	0x3f6b8876	0.920051
154	0x3e051d3e	0.12999436
155	0x3ecf0f8c	0.4044155
156	0x3ed06983	0.407055
157	0x3eb907b6	0.36138695
158	0xbf20b5f5	-0.62777644
159	0x3e5c2fb2	0.2150257
160	0x3e8e8974	0.27839243
161	0x3e53bd08	0.20677578
162	0xbf7db6e0	-0.9910717
163	0x3ecd6123	0.40113172
164	0x3e21e81f	0.15811203
165	0x3e99da36	0.30049294
166	0x3e5ecb25	0.21757181
167	0x3e6caef9	0.23113622
168	0x3e9a5d88	0.30149484
169	0xbee64b4b	-0.4497932
170	0x3ec27e9d	0.37987223
171	0x3e35668b	0.17714898
172	0x3ecdace9	0.40170982
173	0xbed883e1	-0.42288116
174	0x3f31267e	0.6919936
175	0x3d5a3eaa	0.053282417
176	0x3e894d68	0.2681687
177	0x3ee78725	0.45220295
178	0x3ed1edc7	0.41001722
179	0x3ec2e6b9	0.38066652
180	0x3e98b5eb	0.29826292
181	0x3e9dd36a	0.3082536
182	0x3ed8fcd6	0.423804
183	0xbedd304a	-0.43200904
184	0x3e7fc9d4	0.24979335
185	0x3ef9dcc6	0.4880125
186	0x3e720afa	0.23637
187	0xbf43cc6b	-0.7648379
188	0x3f41ee83	0.75754565
189	0x3e6623a5	0.22474535
190	0x3e984153	0.29737338
191	0x3edd42cf	0.43215033
192	0xbf0152ce	-0.50516975
193	0x3dc9d115	0.09854332
194	0xbf39d923	-0.7259695
195	0x3e75167c	0.23934358
196	0xbf06d245	-0.52664596
197	0x3e8a75fe	0.27043146
198	0x3d7b2273	0.06131215
199	0xbf54565b	-0.8294427
200	0x3e8c1f7a	0.27367765
201	0x3ea0e01b	0.3142098
202	0xbf3023ba	-0.68804514
203	0x3f52ac8d	0.8229454
204	0x3e6a8a07	0.22904216
205	0xbf1d0cb0	-0.61347485
206	0x3eaaad74	0.3333546
207	0x3eda972d	0.42693463
208	0x3e8930b3	0.26794967
209	0x3eaba7a0	0.33526325
210	0x3ece5a50	0.40303278
211	0x3e644b42	0.22294334
212	0x3eda0686	0.42583102
213	0x3e966845	0.29376426
214	0x3eaa6462	0.3327971
215	0x3e332a93	0.1749671
216	0x3e9fca0a	0.3120883
217	0xbf70c87e	-0.94055927
218	0x3eb47fc4	0.35253727
219	0x3c8d5292	0.017251287
220	0x3e85a811	0.26104787
221	0x3e904af8	0.28182197
222	0x3e7b2a03	0.24527745
223	0xbf8d0c5c	-1.1019397
224	0x3e7dd71a	0.24789086
225	0x3ef608b5	0.48053518
226	0x3e45faa7	0.19333898
227	0xbf067927	-0.52528614
228	0x3ef90174	0.4863392
229	0x3f366253	0.7124378
230	0x3f72a0c3	0.9477655
231	0x3e680982	0.22659877
232	0x3e047f4d	0.12939186
233	0x3e31f883	0.17379956
234	0xbf0f0057	-0.55859894
235	0x3e1d1c22	0.15342763
236	0x3e533f98	0.20629728
237	0xbf13bb99	-0.57708126
238	0x3f1c07ea	0.60949576
239	0x3ec8ea88	0.39241433
240	0x3dc3b70e	0.09556399
241	0x3e3952bb	0.18097965
242	0x3ea43377	0.32070515
243	0x3ea97ae9	0.33101586
244	0xbf901f95	-1.1259638
245	0x3e99cd5b	0.30039486
246	0x3d3880ec	0.045044824
247	0xbf150567	-0.5821137
248	0x3e99e954	0.30060828
249	0xbf39c956	-0.7257284
250	0x3eb477d5	0.35247675
251	0x3e917140	0.28406715
252	0x3f046d69	0.51729447
253	0x3f0acd25	0.54219276
254	0x3e69bfb0	0.22827029
255	0x3e834702	0.25640112

linear2.bias f4 [256]
0	0x3ed8e70a	0.4236377
1	0x3eb22bf6	0.34799165
2	0x3f102dcf	0.563199
3	0x3ed3299f	0.41242692
4	0x3ed962ae	0.424581
5	0x3ea52d7f	0.32261273
6	0x3ec5f8bc	0.38666332
7	0x3ec2f143	0.38074693
8	0x3ead93b9	0.33901766
9	0x3ebd8ee4	0.3702308
10	0x3eaa7c73	0.33298072
11	0x3ef601a5	0.4804813
12	0x3ea99592	0.33121926
13	0x3ec38e07	0.38194296
14	0x3ea9cd49	0.33164433
15	0xbe886e89	-0.26646832
16	0x3eb33926	0.35004538
17	0xbe547b5d	-0.20750184
18	0x3ed757be	0.4205913
19	0x3ea6994b	0.32538828
20	0x3eafc01d	0.34326258
21	0x3ea486fa	0.3213423
22	0x3ea99c10	0.3312688
23	0x3ed33f80	0.41259384
24	0x3eaf4c71	0.34238008
25	0x3e9e8ea1	0.30968192
26	0x3f03fd6d	0.5155857
27	0x3eb0139b	0.34389958
28	0x3eeca921	0.46222785
29	0x3ed514f0	0.41617537
30	0x3ed29398	0.4112823
31	0x3ed91162	0.42396075
32	0x3eaf6dcc	0.34263456
33	0x3eededc9	0.46470478
34	0x3ec544f3	0.38529167
35	0x3ed9d8b3	0.4254814
36	0x3ed3acc6	0.41342753
37	0x3ed3a264	0.41334832
38	0x3ef6de4b	0.4821647
39	0x3eddc4b6	0.4331414
40	0x3ec4a615	0.3840796
41	0xbe7b53c4	-0.24543673
42	0x3ebaa409	0.36453274
43	0x3eb700fa	0.35742933
44	0x3ef7c575	0.48392835
45	0x3ee2dfdf	0.44311425
46	0x3ed22eaf	0.41051242
47	0x3ec5868d	0.38579217
48	0x3eb96b71	0.36214784
49	0x3ebd84b2	0.370153
50	0xbe77e741	-0.2420931
51	0x3ebcdf1b	0.36888966
52	0x3f250e1f	0.6447467
53	0x3ec9242e	0.39285415
54	0x3ef9ab10	0.48763323
55	0x3f023885	0.5086749
56	0xbe809301	-0.25112155
57	0x3ec8b869	0.39203194
58	0x3ee71a60	0.4513731
59	0x3ed3ed4b	0.41391978
60	0x3ed7afe5	0.42126384
61	0x3eb84769	0.35991982
62	0x3d047de9	0.03234664
63	0x3ece3306	0.40273303
64	0x3ed0bdd9	0.40769842
65	0x3ef83958	0.4848125
66	0x3ebd6cba	0.36997014
67	0x3ec0a04f	0.37622306
68	0x3efd2b93	0.49447307
69	0x3ee15f82	0.4401818
70	0x3f04c126	0.5185722
71	0x3f11705f	0.5681209
72	0x3ec93bfd	0.3930358
73	0x3ec48611	0.38383535
74	0x3ea7db3a	0.32784444
75	0x3eb86689	0.36015728
76	0xbc5bbbfe	-0.01341152
77	0x3ee14277	0.4399602
78	0x3ebac784	0.36480343
79	0x3eb1dce2	0.34738833
80	0x3ec6582f	0.38739154
81	0x3ecc1005	0.39855972
82	0x3f0d791b	0.5526292
83	0x3ecace70	0.39610624
84	0xbc470fa6	-0.012149727
85	0x3ecace93	0.3961073
86	0x3eaa2c22	0.33236796
87	0x3ed50147	0.41602537
88	0x3ef3a902	0.4758988
89	0x3ec09226	0.37611502
90	0x3ed2189f	0.4103441
91	0x3ef56721	0.47930244
92	0x3ec41b8e	0.38302273
93	0x3ed57a82	0.4169503
94	0x3eb9a6dc	0.36260116
95	0x3ec03d8a	0.3754695
96	0x3ecd1bfe	0.4006042
97	0x3ef77a66	0.4833557
98	0x3e9cc305	0.30617538
99	0x3ead6e98	0.3387344
100	0x3ed7365a	0.42033654
101	0x3ec96fd5	0.39343134
102	0x3eaee95a	0.34162408
103	0x3ef4bb10	0.47798967
104	0x3ea89ebd	0.32933608
105	0x3ea52350	0.32253504
106	0x3ed30258	0.41212726
107	0x3eb6786c	0.3563875
108	0x3e9f31ca	0.31092674
109	0x3ec9a387	0.39382574
110	0x3eba3ea3	0.36375913
111	0x3ec0ec85	0.3768045
112	0x3ed0cd74	0.40781748
113	0x3ed47c90	0.41501284
114	0x3ec4b2f1	0.3841777
115	0x3eb871b6	0.36024255
116	0x3ed141de	0.40870565
117	0xbe1c6930	-0.15274501
118	0x3f1fec09	0.62469536
119	0x3ecd5f68	0.40111852
120	0x3ec7b604	0.39006054
121	0x3eb121ff	0.3459625
122	0x3eff01d0	0.4980607
123	0x3ea63afa	0.3246687
124	0x3ece23a0	0.40261555
125	0x3ebd2d81	0.3694878
126	0x3ec2365a	0.37932092
127	0x3ec595f3	0.38590965
128	0xbe8cfc4b	-0.27536234
129	0x3ed2567e	0.41081613
130	0x3ec12127	0.37720606
131	0x3ea40987	0.3203852
132	0x3eb4f324	0.35341752
133	0x3ef1f6eb	0.47258696
134	0x3e9cf3ce	0.30654758
135	0x3ec79e04	0.38987744
136	0x3ec48f3d	0.38390532
137	0x3ecf8231	0.40529016
138	0x3eb86532	0.36014706
139	0x3e9f8635	0.3115708
140	0x3ee60030	0.44922018
141	0x3f07b4e6	0.53010404
142	0x3ec3c1f3	0.3823391
143	0x3eb715e0	0.35758877
144	0x3ed1f3f2	0.41006428
145	0x3eb4a1ae	0.35279602
146	0x3eb517e3	0.35369787
147	0x3ee8e4b7	0.45486996
148	0x3ed9ce98	0.4254043
149	0x3ebe928b	0.37221178
150	0x3e9f4f8c	0.31115377
151	0x3f11e0eb	0.5698382
152	0x3edd7917	0.43256447
153	0x3ebdad76	0.37046403
154	0x3eef2708	0.46709466
155	0x3ed28e60	0.41124249
156	0x3ea41a12	0.3205114
157	0x3f14bd20	0.5810108
158	0xbe840448	-0.25784516
159	0x3eb5bf04	0.35497296
160	0x3effc340	0.4995365
161	0x3ec94b56	0.3931529
162	0x3eccb8cd	0.39984742
163	0x3ed4b11f	0.41541383
164	0x3ef72094	0.48267043
165	0x3eb01199	0.34388426
166	0x3ee4f294	0.44716322
167	0x3ed9ca74	0.42537272
168	0x3ead002c	0.33789194
169	0x3f0553fd	0.5208128
170	0x3ec29611	0.38005117
171	0x3ebf2fac	0.37341058
172	0x3edcb857	0.4310939
173	0x3ed9bf98	0.42528987
174	0x3ed9c832	0.4253555
175	0x3ebc1608	0.36735559
176	0x3effeaf8	0.49983954
177	0x3ec39168	0.38196874
178	0x3ecf980b	0.40545687
179	0x3ecdd814	0.40203917
180	0x3ecd189e	0.40057844
181	0x3f01146e	0.504218
182	0x3edf123b	0.43568596
183	0x3ec90c95	0.39267412
184	0x3ee1ae18	0.44078135
185	0x3ebc969a	0.3683365
186	0x3ef2d47b	0.47427735
187	0x3f096fda	0.53686297
188	0x3ea56381	0.32302478
189	0x3f0651ba	0.52468455
190	0x3eb3fbd7	0.35153076
191	0x3ea5dc9e	0.3239488
192	0x3ebd8cce	0.37021488
193	0x3ee0dee9	0.43920067
194	0x3eb9650a	0.362099
195	0x3ec0252b	0.37528357
196	0x3ea14d60	0.31504345
197	0x3ea9ebf2	0.33187824
198	0x3eb7d028	0.35900998
199	0x3eaec30b	0.3413318
200	0x3ea94205	0.3305818
201	0x3ec0fe01	0.3769379
202	0x3ebbc057	0.3667018
203	0x3ea35cf6	0.3190686
204	0x3eafe7d5	0.3435656
205	0x3ea4c178	0.32178855
206	0x3ec35d79	0.3815725
207	0x3eb6fe2a	0.35740787
208	0x3ed00c7d	0.40634528
209	0x3ed8134b	0.4220222
210	0x3eb7a7a1	0.35870078
211	0x3eca8e72	0.39561802
212	0x3eb2dd06	0.34934253
213	0x3ea9b195	0.33143297
214	0x3ec36b8d	0.38167992
215	0xbcd2d613	-0.025736844
216	0x3eb02bb2	0.34408337
217	0x3ecbaffb	0.397827
218	0x3ec8f259	0.39247397
219	0x3ea14c4b	0.3150352
220	0x3eb1da90	0.34737062
221	0x3ef32a63	0.47493276
222	0x3edb50ac	0.42834985
223	0x3ec6db56	0.38839215
224	0x3e9be581	0.30448535
225	0x3edde459	0.43338278
226	0xbc16f532	-0.009213733
227	0x3ec33411	0.3812566
228	0x3ec90617	0.3926246
229	0x3eb98450	0.3623376
230	0x3ea4c5be	0.32182115
231	0x3eee6fa4	0.4656955
232	0x3ef3f40b	0.47647128
233	0x3ed8d656	0.42351025
234	0x3ed3841f	0.41311738
235	0xbd1a6853	-0.037697148
236	0x3ea49768	0.32146764
237	0x3ec9c0a3	0.39404783
238	0x3ed44449	0.41458347
239	0x3eb2aab0	0.3489585
240	0x3ed2ef5c	0.41198242
241	0x3ea32bbe	0.3186931
242	0x3ecee10a	0.40406066
243	0x3ecbfd93	0.398419
244	0x3ebc9140	0.36829567
245	0x3ec9da36	0.39424294
246	0x3edc6e79	0.43053034
247	0x3ec06404	0.37576306
248	0x3ebf9e4c	0.37425458
249	0x3ef1914b	0.47181162
250	0x3e9f3bcc	0.3110031
251	0x3ef1e899	0.4724777
252	0x3ee23197	0.4417846
253	0x3ed97a18	0.42475963
254	0x3eba0f7a	0.36339933
255	0x3ee287c9	0.4424422

linear3.weight f4 [1, 256]
0	0xbf5ff5bc	-0.87484336
1	0xbf5cd0b2	-0.86255944
2	0xbf47c3ca	-0.78033125
3	0xbf4f77f6	-0.8104242
4	0xbf7f567a	-0.9974133
5	0xbf73a4d3	-0.95173377
6	0xbf68d387	-0.90947765
7	0xbf7ab66f	-0.9793462
8	0xbf74abee	-0.95574844
9	0xbf67c426	-0.90533674
10	0xbf72a1a0	-0.9477787
11	0xbf4c2cf1	-0.79756075
12	0xbf7df631	-0.99203783
13	0xbf7dbbe5	-0.9911483
14	0xbf6c2167	-0.9223847
15	0x3f756b2a	0.95866644
16	0xbf6bf83a	-0.9217564
17	0x3f767df5	0.96285945
18	0xbf6fc206	-0.9365543
19	0xbf8071e6	-1.0034759
20	0xbf7e1601	-0.99252325
21	0xbf76ccc7	-0.96406215
22	0xbf797878	-0.97449446
23	0xbf518a88	-0.81852007
24	0xbf7b65cb	-0.982022
25	0xbf77760e	-0.9666451
26	0xbf4603c6	-0.7734951
27	0xbf6ff9ac	-0.93740344
28	0xbf84d19b	-1.0376467
29	0xbf824bad	-1.0179344
30	0xbf836fe3	-1.026852
31	0xbf79a0a6	-0.97510755
32	0xbf5e48c5	-0.8682979
33	0xbf52146e	-0.82062423
34	0xbf78f3e8	-0.9724717
35	0xbf6c53ab	-0.9231517
36	0xbf5408b0	-0.82825756
37	0xbf5168b8	-0.81800413
38	0xbf50f910	-0.8163004
39	0xbf5f8e27	-0.8732628
40	0xbf5a470f	-0.85264677
41	0x3f989f38	1.192359
42	0xbf6c8b52	-0.92400086
43	0xbf753942	-0.95790493
44	0xbf55a637	-0.8345675
45	0xbf52e504	-0.823807
46	0xbf72c8e8	-0.9483781
47	0xbf5acf7d	-0.8547285
48	0xbf6a97a5	-0.9163764
49	0xbf6c05b2	-0.9219619
50	0x3f76eea2	0.96457875
51	0xbf65f960	-0.8983364
52	0xbf3bdab4	-0.7338059
53	0xbf75ddb6	-0.9604143
54	0xbf3da719	-0.74083096
55	0xbf4798cd	-0.7796753
56	0x3fa96b76	1.323592
57	0xbf78baa9	-0.9715982
58	0xbf4a2e17	-0.7897658
59	0xbf8048bc	-1.0022197
60	0xbf698ab1	-0.9122725
61	0xbf6e6052	-0.93115723
62	0xbb364af5	-0.0027815674
63	0xbf7a1e90	-0.97702885
64	0xbf57f0e5	-0.8435195
65	0xbf4f5025	-0.80981666
66	0xbf6e2ab3	-0.93033904
67	0xbf7f1965	-0.99648124
68	0xbf8273fa	-1.0191643
69	0xbf47eb79	-0.7809368
70	0xbf3091c7	-0.6897244
71	0xbf3654c6	-0.71223104
72	0xbf7a30da	-0.9773079
73	0xbf75a759	-0.9595848
74	0xbf7324e6	-0.9497818
75	0xbf76669e	-0.9625033
76	0x3b455ca3	0.003011503
77	0xbf5ba091	-0.8579188
78	0xbf607805	-0.87683135
79	0xbf7b6e19	-0.9821487
80	0xbf7979ee	-0.97451675
81	0xbf5d0fa4	-0.8635199
82	0xbf481133	-0.78151244
83	0xbf60fba9	-0.87884
84	0xbb1fc4c2	-0.0024378751
85	0xbf582352	-0.84428895
86	0xbf5daa5b	-0.86588067
87	0xbf55382c	-0.83288836
88	0xbf829636	-1.0202091
89	0xbf79ddab	-0.97603863
90	0xbf77604f	-0.9663133
91	0xbf54942f	-0.8303861
92	0xbf62c007	-0.8857426
93	0xbf5eeb96	-0.87078226
94	0xbf7ec2c1	-0.9951592
95	0xbf4d1f51	-0.8012591
96	0xbf62ba2f	-0.88565344
97	0xbf509d46	-0.8148998
98	0xbf7224cb	-0.9458739
99	0xbf806738	-1.00315
100	0xbf7ca817	-0.98693985
101	0xbf68e7b5	-0.90978557
102	0xbf7f33bc	-0.99688315
103	0xbf4ff1d0	-0.8122835
104	0xbf6b8bd6	-0.9201025
105	0xbf7601f1	-0.9609671
106	0xbf78d98a	-0.9720694
107	0xbf7860b9	-0.9702259
108	0xbf762bba	-0.9616047
109	0xbf6c328c	-0.9226463
110	0xbf596444	-0.8491862
111	0xbf832b5f	-1.0247611
112	0xbf5800d0	-0.8437624
113	0xbf65dd2d	-0.8979061
114	0xbf56ba0e	-0.83877647
115	0xbf6bb09c	-0.9206636
116	0xbf693ead	-0.9111126
117	0x3f75a123	0.95949
118	0xbf39b8e3	-0.7254774
119	0xbf7b2582	-0.9810411
120	0xbf5194cc	-0.8186767
121	0xbf67d5f8	-0.90560865
122	0xbf4d4dbb	-0.8019673
123	0xbf6d88e5	-0.9278701
124	0xbf78a43c	-0.971256
125	0xbf724215	-0.94632083
126	0xbf7e51d3	-0.99343604
127	0xbf751458	-0.9573417
128	0x3f6784d6	0.90437067
129	0xbf6bf7ef	-0.9217519
130	0xbf79b5ae	-0.97542846
131	0xbf6d46ac	-0.9268596
132	0xbf6549d6	-0.8956579
133	0xbf4c217a	-0.7973858
134	0xbf744329	-0.9541498
135	0xbf526349	-0.8218275
136	0xbf8177a2	-1.0114634
137	0xbf7a0519	-0.9766403
138	0xbf69c687	-0.91318554
139	0xbf67f575	-0.9060891
140	0xbf4ba041	-0.79541403
141	0xbf4a24f9	-0.78962666
142	0xbf6a1cc5	-0.9145015
143	0xbf712ea9	-0.9421182
144	0xbf683cf2	-0.90717995
145	0xbf75a279	-0.9595104
146	0xbf79525f	-0.97391313
147	0xbf4a3187	-0.7898182
148	0xbf73f41e	-0.9529437
149	0xbf71bae6	-0.9442581
150	0xbf77055e	-0.96492565
151	0xbf4103c0	-0.7539635
152	0xbf483734	-0.78209233
153	0xbf72ebd5	-0.948911
154	0xbf82860e	-1.019716
155	0xbf770f70	-0.9650793
156	0xbf68e404	-0.90972924
157	0xbf43b6a7	-0.7645058
158	0x3f9288f8	1.144805
159	0xbf6a4d67	-0.91524357
160	0xbf3e463b	-0.74325913
161	0xbf82a5a7	-1.0206803
162	0xbf5fbd6f	-0.8739843
163	0xbf522b9f	-0.8209781
164	0xbf3b6e77	-0.7321543
165	0xbf57e87a	-0.84339106
166	0xbf4a16b7	-0.7894091
167	0xbf7e6c8b	-0.99384373
168	0xbf782803	-0.96936053
169	0xbf4baa15	-0.795564
170	0xbf73f402	-0.952942
171	0xbf75196f	-0.95741934
172	0xbf55b60d	-0.8348091
173	0xbf4d5c54	-0.80219007
174	0xbf6ca486	-0.9243854
175	0xbf6c66a7	-0.92344135
176	0xbf2f1d32	-0.68403924
177	0xbf7ae349	-0.9800306
178	0xbf5a82d3	-0.8535587
179	0xbf7bca44	-0.9835551
180	0xbf66a7e6	-0.9009994
181	0xbf43b2af	-0.76444525
182	0xbf5cd74f	-0.86266035
183	0xbf6c6e08	-0.92355394
184	0xbf4bbba2	-0.7958318
185	0xbf7bf588	-0.98421526
186	0xbf46e6ba	-0.7769581
187	0xbf42e6f7	-0.76133674
188	0xbf79e9f4	-0.9762261
189	0xbf38675d	-0.7203272
190	0xbf63d52c	-0.8899715
191	0xbf800ba2	-1.000355
192	0xbf5b1471	-0.85578066
193	0xbf80c4fb	-1.0060114
194	0xbf785f53	-0.97020453
195	0xbf7a5dbf	-0.97799295
196	0xbf769632	-0.9632293
197	0xbf737eb3	-0.951152
198	0xbf749336	-0.95537126
199	0xbf7b8cfd	-0.98262006
200	0xbf7e879e	-0.99425685
201	0xbf7b8ee0	-0.98264885
202	0xbf7daadc	-0.99088836
203	0xbf7ea838	-0.9947543
204	0xbf74451d	-0.9541796
205	0xbf7ed3e0	-0.99542046
206	0xbf5fd05a	-0.87427294
207	0xbf5b9271	-0.85770327
208	0xbf7b7430	-0.98224163
209	0xbf60788c	-0.8768394
210	0xbf6b1836	-0.9183382
211	0xbf83691b	-1.0266451
212	0xbf7ed36c	-0.99541354
213	0xbf7edca1	-0.99555403
214	0xbf6bab9d	-0.92058736
215	0x3f4f5ff4	0.8100579
216	0xbf647f0a	-0.89256346
217	0xbf742a68	-0.95377207
218	0xbf6497e7	-0.89294285
219	0xbf6a55c7	-0.91537136
220	0xbf7ba9aa	-0.9830576
221	0xbf355bc4	-0.7084315
222	0xbf4b8d20	-0.79512215
223	0xbf71650e	-0.9429482
224	0xbf6fdbca	-0.93694746
225	0xbf7ddae9	-0.99162155
226	0x3f9e9ef0	1.2392254
227	0xbf7fc7d4	-0.9991429
228	0xbf82c79b	-1.0217165
229	0xbf752d72	-0.9577247
230	0xbf780a82	-0.96891034
231	0xbf82a677	-1.0207051
232	0xbf4b5583	-0.79427356
233	0xbf839e90	-1.0282764
234	0xbf6be0e7	-0.9214005
235	0x3faeec10	1.366579
236	0xbf81c8de	-1.0139425
237	0xbf80f003	-1.0073246
238	0xbf8014b6	-1.000632
239	0xbf6ae63e	-0.9175757
240	0xbf7313cf	-0.949521
241	0xbf719284	-0.9436419
242	0xbf77e6ab	-0.96836346
243	0xbf7eb26c	-0.99491
244	0xbf785add	-0.97013646
245	0xbf6d2e5d	-0.9264887
246	0xbf61b97d	-0.8817366
247	0xbf605a83	-0.8763811
248	0xbf6f2020	-0.93408394
249	0xbf83063f	-1.0236281
250	0xbf7c42b9	-0.9853931
251	0xbf51ff10	-0.8202982
252	0xbf4f2825	-0.8092063
253	0xbf70c78e	-0.94054496
254	0xbf740a62	-0.9532834
255	0xbf505c34	-0.8139069
