testing/scripts/outputs/DDPG_Env/20221216-051603/models/280actor_checkpoint.pt (torch, 281431 bytes, 5 tensors)

linear1.weight f4 [256, 14]
0	0xbd2013ce	-0.039081387
1	0xbe82e31c	-0.25563896
2	0xbea0b823	-0.31390485
3	0xbeb01d77	-0.3439748
4	0x3dc81ffb	0.09771725
5	0xbc6569b5	-0.014002253
6	0x3e9281f3	0.28614768
7	0x3e90f76b	0.28313765
8	0xb8ebd4b1	-0.0001124529
9	0x3e8bc128	0.27295804
10	0xbe553100	-0.20819473
11	0x3e072f5a	0.13201657
12	0x3e963de1	0.29344085
13	0x3b291b1c	0.0025803512
14	0xbd294783	-0.041327965
15	0x3ea3ec64	0.3201629
16	0x3ed74109	0.42041805
17	0x3e7f963e	0.24959657
18	0x3e45a363	0.19300608
19	0x3df41860	0.11918712
20	0x3ded0e84	0.11575034
21	0x3e1a155a	0.15047207
22	0xbdb73c7f	-0.089470856
23	0xbe4c7ca0	-0.19969416
24	0xbca45148	-0.02005829
25	0xbded15c4	-0.11576417
26	0x3d5476d3	0.051871132
27	0x3cebccf2	0.028784249
28	0x3e75afbe	0.23992822
29	0xbe93b559	-0.28849295
30	0xbe186612	-0.14882687
31	0xbc8a7bbf	-0.01690471
32	0x3e395866	0.18100128
33	0x3e5c66ec	0.21523637
34	0x3dcc9e47	0.099911265
35	0xbce39916	-0.027782958
36	0x3e303eef	0.17211507
37	0xbd4e4e40	-0.050367594
38	0xbe275162	-0.16339639
39	0xbd617505	-0.05504324
40	0x3e19582f	0.14975046
41	0xbda506b6	-0.08057921
42	0x3e454f52	0.1926854
43	0x3d28c17d	0.04120015
44	0xbdc82a88	-0.09773737
45	0x3ecc3e31	0.39891198
46	0x3db5f3f1	0.08884419
47	0x3e43ffd7	0.19140564
48	0x3df6d14d	0.1205164
49	0xbe0a9fa8	-0.13537467
50	0x3ddc51d8	0.10757798
51	0xbe130081	-0.14355661
52	0xbd0ef9f7	-0.034906354
53	0xbe0edd89	-0.13951696
54	0x3e5ca478	0.21547115
55	0x3e14fca4	0.145495
56	0xbda9238c	-0.08258733
57	0x3ca68b59	0.020330118
58	0xbd96d8de	-0.07365583
59	0x3dde4fce	0.10855065
60	0x3e35300e	0.17694113
61	0x3dd9fc8d	0.10643873
62	0x3d9c1df5	0.07622901
63	0x3daadfa0	0.08343434
64	0x3d647888	0.05577901
65	0xbe87e286	-0.2654001
66	0x3d901507	0.07035261
67	0x3e769ad8	0.24082506
68	0x3e93a100	0.2883377
69	0x3d613c48	0.05498913
70	0xbb850121	-0.0040589725
71	0x3d65916c	0.05604689
72	0x3e07b9a5	0.13254412
73	0x3ea50d60	0.32236767
74	0x3e1567b7	0.14590345
75	0xbe6122f1	-0.21985985
76	0x3e0622b6	0.13099179
77	0x3e27d099	0.16388167
78	0xbe541924	-0.20712715
79	0x3e3e6a73	0.18595295
80	0xbe2b0245	-0.16700085
81	0xbb7a41ac	-0.0038186116
82	0x3e5c1ab1	0.21494557
83	0xbe093e5f	-0.13402699
84	0xbd88a8e2	-0.06672837
85	0xbddc4eef	-0.10757243
86	0x3e76ba38	0.24094474
87	0x3e057209	0.13031782
88	0xbe726177	-0.23669992
89	0xbeaae8c2	-0.33380705
90	0xbeacb18d	-0.3372921
91	0xbe90aada	-0.2825535
92	0x3e288b87	0.16459475
93	0xbd6cdb33	-0.057826232
94	0xbd58e1e8	-0.052949816
95	0x3e9b2efc	0.30309284
96	0xbe156c10	-0.14592004
97	0xbe90d93d	-0.2829074
98	0xbe89762a	-0.26847965
99	0x3d88ba01	0.066761024
100	0x3e73c32d	0.23804922
101	0xbd0c4296	-0.03424319
102	0xbe367ac7	-0.17820273
103	0xbe27bc51	-0.16380431
104	0xbeb44ed7	-0.352164
105	0xbe6fdf39	-0.23424996
106	0xbdb41ab6	-0.08794157
107	0x3dfb7025	0.12277249
108	0xbcfa0960	-0.030522048
109	0x3e230914	0.15921432
110	0xbe18a949	-0.14908327
111	0x3dd4edbd	0.103969075
112	0x3e83ff54	0.25780737
113	0x3dc86140	0.09784174
114	0x3e3ef3ee	0.1864774
115	0x3e32f441	0.17475988
116	0x3d65d9c5	0.056115884
117	0x3ecea10b	0.4035724
118	0x3e7046dd	0.23464532
119	0xbcfe4ee8	-0.031043485
120	0x3ea66e68	0.32506108
121	0x3e28890b	0.16458528
122	0x3e4bf5ab	0.19917934
123	0x3cb9b8b7	0.022671087
124	0xbda09854	-0.07841554
125	0x3e81d01f	0.25354096
126	0xbdbcfdda	-0.09228106
127	0xbd3df65a	-0.046377517
128	0x3ca02f12	0.019553695
129	0xbe1d726c	-0.1537568
130	0xbde93342	-0.1138673
131	0x3e5e6443	0.21717934
132	0x3e78b671	0.24288346
133	0x3e84ccd7	0.2593753
134	0x3de9b9f3	0.1141242
135	0xbd6ffa5a	-0.058588363
136	0xbda2ad10	-0.07943165
137	0x3db38339	0.08765263
138	0xbe7500c0	-0.23926067
139	0xbe425fd4	-0.18981868
140	0xbe49148c	-0.19636744
141	0xbe44d51d	-0.19221921
142	0xbe8be4d3	-0.27323017
143	0xbe06c02d	-0.13159247
144	0x3ed7abc1	0.42123225
145	0x3d3494a6	0.044087075
146	0xbe54bff5	-0.20776351
147	0xbe113d82	-0.1418362
148	0x3e5dbbd0	0.21653676
149	0xbe25528a	-0.16144767
150	0x3e7cb580	0.24678612
151	0xbda9c073	-0.0828866
152	0x3e25b48f	0.16182159
153	0xbe02c00b	-0.12768571
154	0x3d25d9cb	0.040490907
155	0x3c81eb23	0.015859192
156	0x3e89ca16	0.26911992
157	0x3e3c14ee	0.18367359
158	0xbe5f8eaa	-0.21831766
159	0xbe050660	-0.12990713
160	0x3da41577	0.080119066
161	0x3e045d38	0.12926185
162	0xbe8f787f	-0.2802162
163	0xbd24f50c	-0.040272757
164	0xbe00a0e0	-0.12561369
165	0x3e11364d	0.1418087
166	0x3db4336c	0.087988704
167	0x3babfdc2	0.005248756
168	0xbe069c22	-0.13145497
169	0xbdf74344	-0.12073377
170	0x3e993f39	0.29931048
171	0x3da11b34	0.07866517
172	0xbe4c0d6e	-0.19926998
173	0xbe6b4648	-0.22976029
174	0xbe2dc6eb	-0.16970412
175	0xbe8a8ee1	-0.27062133
176	0xbe545de4	-0.20738941
177	0x3e2c7f81	0.16845514
178	0xbe06bef8	-0.13158786
179	0x3e8b406e	0.27197593
180	0xbdaa9e55	-0.08330981
181	0xbdd1a3b9	-0.10236306
182	0x3dd28f84	0.1028128
183	0x3dd57b8e	0.10423957
184	0xbe4d2cc0	-0.20036602
185	0x3e6ab09f	0.22918938
186	0x3dd23477	0.10263913
187	0x3ef35446	0.47525233
188	0x3e5672ee	0.2094228
189	0x3e2ee3cc	0.17079085
190	0x3e977324	0.29580033
191	0x3e2e82c2	0.17042068
192	0xbc355f59	-0.011070096
193	0xbda11187	-0.07864671
194	0xbe2c5e7c	-0.16832918
195	0x3e818b50	0.253016
196	0x3e814353	0.25246677
197	0x3cb24018	0.021759078
198	0xbd4ff2a3	-0.050768506
199	0x3e652b6b	0.22379844
200	0x3e953673	0.29143104
201	0xbe19078f	-0.1494429
202	0xbe748133	-0.2387741
203	0xbd9b0d5c	-0.075709075
204	0xbd9ce071	-0.07659996
205	0x3d12333a	0.035693385
206	0x3e68308b	0.22674768
207	0xbe4680ff	-0.19385146
208	0x3de406c2	0.111341015
209	0x3e1cc775	0.15310462
210	0x3e7f9489	0.24959005
211	0xbe0d235b	-0.13783018
212	0xbd2a8a7b	-0.04163597
213	0x3e26d928	0.16293776
214	0x3c26e826	0.010187184
215	0xbef55526	-0.47916526
216	0xbe8903ad	-0.26760617
217	0xbe467a4a	-0.19382587
218	0xbde07cf5	-0.10961334
219	0xbe716d1f	-0.23576783
220	0xbe40d60c	-0.18831652
221	0x3e81f6f4	0.25383723
222	0xbd83655f	-0.064158194
223	0xbe2eac6c	-0.17057961
224	0x3e830a83	0.25593957
225	0xbd9a61e5	-0.07538203
226	0xbe8e2daf	-0.2776923
227	0x3ccccec6	0.025000941
228	0x3e9339db	0.28755078
229	0x3e97c938	0.29645705
230	0xbdb2bb96	-0.087271854
231	0x3d5f6abc	0.05454515
232	0x3e24dd74	0.16100103
233	0x3e9fb14f	0.31189963
234	0x3e39565b	0.18099348
235	0x3e4fc6bf	0.2029066
236	0xbe0ceae2	-0.13761476
237	0x3e944298	0.28957057
238	0x3d17a0c7	0.037018564
239	0x3e989712	0.29802758
240	0x3d97b605	0.07407764
241	0x3ea5ae29	0.32359436
242	0x3daf237d	0.08551691
243	0x3dbf21f1	0.09332646
244	0xbea43723	-0.32073316
245	0x3d8bdfb3	0.068297766
246	0x3d9b566b	0.07584842
247	0xbea1c658	-0.31596637
248	0xbdc1b2f5	-0.094579615
249	0x3e094a1f	0.13407181
250	0x3da8b3a9	0.082373925
251	0xbd37aca1	-0.044842366
252	0xbae31535	-0.0017325046
253	0x3e71e8db	0.23623984
254	0x3da8794a	0.08226259
255	0xbd9a28c2	-0.07527305

linear1.bias f4 [256]
0	0xbe0936cb	-0.13399808
1	0x3e47fc6c	0.19529885
2	0xbd69cda7	-0.05708089
3	0x3c90860d	0.017642045
4	0xbe356722	-0.17715123
5	0x3c299a6a	0.010351757
6	0xbdd47b29	-0.103750534
7	0x3ddf5510	0.10904896
8	0xbd8013bd	-0.06253765
9	0x3e7f8170	0.2495172
10	0x3ded035c	0.115729064
11	0x3d9c4d4c	0.07631931
12	0xbdac038a	-0.083991125
13	0x3e820816	0.25396794
14	0xbdd25ba8	-0.10271388
15	0x3db38ea9	0.08767445
16	0x3e99e8a4	0.30060303
17	0x3e064421	0.13111927
18	0x3e87d721	0.26531318
19	0xbd80ef62	-0.06295659
20	0x3db4dc06	0.08831029
21	0x3ea0bfdb	0.31396374
22	0xbe4e1b3d	-0.20127578
23	0x3d94ba78	0.072621286
24	0xbe274359	-0.16334285
25	0x3e98b6fa	0.298271
26	0x3c3fd8a8	0.01170937
27	0xbe10eff9	-0.14154042
28	0x3ea71c0c	0.32638586
29	0x3e881f95	0.26586595
30	0xbe17a012	-0.14807156
31	0x3e8ed782	0.27898794
32	0x3dcdc86c	0.10047993
33	0x3e80802f	0.25097796
34	0xbd70adde	-0.058759563
35	0x3e9c9db1	0.3058906
36	0x3d94154c	0.072306246
37	0x3e64e74d	0.22353859
38	0x3e2e60f4	0.17029172
39	0x3e86e01b	0.26342854
40	0x3e09d128	0.13458693
41	0xbdcad224	-0.099033624
42	0x3e800bb2	0.25008923
43	0x3c81ff16	0.015868705
44	0x3d29fc77	0.041500535
45	0xbe1e89b2	-0.15482214
46	0xbd51892a	-0.0511562
47	0x3e8c86c4	0.27446568
48	0xbd4d36ce	-0.050101094
49	0x3e5a5d2d	0.21324606
50	0x3da4975f	0.08036684
51	0x3e4aa451	0.19789244
52	0xbda08ec9	-0.07839734
53	0xbe2e1ef7	-0.17004
54	0x3e4d8e84	0.20073897
55	0x3d07211c	0.03299056
56	0x3cf89628	0.030345038
57	0x3e593929	0.21213211
58	0x3e739266	0.23786315
59	0x3c304d9f	0.010760694
60	0x3e1cf247	0.15326796
61	0x3e98e081	0.29858783
62	0xbe2396f8	-0.15975559
63	0xbde0c74f	-0.10975515
64	0x3dfd9aab	0.12383016
65	0xbe49e804	-0.19717413
66	0x3e76af08	0.24090207
67	0x3e1bb123	0.15204291
68	0x3da796b0	0.08183038
69	0x3d71dd79	0.059049103
70	0xbce9357c	-0.028467886
71	0x3e5e7dbe	0.21727654
72	0xbdfe8fa7	-0.12429743
73	0xbe23ee2e	-0.16008827
74	0x3e4a832a	0.19776598
75	0xbe2ce9bb	-0.16886036
76	0x3db33f7b	0.08752342
77	0x3d4e43bf	0.050357576
78	0xbc94bc55	-0.01815621
79	0xbc45a19a	-0.012062455
80	0xbab38d56	-0.0013698738
81	0x3e8e04ff	0.27738187
82	0xbd384884	-0.04499103
83	0x3dcea93a	0.10090871
84	0xbd8479cd	-0.06468544
85	0xbd89c8a4	-0.06727722
86	0xbd83b6e4	-0.06431368
87	0xbe0df155	-0.13861592
88	0xbdf09390	-0.11746895
89	0xbe07c38c	-0.13258189
90	0x3d925844	0.071457416
91	0x3e5061ad	0.2034976
92	0x3e46a3c2	0.19398406
93	0x3e622b04	0.22086722
94	0xbe29696d	-0.16544123
95	0x3d064995	0.032785017
96	0xbd8bc989	-0.06825549
97	0x3e22f35a	0.15913144
98	0x3e75ec7e	0.24015996
99	0xbd7e2912	-0.062050886
100	0xbcbb0ac6	-0.022832286
101	0x3dd2812a	0.10278542
102	0x3e46eb6c	0.19425744
103	0x3e8b0086	0.27148837
104	0xbd0310ce	-0.031998448
105	0xbdc0ca91	-0.094136365
106	0x3d872885	0.06599525
107	0xbdbbd66f	-0.09171759
108	0xbddde59f	-0.108348124
109	0x3c520077	0.012817494
110	0x3c163f28	0.009170331
111	0x3e87d52a	0.2652982
112	0x3dc48884	0.09596351
113	0xbda4c193	-0.08044734
114	0x3e99a070	0.30005217
115	0x3e53fefe	0.2070274
116	0xbe53c24c	-0.20679587
117	0x3e455d14	0.19273788
118	0xbd26663d	-0.040624846
119	0x3db37641	0.087627895
120	0x3dfb24c4	0.12262872
121	0xbe229cf5	-0.15880187
122	0xbdb26629	-0.08710892
123	0x3e5c9879	0.21542539
124	0x3e87339f	0.2640657
125	0x3e7e81db	0.24854223
126	0x3c13a727	0.00901202
127	0xbdc52d2b	-0.09627756
128	0xbdd8802b	-0.10571321
129	0x3cc84156	0.024445217
130	0x3e51a2b9	0.2047223
131	0xbe2ab65f	-0.16671132
132	0x3e399b70	0.18125701
133	0x3b6e1067	0.0036325695
134	0x3e4b3a3f	0.19846438
135	0x3dec8bcf	0.11550104
136	0x3e4faa65	0.20279844
137	0x3e29d2e8	0.1658436
138	0x3e828a7a	0.25496274
139	0x3dbaa79c	0.09114
140	0x3e7401c8	0.23828804
141	0x3d1b295f	0.03788125
142	0x3e647a00	0.22312164
143	0xbe22d314	-0.15900832
144	0xbdaee30a	-0.08539398
145	0x3e29d2af	0.16584276
146	0x3e2ab68f	0.16671203
147	0x3d2d9ce2	0.042385943
148	0x3dc2a5ce	0.09504281
149	0x3e111cb8	0.14171112
150	0xbe642e73	-0.22283344
151	0xbd8761f4	-0.0661048
152	0xbdfb1b90	-0.122611165
153	0x3dcc9979	0.0999021
154	0xbe388195	-0.18018182
155	0xbd353a62	-0.04424513
156	0x3e941639	0.28923205
157	0x3dac9f71	0.084288485
158	0x3e94b79b	0.2904633
159	0x3d66d795	0.05635794
160	0x3e3f0d0b	0.18657319
161	0xbda54006	-0.08068852
162	0x3d587bac	0.052852318
163	0x3df9f3ab	0.12204679
164	0xba34a543	-0.0006891081
165	0xbd6d5df0	-0.057950914
166	0x3e3e117d	0.18561359
167	0x3e8392fd	0.2569808
168	0x3e86cf41	0.26329997
169	0xbe2bff33	-0.1679657
170	0x3e20b4b1	0.15693928
171	0x3d9d7388	0.076880515
172	0xbe02f280	-0.12787819
173	0xbdb95379	-0.09049124
174	0x3e60565b	0.21907942
175	0xbe20a004	-0.15686041
176	0xbd74d63b	-0.05977462
177	0x3e99a434	0.3000809
178	0xbde346b8	-0.11097473
179	0xbdb0ed5f	-0.08639025
180	0x3e68d488	0.22737324
181	0xbdcf7c9c	-0.10131189
182	0x3e71e254	0.23621494
183	0x3e518828	0.20462096
184	0x3e81df86	0.25365847
185	0x3d2b67bf	0.041846987
186	0x3d189dce	0.03725987
187	0xbe80b46f	-0.2513766
188	0xbcbaed19	-0.022818135
189	0xbe833b32	-0.256311
190	0xbe45b460	-0.19307089
191	0x3e95e4bf	0.29276082
192	0xbda6b5bf	-0.08140134
193	0xbe013330	-0.12617183
194	0x3df7deb5	0.12103025
195	0x3d350125	0.044190545
196	0xbae30d1c	-0.0017322632
197	0xbd0b4ede	-0.03401076
198	0x3e6a5564	0.22884136
199	0xbe10bb45	-0.14133938
200	0xbd301202	-0.042985924
201	0x3d1419c8	0.0361574
202	0xbde80e5a	-0.11330862
203	0xbe5d1239	-0.21588983
204	0xbe347a29	-0.17624725
205	0xbe152b74	-0.14567357
206	0x3e3e240a	0.18568435
207	0x3e9fa1c4	0.31178105
208	0x3e8d1a8a	0.2755931
209	0x3e940e81	0.28917316
210	0x3e8e8b31	0.2784057
211	0xbe2d23c0	-0.16908169
212	0xbe1cd4cc	-0.1531555
213	0x3d040ab8	0.032236785
214	0x3e187e14	0.14891845
215	0xbc7c18df	-0.015386789
216	0xbdedab35	-0.11604921
217	0x3e824389	0.2544215
218	0x3e5ee54f	0.21767162
219	0x3e8342b9	0.25636843
220	0x3e3b98f3	0.18320064
221	0x3e8fdfcd	0.28100434
222	0xbd918b4d	-0.07106648
223	0x3e1e4f4a	0.15459934
224	0x3e6670fd	0.22504039
225	0x3e075e6b	0.13219611
226	0x3de54fe5	0.11196879
227	0xbdcd9c28	-0.1003955
228	0x3d41f906	0.047356628
229	0xbe1f0ea3	-0.15532927
230	0x3e1bb5a2	0.15206006
231	0x3e40ad49	0.18816103
232	0xbbe5b1b2	-0.0070097083
233	0x3e39d06d	0.18145914
234	0xbe3c818e	-0.18408796
235	0xbd4815fb	-0.048849087
236	0xbe10023c	-0.14063352
237	0x3c09620e	0.008385194
238	0xbe54163d	-0.20711608
239	0xbe5b6b3d	-0.21427627
240	0x3e72277e	0.23647878
241	0x3e4e578b	0.20150582
242	0x3e8dac4f	0.27670524
243	0x3e69bdb6	0.22826275
244	0xbe13eeee	-0.14446613
245	0xbe3d0e85	-0.1846257
246	0x3d87a1f9	0.06622691
247	0xbd64c325	-0.055850167
248	0x3d9440cf	0.07238924
249	0xbd9babc3	-0.0760112
250	0x3e12850a	0.14308563
251	0x3e58af9f	0.21160744
252	0x3e8212d4	0.2540499
253	0xbd2c5531	-0.042073432
254	0xbe16a5af	-0.14711641
255	0x3e36a5b2	0.17836645

linear2.weight f4 [256, 256]
0	0xbe0ff91d	-0.14059873
1	0x3d19ff6a	0.037597097
2	0xbd8fe719	-0.070265
3	0x3cd2337e	0.025659319
4	0x3c4573e1	0.012051553
5	0x3db3249f	0.08747219
6	0x3cc574c8	0.024103537
7	0x3ded6862	0.11592175
8	0xbcb49db4	-0.022047855
9	0xbd7c975d	-0.06166779
10	0xbdfb28ab	-0.12263616
11	0x3cf4fee1	0.029906692
12	0x3bab9dee	0.0052373325
13	0xbdb6d5b9	-0.08927483
14	0x3d029fac	0.031890556
15	0x3dc2ed07	0.09517866
16	0xbd8fab64	-0.07015112
17	0x3e18aa62	0.14908746
18	0x3dfa13df	0.12210821
19	0x3dd99fa6	0.10626154
20	0xbdef8032	-0.11694373
21	0xbd9ae836	-0.07563822
22	0x3ca5eb6a	0.020253856
23	0x3c9626a3	0.01832897
24	0xbde2a2df	-0.110662214
25	0xbd3c2f13	-0.04594333
26	0x3cdbdccb	0.02683868
27	0xbb86c44c	-0.004112756
28	0xbdcc4d38	-0.09975666
29	0x3d6a3eba	0.057188727
30	0x3d4da794	0.050208643
31	0x3b4cd2d3	0.003125359
32	0xbd8674f1	-0.065652736
33	0xbc13d304	-0.009022478
34	0x3de17d77	0.11010259
35	0xbdad9b03	-0.08476832
36	0x3ddc06be	0.107434735
37	0x3d2ea1ba	0.042634703
38	0x3c82e0c8	0.015976325
39	0x3e1949df	0.14969586
40	0x3e389169	0.1802422
41	0xbe08fa12	-0.13376644
42	0x3e16bb0f	0.14719795
43	0xbc50d4dc	-0.012746062
44	0x3c414c2b	0.011797945
45	0xbdc652b1	-0.09683741
46	0x3c650c36	0.013979962
47	0xbd309581	-0.043111328
48	0x3c941cb5	0.018080095
49	0xbde48217	-0.11157625
50	0x3ccface2	0.025350992
51	0xbdbd1612	-0.09232725
52	0x3d11ef00	0.03562832
53	0xbd2fc648	-0.042913705
54	0xbbac61c0	-0.005260676
55	0x3cb8f144	0.022575982
56	0x3d40a689	0.04703382
57	0x3d92836f	0.07153975
58	0x3d5450dc	0.051834926
59	0x3cd8c6a6	0.02646191
60	0xbd907410	-0.07053387
61	0x3d337d97	0.043820944
62	0x3c9db0a9	0.019249277
63	0xbd310e78	-0.04322669
64	0xbdc2f635	-0.095196165
65	0x3cf0d445	0.029398093
66	0xbd5778b0	-0.05260533
67	0xbd414ca7	-0.047192242
68	0x3db22d39	0.08700032
69	0x3db56e5b	0.08858939
70	0xbd1bbe06	-0.038023017
71	0x3dc33dcb	0.095332704
72	0xbcdf0bb3	-0.027227258
73	0xbc3a41f8	-0.011368267
74	0x3d9ca3e5	0.07648448
75	0x3dc51718	0.096235454
76	0xbc831e98	-0.0160058
77	0xbd680334	-0.05664368
78	0x3d15582d	0.036461044
79	0xbdd90e53	-0.10598435
80	0x3d2c65cc	0.04208927
81	0x3d445387	0.04793122
82	0x3cfbb9e2	0.030728284
83	0xbd8b485e	-0.06800912
84	0xbdc4bc1c	-0.096061915
85	0x3dbd5bb2	0.09246005
86	0x3d48ec50	0.04905349
87	0xbde2202e	-0.11041294
88	0x3e070ed0	0.13189244
89	0xbd90afc6	-0.07064776
90	0xbd7540fb	-0.059876423
91	0xbd839641	-0.06425143
92	0xbd35f9f3	-0.044427823
93	0xbc31d0a1	-0.010852964
94	0x3dd146d6	0.10218589
95	0x3c83d6b9	0.016093599
96	0xbc30d4d8	-0.010792933
97	0x3b29d1f7	0.0025912502
98	0xbd55773d	-0.052115668
99	0x3db30a6f	0.087422244
100	0xbd21e4e3	-0.039524924
101	0xbd8c50c3	-0.068513416
102	0xbe112ea3	-0.14177947
103	0x3d873888	0.06602579
104	0xbe12a44f	-0.14320491
105	0x3d527e1c	0.0513898
106	0x3c8df0b4	0.01732669
107	0x3db0b609	0.086284705
108	0x3d9ba5c2	0.07599975
109	0xbda0344c	-0.07822475
110	0x3c3af985	0.011412029
111	0x3d87d0d3	0.06631627
112	0xbdcf85be	-0.10132931
113	0xbca8f1fe	-0.020623203
114	0xbda11345	-0.078650035
115	0xbe09f56b	-0.13472526
116	0xbd1bdcc5	-0.03805234
117	0xbcceb67d	-0.025233502
118	0xbd798c5e	-0.06092488
119	0xbc2cddb2	-0.010550903
120	0xbdc9f52a	-0.098612145
121	0xbdce5a1c	-0.10075781
122	0xbd840cec	-0.06447777
123	0x3d3638c8	0.044487745
124	0x3d6cae4c	0.05778341
125	0x3cdbfc6b	0.02685376
126	0xbd5a85cb	-0.05335025
127	0xbce4867e	-0.027896162
128	0x3da9d91f	0.08293366
129	0xbc8f4119	-0.017487096
130	0xbbfd83f5	-0.007736678
131	0xbd8a7d4f	-0.06762182
132	0xbddf12f7	-0.10892289
133	0xbd3cccf2	-0.04609389
134	0xbd278379	-0.040896866
135	0x3c3bb63a	0.01145702
136	0xbe0a42fc	-0.13502115
137	0xbd64e126	-0.05587878
138	0xbded1d31	-0.115778334
139	0xbc6bc3bc	-0.014389928
140	0x3bd49ed9	0.0064886627
141	0xbc8e6100	-0.017380238
142	0x3d5af9ec	0.053461
143	0x3d9d07ed	0.07667527
144	0x3d30ee5e	0.043196075
145	0x3d5f8488	0.05456975
146	0xbd235163	-0.03987254
147	0xbd1220dd	-0.035675872
148	0xbca0c65a	-0.019625831
149	0xbcacecdf	-0.021109043
150	0x3d8f8205	0.07007221
151	0xbd312658	-0.043249458
152	0xbcfa0945	-0.030521998
153	0x3db26f28	0.087126076
154	0x3d95f4f7	0.07322114
155	0x3d163b54	0.036677673
156	0x3c58eaff	0.013239621
157	0x3e180c7d	0.14848514
158	0xbd12da13	-0.035852503
159	0xbd848feb	-0.06472763
160	0xbd5c2515	-0.0537463
161	0x3d1ed786	0.038779758
162	0x3d4c193e	0.04982876
163	0xbdab662c	-0.08369097
164	0xbd979cf1	-0.07402981
165	0x3d1ae907	0.03781989
166	0x3e0d61ec	0.13806885
167	0x3d0a4ac7	0.03376272
168	0x3d9fcb73	0.07802477
169	0x3df0afe1	0.11752296
170	0x3cffbab2	0.031216953
171	0xbd1e2f48	-0.03861931
172	0xbde024ae	-0.10944496
173	0xbd79e975	-0.061013658
174	0xbdf16809	-0.11787421
175	0x3cfa8662	0.030581657
176	0x3d334b0c	0.043772742
177	0x3e100403	0.1406403
178	0xbd744cb3	-0.05964346
179	0x3d785a30	0.060632885
180	0xbd950108	-0.07275587
181	0x3e3e2b76	0.18571267
182	0x3de84e84	0.11343101
183	0xbce2ef19	-0.027701901
184	0x3b1418f5	0.0022597883
185	0x3d154040	0.036438227
186	0xbb641a1d	-0.0034805604
187	0xb9541f37	-0.00020229524
188	0xbc385fb3	-0.011253285
189	0xbd36913d	-0.044572104
190	0xbd401716	-0.046897016
191	0x3d958c68	0.07302171
192	0xbd483ae6	-0.048884295
193	0xbd9647b9	-0.07337899
194	0x3dce18c2	0.10063316
195	0xbd833883	-0.06407263
196	0x3d0d84e8	0.034550577
197	0x3e1d4b24	0.15360695
198	0xbb83f65d	-0.0040271715
199	0xbe0e5001	-0.13897707
200	0x3d698eed	0.05702107
201	0x3cc9a0a9	0.024612742
202	0xbe4c6da0	-0.19963694
203	0x3bf1c9d1	0.0073787947
204	0x3c7a6dae	0.015284939
205	0xbc745989	-0.014913925
206	0xbda1ad68	-0.07894403
207	0xbdb3fc7e	-0.087883934
208	0xbd0635ec	-0.032766268
209	0xbddfe462	-0.109322324
210	0xbcc49cb4	-0.024000503
211	0xbd37e7e6	-0.04489889
212	0x3d80df7c	0.06292626
213	0x3dc70246	0.097172305
214	0xbd5200c8	-0.051270276
215	0xbcd325d3	-0.025774872
216	0xbd14b365	-0.036303896
217	0xbd5f10e8	-0.054459482
218	0xbc515762	-0.012777181
219	0x3e0b9273	0.13630085
220	0xbe1b2f80	-0.15154839
221	0x3dc59af6	0.09648697
222	0xbc844cd1	-0.01614991
223	0xbd5e4eeb	-0.05427448
224	0x3cd66fe1	0.026176395
225	0xbd801b54	-0.062552124
226	0x3dbed4c9	0.09317929
227	0x3e0ded43	0.1386004
228	0x3dc4eecb	0.09615859
229	0x3e08ebe2	0.13371232
230	0xbd1edb2b	-0.038783234
231	0xbe0aa69d	-0.1354012
232	0x3cd97719	0.026546048
233	0x3dad213e	0.08453606
234	0x3e5cd5dd	0.21565957
235	0x3dd12c61	0.10213543
236	0x3ca7242a	0.020402987
237	0x3ddac191	0.10681451
238	0x3ce66a52	0.02812687
239	0x3c233043	0.009960237
240	0xbdba0bd6	-0.09084289
241	0xbdf8e98b	-0.1215392
242	0xbd676d90	-0.05650097
243	0xbcab6037	-0.020919902
244	0x3e03832a	0.12843004
245	0xbdc58775	-0.09644977
246	0xbcc4f86c	-0.024044238
247	0x3d6668b6	0.056252204
248	0xba0053e1	-0.00048953114
249	0xbd1310de	-0.035904758
250	0xbd9cf3ec	-0.07663712
251	0x3e40be9c	0.18822712
252	0x3db1ebb4	0.08687535
253	0xbda3b466	-0.07993393
254	0xbe09689d	-0.13418813
255	0xbda90749	-0.08253343

linear2.bias f4 [256]
0	0xbbbb3efa	-0.0057142945
1	0x3d3e69fa	0.046487786
2	0xbc893b57	-0.016751928
3	0x3d95831b	0.07300397
4	0x3d105c11	0.03524405
5	0xbb6cb2c8	-0.0036117304
6	0xbd58efcf	-0.052963074
7	0x3b9b5292	0.0047400678
8	0x3b2ec3da	0.002666703
9	0x3d61a71b	0.055091005
10	0x3caa67c8	0.02080144
11	0xbd9ac30f	-0.07556736
12	0x3d790159	0.0607923
13	0x3bb3bab5	0.0054849037
14	0xbd0d6ca5	-0.03452744
15	0x3d28372b	0.041068237
16	0x3d0a1931	0.03371543
17	0xbd4a6da8	-0.049420983
18	0x3d8f6b64	0.07002905
19	0x3d669c59	0.05630145
20	0xbd203c58	-0.03912005
21	0x3da0df7b	0.078551255
22	0x3d34a4fe	0.04410266
23	0xbd072e72	-0.033003278
24	0xbd724c21	-0.059154633
25	0xbc0d6a9f	-0.0086313775
26	0x3c51aa32	0.012796925
27	0xbd1ad870	-0.037804067
28	0xbd90e315	-0.070745625
29	0x3cecbf0d	0.028899694
30	0x3d7ac637	0.06122419
31	0xbd938dcd	-0.07204781
32	0xbcf66b4b	-0.030080458
33	0xbc9d8c66	-0.019231986
34	0x3c8dcf09	0.017310636
35	0xbd560b76	-0.052257024
36	0xbd98ca6d	-0.07460485
37	0x3c8ac1cf	0.016938118
38	0x3d0d4958	0.034493774
39	0xbc276f29	-0.010219374
40	0x3d991fb4	0.0747675
41	0xbd1283f2	-0.035770364
42	0xbd74a6f7	-0.059729543
43	0x3da3a40c	0.07990274
44	0xbd9c52a6	-0.076329514
45	0x3d09b09d	0.033615697
46	0xbc2409ab	-0.010012071
47	0x3c998a0c	0.018742584
48	0xbaef8095	-0.0018272573
49	0x3c2bf1fd	0.010494706
50	0xbd5c4795	-0.053779203
51	0xbbecd84b	-0.0072279326
52	0x3c9195d7	0.017771645
53	0x3d0be9c2	0.034158476
54	0xbd9b1bd4	-0.07573667
55	0x3c04bb2c	0.008101266
56	0xbc34d71c	-0.011037614
57	0x3ba163a1	0.004925207
58	0x3d8db6d9	0.06919641
59	0x3d330377	0.043704476
60	0xbd3271e8	-0.04356566
61	0x3cfc96d4	0.03083364
62	0x3d06d578	0.032918423
63	0x3d0de992	0.034646578
64	0xbb775ebf	-0.0037745682
65	0xbd66e9d8	-0.056375355
66	0xbcd9041b	-0.026491215
67	0x3c211e49	0.009833881
68	0xbd2c2d28	-0.04203525
69	0xbd1a0db1	-0.037610713
70	0x3d2c9b05	0.042140026
71	0xbd545b49	-0.05184487
72	0x3d188270	0.03723377
73	0x3da64c6b	0.08120044
74	0xbce56cc2	-0.028005961
75	0xbced7f00	-0.028991222
76	0xbcf310b6	-0.029671054
77	0x3d341e59	0.043974254
78	0x3c4832d2	0.012219148
79	0xbccbc825	-0.02487571
80	0x3ceaaf5d	0.028648073
81	0xbd73c532	-0.059514232
82	0xbca94cc9	-0.020666497
83	0xbd398400	-0.0452919
84	0xbc630209	-0.013855466
85	0x3d571cd6	0.052517734
86	0x3d8e0987	0.06935411
87	0xbd873a7a	-0.066029504
88	0xba0beaed	-0.0005337436
89	0xbc3d52ad	-0.011555356
90	0xbcc378ac	-0.023861252
91	0xbb8ba6b7	-0.0042618173
92	0x3d26efc0	0.040755987
93	0xbcf44f72	-0.029823039
94	0x3d91a91e	0.07112335
95	0x3c63a3f6	0.013894072
96	0xbbf26d14	-0.007398257
97	0xbd1e082b	-0.03858201
98	0xbd95c4f2	-0.07312955
99	0xbd15c8db	-0.036568504
100	0xbd2e4e44	-0.04255511
101	0xbc3879ec	-0.011259537
102	0xbcec26ef	-0.028827159
103	0x3d744b4a	0.059642114
104	0x3cd96f0d	0.026542211
105	0xbc293c98	-0.010329388
106	0xbbc75d69	-0.0060841334
107	0xbd930caf	-0.071801536
108	0xbc0b75cf	-0.0085119745
109	0xbbbf414e	-0.0058366423
110	0x3d1533aa	0.036426224
111	0x3a05c5e9	0.0005103038
112	0x3d4752f9	0.048663113
113	0xbcf88f6d	-0.030341828
114	0xbc5014bb	-0.012700255
115	0xbc921d0a	-0.017836113
116	0x3c988fc6	0.018623244
117	0xbd16d415	-0.03682335
118	0xbceed96f	-0.029156415
119	0x3d392ca2	0.04520858
120	0xbd2b78fb	-0.041863423
121	0xbc857b3d	-0.016294116
122	0xbcfdda66	-0.03098793
123	0xbd34879a	-0.044074632
124	0x3d67d840	0.056602716
125	0x3d3eefa4	0.046615258
126	0xbd6f6dee	-0.058454446
127	0xbd4237c1	-0.047416452
128	0x3d83c999	0.06434936
129	0x3ba22181	0.0049478416
130	0xbc38ccce	-0.011279298
131	0xbd42d5ca	-0.047567166
132	0x3d10aaa5	0.03531899
133	0x3d83cfa6	0.0643609
134	0x3cd22238	0.025651082
135	0xbb984801	-0.0046472554
136	0xbd42b483	-0.04753543
137	0x3d25bc1c	0.0404626
138	0x3c2ddfdd	0.010612455
139	0x3d250223	0.04028524
140	0x3d81c2ed	0.06336007
141	0xbd5dec96	-0.054180704
142	0x3d8936d3	0.0669991
143	0x3d62e857	0.055397358
144	0x3d3e8866	0.0465168
145	0xbcb8baa4	-0.022549935
146	0xbc9317cb	-0.017955681
147	0x3d20cc7e	0.03925752
148	0x3d20a639	0.039221022
149	0xbcce05d1	-0.025149258
150	0xbb9fcfe8	-0.0048770793
151	0x3b647d13	0.003486459
152	0xbd0ec4ef	-0.03485578
153	0xbdaa9a59	-0.08330221
154	0x3bee01f3	0.007263416
155	0x3a28fabd	0.00064460543
156	0x3d031278	0.032000035
157	0x3da5a86b	0.08088764
158	0x3b52eb97	0.003218388
159	0x3d1a907c	0.037735447
160	0xbca3374d	-0.01992383
161	0xbbb7f54d	-0.005613959
162	0xbbe13c51	-0.0068736454
163	0x3d88dfee	0.06683336
164	0x3d1e149b	0.03859387
165	0xbc7ab95a	-0.01530298
166	0xbcf18dfc	-0.029486649
167	0xbd883b09	-0.06651885
168	0xbd06d2ab	-0.032915752
169	0xbd6eb53c	-0.058278307
170	0xbb524489	-0.0032084307
171	0x3d5c0640	0.053716898
172	0xbcf35cc9	-0.02970733
173	0x3d439ef7	0.047759023
174	0x3d353102	0.04423619
175	0x3d819eb7	0.063291006
176	0xbb63b118	-0.0034743007
177	0x3d2917e3	0.041282546
178	0x3c406940	0.011743844
179	0xbc683c1b	-0.0141744865
180	0x3b2ebb09	0.0026661775
181	0xbc7947d2	-0.015214877
182	0x3c01cfc9	0.007923075
183	0x3cd5548e	0.026041295
184	0x3d6f3518	0.058400244
185	0x3bb07a22	0.005385653
186	0x3c7a1871	0.015264616
187	0x3959b652	0.00020762652
188	0xbd9f25a7	-0.077708535
189	0x3d319412	0.0433541
190	0xbcb9da23	-0.022687024
191	0xbd0792b0	-0.033098876
192	0x3ca7a7cd	0.020465756
193	0xba0fe914	-0.00054897484
194	0x3ca17c54	0.019712605
195	0xbcb0eab5	-0.021596292
196	0xbb0ce12a	-0.0021496513
197	0xbc77fb15	-0.015135546
198	0x3b860b55	0.0040907064
199	0xbcc5562a	-0.024088938
200	0xbd38e1dd	-0.045137275
201	0x3d54eaca	0.051981725
202	0xbd691bfe	-0.05691146
203	0x3cf53395	0.029931823
204	0xbd8ec6aa	-0.06971486
205	0xbc8b29bc	-0.016987674
206	0xbbafd4a9	-0.0053659272
207	0x3d072fcb	0.033004563
208	0x3d729de4	0.059232607
209	0xbc4b7679	-0.012418383
210	0x3c9ef3c8	0.019403353
211	0x3d34bc1b	0.044124704
212	0xbd456983	-0.048196327
213	0xbd8f4d91	-0.069972165
214	0xbc14cb15	-0.009081622
215	0x3cfdd325	0.03098447
216	0xbd4a01a6	-0.04931798
217	0x3d2a2b38	0.041545123
218	0xbd84aee1	-0.06478668
219	0x3ccd7a08	0.025082603
220	0x3d153c1e	0.036434285
221	0xbd1f85a7	-0.03894582
222	0xbd84a46e	-0.06476675
223	0xbcc047e7	-0.023471786
224	0x3d357871	0.044304315
225	0xbc947177	-0.01812051
226	0xbca88e36	-0.020575624
227	0xbd13ff71	-0.03613228
228	0x3d9b778c	0.07591161
229	0x3d2d4180	0.042298794
230	0xbcd6827b	-0.026185265
231	0xbd5edb4d	-0.05440836
232	0x3ccae173	0.024765706
233	0x3d208cb4	0.039196685
234	0x3c966fcb	0.018363854
235	0xbca91ae2	-0.020642702
236	0x3cb5eb87	0.022207035
237	0xbd951291	-0.07278932
238	0xbcf9ebab	-0.030507883
239	0xbcf46084	-0.029831178
240	0xbd1111f3	-0.03541751
241	0xbccff413	-0.025384938
242	0x3d7da58b	0.061925452
243	0xbda755a7	-0.08170634
244	0xbd7bd44e	-0.061481766
245	0xbcb411e8	-0.021981195
246	0x3d0a548c	0.033772036
247	0x3bb3d764	0.005488323
248	0x3ce64eae	0.02811369
249	0xbd9353f2	-0.07193746
250	0xbcb40338	-0.021974191
251	0x3c400d56	0.01172193
252	0x3d1398d0	0.036034405
253	0x3d7c660f	0.06162077
254	0x3c955cbc	0.018232696
255	0x3d8a40a2	0.06750609

linear3.weight f4 [1, 256]
0	0xbdc29de3	-0.09502771
1	0xbdafc2e2	-0.08582093
2	0x3dda04a7	0.106454186
3	0x3ddb8d9e	0.10720371
4	0x3df6e1e3	0.12054803
5	0xbdce8518	-0.10083979
6	0xbda5afea	-0.080901936
7	0xbdbebd54	-0.09313455
8	0xbdafa339	-0.08576054
9	0x3dfc4681	0.12318135
10	0xbdc1e054	-0.09466615
11	0xbdb97b93	-0.09056773
12	0x3ddf2519	0.10895748
13	0xbdb509ff	-0.08839797
14	0x3dfb75df	0.122783415
15	0x3ddf7a5c	0.1091201
16	0xbdbd46b0	-0.09241998
17	0xbdb5b5ae	-0.08872543
18	0x3de07461	0.109596975
19	0x3df20177	0.11816686
20	0xbdb62ea6	-0.08895616
21	0x3dfa9ae2	0.12236573
22	0x3df0bb98	0.11754531
23	0xbdc52455	-0.096260704
24	0xbdb35c8d	-0.08757887
25	0xbdbd16d0	-0.09232867
26	0xbda1e086	-0.079041526
27	0xbda917eb	-0.08256515
28	0xbdb42b48	-0.08797318
29	0xbdb72660	-0.08942866
30	0x3debd74d	0.11515675
31	0xbda7c7b4	-0.08192387
32	0xbda8ff50	-0.08251822
33	0x3df0ae31	0.117519744
34	0x3deb33dc	0.11484501
35	0xbdbc2575	-0.09186832
36	0xbdb93328	-0.090429604
37	0xbdc2db86	-0.09514527
38	0x3df0a5c8	0.1175037
39	0x3dc95da6	0.09832315
40	0x3deeed53	0.1166636
41	0xbdb3a7c7	-0.08772235
42	0xbd9c84e3	-0.07642534
43	0x3e02cd99	0.12773742
44	0xbdd6bb21	-0.10484911
45	0xbdb755ce	-0.08951913
46	0xbdc40286	-0.09570794
47	0xbdb5ca9d	-0.08876536
48	0x3df14cff	0.11782264
49	0xbdc1c4d2	-0.094613686
50	0xbdb8dd59	-0.09026594
51	0xbd9a7c14	-0.07543197
52	0x3dff2c2c	0.12459597
53	0x3dcf3516	0.10117547
54	0xbda77459	-0.081764884
55	0x3dfe5ccf	0.124200456
56	0x3de6f10b	0.11276444
57	0xbda97e37	-0.08276027
58	0x3dff30f9	0.12460513
59	0xbdbe392e	-0.0928825
60	0xbd9fefe4	-0.078094274
61	0xbdc4afff	-0.09603881
62	0xbdc3d4db	-0.09562083
63	0x3df8ea58	0.121540725
64	0x3def4306	0.116827056
65	0xbdb4d001	-0.08828736
66	0xbdbca940	-0.092119694
67	0x3dd6a0bb	0.10479876
68	0xbda5756f	-0.08079039
69	0x3df98d95	0.12185208
70	0x3de7b929	0.11314613
71	0xbdb74f01	-0.08950616
72	0x3dec1177	0.11526769
73	0x3decfc1b	0.11571523
74	0xbdb6ad52	-0.08919777
75	0xbdabc50e	-0.083871946
76	0xbdc5fc9a	-0.096673205
77	0x3de9e3c9	0.114204
78	0x3dd191c0	0.10232878
79	0x3de908d9	0.11378641
80	0xbdaae189	-0.08343799
81	0xbdc60fcc	-0.09670982
82	0xbdcb59bf	-0.09929227
83	0xbdc90395	-0.09815136
84	0xbdc4e357	-0.09613674
85	0x3e0330bf	0.12811564
86	0x3dedba3a	0.116077855
87	0xbdb41655	-0.08793322
88	0x3df452d1	0.119298585
89	0xbdc8023d	-0.09766052
90	0xbdaeec0b	-0.085411154
91	0x3de8ecba	0.11373277
92	0xbdb29479	-0.08719725
93	0x3de5f548	0.11228424
94	0x3df6cafd	0.12050436
95	0xbdabeef9	-0.0839519
96	0x3dfff6fe	0.12498282
97	0xbdad0894	-0.08448902
98	0xbdae2f9e	-0.08505176
99	0xbdac5d96	-0.084162876
100	0xbdd1ee97	-0.102505855
101	0xbd9a858c	-0.07545003
102	0xbda85e9f	-0.082211725
103	0x3de4b5c3	0.11167481
104	0x3e0180ad	0.12646742
105	0xbdc95fd8	-0.09832734
106	0xbdbc0802	-0.09181215
107	0xbdb0b379	-0.08627982
108	0x3dce7094	0.10080066
109	0xbda59806	-0.08085637
110	0xbdbb5d10	-0.0914861
111	0xbdaf3cc3	-0.08556511
112	0x3dd9b309	0.10629851
113	0xbda73825	-0.081650056
114	0xbdbf976d	-0.09355054
115	0x3dec8f57	0.115507774
116	0xbdb52443	-0.08844807
117	0xbdcf8268	-0.10132295
118	0x3ddd2beb	0.10799392
119	0x3de4bc01	0.111686714
120	0xbdb62bed	-0.08895097
121	0xbdc557fb	-0.096359216
122	0xbdba285a	-0.09089728
123	0x3de6e358	0.11273831
124	0x3df5ad83	0.11995985
125	0x3de6aebd	0.112637974
126	0xbdb1f36e	-0.08689009
127	0xbdadcb7f	-0.084860794
128	0x3ddb8cb3	0.107201956
129	0xbdd88a18	-0.10573214
130	0x3dedd84e	0.116135225
131	0xbdb8e7bc	-0.09028575
132	0xbdabf3ef	-0.08396136
133	0x3e00af0f	0.1256678
134	0x3e00f0b5	0.12591822
135	0xbdc72d0a	-0.097253874
136	0xbdc4c79c	-0.09608385
137	0x3ddabcae	0.10680519
138	0x3df22871	0.1182412
139	0xbdb5634e	-0.088568315
140	0x3df2f36f	0.118628375
141	0xbdcd8b2e	-0.10036312
142	0x3e01f311	0.12690379
143	0x3df037c4	0.117293864
144	0x3de52a05	0.11189655
145	0x3de7b4ae	0.11313759
146	0xbdc13f84	-0.09435943
147	0xbdcbef28	-0.09957725
148	0x3ddc89bb	0.107684575
149	0x3ddab5ec	0.1067923
150	0x3de2124e	0.110386476
151	0xbda67720	-0.0812819
152	0xbdc13346	-0.09433608
153	0xbdae5577	-0.08512395
154	0xbdb419d3	-0.08793988
155	0xbda33218	-0.07968539
156	0xbdacbeb5	-0.08434812
157	0x3e02204b	0.12707631
158	0xbdc621c4	-0.09674409
159	0xbdb71f9a	-0.089415744
160	0x3de2e2a6	0.11078386
161	0x3de1c9f4	0.110248476
162	0xbda79649	-0.081829615
163	0x3dfe3dc6	0.12414126
164	0x3ddc0090	0.10742295
165	0xbdc189f3	-0.0945014
166	0x3df4cf60	0.11953616
167	0xbdb7bc8f	-0.089715116
168	0xbdaeab1e	-0.08528732
169	0xbdb93909	-0.09044082
170	0xbdc058fa	-0.09391971
171	0x3de0573d	0.109541394
172	0x3deb4994	0.11488643
173	0x3df57e1f	0.11986946
174	0x3de615a6	0.11234598
175	0x3df8dd79	0.121516176
176	0xbdaea134	-0.08526841
177	0x3dee2679	0.11628432
178	0x3dfd9b90	0.12383187
179	0xbdbbe709	-0.09174926
180	0x3df8da33	0.12150993
181	0x3de3ef66	0.11129646
182	0xbda459c1	-0.08024932
183	0xbda89042	-0.0823064
184	0x3dd8e838	0.10591167
185	0x3e00ad8d	0.12566204
186	0xbdbe1e02	-0.09283067
187	0xbdbf7610	-0.093486905
188	0xbdab37ca	-0.0836025
189	0x3df4b4db	0.11948558
190	0xbdc87d98	-0.0978958
191	0x3de5b6ad	0.11216483
192	0xbda6da5f	-0.0814712
193	0xbdbb3c39	-0.09142346
194	0xbd9ce5e4	-0.07661036
195	0xbdc8d31b	-0.0980589
196	0xbdc1c9c9	-0.094623156
197	0x3de5ee0b	0.11227044
198	0xbdc6a899	-0.09700126
199	0xbdab2601	-0.08356858
200	0xbdbf22d2	-0.09332813
201	0x3df36ea1	0.11886335
202	0xbdb80407	-0.08985143
203	0xbdc172ac	-0.094457
204	0xbdb4c91b	-0.0882742
205	0xbd9a8780	-0.07545376
206	0xbdb07fb3	-0.08618107
207	0xbdcacece	-0.09902726
208	0x3debd931	0.11516035
209	0xbdbe1b48	-0.09282547
210	0xbdb4aed5	-0.08822409
211	0x3df125e7	0.117748074
212	0xbdb977e5	-0.09056071
213	0xbdba021c	-0.090824336
214	0x3df02cc8	0.11727291
215	0xbdc00383	-0.0937567
216	0x3ddde57a	0.10834785
217	0x3dedbb23	0.11607959
218	0xbdb24309	-0.08704192
219	0xbd9c9a17	-0.07646578
220	0x3df2eeba	0.1186194
221	0xbdc2a563	-0.09504201
222	0xbdb110ca	-0.086457804
223	0xbdb956f9	-0.09049792
224	0x3df36686	0.11884789
225	0x3de88d09	0.11355025
226	0x3de4d1a7	0.111728005
227	0x3ded45f5	0.11585609
228	0x3dfb1756	0.1226031
229	0x3dee175d	0.1162555
230	0xbdbb72c3	-0.091527484
231	0xbdb4cecd	-0.088285066
232	0xbdb08a09	-0.08620078
233	0xbdbbb295	-0.09164921
234	0xbdb07ae4	-0.086171895
235	0x3dd223ad	0.10260711
236	0x3de9cfeb	0.1141661
237	0xbdac8f17	-0.0842573
238	0x3df54a22	0.1197703
239	0x3df6840c	0.12036905
240	0xbdb4cf3b	-0.088285886
241	0xbdb715c6	-0.089397
242	0x3e029a2e	0.12754127
243	0xbdcfcbcf	-0.10146295
244	0xbd9f1bf9	-0.07769007
245	0x3de46fae	0.11154114
246	0x3de8c42f	0.11365544
247	0x3e01e1ff	0.12683867
248	0xbdc470c4	-0.09591821
249	0xbd9f810e	-0.07788287
250	0xbdcd5d88	-0.10027605
251	0x3e011650	0.12606168
252	0xbdc43e86	-0.09582238
253	0x3dd6620e	0.10467921
254	0xbdc9e321	-0.098577745
255	0x3dd56052	0.10418762
