testing/scripts/outputs/DDPG_Env/20221216-051603/models/370critic_checkpoint.pt (torch, 282455 bytes, 5 tensors)

linear1.weight f4 [256, 15]
0.26545674 0.042737078 -0.24928722 -0.4889183 -0.4714093 -0.7248964 -0.17717272 -0.18259376
-0.27657208 -0.36091653 0.26606318 -0.034697104 -0.25090772 0.0039006704 -0.13445663 0.5243709
0.11626326 -0.46822307 -0.031462014 -0.026459485 0.41985708 0.14743228 -0.31229657 -0.3334589
0.15524386 0.26624906 -0.0088532055 0.061642434 -0.095054395 0.07627343 0.2789734 -0.32364953
-0.24550763 -0.5795178 -0.4618054 -0.13717853 0.019936308 0.22814754 0.17127344 -0.08061922
0.15317014 -0.11899554 -0.086752616 -0.08167556 -0.2432724 0.10890496 -0.13205573 -0.34941596
-0.57323444 -0.15181224 0.14138523 0.05466427 -0.052797716 0.31359988 -0.11502923 0.044677634
-0.0071610054 0.24766776 0.0010746176 -0.2386788 -0.15873069 -0.1891158 0.35863826 -0.5534988
-0.8870329 -1.3292036 -1.1349355 -0.6891435 -1.1671723 0.20223735 0.056663163 -0.07904791
-0.04700705 -0.07806619 0.026358705 -0.1969729 0.18298127 0.028183121 -0.7266945 -0.5160221
-0.8859879 -0.829744 -0.60435086 -0.46772024 -0.35352513 0.15785004 -0.001664555 -0.072757415
-0.19137941 -0.11545608 -0.12479346 0.12682337 -0.14258438 -0.80590934 -0.9313372 -0.82763696
-0.94652766 -0.5440379 -0.9266869 0.20714952 0.12569484 -0.2147324 -0.082127504 -0.12310776
-0.27140394 0.16708341 0.57506716 0.30971473 0.4178814 -0.3259136 -0.92621624 -0.6446499
0.40559435 -0.06996746 0.24672024 0.075898446 -0.3209258 0.2295758 -0.31319302 -0.16929547
-0.068749525 0.21574618 0.023664191 -0.6384774 0.12355751 0.48271215 0.44014084 -0.3516864
-0.44574952 -0.25345343 -0.41552094 -0.0041245837 0.39899054 0.059660576 -0.005425176 0.097001635
0.07508514 -0.46410382 -0.6747412 -0.82261777 -0.71443397 -0.4782724 -0.5436503 -1.1356245
0.063960195 -0.02203556 0.036239635 -0.06983534 -0.029208139 0.07389318 -0.10934076 0.1646176
0.47628087 0.474948 0.24904828 0.4865084 0.31605607 0.6288352 0.51124424 -0.011586985
-0.017635642 -2.1403177 -0.056178793 0.061216205 -0.02873649 -0.05928417 0.22566149 -0.2579257
-0.34293696 -0.6259088 -0.15030843 -0.084412746 -0.25946596 0.103990935 -0.0021727053 0.019656586
0.15962124 0.15893582 -0.16607901 0.18899494 0.10043306 0.21179892 0.0007328254 -0.2853104
0.24557623 0.3688773 0.04608127 -0.4308409 0.04219732 0.19307047 0.079269916 -0.06905363
0.04276707 -0.42647767 -0.3165306 0.026323264 -0.013353857 -0.040502448 -0.27431813 0.0417793
-0.0019738204 0.11270448 -0.040636048 -0.002908447 -0.31570372 -0.46486986 0.022508314 0.3610549
0.062811725 -0.057646 -0.21083808 0.24400161 -0.11499495 -0.19375005 -0.84414846 -0.87575924
-0.37192646 -0.73334646 -0.21888067 -0.16662827 0.2779462 0.00552047 -0.2111046 0.0031200037
0.081405565 -0.31827173 -0.9141123 0.011173344 0.07578014 -0.31786045 -1.524536 -1.1860489
-1.0458215 0.091270916 0.28751943 -0.09326543 0.1469236 -0.008393749 -0.21824704 0.05024837
0.004458094 -0.47569406 -0.2411002 -0.5093917 -0.5697918 -0.9467594 -0.40454748 -0.23374096
-0.092944995 -0.11698122 0.2653896 0.010152904 -0.22408938 -0.04156455 -0.001606921 -0.4068424
00000000: f2e9 873e 130d 2f3d 2645 7fbe 8053 fabe
00000010: 8f5c f1be cf92 39bf c46c 35be dcf9 3abe
00000020: db9a 8dbe 0dca b8be 6f39 883e 8d1e 0ebd
00000030: fa76 80be 64a2 7f3b 00af 09be 2c3d 063f
00000040: 6f1b ee3d efba efbe 50de 00bd 90c1 d8bc
00000050: 82f7 d63e 7df8 163e 56e5 9fbe 20bb aabe
00000060: 3ff8 1e3e cc51 883e 090d 11bc c77c 7c3d
00000070: e1ab c2bd 3e35 9c3d 9ad5 8e3e 64b5 a5be
00000080: 5a66 7bbe 475b 14bf c271 ecbe 8778 0cbe
00000090: 7851 a33c 829f 693e 4e62 2f3e b11b a5bd
000000a0: a2d8 1c3e efb3 f3bd 5bab b1bd 8445 a7bd
000000b0: 661c 79be 9009 df3d 9e39 07be a6e6 b2be
000000c0: 7ebf 12bf ab74 1bbe 4ac7 103e a4e7 5f3d
000000d0: 6b42 58bd 2a90 a03e 7294 ebbd e5ff 363d
000000e0: dea6 eabb 9e9c 7d3e 2fda 8c3a 3768 74be
000000f0: 4c8a 22be 93a7 41be 6f9f b73e 19b2 0dbf
00000100: 9714 63bf 5823 aabf 9145 91bf b56b 30bf
00000110: e765 95bf 4f17 4f3e a217 683d dfe3 a1bd
00000120: 778a 40bd 2be1 9fbd 36ee d73c 44b3 49be
00000130: 715f 3b3e 4ae0 e63c a708 3abf 061a 04bf
00000140: 1ad0 62bf 1a6a 54bf bdb6 1abf 0779 efbe
00000150: 3f01 b5be 71a3 213e 332d daba d701 95bd
00000160: f7f8 43be 3d74 ecbd b793 ffbd fcdd 013e
00000170: a401 12be 1350 4ebf 1d6c 6ebf 04e0 53bf
00000180: a34f 72bf 1146 0bbf 5a3b 6dbf 011f 543e
00000190: 26b6 003e cfe2 5bbe 7732 a8bd ec1f fcbd
000001a0: 75f5 8abe ea17 2b3e 9a37 133f ee92 9e3e
000001b0: 8df4 d53e 26de a6be 821c 6dbf c707 25bf
000001c0: 10aa cf3e 1a4b 8fbd 3ba4 7c3e a570 9b3d
000001d0: 6350 a4be eb15 6b3e d65a a0be cb5b 2dbe
000001e0: 8dcc 8cbd 91ec 5c3e 68db c13c 4173 23bf
000001f0: b80b fd3d 0c26 f73e 245a e13e 3d10 b4be
00000200: 4839 e4be a6c4 81be 29bf d4be 8427 87bb
00000210: 7d48 cc3e a65e 743d adc5 b1bb cba8 c63d
00000220: 3dc6 993d 049f edbe d7bb 2cbf 1497 52bf
00000230: 25e5 36bf 1fe0 f4be ab2c 0bbf 255c 91bf
00000240: 90fd 823d eb83 b4bc 0370 143d d505 8fbd
00000250: e845 efbc 4f55 973d 0cee dfbd 8491 283e
00000260: 16db f33e 622c f33e 8306 7f3e a117 f93e
00000270: 1ad2 a13e 58fb 203f e7e0 023f 56d7 3dbc
00000280: 9f78 90bc f7fa 08c0 bc1b 66bd d8bd 7a3d
00000290: ca68 ebbc f5d3 72bd ce13 673e d60e 84be
000002a0: 6f95 afbe 8f3b 20bf 74ea 19be 97e0 acbd
000002b0: b9d8 84be 33f9 d43d f263 0ebb d906 a13c
000002c0: c073 233e 12c0 223e 9e10 2abe e487 413e
000002d0: d9af cd3d d1e1 583e 151b 403a 3414 92be
000002e0: 5678 7b3e 7cdd bc3e b7bf 3c3d 2e97 dcbe
000002f0: 19d7 2c3d 44b4 453e 4458 a23d fd6b 8dbd
00000300: 862c 2f3d 485b dabe 4c10 a2be e3a3 d73c
00000310: 23ca 5abc e5e5 25bd 6d73 8cbe c520 2b3d
00000320: 365b 01bb 9bd1 e63d fc71 26bd a59b 3ebb
00000330: eba3 a1be 6c03 eebe 5b63 b83c 30dc b83e
00000340: 6fa3 803d 361e 6cbd f0e5 57be 8fdb 793e
00000350: 7982 ebbd 6a66 46be 1d1a 58bf c231 60bf
00000360: 256d bebe 98bc 3bbf 4122 60be 9aa0 2abe
00000370: f74e 8e3e 0fe5 b43b ce2b 58be fa78 4c3b
00000380: f6b7 a63d 83f4 a2be 4403 6abf 6710 373c
00000390: 9e32 9b3d 9bbe a2be ff23 c3bf 73d0 97bf
000003a0: 7bdd 85bf 3fec ba3d bf35 933e f201 bfbd
000003b0: 2473 163e ef85 09bc 277c 5fbe 3cd1 4d3d
000003c0: 3415 923b 2c8e f3be f9e2 76be 7f67 02bf
000003d0: e0dd 11bf d35e 72bf d920 cfbe ca59 6fbe
000003e0: f259 bebd da93 efbd 25e1 873e 5e58 263c
000003f0: b077 65be 973f 2abd 529f d2ba a64d d0be

linear1.bias f4 [256]
0.40564623 0.53521544 0.7660753 0.8153086 0.5965277 0.574277 0.43017086 -0.149427
0.23504423 0.44700512 0.31823373 0.5324614 0.7302525 0.24173778 0.35808766 0.8718445
0.5506177 0.45870554 0.6997721 0.3570146 -0.25198692 -0.006320172 0.53135467 0.6258051
0.574102 -0.36184153 0.510207 0.48570767 0.78327906 -0.45186004 0.09910156 0.09695693
-0.6286331 0.71731216 -0.37031707 0.6857765 0.63029027 0.4375026 0.4482019 -0.19252926
0.20788124 0.6233319 0.25983995 0.5925731 0.1785437 0.5377903 0.6465664 -0.11454283
0.302516 -0.0061939065 0.7552531 0.63438135 0.38292018 0.53983754 0.30554125 0.75551707
0.39971006 -0.25822765 0.443954 -0.4078609 0.5107565 -0.42582864 0.45304313 -0.12512004
-0.50882643 0.85021466 0.52851367 0.5344178 -0.27209267 -0.39524445 0.61833787 0.5678353
-0.27814257 0.65379894 0.20527746 0.5744638 0.6378281 0.6433599 -0.69718766 0.4377777
-0.32800356 0.6420319 -0.51314783 -0.1709775 0.7731323 -0.3116177 -0.2477076 0.3112298
-0.24855563 -0.48747197 0.63470185 0.27700922 0.33920023 0.34230408 -0.4610749 0.21714038
0.7418554 0.7392493 0.3314904 0.30869007 0.67130166 0.55847454 0.4691716 0.65963537
0.71212524 0.58459073 0.58321166 0.6558194 0.7712642 0.30754867 0.63760275 0.55005324
0.6191199 0.5641579 -0.2548728 -0.53464705 0.67715305 0.088284716 -0.40242156 -0.01703503
0.82035637 0.5636404 0.7720923 0.59424955 -0.70920706 0.79133946 0.40288025 0.04662552
-0.34970403 0.49122155 0.46944013 0.35467345 -0.12507427 0.6455852 -0.025878843 0.36019835
-0.2107118 0.75791943 0.38884643 0.36370412 0.41787732 -0.046442524 0.1891626 0.15622638
0.34105882 0.23842223 0.72962874 0.4240104 0.54359525 0.33618337 0.43057546 0.2307468
0.37821537 0.66389525 0.76155764 0.66087234 0.25417084 0.2995864 -0.114213854 0.29726866
0.49121416 0.26579088 -0.7074511 0.48343524 0.7621977 0.45587873 0.7176871 0.25401697
0.594303 0.27908674 0.69546497 0.6107937 0.3204836 -0.18443482 0.5153798 0.16543704
0.8326499 0.4687776 0.61687446 0.66346884 0.31209162 0.46385947 0.791044 -0.38621098
0.32580075 0.52854186 0.7066983 -0.17115375 0.5069132 0.44840026 0.68352824 0.6847332
-0.29177877 0.2448476 0.20997515 0.75037104 -0.078616016 0.7040109 0.28897232 -0.2795052
0.45706448 0.61339235 -0.25812426 0.41813064 0.27664235 -0.16215716 0.6372095 0.22367288
0.42390195 0.69647664 0.16267979 0.64743656 0.32903895 0.7688087 0.748336 0.49849677
0.7163844 -0.18401794 0.6347506 0.6558567 0.21260102 0.37478757 0.65282655 -0.28519502
0.34828168 0.5024292 0.560132 -0.036862895 0.30164436 0.7162822 0.4788945 0.5350565
0.39915553 0.6177276 -0.2841998 0.34358385 0.4166531 -0.2171592 0.5823002 0.6417989
0.5398888 0.083642945 0.6767904 0.5496048 -0.30592132 0.473836 0.42422393 -0.09272451
0.526944 -0.51662266 0.6898621 0.550273 0.26883763 0.55414 0.3875037 0.27806222
00000000: ddb0 cf3e e103 093f 831d 443f 10b8 503f
00000010: 0ab6 183f d103 133f 5b3f dc3e 6403 19be
00000020: 6faf 703e dbdd e43e 88ef a23e 644f 083f
00000030: d4f1 3a3f 1c8a 773e 4457 b73e 3331 5f3f
00000040: 48f5 0c3f 74db ea3e 4424 333f 9eca b63e
00000050: 6e04 81be 7219 cfbb dc06 083f c334 203f
00000060: 59f8 123f 4b43 b9be ed9c 023f adae f83e
00000070: fa84 483f 335a e7be c2f5 ca3d 5b91 c63d
00000080: 19ee 20bf c5a1 373f 339a bdbe 0c8f 2f3f
00000090: b45a 213f 5700 e03e b87a e53e 6426 45be
000000a0: d2de 543e ae92 1f3f be09 853e dfb2 173f
000000b0: 29d4 363e a0ac 093f 6085 253f 6e95 eabd
000000c0: 61e3 9a3e 41f6 cabb 4458 413f d166 223f
000000d0: 1d0e c43e cb32 0a3f e76f 9c3e 9169 413f
000000e0: cca6 cc3e 6a36 84be f04d e33e 25d3 d0be
000000f0: f0c0 023f 3606 dabe 45f5 e73e 781f 00be
00000100: 7342 02bf aba7 593f ac4c 073f 9bcf 083f
00000110: bb4f 8bbe 7b5d cabe 644b 1e3f a75d 113f
00000120: b468 8ebe 5e5f 273f 4134 523e 0f10 133f
00000130: b448 233f 3cb3 243f e47a 32bf 6624 e03e
00000140: 15f0 a7be 345c 243f a85d 03bf ba14 2fbe
00000150: 00ec 453f 5b8c 9fbe 10a7 7dbe 8359 9f3e
00000160: 5e85 7ebe ed95 f9be d27b 223f 27d4 8d3e
00000170: a7ab ad3e 7b42 af3e 0212 ecbe 0c5a 5e3e
00000180: 3cea 3d3f 713f 3d3f 1cb9 a93e a00c 9e3e
00000190: 6dda 2b3f 30f8 0e3f 4337 f03e dddd 283f
000001a0: d74d 363f bda7 153f 5c4d 153f c8e3 273f
000001b0: 9271 453f 0577 9d3e ef39 233f 4ad0 0c3f
000001c0: a47e 1e3f a76c 103f b07e 82be a1de 08bf
000001d0: e759 2d3f 9ece b43d 330a cebe 0c8d 8bbc
000001e0: e002 523f bd4a 103f d7a7 453f bd20 183f
000001f0: 988e 35bf 3995 4a3f 5246 ce3e 67fa 3e3d
00000200: 680c b3be 6481 fb3e 755a f03e c297 b53e
00000210: 7813 00be 1245 253f deff d3bc eb6b b83e
00000220: d6c4 57be 0207 423f e116 c73e 6d37 ba3e
00000230: 04f4 d53e 843a 3ebd d7b3 413e cff9 1f3e
00000240: 439f ae3e f524 743e f3c8 3a3f e417 d93e
00000250: 0f29 0b3f 3a20 ac3e 6374 dc3e e448 6c3e
00000260: 72a5 c13e 0af5 293f 71f5 423f ee2e 293f
00000270: ae22 823e 6363 993e f4e8 e9bd 9933 983e
00000280: 6c80 fb3e be15 883e 841b 35bf d384 f73e
00000290: 631f 433f f068 e93e 57ba 373f 830e 823e
000002a0: 3e24 183f 75e4 8e3e fe09 323f fa5c 1c3f
000002b0: 6d16 a43e 7bdc 3cbe eeef 033f 5468 293e
000002c0: 8b28 553f 9e03 f03e 7ceb 1d3f 18d9 293f
000002d0: 79ca 9f3e fd7e ed3e dc81 4a3f 72bd c5be
000002e0: 5bcf a63e 854e 073f 2eea 343f ee42 2fbe
000002f0: 10c5 013f b894 e53e b5fb 2e3f ad4a 2f3f
00000300: 0764 95be 54b9 7a3e ba03 573e 5118 403f
00000310: 6f01 a1bd 0f3a 343f 2ef4 933e 4e1b 8fbe
00000320: 5b04 ea3e 4807 1d3f dd28 84be 3815 d63e
00000330: 11a4 8d3e 870c 26be 2920 233f 810a 653e
00000340: ad09 d93e 4b4c 323f 8895 263e 67be 253f
00000350: cb77 a83e a6d0 443f f392 3f3f f83a ff3e
00000360: f864 373f 336f 3cbe 047f 223f 3ae6 273f
00000370: 15b4 593e 28e4 bf3e a41f 273f 1505 92be
00000380: fa51 b23e 339f 003f d064 0f3f 8cfd 16bd
00000390: 2171 9a3e 455e 373f a931 f53e 76f9 083f
000003a0: 1d5e cc3e 6523 1e3f a382 91be 39ea af3e
000003b0: 8e53 d53e fb5e 5ebe a011 153f ef4c 243f
000003c0: 2736 0a3f fe4c ab3d 2342 2d3f e6b2 0c3f
000003d0: b8a1 9cbe a29a f23e e133 d93e 59e6 bdbd
000003e0: cde5 063f 6241 04bf cd9a 303f b1de 0c3f
000003f0: 16a5 893e 1edc 0d3f e366 c63e 2c5e 8e3e

linear2.weight f4 [256, 256]
0.16604973 0.32687578 0.3603291 0.3186064 0.6348096 0.24879774 0.3335875 -0.6735952
0.27397516 0.46841487 -0.8114833 0.22397782 0.16864647 0.47410697 0.22945374 0.97191685
0.12949464 0.5740232 0.2955812 0.2856317 -0.9354335 -0.67894405 0.37917507 0.47207603
0.09815237 -0.6761395 0.28693643 0.33484465 0.1680584 -1.1090955 0.28087658 0.3317408
-0.7371467 0.5649493 -0.6253056 0.25045773 0.2597034 0.40675536 0.08335073 -0.72615755
0.3498097 0.3226822 -0.50170034 0.56646633 0.052204512 0.669772 0.16338313 -0.43714252
0.33499596 0.13226438 0.15209404 0.38366455 0.15161146 0.48689875 0.34675047 0.30227974
0.43430144 -1.393299 0.34272826 -1.1950651 0.26092106 -1.1172775 1.1211084 -0.3771651
-0.80559677 0.3027439 0.35250217 0.41941145 -0.55336607 -0.29943383 0.18459606 0.5606212
-0.75044847 0.6237785 0.076037414 0.2117501 0.30416232 0.2731637 -0.84915245 0.26404804
-1.0946053 0.62221223 -0.52804416 -0.90318173 0.19131443 -0.8801756 -0.4144037 0.19166782
-0.4783351 -0.84995854 0.32836935 0.34565657 0.3591526 0.35945082 -0.45378134 0.2889635
0.25183678 0.36674473 0.40345973 0.36205384 0.3313085 0.2992685 0.4439024 0.52929187
0.26016998 0.4261403 0.19861923 0.30995244 0.108227685 0.31356254 0.38048303 0.23319347
0.368277 0.28345886 -0.9846262 -1.2812724 0.34325516 0.11295766 -0.8723075 -0.6757951
0.942879 0.2307258 0.16855192 0.41793612 -0.9999029 0.41627222 0.2423898 -0.58265775
-0.68015575 0.29253742 0.6101477 0.15890619 -0.3797871 0.18350708 -0.9625921 0.85109913
-0.7723515 0.15026927 0.47246158 0.5559548 0.42481866 -0.8485166 0.29427218 0.6775283
0.35813135 0.20872878 0.252653 0.29856595 0.4322973 0.36609516 0.24811842 0.27551973
0.13421433 1.1437413 0.13932236 0.37679812 0.4392284 0.5937314 -0.6750988 0.2824929
0.26918942 0.23529729 -1.1376776 0.41988426 0.12361628 0.35076454 0.20349307 0.19677603
0.2676579 -0.5341517 0.49469894 0.18634862 0.41753057 -0.4516568 0.8642142 0.021528631
0.28243083 0.569228 0.4454707 0.41026905 0.30872476 0.32562333 0.6374019 -0.47918025
0.44470143 0.5338965 0.17651418 -0.82176536 0.97328454 0.20922486 0.34266534 0.43427402
-0.51938665 0.08735155 -0.7803664 0.22847307 -0.5545769 0.32938308 0.0764092 -0.914679
0.30982405 0.38923743 -0.7148188 0.91160315 0.22349627 -0.73611057 0.34828487 0.44815484
0.29679668 0.37072632 0.44198895 0.24132517 0.40840715 0.29816687 0.3945009 0.2139577
0.30626252 -0.92926085 0.37016577 -0.05733822 0.3741638 0.3517911 0.2788228 -1.283467
0.20095679 0.4617593 0.18172912 -0.571532 0.61848426 0.89205694 1.1351401 0.25230095
0.15640931 0.15982437 -0.55787754 0.12836637 0.17988612 -0.5823806 0.67211944 0.455241
0.03670083 0.18151835 0.38203275 0.36589077 -1.1396545 0.29121226 -0.020946935 -0.53936183
0.37056836 -0.780311 0.34805048 0.26386273 0.53015244 0.5710172 0.26153508 0.3168565
00000000: f108 2a3e 435c a73e 0e7d b83e 6120 a33e
00000010: e282 223f d6c4 7e3e fbcb aa3e bc70 2cbf
00000020: 7946 8c3e 13d4 ef3e 5fbd 4fbf 715a 653e
00000030: a9b1 2c3e 26be f23e ecf5 6a3e 8bcf 783f
00000040: 3e9a 043e 2ff3 123f 6b56 973e 513e 923e
00000050: 9278 6fbf 47cf 2dbf 3c23 c23e f3b3 f13e
00000060: 1c04 c93d 7a17 2dbf 55e9 923e c270 ab3e
00000070: 8017 2c3e d7f6 8dbf 0ecf 8f3e eed9 a93e
00000080: a5b5 3cbf 84a0 103f 0714 20bf ff3b 803e
00000090: d8f7 843e 3d42 d03e cab3 aa3d 76e5 39bf
000000a0: 421a b33e 9a36 a53e 6f6f 00bf f003 113f
000000b0: 66d4 553d 2e76 2b3f e84d 273e 25d1 dfbe
000000c0: 9784 ab3e 5070 073e 8abe 1b3e ae6f c43e
000000d0: 0940 1b3e cb4a f93e 4789 b13e 69c4 9a3e
000000e0: c25c de3e 9f57 b2bf 147a af3e e5f7 98bf
000000f0: 7297 853e f302 8fbf 7b80 8f3f c91b c1be
00000100: 973b 4ebf 4001 9b3e 2a7b b43e 19bd d63e
00000110: 66a9 0dbf 644f 99be c006 3d3e df84 0f3f
00000120: 641d 40bf f3af 1f3f 81b9 9b3d 05d5 583e
00000130: 2abb 9b3e 1ddc 8b3e 0e62 59bf 4e31 873e
00000140: 071c 8cbf 4d49 1f3f e72d 07bf eb36 67bf
00000150: eee7 433e 3053 61bf b92c d4be 9244 443e
00000160: 57e8 f4be e296 59bf 0720 a83e e6f9 b03e
00000170: d9e2 b73e f009 b83e 0756 e8be 06f3 933e
00000180: c0f0 803e f7c5 bb3e 4692 ce3e 1f5f b93e
00000190: 45a1 a93e b939 993e 2d47 e33e ac7f 073f
000001a0: 0035 853e 102f da3e d762 4b3e 16b2 9e3e
000001b0: 7aa6 dd3d 458b a03e acce c23e 45ca 6e3e
000001c0: ce8e bc3e 8521 913e 7610 7cbf bc00 a4bf
000001d0: 24bf af3e 5856 e73d 8b4f 5fbf e800 2dbf
000001e0: 8560 713f 6243 6c3e e098 2c3e b9fb d53e
000001f0: a3f9 7fbf a221 d53e 0835 783e 0f29 15bf
00000200: b01e 2ebf 77c7 953e a432 1c3f 4eb8 223e
00000210: 7473 c2be 48e9 3b3e 706c 76bf a2e1 593f
00000220: d4b8 45bf 30e0 193e 7ce6 f13e 0e53 0e3f
00000230: d581 d93e 6238 59bf d8aa 963e 7f72 2d3f
00000240: fe5c b73e ffbc 553e bc5b 813e a3dd 983e
00000250: 1256 dd3e d370 bb3e c112 7e3e ec10 8d3e
00000260: 7b6f 093e 1d66 923f 85aa 0e3e afeb c03e
00000270: 8be2 e03e c8fe 173f 46d3 2cbf e9a2 903e
00000280: 32d3 893e c6f1 703e 6b9f 91bf 12fb d63e
00000290: 882a fd3d 6997 b33e 7d60 503e a87f 493e
000002a0: 750a 893e 2abe 08bf 2e49 fd3e 2cd2 3e3e
000002b0: 91c6 d53e 8f3f e7be 243d 5d3f d05c b03c
000002c0: c69a 903e edb8 113f bc14 e43e c90e d23e
000002d0: 2c11 9e3e 1ab8 a63e c52c 233f 1d57 f5be
000002e0: e8af e33e 71ad 083f 22c0 343e 375f 52bf
000002f0: 2d29 793f 0b3f 563e d571 af3e 2a59 de3e
00000300: 86f6 04bf 5fe5 b23d 18c6 47bf d8f4 693e
00000310: c0f8 0dbf e6a4 a83e 6d7c 9c3d 6728 6abf
00000320: 42a1 9e3e 214a c73e 5dfe 36bf d35e 693f
00000330: 35dc 643e be71 3cbf 6552 b23e 8d74 e53e
00000340: bcf5 973e d7cf bd3e 604c e23e f21d 773e
00000350: be1a d13e 54a9 983e 06fc c93e ba17 5b3e
00000360: 71ce 9c3e 0ae4 6dbf 5e86 bd3e 7bdb 6abd
00000370: 6692 bf3e f71d b43e ddc1 8e3e a648 a4bf
00000380: 9ec7 4d3e b76b ec3e 3317 3a3e ec4f 12bf
00000390: fc54 1e3f d85d 643f 454c 913f 972d 813e
000003a0: c329 203e 00a9 233e 10d1 0ebf 7972 033e
000003b0: 1134 383e e516 15bf 0510 2c3f 5915 e93e
000003c0: 9c53 163d f2df 393e cc99 c33e 0956 bb3e
000003d0: 33e0 91bf c619 953e e898 abbc 9e13 0abf
000003e0: 23bb bd3e 76c2 47bf ac33 b23e 0419 873e
000003f0: 12b8 073f 2f2e 123f ede7 853e 043b a23e

linear2.bias f4 [256]
0.46267238 0.39947343 0.63639516 0.46738255 0.48789585 0.38284177 0.4399703 0.44007745
0.40325677 0.4403275 0.3893866 0.53094876 0.39118388 0.4361852 0.3938218 -0.04066021
0.41512248 0.003623937 0.48271734 0.38024536 0.40412474 0.37381026 0.38756555 0.2991307
0.3970343 0.36747864 0.589641 0.4004869 0.5249938 0.47791156 0.48053163 0.47795182
0.38972604 0.48713526 0.4486531 0.49209377 0.45049587 0.45826325 0.52703565 0.4760725
0.41972774 0.0691903 0.4230677 0.4196565 0.52446145 0.48113072 0.46345314 0.41633904
0.4119021 0.4275929 -0.032680344 0.43744674 0.7317987 0.45204502 0.38852757 0.60998446
-0.0023653589 0.45383242 0.4970403 0.474583 0.49092135 0.42364326 0.03234664 0.46164414
0.4442373 0.51485395 0.4237073 0.43750447 0.5683954 0.50953573 0.4538985 0.4788637
0.45430303 0.43937692 0.38911706 0.41964972 -0.01341152 0.4745904 0.42996797 0.41374508
0.45159578 0.44682568 0.6225972 0.44511607 -0.015325483 0.43243107 0.35897762 0.4786809
0.5417293 0.42938054 0.47293085 0.5152213 0.42515916 0.4657387 0.4125814 0.4127758
0.45573023 0.52901727 0.36528668 0.3966658 0.47499865 0.4608359 0.39495882 0.5212367
0.38707516 0.38383374 0.47758824 0.41447118 0.3770303 0.4404322 0.40620038 0.44526094
0.44905347 0.48451883 0.41596934 0.4267291 0.45834967 0.05607694 0.70903057 0.45610127
0.42797044 0.39540714 0.54126906 0.36998817 0.46814734 0.41813284 0.43709117 0.45071593
-0.056880396 0.46314242 0.4393591 0.37623394 0.4038174 0.5287281 0.36415115 0.43564415
0.43626425 0.4634583 0.4262163 0.36267897 0.4990302 0.5831563 0.4394446 0.41367227
0.47191012 0.41058242 0.4104649 0.4974272 0.4745871 0.42979217 0.37012973 0.6587666
0.4830792 0.4217014 0.5249195 0.47808614 0.36931214 0.6548285 0.061766732 0.40563112
0.61314464 0.45103136 0.4535225 0.46344495 0.38390592 0.38411194 0.4920914 0.48502496
0.3960154 0.57903045 0.4396357 0.43345693 0.48410764 0.47674108 0.47674832 0.41600347
0.44003215 0.44043565 0.44996336 0.45995495 0.4559519 0.5763615 0.49246255 0.44227588
0.5101729 0.4287723 0.5479994 0.6132711 0.3848954 0.65233827 0.40212214 0.38115853
0.41020966 0.49633867 0.42230558 0.43388513 0.38032636 0.3905905 0.41008025 0.39874542
0.38240215 0.4291587 0.42834696 0.37386534 0.40570843 0.37060657 0.44812515 0.40343097
0.47020745 0.45967436 0.41123134 0.46644837 0.40134507 0.3939249 0.4537591 0.33255473
0.38883752 0.4580128 0.45368618 0.36601546 0.40681595 0.3886069 0.46907637 0.45222124
0.36566353 0.48705587 0.23050664 0.43251407 0.44317526 0.41777077 0.39158985 0.51601386
0.52485585 0.47597364 0.4759223 0.31178015 0.37342858 0.45193195 0.46751884 0.3935855
0.47180465 0.38268358 0.46337277 0.45388687 0.429228 0.44332603 0.48329192 0.42941457
0.42566878 0.5348548 0.37468305 0.5058974 0.48197424 0.48326543 0.42511868 0.48546278
00000000: 65e3 ec3e c887 cc3e cbea 223f c44c ef3e
00000010: 7ccd f93e d603 c43e ca43 e13e d551 e13e
00000020: ac77 ce3e 9b72 e13e ae5d c73e 42ec 073f
00000030: 4149 c83e ab53 df3e 03a3 c93e 528b 26bd
00000040: ef8a d43e 937f 6d3b ba26 f73e 85af c23e
00000050: 70e9 ce3e 0f64 bf3e fe6e c63e a927 993e
00000060: 1448 cb3e 2926 bc3e b6f2 163f 9e0c cd3e
00000070: fe65 063f d3b0 f43e 3e08 f63e 1ab6 f43e
00000080: 2c8a c73e cb69 f93e dcb5 e53e b7f3 fb3e
00000090: 65a7 e63e 7ba1 ea3e cfeb 063f c6bf f33e
000000a0: 8ee6 d63e a5b3 8d3d 549c d83e 37dd d63e
000000b0: 1b43 063f c456 f63e bb49 ed3e 642a d53e
000000c0: d5e4 d23e 75ed da3e d3db 05bd 05f9 df3e
000000d0: 2957 3b3f 7272 e73e 16ed c63e f127 1c3f
000000e0: 2304 1bbb b95c e83e 117c fe3e 8bfc f23e
000000f0: 0b5a fb3e c5e7 d83e e97d 043d 9f5c ec3e
00000100: 1273 e33e 78cd 033f 2af0 d83e 9600 e03e
00000110: 5c82 113f ef70 023f 6265 e83e 9f2d f53e
00000120: 689a e83e 03f6 e03e 5a3a c73e 54dc d63e
00000130: febb 5bbc 83fd f23e c324 dc3e 65d6 d33e
00000140: 9037 e73e 56c6 e43e 8862 1f3f 41e6 e33e
00000150: bc17 7bbc 9b67 dd3e eacb b73e aa15 f53e
00000160: c5ae 0a3f c4d7 db3e fe23 f23e 8be5 033f
00000170: 76ae d93e 4e75 ee3e df3d d33e 5a57 d33e
00000180: 7955 e93e ad6d 073f db06 bb3e c817 cb3e
00000190: 0633 f33e aff2 eb3e 0b38 ca3e c56f 053f
000001a0: b72e c63e db85 c43e 7286 f43e 9135 d43e
000001b0: 1e0a c13e 5480 e13e 7ff9 cf3e 3ef9 e33e
000001c0: 56ea e53e da12 f83e eff9 d43e 3d7c da3e
000001d0: cfac ea3e efb0 653d 0783 353f 1b86 e93e
000001e0: f11e db3e ce72 ca3e 9c90 0a3f 176f bd3e
000001f0: 02b1 ef3e 8215 d63e 6aca df3e 3dc4 e63e
00000200: 6bfb 68bd 0121 ed3e adf3 e03e bca1 c03e
00000210: 27c1 ce3e ba5a 073f 0572 ba3e c00c df3e
00000220: 075e df3e 684a ed3e 0639 da3e 0fb1 b93e
00000230: e380 ff3e bb49 153f e2fe e03e dacc d33e
00000240: 349e f13e dc37 d23e 7528 d23e c7ae fe3e
00000250: 15fd f23e b80d dc3e a581 bd3e eea4 283f
00000260: 2856 f73e 3fe9 d73e 2061 063f b5c7 f43e
00000270: 7b16 bd3e d7a2 273f 1dff 7c3d e2ae cf3e
00000280: 0cf7 1c3f 95ed e63e 1a34 e83e a848 ed3e
00000290: 518f c43e 52aa c43e 67f3 fb3e 3155 f83e
000002a0: 88c2 ca3e 573b 143f ee17 e13e 11ee dd3e
000002b0: f5dc f73e 6817 f43e 5b18 f43e 68fe d43e
000002c0: e54b e13e c880 e13e 9961 e63e 377f eb3e
000002d0: 8772 e93e 6d8c 133f 0d24 fc3e fc71 e23e
000002e0: b19a 023f 0b88 db3e b049 0c3f 56ff 1c3f
000002f0: 0311 c53e a4ff 263f f4e2 cd3e 3627 c33e
00000300: 0007 d23e 1a20 fe3e 7038 d83e 3126 de3e
00000310: 23ba c23e 7afb c73e 0af6 d13e 5c28 cc3e
00000320: 37ca c33e b0ba db3e 4b50 db3e 476b bf3e
00000330: 04b9 cf3e 25c0 bd3e a970 e53e 818e ce3e
00000340: 08bf f03e 705a eb3e ea8c d23e 52d2 ee3e
00000350: 1a7d cd3e 86b0 c93e 1d53 e83e 9d44 aa3e
00000360: b615 c73e a780 ea3e 8e49 e83e 6166 bb3e
00000370: 2e4a d03e 7cf7 c63e c72a f03e 8b89 e73e
00000380: 4038 bb3e 635f f93e ef09 6c3e 7c72 dd3e
00000390: dee7 e23e 0de6 d53e 777e c83e 7c19 043f
000003a0: f45c 063f d1b2 f33e 16ac f33e a6a1 9f3e
000003b0: 0832 bf3e a063 e73e a15e ef3e 0a84 c93e
000003c0: 6190 f13e 1aef c33e 323f ed3e dc63 e83e
000003d0: c6c3 db3e a1fb e23e 0a72 f73e 3adc db3e
000003e0: 42f1 d93e 3fec 083f 75d6 bf3e 7e82 013f
000003f0: 54c5 f63e 916e f73e 28a9 d93e 948e f83e

linear3.weight f4 [1, 256]
-1.1018661 -1.0893607 -0.94188905 -0.99174285 -1.2684096 -1.2157311 -1.1476566 -1.2447807
-1.218086 -1.1465713 -1.2092874 -0.972493 -1.2635311 -1.2695591 -1.1807027 1.7669874
-1.1617521 1.764721 -1.1873837 -1.2848277 -1.256279 -1.2395257 -1.2403917 -1.6652027
-1.2577114 -1.2320856 -0.9306653 -1.1978222 -1.2924385 -1.2776523 -1.2820331 -1.2501258
-1.0956432 -0.9942006 -1.2430104 -1.1791555 -1.0098321 -0.9953212 -0.9964545 -1.0994947
-1.0742495 2.3217392 -1.1848099 -1.222281 -1.0154587 -1.0065455 -1.212008 -1.0719107
-1.1673999 -1.1601998 1.7583046 -1.1396375 -0.8744776 -1.2263863 -1.5348972 -0.9355131
2.4246244 -1.2363569 -0.9606659 -1.2740797 -1.1573352 -1.179519 -0.0027815674 -1.2438587
-1.0641189 -0.9885184 -1.1801186 -1.2627834 -1.2695656 -0.9434456 -1.4658195 -1.5240766
-1.2422166 -1.224721 -1.214241 -1.2331439 0.003011503 -1.0787396 -1.1087679 -1.2531204
-1.2377226 -1.0919534 -0.9374522 -1.105508 0.0007372043 -1.0672209 -1.0886289 -1.0194033
-1.2841246 -1.253149 -1.2302436 -1.0093244 -1.1107144 -1.0960299 -1.2700243 -0.98090154
-1.1168556 -0.9942507 -1.2118317 -1.2784004 -1.268286 -1.159424 -1.2734698 -0.98992497
-1.1727747 -1.226272 -1.2377974 -1.2338767 -1.2175015 -1.1865748 -1.0754727 -1.2854456
-1.0712904 -1.1401521 -1.0400718 -1.1618177 -1.1724211 1.7613765 -0.85501814 -1.2587113
-1.0043123 -1.1516126 -0.9766413 -1.1788515 -1.2377846 -1.2072753 -1.2610823 -1.2137637
1.687418 -1.1629493 -1.2378942 -1.1870754 -1.1390115 -0.9679146 -1.2163272 -1.0053351
-1.2889832 -1.2499368 -1.1663768 -1.1338893 -0.96592873 -0.9619052 -1.1663749 -1.2073277
-1.1552038 -1.2285154 -1.2381607 -0.9594835 -1.2214622 -1.2073987 -1.2367482 -0.9079774
-0.9532025 -1.209046 -1.2873493 -1.2234905 -1.1592678 -0.9213994 2.2777681 -1.1718621
-0.9000153 -1.288918 -1.102458 -1.0038707 -1.5324366 -1.0516467 -0.96340114 -1.2596909
-1.2393636 -0.96602243 -1.2160689 -1.225532 -1.0159127 -0.9771842 -1.1774657 -1.1743524
-1.4406039 -1.2584956 -1.083521 -1.2593564 -1.1384954 -0.92314297 -1.0905371 -1.1870316
-0.96857196 -1.2537067 -0.9364404 -0.9117869 -1.2420694 -0.8705803 -1.1265802 -1.2685529
-1.0852273 -1.283692 -1.241065 -1.248763 -1.226833 -1.2004169 -1.2214141 -1.2497554
-1.269302 -1.2569168 -1.2622573 -1.2643386 -1.2097522 -1.2702725 -1.1059369 -1.0807954
-1.2483711 -1.1037666 -1.1771864 -1.2760242 -1.268271 -1.2650405 -1.1616458 2.1335218
-1.1381484 -1.2171695 -1.1303835 -1.156194 -1.2452453 -1.5330021 -0.9711336 -1.1944586
-1.2002755 -1.2658627 2.1367593 -1.2680765 -1.2909924 -1.2238865 -1.2350447 -1.2892882
-0.9661342 -1.2977024 -1.1731063 2.5087326 -1.2892632 -1.2809092 -1.2749088 -1.1647766
-1.21577 -1.200001 -1.2352372 -1.2695824 -1.2368178 -1.1762339 -1.1117942 -1.1120181
-1.1857653 -1.283907 -1.250546 -1.0005492 -0.9861052 -1.1994209 -1.2197114 -0.99364305
00000000: f309 8dbf 2c70 8bbf a41f 71bf dce2 7dbf
00000010: 3f5b a2bf 149d 9bbf 69e6 92bf f954 9fbf
00000020: 3eea 9bbf d9c2 92bf eec9 9abf 4df5 78bf
00000030: 63bb a1bf ea80 a2bf 4421 97bf a52c e23f
00000040: 4bb4 94bf 61e2 e13f 30fc 97bf 3c75 a4bf
00000050: c0cd a0bf c7a8 9ebf 28c5 9ebf 5d25 d5bf
00000060: b0fc a0bf fbb4 9dbf 1540 6ebf 3d52 99bf
00000070: a06e a5bf 1c8a a3bf a919 a4bf 1f04 a0bf
00000080: 093e 8cbf ee83 7ebf f71a 9fbf 91ee 96bf
00000090: 2e42 81bf 5fcd 7ebf a417 7fbf 3ebc 8cbf
000000a0: 0281 89bf 6097 1440 daa7 97bf b473 9cbf
000000b0: 8dfa 81bf 7cd6 80bf 1423 9bbf 5f34 89bf
000000c0: 5c6d 95bf 6d81 94bf 2010 e13f a4df 91bf
000000d0: c4dd 5fbf 3afa 9cbf 8377 c4bf c97d 6fbf
000000e0: 0c2d 1b40 f140 9ebf 33ee 75bf 0b15 a3bf
000000f0: 8f23 94bf 7bfa 96bf f54a 36bb c336 9fbf
00000100: 0c35 88bf 8b0f 7dbf 200e 97bf e3a2 a1bf
00000110: 2081 a2bf a785 71bf f99f bbbf f114 c3bf
00000120: f400 9fbf a8c3 9cbf 406c 9bbf a9d7 9dbf
00000130: a35c 453b 2414 8abf 1bec 8dbf 4066 a0bf
00000140: b26d 9ebf 21c5 8bbf defc 6fbf 4981 8dbf
00000150: f140 413a b29a 88bf 3158 8bbf cf7b 82bf
00000160: 325e a4bf 3067 a0bf 9f78 9dbf 8b31 81bf
00000170: e42b 8ebf b54a 8cbf 2890 a2bf 5d1c 7bbf
00000180: 20f5 8ebf 3787 7ebf 4d1d 9bbf a0a2 a3bf
00000190: 3257 a2bf 0168 94bf 0f01 a3bf b96b 7dbf
000001a0: 7b1d 96bf 7bf6 9cbf 2570 9ebf acef 9dbf
000001b0: 17d7 9bbf afe1 97bf 17a9 89bf 7b89 a4bf
000001c0: 0b20 89bf 81f0 91bf 1321 85bf 71b6 94bf
000001d0: e511 96bf c974 e13f 78e2 5abf 741d a1bf
000001e0: 4e8d 80bf 0b68 93bf 2a05 7abf 9be4 96bf
000001f0: ba6f 9ebf ff87 9abf 256b a1bf 9c5c 9bbf
00000200: 50fd d73f 86db 94bf 5173 9ebf 16f2 97bf
00000210: 21cb 91bf 40c9 77bf 9cb0 9bbf d2ae 80bf
00000220: 67fd a4bf eefd 9fbf d64b 95bf 4923 91bf
00000230: 1b47 77bf 6b3f 76bf c64b 95bf b789 9abf
00000240: b8dd 93bf fe3f 9dbf 0d7c 9ebf b6a0 75bf
00000250: e058 9cbf 0a8c 9abf c44d 9ebf 3571 68bf
00000260: 1405 74bf 05c2 9abf ddc7 a4bf 569b 9cbf
00000270: e362 94bf d5e0 6bbf f4c6 1140 94ff 95bf
00000280: 6767 66bf 44fb a4bf 581d 8dbf d67e 80bf
00000290: e226 c4bf 5c9c 86bf 75a1 76bf 8d3d a1bf
000002a0: 77a3 9ebf 3f4d 77bf 25a8 9bbf 3cde 9cbf
000002b0: 6d09 82bf be28 7abf 32b7 96bf 2e51 96bf
000002c0: b565 b8bf 6216 a1bf d1b0 8abf 9732 a1bf
000002d0: 38ba 91bf 1953 6cbf b896 8bbf a7f0 97bf
000002e0: 55f4 77bf 7679 a0bf 8fba 6fbf de6a 69bf
000002f0: 21fc 9ebf 5ade 5ebf c833 90bf f15f a2bf
00000300: bae8 8abf 0550 a4bf 38db 9ebf 77d7 9fbf
00000310: dd08 9dbf 43a7 99bf 4c57 9cbf fcf7 9fbf
00000320: 7d78 a2bf a6e2 a0bf a691 a1bf d9d5 a1bf
00000330: 29d9 9abf 4a98 a2bf 578f 8dbf 8157 8abf
00000340: a0ca 9fbf 3948 8dbf 0bae 96bf c354 a3bf
00000350: b456 a2bf d9ec a1bf cfb0 94bf 9f8b 0840
00000360: d9ae 91bf 36cc 9bbf 68b0 90bf 2afe 93bf
00000370: 3364 9fbf 6a39 c4bf 369c 78bf 05e4 98bf
00000380: a1a2 99bf ca07 a2bf aac0 0840 5550 a2bf
00000390: 3d3f a5bf 50a8 9cbf f215 9ebf 6507 a5bf
000003a0: 9254 77bf 1d1b a6bf 5928 96bf 138f 2040
000003b0: 9406 a5bf d5f4 a3bf 3630 a3bf 6617 95bf
000003c0: 5a9e 9bbf a299 99bf 411c 9ebf ad81 a2bf
000003d0: 0c50 9ebf d58e 96bf 464f 8ebf 9c56 8ebf
000003e0: 28c7 97bf 1157 a4bf e411 a0bf ff11 80bf
000003f0: 6471 7cbf a086 99bf 811f 9cbf 645f 7ebf
