testing/scripts/outputs/DDPG_Env/20221216-051603/models/640actor_checkpoint.pt (torch, 281431 bytes, 5 tensors)

linear1.weight f4 [256, 14]
0	0xbd49e545	-0.049290914
1	0xbe92b6e0	-0.28655148
2	0xbe8b987e	-0.2726478
3	0xbe7370c6	-0.23773488
4	0x3e30cccb	0.17265622
5	0x3d15b116	0.036545835
6	0x3ea1b445	0.31582847
7	0x3e83aee6	0.25719374
8	0xbb97fb4f	-0.0046381126
9	0x3e99f257	0.30067703
10	0xbe11893e	-0.1421251
11	0x3e414509	0.18873991
12	0x3ea5705a	0.3231228
13	0xbc9333a3	-0.017968958
14	0xbd4a1576	-0.049336873
15	0x3ead5df8	0.33860755
16	0x3ecc2d55	0.39878336
17	0x3e55a313	0.20862989
18	0x3e645c8d	0.2230093
19	0x3e361e86	0.17785081
20	0x3e21668c	0.15761775
21	0x3e522906	0.20523462
22	0xbddf7a32	-0.10911979
23	0xbe8421e8	-0.25807118
24	0xbc3280fa	-0.010895008
25	0xbdec276b	-0.11530956
26	0x3d5d7e4a	0.054075517
27	0x3cd9a62b	0.026568493
28	0x3e6d2dff	0.23162077
29	0xbea65aef	-0.32491252
30	0xbdd8d6dd	-0.10587857
31	0x3da271f8	0.07931894
32	0x3e69126c	0.22760934
33	0x3e5fb708	0.21847165
34	0x3d8cdb0c	0.068777174
35	0xbdbdd10f	-0.092683904
36	0x3e2e7a6f	0.17038892
37	0xbbf0037b	-0.0073246337
38	0xbe1cfd36	-0.15330967
39	0xbcf3671d	-0.029712254
40	0x3e1fc53b	0.15602581
41	0xbddcb8a7	-0.10777407
42	0x3e574e35	0.21025927
43	0x3dbec814	0.093155056
44	0xbda29a36	-0.0793957
45	0x3eb3a2fa	0.3508528
46	0x3da5e19b	0.080996715
47	0x3e55eae3	0.20890383
48	0x3dfa6b8d	0.12227545
49	0xbe04bbea	-0.12962309
50	0x3d7f0125	0.06225695
51	0xbe40ac27	-0.18815671
52	0xbd383bf3	-0.044979047
53	0xbdf1b79b	-0.11802598
54	0x3e481981	0.19540979
55	0x3e03cddf	0.12871502
56	0xbdc172ae	-0.094457015
57	0xbca79b0e	-0.020459678
58	0xbd750d76	-0.05982729
59	0x3e3d4b02	0.18485644
60	0x3e4d0212	0.20020321
61	0x3de57b67	0.11205178
62	0x3ddd2601	0.10798264
63	0x3dd64d2f	0.1046394
64	0x3dd5ba4e	0.104359254
65	0xbe6a5aae	-0.22886154
66	0x3d89d807	0.06730657
67	0x3e8a931b	0.27065358
68	0x3e92c713	0.28667507
69	0x3d862d7c	0.06551644
70	0x3cb6f15f	0.022331892
71	0x3dd007b9	0.10157723
72	0x3df37803	0.11888125
73	0x3e7f4451	0.24928404
74	0x3df82c74	0.12117854
75	0xbe57270a	-0.21010986
76	0x3e232ed5	0.15935834
77	0x3e578ecf	0.21050571
78	0xbe601ef1	-0.21886803
79	0x3e24218b	0.1602842
80	0xbe15183f	-0.1456003
81	0xbceb563b	-0.028727641
82	0x3e71a791	0.23599078
83	0xbdd61b8e	-0.104544744
84	0xbdbab4ad	-0.091164924
85	0xbe0cf800	-0.1376648
86	0x3e70a9f9	0.2350234
87	0x3e3512ec	0.17683
88	0xbe0a51da	-0.13507786
89	0xbe4bc640	-0.19899845
90	0xbe69026c	-0.2275483
91	0xbe940d18	-0.2891624
92	0x3da77ead	0.08178458
93	0xbdcf4a8a	-0.10121639
94	0xbdec39c5	-0.11534456
95	0x3e91484f	0.2837548
96	0xbe2d13c4	-0.16902071
97	0xbea52d03	-0.32260904
98	0xbeb59c16	-0.35470647
99	0x3bc82853	0.0061083226
100	0x3e29c097	0.16577373
101	0xbd9db9b3	-0.07701435
102	0xbe146873	-0.14492969
103	0xbd8107ed	-0.0630034
104	0xbe5af847	-0.21383773
105	0xbdb252e5	-0.08707217
106	0xbd64a6be	-0.05582308
107	0x3cf83855	0.030300299
108	0xbbccabd2	-0.0062460685
109	0x3dd980f6	0.106203005
110	0xbe0cc0af	-0.13745378
111	0x3e3a8276	0.1821383
112	0x3e8a338c	0.26992452
113	0x3daa0544	0.083017856
114	0x3e591bc3	0.21201997
115	0x3e64b6e1	0.22335388
116	0x3d1af6ed	0.037833143
117	0x3eb51bfa	0.35372907
118	0x3e43f9f0	0.19138312
119	0xbde60670	-0.112316966
120	0x3e98beaf	0.2983298
121	0x3e598ce9	0.21245159
122	0x3e402e71	0.18767716
123	0x3d17c174	0.037049726
124	0xbdb6d669	-0.08927614
125	0x3e82f4aa	0.2557729
126	0xbd9f2e9d	-0.07772563
127	0xbc4e5465	-0.012593363
128	0xbc43cee8	-0.011951186
129	0xbe4c5900	-0.19955826
130	0xbd994cff	-0.07485389
131	0x3e8143e0	0.25247097
132	0x3e1e067f	0.15432166
133	0x3db23d3a	0.08703084
134	0xbc345cd8	-0.011008464
135	0xbdcee6b7	-0.10102599
136	0xbdbd08ff	-0.092302315
137	0x3dbf728c	0.0934802
138	0xbe86c9a4	-0.26325715
139	0xbe677a13	-0.22605161
140	0xbe657369	-0.22407307
141	0xbe816397	-0.25271294
142	0xbe9cea7c	-0.30647647
143	0xbdec04db	-0.115243636
144	0x3ecc1e82	0.39867026
145	0x3d0ef5f1	0.034902517
146	0xbe1b40dc	-0.1516146
147	0xbdae39b8	-0.08507103
148	0x3e831148	0.25599122
149	0xbe14c32d	-0.14527579
150	0x3e5d0e34	0.2158745
151	0xbdf127ee	-0.11775194
152	0x3e487d5e	0.19579074
153	0xbda9755a	-0.08274336
154	0x3d83bef5	0.064329065
155	0x3d59a99c	0.053140268
156	0x3e7e0d2d	0.24809714
157	0x3de126cb	0.10993727
158	0xbe768a64	-0.2407623
159	0xbddc1a1d	-0.10747168
160	0x3e063df1	0.13109566
161	0x3e530d28	0.20610487
162	0xbe83e774	-0.25762522
163	0xbd543009	-0.051803622
164	0xbdf13db0	-0.11779344
165	0x3de3ab28	0.1111663
166	0x3dea55c9	0.114421435
167	0x3d30de0d	0.043180514
168	0xbe26aa84	-0.16275984
169	0xbe18123d	-0.14850707
170	0x3e9f072b	0.31060156
171	0x3df6b28d	0.120457746
172	0xbe18c5f9	-0.1491927
173	0xbe1315ed	-0.14363833
174	0xbd503348	-0.050830156
175	0xbe630db3	-0.22173195
176	0xbe78ba4c	-0.24289817
177	0x3e014054	0.12622195
178	0xbe1d8772	-0.153837
179	0x3e94ed46	0.29087275
180	0xbe026091	-0.1273215
181	0xbe18d697	-0.1492561
182	0x3dfa64ee	0.12226282
183	0x3dc1efe1	0.094695814
184	0xbe2f561e	-0.17122695
185	0x3e8c155f	0.27360055
186	0x3d989f85	0.07452301
187	0x3ed68bed	0.4190363
188	0x3e2f6547	0.17128478
189	0x3dfb34ab	0.12265905
190	0x3ea59a96	0.32344502
191	0x3e76d8ee	0.2410619
192	0xbc565f8f	-0.013084306
193	0xbd73c78f	-0.059516486
194	0xbe239822	-0.15976003
195	0x3e757c99	0.23973311
196	0x3e75b4b1	0.2399471
197	0xbb9d86a5	-0.0048073106
198	0xbd387466	-0.04503288
199	0x3e826a6b	0.25471815
200	0x3e87a269	0.26491097
201	0xbe3ed4fd	-0.18635936
202	0xbe5def8a	-0.21673408
203	0xbd0704d5	-0.032963593
204	0xbca3ca9a	-0.019994069
205	0x3d738f56	0.059462868
206	0x3e6893a3	0.22712569
207	0xbe6622f2	-0.22474268
208	0x3d904441	0.070442684
209	0x3e35e17d	0.17761798
210	0x3e7f98ed	0.2496068
211	0xbe072855	-0.13198979
212	0xbd6f4f24	-0.058425084
213	0x3e1af424	0.15132195
214	0x3d31b640	0.043386698
215	0xbed2d11f	-0.41175172
216	0xbe46f5e6	-0.1942974
217	0xbe4101a8	-0.18848288
218	0xbe2fcfce	-0.17169115
219	0xbe8bd4e8	-0.27310872
220	0xbe370eda	-0.17876759
221	0x3e404c18	0.18779027
222	0xbd49c41e	-0.049259298
223	0xbe5e223a	-0.21692744
224	0x3e866c6b	0.2625459
225	0xbdc1493c	-0.094377965
226	0xbe84c2cc	-0.25929868
227	0x3d881cce	0.06646119
228	0x3e8655e7	0.26237413
229	0x3e76714b	0.24066655
230	0xbe0a9608	-0.13533795
231	0xbca91ba0	-0.020643055
232	0x3e1d99a9	0.15390648
233	0x3eb99f54	0.3625437
234	0x3e367550	0.17818189
235	0x3e5a483f	0.21316622
236	0xbe1af581	-0.15132715
237	0x3e95b583	0.29240045
238	0x3d34c7f9	0.04413602
239	0x3ea8b2e5	0.32948986
240	0x3d6cd5c5	0.057821054
241	0x3e8cf5cd	0.2753128
242	0x3ddaa876	0.106766626
243	0x3e2096ba	0.15682498
244	0xbe812c42	-0.2522908
245	0x3e002833	0.12515335
246	0x3d555790	0.05208546
247	0xbeb98f74	-0.3624226
248	0xbdab33a7	-0.08359461
249	0x3dd4800e	0.10375987
250	0x3db7115f	0.0893886
251	0xbd532393	-0.051547598
252	0x3d185f3b	0.037200194
253	0x3e90aa52	0.28254944
254	0x3dbfb3d6	0.09360473
255	0xbd5bb8ca	-0.053643025

linear1.bias f4 [256]
0	0xbe1c5ffe	-0.15270993
1	0x3e5da4de	0.21644923
2	0xbdc6aa4a	-0.09700449
3	0x3d4b373b	0.04961322
4	0xbe492acb	-0.1964523
5	0x3d664364	0.056216612
6	0xbdd73235	-0.10507623
7	0x3dadf114	0.08493248
8	0xbdad748c	-0.08469495
9	0x3e8a8618	0.2705543
10	0x3da73978	0.08165258
11	0x3dfca080	0.123353004
12	0xbdad957a	-0.08475776
13	0x3e79255d	0.24330659
14	0xbdea89ee	-0.11452089
15	0x3ddcc202	0.107791916
16	0x3e8cb06f	0.27478358
17	0x3e2cfbbd	0.16892906
18	0x3ea1f1c0	0.31629753
19	0xbd37721a	-0.04478655
20	0x3d9c51f3	0.07632818
21	0x3e9185b0	0.28422308
22	0xbe3d8f83	-0.18511777
23	0x3d61fb91	0.055171553
24	0xbe442ccf	-0.19157718
25	0x3e8f3695	0.2797133
26	0xbae8b433	-0.0017753899
27	0xbe0e3f10	-0.13891244
28	0x3e9cc86b	0.30621657
29	0x3e8f3e47	0.279772
30	0xbe57ea3e	-0.2108545
31	0x3e9c5c82	0.30539328
32	0x3dc08379	0.094000764
33	0x3e8c3a6c	0.27388322
34	0xbd395c05	-0.045253772
35	0x3e91fa40	0.28511238
36	0x3d7687e4	0.06018819
37	0x3e811364	0.25210106
38	0x3e109b30	0.141217
39	0x3ea74bda	0.32675058
40	0x3e0e694a	0.13907352
41	0xbdd547c4	-0.10414079
42	0x3e913186	0.28358096
43	0xbd675880	-0.056480885
44	0x3d0d5990	0.03450924
45	0xbe3a79bb	-0.18210499
46	0xbd29f559	-0.041493747
47	0x3e741872	0.2383745
48	0xbda6bfd9	-0.08142061
49	0x3e573a3c	0.21018308
50	0x3dfc43c2	0.12317611
51	0x3e3101e7	0.17285882
52	0xbd551a16	-0.05202683
53	0xbe3daeac	-0.18523663
54	0x3e40af28	0.18816817
55	0x3ce8b0a1	0.028404536
56	0x3c2e85e0	0.0106520355
57	0x3e699078	0.22809017
58	0x3e83d40c	0.25747716
59	0xbb833b0b	-0.004004841
60	0x3e14b26c	0.14521188
61	0x3ea7185b	0.3263577
62	0xbdf6b619	-0.12046451
63	0xbdf0dcd0	-0.11760867
64	0x3decaf13	0.1155683
65	0xbe49e6b3	-0.19716911
66	0x3e4ea24d	0.201791
67	0x3e14901e	0.14508101
68	0x3db00989	0.08595569
69	0x3d94b7da	0.072616294
70	0xbd07273e	-0.03299641
71	0x3e66cdd1	0.2253945
72	0xbddc685a	-0.10762091
73	0xbe221f53	-0.15832262
74	0x3e5cdee8	0.21569407
75	0xbe22a2e0	-0.15882444
76	0x3d9b09f1	0.075702555
77	0x3d841f7c	0.06451318
78	0xbd5d8276	-0.054079495
79	0xbcdb493f	-0.026768325
80	0xbcdcf2f2	-0.026971314
81	0x3e953604	0.29142773
82	0xbd6d16ca	-0.05788306
83	0x3db7ef0d	0.08981142
84	0xbd93f2be	-0.07224034
85	0xbd47f485	-0.048817176
86	0xbd43c947	-0.047799375
87	0xbe28c3c7	-0.16480933
88	0xbdb9288c	-0.09040937
89	0xbe1d0c73	-0.1533678
90	0x3d1ce2ac	0.03830211
91	0x3e3a6e2d	0.18206091
92	0x3e4c7917	0.19968067
93	0x3e505868	0.20346224
94	0xbe01ee15	-0.12688477
95	0x3cbb35f7	0.02285288
96	0xbcb91b53	-0.022596037
97	0x3e195b12	0.14976147
98	0x3e5dc6d6	0.21657881
99	0xbc54f6f8	-0.012998335
100	0xbd241c64	-0.040066138
101	0x3da98dc0	0.0827899
102	0x3e4da739	0.20083322
103	0x3e97da1c	0.29658592
104	0xbd9a4f23	-0.075346254
105	0xbd912bbd	-0.070884205
106	0x3d81dc02	0.06340791
107	0xbdc8ad57	-0.09798687
108	0xbd897a69	-0.06712801
109	0xbb7d4d5b	-0.0038650844
110	0x3bf9119c	0.007600976
111	0x3e9d606d	0.3073763
112	0x3d9b9938	0.075975835
113	0xbdb458ca	-0.08805998
114	0x3e94ee92	0.29088265
115	0x3e4066b9	0.18789186
116	0xbe38d145	-0.1804858
117	0x3e198e92	0.14995793
118	0xbd5408bd	-0.051766146
119	0x3db036a5	0.086041726
120	0x3ddcd417	0.107826404
121	0xbe2367f9	-0.15957631
122	0xbd9c59f8	-0.07634348
123	0x3e770d7c	0.24126238
124	0x3e90f499	0.28311613
125	0x3e7c8ff1	0.24664284
126	0xbcb0d303	-0.021584993
127	0xbdbbacbf	-0.09163808
128	0xbdb74da2	-0.08950354
129	0x3d725e6e	0.059172086
130	0x3e3dde74	0.1854189
131	0xbe3d94b1	-0.18513753
132	0x3e22973f	0.15878008
133	0x3ca719d2	0.020398054
134	0x3e50f0df	0.20404385
135	0x3e25cd38	0.16191566
136	0x3e41e604	0.189354
137	0x3e0e5d81	0.13902856
138	0x3e76a543	0.2408648
139	0x3d5ee3af	0.054416355
140	0x3e83b921	0.2572718
141	0x3ca93ea8	0.02065976
142	0x3e803e50	0.2504754
143	0xbe2585d8	-0.16164339
144	0xbd5641e1	-0.05230892
145	0x3e579122	0.21051458
146	0x3e353434	0.17695695
147	0x3c6ce113	0.014457959
148	0x3d6ea340	0.058261156
149	0x3e13f97b	0.14450638
150	0xbe437470	-0.19087386
151	0xbdc4581a	-0.095871165
152	0xbdb4f2cd	-0.08835373
153	0x3e03e5cb	0.12880628
154	0xbe1791c0	-0.14801693
155	0xbced0567	-0.02893324
156	0x3eac8708	0.3369677
157	0x3db5f4d7	0.0888459
158	0x3e8d811c	0.27637565
159	0x3d190921	0.03736222
160	0x3e77f4c7	0.24214469
161	0xbd941462	-0.0723045
162	0x3d872ed5	0.066007294
163	0x3dad2ea0	0.08456159
164	0xbca38b47	-0.019963874
165	0xbd10c2dc	-0.035342082
166	0x3e4c478e	0.19949171
167	0x3e75b74b	0.23995702
168	0x3e945faa	0.28979236
169	0xbe0b98ad	-0.1363246
170	0x3e2867d5	0.16445859
171	0x3d8e972b	0.06962427
172	0xbdf3f881	-0.11912633
173	0xbddb9da3	-0.10723426
174	0x3e3beedb	0.18352835
175	0xbdece758	-0.11567563
176	0xbd9d1054	-0.0766913
177	0x3ea5012a	0.3222745
178	0xbdfb9262	-0.1228378
179	0xbd629b25	-0.05532374
180	0x3e3f9cf9	0.18712224
181	0xbdd54e53	-0.1041533
182	0x3e647215	0.22309144
183	0x3e434763	0.190702
184	0x3e7f71e5	0.24945791
185	0x3da164e0	0.078805685
186	0x3bf3c2e8	0.007439006
187	0xbe8e8239	-0.27833727
188	0xbd55fd3d	-0.05224346
189	0xbe843fb4	-0.25829852
190	0xbe59464f	-0.21218227
191	0x3e9f0382	0.31057364
192	0xbd75d60c	-0.060018584
193	0xbe165b6f	-0.14683317
194	0x3e3f6ea2	0.18694547
195	0x3d140ef0	0.036147058
196	0xbc16bd87	-0.00920046
197	0xbd910ade	-0.07082151
198	0x3e89c540	0.26908302
199	0xbe173e8c	-0.14769953
200	0xbc715b2e	-0.014731212
201	0x3d7bf0c4	0.06150891
202	0xbe39b957	-0.18137108
203	0xbe78a885	-0.24283035
204	0xbe4f8ac4	-0.20267779
205	0xbe12c611	-0.14333369
206	0x3e2cac75	0.16862662
207	0x3e96edba	0.29478246
208	0x3e91e503	0.28495035
209	0x3e8a4d05	0.27011886
210	0x3e78a8a2	0.24283078
211	0xbe47da13	-0.19516782
212	0xbe1fe472	-0.15614489
213	0x3d14e163	0.036347758
214	0x3de0178c	0.10941991
215	0xbcac5ae5	-0.021039436
216	0xbddc53c4	-0.107581645
217	0x3e6d3886	0.23166093
218	0x3e4d4518	0.20045888
219	0x3e9181f4	0.2841946
220	0x3e4110fb	0.18854134
221	0x3ea3d2cb	0.3199676
222	0xbdfbdbf0	-0.12297809
223	0x3e17fa27	0.1484152
224	0x3e7621e5	0.24036367
225	0x3dedb025	0.116058625
226	0x3e0e2e12	0.13884762
227	0xbd88a96c	-0.0667294
228	0x3d865009	0.06558234
229	0xbe13ed18	-0.14445913
230	0x3da481b4	0.080325514
231	0x3e0230a5	0.12713869
232	0x3ce3e7b2	0.027820442
233	0x3e4de21a	0.20105782
234	0xbe416db1	-0.188895
235	0x3be2952c	0.0069147553
236	0xbe20cf73	-0.15704136
237	0x3cb8455a	0.022494007
238	0xbe560201	-0.20899202
239	0xbe2c2f1e	-0.16814849
240	0x3e5edf7b	0.21764939
241	0x3e1ef447	0.15522872
242	0x3e7779bb	0.2416753
243	0x3e844534	0.25834048
244	0xbde516e0	-0.11186004
245	0xbe36fce9	-0.17869915
246	0x3dbd2ac8	0.092366755
247	0xbd7b6e44	-0.061384454
248	0x3d51e827	0.05124679
249	0xbdb8ff59	-0.09033079
250	0x3dfed284	0.124424964
251	0x3e7199e1	0.23593856
252	0x3e906c58	0.2820766
253	0xbd9cae2e	-0.0765041
254	0xbe49fd50	-0.19725537
255	0x3e21e9d1	0.1581185

linear2.weight f4 [256, 256]
0	0xbe0a46e3	-0.13503604
1	0x3da0a03d	0.07843063
2	0xbd8cfbcc	-0.06883964
3	0x3c997ddd	0.018736774
4	0xbc9fb26d	-0.01949426
5	0x3daa7872	0.08323754
6	0xbd8b16db	-0.06791469
7	0x3dbf5694	0.09342685
8	0xbcc50a07	-0.024052633
9	0x3b8e58ce	0.0043440824
10	0xbde425a4	-0.11139992
11	0x3d214b6c	0.03937857
12	0xbe099e64	-0.13439327
13	0xbda79e8a	-0.08184536
14	0x3d0de405	0.034641284
15	0x3d6be5ed	0.05759232
16	0xbd8e0430	-0.069343925
17	0x3e3a76d4	0.18209392
18	0x3e325acd	0.1741745
19	0x3df46c35	0.11934701
20	0xbe00d036	-0.12579426
21	0xbd81264b	-0.06306132
22	0x3dbb5024	0.09146145
23	0x3c892112	0.016739402
24	0xbe4c318f	-0.1994078
25	0xbd8629a2	-0.065509096
26	0x3d34ccd9	0.04414067
27	0xbd993522	-0.074808374
28	0xbddde27c	-0.10834214
29	0x3d93bd86	0.07213883
30	0x3e051f92	0.13000324
31	0x3bff90ff	0.0077992673
32	0xbdce3af7	-0.100698404
33	0x3caca565	0.02107496
34	0x3dd7cd1a	0.10537167
35	0xbda73c55	-0.08165804
36	0x3df51937	0.119677
37	0x3d94efb1	0.0727228
38	0x3ca2a07f	0.019851921
39	0x3e7060e3	0.2347446
40	0x3e857390	0.2606473
41	0xbe210e76	-0.15728173
42	0x3e3e0a0d	0.18558522
43	0x3d943e4d	0.072384454
44	0x3c3a13be	0.011357246
45	0xbe02557c	-0.12727922
46	0xbc9179c3	-0.017758256
47	0xbd8dd0ca	-0.06924589
48	0x3d205a2a	0.039148487
49	0xbdae9e5d	-0.08526299
50	0x3d0fb343	0.035083067
51	0xbd9ca8b3	-0.07649364
52	0x3db0a3ab	0.08624967
53	0xbdef9060	-0.11697459
54	0x3c81f20a	0.015862484
55	0x3caba126	0.020950865
56	0x3d933e58	0.071896255
57	0x3dc69eb3	0.09698238
58	0x3dc5c290	0.096562505
59	0x3d96ce44	0.07363561
60	0xbd37fee1	-0.044920806
61	0x3d2cf3df	0.04222476
62	0x3be6768b	0.0070331744
63	0xbd199cc3	-0.037503015
64	0xbd8d5bfe	-0.06902312
65	0x3ca4ff5a	0.020141292
66	0xbd862228	-0.065494835
67	0xbd392449	-0.04520062
68	0x3d978d0f	0.07399952
69	0x3da28df0	0.07937229
70	0xbd908043	-0.07055714
71	0x3dec1399	0.115271755
72	0xbd4f7599	-0.05064926
73	0xbd7258d1	-0.059166733
74	0x3dae7201	0.08517838
75	0x3e09c8e5	0.13455541
76	0xbb1775ef	-0.0023111065
77	0xbdabaec7	-0.083829455
78	0x3c2dd46d	0.010609728
79	0xbdc27196	-0.09494321
80	0x3c73ff65	0.014892434
81	0x3d42608f	0.047455367
82	0xbd4663f7	-0.048435178
83	0xbd94ab46	-0.0725923
84	0xbde5c1ce	-0.11218606
85	0x3dd0c666	0.101940915
86	0x3d69d306	0.057086013
87	0xbe49d365	-0.19709547
88	0x3e22b452	0.15889099
89	0xbdcfda3d	-0.101490475
90	0xbd2d92df	-0.042376395
91	0xbd84e13c	-0.064882725
92	0xbce43f0c	-0.027862094
93	0xbbae22aa	-0.005314191
94	0x3df732ae	0.12070213
95	0x3ca23172	0.019798968
96	0xbc7acbd9	-0.01530739
97	0xbc81cb78	-0.015844092
98	0xbccc3c4a	-0.024931092
99	0x3db4fec3	0.088376544
100	0xbd1647a5	-0.03668942
101	0xbd958aaf	-0.073018424
102	0xbe1c7236	-0.15277943
103	0x3d8e9e1f	0.06963753
104	0xbdcd674e	-0.100294694
105	0x3d4751cc	0.048661992
106	0x3c482f31	0.012218283
107	0x3dbe3e96	0.09289281
108	0x3dbfa62c	0.09357867
109	0xbd8c613b	-0.06854483
110	0xbcea00ec	-0.028564893
111	0x3dadcd03	0.084863685
112	0xbdf1ec01	-0.11812592
113	0xbd315b48	-0.043299943
114	0xbdb99103	-0.09060862
115	0xbdbd6b2c	-0.09248957
116	0xbd894fe4	-0.06704691
117	0xbce1932a	-0.027535994
118	0xbd5e4c9e	-0.054272287
119	0xbd44bf4d	-0.048034
120	0xbdba7c8d	-0.091057874
121	0xbd9466a8	-0.072461426
122	0xbcd0da95	-0.025494853
123	0x3db34ecc	0.08755264
124	0x3d5a6371	0.05331749
125	0x3d2794d0	0.040913403
126	0xbd8a0473	-0.0673913
127	0xbd66d16b	-0.05635206
128	0x3d8f4211	0.06995023
129	0x3c1a71e6	0.00942657
130	0x3c51cabf	0.012804686
131	0xbcce0000	-0.025146484
132	0xbd959433	-0.073036574
133	0xbd00ba41	-0.031427626
134	0xbd656a9e	-0.05600988
135	0x3d49bc45	0.049251813
136	0xbdd7b413	-0.10532393
137	0x3d27413b	0.040833693
138	0xbdb8879d	-0.09010241
139	0xbc495900	-0.012289286
140	0x3d2f0574	0.04272981
141	0x3b198d53	0.0023430183
142	0x3d7c4fbb	0.061599474
143	0x3de45fe2	0.11151101
144	0x3d6c84e6	0.05774393
145	0x3db926f1	0.090406306
146	0xbd2e7a8b	-0.042597335
147	0xbd967c38	-0.073479116
148	0xbc6a10d9	-0.014286243
149	0xbc4287c7	-0.011873192
150	0x3de4be76	0.1116914
151	0xbd5357af	-0.051597293
152	0x3b45a6d5	0.0030159254
153	0x3d8eeb15	0.06978432
154	0x3d986bc0	0.07442427
155	0x3d714084	0.058899418
156	0x3d0e1344	0.034686342
157	0x3e26a290	0.1627295
158	0xbcdbb08c	-0.026817583
159	0xbd6d64df	-0.057957526
160	0xbd722c07	-0.05912402
161	0x3d992c0d	0.07479105
162	0x3d618a0a	0.055063285
163	0xbd763f77	-0.06011912
164	0xbd512405	-0.05105974
165	0x3d35bc19	0.044368837
166	0x3e2c86db	0.16848318
167	0x3d412961	0.047158603
168	0x3db76acc	0.08955917
169	0x3d898b5e	0.06716035
170	0x3cd5f054	0.026115574
171	0xbd2d7109	-0.042344127
172	0xbe0ced7e	-0.13762471
173	0xbd98208f	-0.07428085
174	0xbdcb8cca	-0.09938963
175	0x3d3af88b	0.045647185
176	0xbc12cfc8	-0.008960672
177	0x3e1e1427	0.15437375
178	0xbd4e75cd	-0.050405312
179	0x3d141244	0.036150232
180	0xbd8266e4	-0.06367281
181	0x3e8ae1ba	0.2712534
182	0x3df5f768	0.120100796
183	0xbd267cdc	-0.04064642
184	0x3bbcdff3	0.0057640015
185	0x3d60676d	0.054786135
186	0xbc86e9ca	-0.016468901
187	0x3d4630c4	0.04838635
188	0xbcc66bb0	-0.024221271
189	0xbdaefdfa	-0.08544536
190	0xbd41e820	-0.047340512
191	0x3df1637b	0.117865525
192	0xbd5ce43b	-0.053928595
193	0xbdc25215	-0.09488312
194	0x3dc9e27b	0.09857651
195	0xbda22193	-0.0791656
196	0x3b83d8d0	0.004023649
197	0x3db26c2f	0.08712041
198	0x395b898c	0.00020936708
199	0xbe156da0	-0.145926
200	0x3db74f4f	0.08950674
201	0x3d070583	0.03296424
202	0xbe6efc7d	-0.23338504
203	0x3bc77195	0.006086538
204	0x3c5741b1	0.013138221
205	0xbd8e6eaa	-0.06954701
206	0xbd9505d9	-0.07276506
207	0xbd9f57db	-0.07780429
208	0xbc1d8e98	-0.0096165165
209	0xbdc90674	-0.09815684
210	0xbd2ad98c	-0.041711375
211	0xbdaa9e14	-0.08330932
212	0x3d84261a	0.0645258
213	0x3dd5cd6f	0.10439574
214	0xbd95c89f	-0.07313656
215	0xbd083a08	-0.033258468
216	0xbdad113d	-0.084505536
217	0xbd39fbd6	-0.045406185
218	0xbba24100	-0.0049515963
219	0x3e30ede7	0.17278253
220	0xbe1b0764	-0.15139538
221	0x3dd00b04	0.10158351
222	0xbda38b9d	-0.079856135
223	0xbd81f5a3	-0.063456796
224	0x3cc7fcf4	0.02441261
225	0xbd8ed5af	-0.06974351
226	0x3dea38c9	0.11436612
227	0x3e3b3d79	0.18285169
228	0x3dc0811b	0.09399625
229	0x3e53ec98	0.20695722
230	0xbda42c11	-0.080162175
231	0xbd8f83fb	-0.07007595
232	0x3d11a82b	0.035560768
233	0x3da90876	0.08253567
234	0x3e8311cc	0.25599515
235	0x3dcb5e80	0.09930134
236	0x3c024c15	0.00795271
237	0x3e001e7e	0.12511632
238	0x3d1461a2	0.036225922
239	0xbc969968	-0.018383697
240	0xbda4461b	-0.08021184
241	0xbdc77fbc	-0.0974116
242	0xbd9c1aa2	-0.07622267
243	0xbd848529	-0.06470711
244	0x3e1dd1e8	0.15412104
245	0xbe1eee66	-0.1552063
246	0x3c988c07	0.018621458
247	0x3ca5c353	0.02023474
248	0x3c8e80f8	0.017395481
249	0xbd27114f	-0.04078799
250	0xbda555fc	-0.08073041
251	0x3e4442e2	0.19166139
252	0x3dfdfd89	0.124018736
253	0xbdd292cd	-0.10281906
254	0xbe5901b9	-0.21192063
255	0xbd99a6c4	-0.07502511

linear2.bias f4 [256]
0	0x3c739ff9	0.014869683
1	0x3d849f01	0.0647564
2	0xbd14fc1a	-0.036373235
3	0x3d682f60	0.056685805
4	0x3c8b7e01	0.017027857
5	0x3cc6330a	0.02419426
6	0xbd0c6c6a	-0.03428308
7	0x3ccf3bc2	0.02529705
8	0x3cab7be2	0.020933095
9	0x3d130d01	0.035901073
10	0x3d284df3	0.041089963
11	0xbd6535c1	-0.055959467
12	0x3d28a7ec	0.041175768
13	0x3cd0bbfe	0.025480267
14	0xbd5f0ec7	-0.054457452
15	0x3cb7efef	0.022453276
16	0x3d5a2a1f	0.053262826
17	0xbced2521	-0.028948369
18	0x3d4ea641	0.05045152
19	0x3d1fa5f8	0.03897664
20	0xbca7d6b1	-0.020488115
21	0x3d71da0d	0.05904584
22	0x3cd25b6c	0.025678359
23	0xbbefa5d7	-0.007313471
24	0xbd249383	-0.04017974
25	0x3c55614b	0.013023685
26	0x3d0a55cf	0.03377324
27	0xbc920cf2	-0.017828438
28	0xbd5240fa	-0.051331498
29	0x3d4990af	0.049210247
30	0x3d23172f	0.03981703
31	0xbd562617	-0.05228242
32	0xbc348489	-0.011017927
33	0xbd175672	-0.036947675
34	0xbb3f862f	-0.0029224267
35	0xbd049c21	-0.03237546
36	0xbd5fcf4a	-0.054641046
37	0x3d1dccb7	0.03852531
38	0x3c88250c	0.016619228
39	0xbcd982c4	-0.026551612
40	0x3d581c1d	0.052761186
41	0xbc5f0d68	-0.013614036
42	0xbd2dc061	-0.042419795
43	0x3d7714a7	0.06032243
44	0xbd6016a1	-0.05470908
45	0x3d6c11b9	0.05763409
46	0x3c23a49d	0.009987977
47	0x3d29c6dc	0.041449413
48	0xbcade1e7	-0.021225883
49	0x3cf9d4a7	0.030496908
50	0xbd06c500	-0.032902718
51	0x3c21a93f	0.009867012
52	0xbad371cd	-0.0016131938
53	0x3bb72a23	0.00558974
54	0xbd6b4a23	-0.05744375
55	0xbc5c7e02	-0.013457777
56	0xbce9777b	-0.028499356
57	0x3ccd05da	0.025027204
58	0x3d4b5499	0.049641225
59	0x3d879bab	0.06621488
60	0xbcd2d6d4	-0.025737204
61	0x3d5444b8	0.051823348
62	0x3d619cd8	0.05508122
63	0x3c79c993	0.015245813
64	0xbcbedff0	-0.023300141
65	0xbd13c4c2	-0.036076315
66	0xbb1b6f93	-0.0023717626
67	0xbc53cf88	-0.012927897
68	0xbcb8afcd	-0.022544766
69	0xbd705eb9	-0.058684085
70	0x3cbfe636	0.023425203
71	0xbd0440c9	-0.032288346
72	0x3c901214	0.017586745
73	0x3d778c92	0.060436793
74	0xbbfcb6b3	-0.007712209
75	0xbc0cd1cc	-0.008594941
76	0xbc232d67	-0.009959555
77	0x3ccf2049	0.02528395
78	0xbc1422fc	-0.009041544
79	0xbd3d1715	-0.04616459
80	0x3d469c39	0.04848883
81	0xbd1a55fa	-0.03767965
82	0xbb2c414f	-0.0026284044
83	0xbcbd41c3	-0.023102647
84	0x3c0549c5	0.008135264
85	0x3d024083	0.031799804
86	0x3d47c5e6	0.048772715
87	0xbd42b286	-0.047533534
88	0xbca1f326	-0.019769263
89	0x3c0789d3	0.008272606
90	0xbb71413e	-0.003681257
91	0xbcb60e7c	-0.022223704
92	0x3d763818	0.06011209
93	0xbd476839	-0.04868338
94	0x3d553104	0.052048698
95	0x3d0cb582	0.034352787
96	0xbcdbe160	-0.026840866
97	0xbca0537a	-0.019571055
98	0xbd5d0aa1	-0.053965215
99	0xbc81f603	-0.015864378
100	0xbc9ea1ad	-0.019364202
101	0x3bd6cb09	0.0065549654
102	0xbc0ecabe	-0.00871533
103	0x3d297053	0.041366886
104	0x3bcb5206	0.0062048463
105	0x3c3a2659	0.011361682
106	0x3c624a09	0.013811597
107	0xbd54e951	-0.05198032
108	0xbd09f0d6	-0.033676945
109	0x3c5093c8	0.012730546
110	0x3d6627df	0.056190368
111	0x3cb51335	0.022103885
112	0x3ce919b2	0.028454635
113	0xbc2c1238	-0.010502391
114	0x3bec399f	0.0072090174
115	0xbd191798	-0.037376016
116	0x3d20dede	0.039275043
117	0xbc859b70	-0.01630947
118	0xbd4e097a	-0.050302006
119	0x3cdbae18	0.026816413
120	0xbcb314d7	-0.021860523
121	0x3bc68b99	0.006059122
122	0xbc3ab859	-0.011396491
123	0xbd8be4eb	-0.06830772
124	0x3d1488b1	0.03626317
125	0x3cd22760	0.025653541
126	0xbd2ab197	-0.04167327
127	0xbcd79208	-0.02631475
128	0x3d3f85bf	0.04675841
129	0x3cd3a0a7	0.025833441
130	0xbd017bad	-0.031612087
131	0xbcd77ddc	-0.026305132
132	0x3d7a8d77	0.061170068
133	0x3d327ba7	0.043574955
134	0x3bb925ee	0.0056502735
135	0x3c94ba68	0.018155292
136	0xbcdc8e4d	-0.026923323
137	0x3cb569cb	0.022145173
138	0xbc0f39dc	-0.008741822
139	0x3d78dbd5	0.060756523
140	0x3d34d584	0.044148937
141	0xbd0d0276	-0.034426175
142	0x3d3e7ad6	0.046503864
143	0x3d1585eb	0.036504667
144	0x3cebf016	0.028801005
145	0xbd2f4b3a	-0.04279635
146	0xb887ab48	-6.469205e-05
147	0x3d77b5ae	0.060475998
148	0x3ca87319	0.020562695
149	0xbd3c8ee9	-0.046034727
150	0xbcc8f99d	-0.024533087
151	0x3cbad5d3	0.022807037
152	0xbc25c8ce	-0.010118676
153	0xbd7ef321	-0.062243585
154	0x3ce25157	0.027626676
155	0x3cf7c11a	0.030243445
156	0x3d5653e8	0.052326113
157	0x3d78d587	0.06075051
158	0x3cc1d626	0.023661684
159	0x3d7ee282	0.062227733
160	0xbd19ca6f	-0.03754657
161	0xbccc1796	-0.02491359
162	0x3c4c6b77	0.0124767935
163	0x3d431c60	0.047634482
164	0x3ca24353	0.019807493
165	0x3b4b9bda	0.0031068237
166	0xbd4272a9	-0.04747263
167	0xbd3f86b0	-0.046759307
168	0xbc6011c9	-0.013676115
169	0xbd1e2332	-0.038607784
170	0x3c713e77	0.014724365
171	0x3d0dfbca	0.034663953
172	0xbd46c36f	-0.048526224
173	0x3ce1a404	0.027544029
174	0x3ccd43e3	0.025056785
175	0x3d352787	0.04422715
176	0x3c8838d8	0.016628668
177	0x3cb0385f	0.021511255
178	0xbc1e02ea	-0.009644249
179	0x3bbabf43	0.0056990697
180	0xbc8e7d9d	-0.017393881
181	0xbd0fa852	-0.035072632
182	0x3cd5ba21	0.02608973
183	0x3d45cddf	0.048292037
184	0x3d1c7de6	0.038206004
185	0xbc755d83	-0.014975908
186	0x3d119407	0.03554156
187	0x3c9eaae3	0.019368595
188	0xbd74d56d	-0.05977385
189	0x3cbe415e	0.023224529
190	0xbafd0ec8	-0.0019306773
191	0xbd4f3c1e	-0.05059444
192	0x3d2b0daa	0.041761078
193	0x3c9f3e00	0.019438744
194	0x3d28a6b7	0.041174617
195	0xbb1b8eab	-0.002373616
196	0x3cacb16a	0.021080691
197	0xbd0d0e54	-0.034437492
198	0x3cc306ef	0.023807017
199	0xbbac5ff0	-0.00526046
200	0xbcd45e90	-0.025923997
201	0x3d064b4e	0.03278666
202	0xbd197836	-0.037468158
203	0x3d4f7df4	0.050657228
204	0xbd466cec	-0.04844372
205	0x3ab40800	0.0013735294
206	0x3c70c6fe	0.014695881
207	0x3d62838b	0.05530123
208	0x3d24a28a	0.04019407
209	0x3bd7d907	0.006587151
210	0x3d265428	0.0406076
211	0x3cd6e464	0.026231952
212	0xbce69068	-0.02814503
213	0xbd45fe5f	-0.04833829
214	0xbcf065e2	-0.029345457
215	0x3d5a4732	0.053290553
216	0xbd9c5383	-0.07633116
217	0x3cb32848	0.021869794
218	0xbd39d1af	-0.045365985
219	0x3d39c2ff	0.04535198
220	0x3c98ee7e	0.01866841
221	0xbc98fec1	-0.018676164
222	0xbd3c36d7	-0.045950737
223	0xbb50568b	-0.0031789865
224	0x3cd64ae1	0.026158752
225	0xbd15a742	-0.036536463
226	0xbd2312b9	-0.039812777
227	0xbd639058	-0.05555758
228	0x3d5f5afd	0.054530133
229	0x3caab4cd	0.020838166
230	0xbbaae185	-0.0052148723
231	0xbd0866b9	-0.03330109
232	0x3d376b4d	0.044780064
233	0x3d753b85	0.059871215
234	0x3d197cfc	0.03747271
235	0xbd1f7362	-0.038928397
236	0x3b30f247	0.0026999877
237	0xbd52f3bd	-0.05150198
238	0xbd49087e	-0.049080364
239	0xbd49e9a1	-0.04929507
240	0xbc7dbdf9	-0.015487188
241	0xbb8adf55	-0.004238049
242	0x3d2d3ad6	0.04229244
243	0xbd72ce35	-0.059278686
244	0xbd2a84b4	-0.04163046
245	0xbd287d7a	-0.04113529
246	0x3c6b5215	0.014362832
247	0xbc636843	-0.013879838
248	0x3d459b4d	0.04824381
249	0xbd58546e	-0.052814893
250	0xbafe2847	-0.0019390666
251	0xbc02ba39	-0.007978969
252	0x3d5db895	0.05413111
253	0x3d2143bb	0.039371233
254	0x3d1f7df9	0.038938496
255	0x3d4ae65f	0.049536105

linear3.weight f4 [1, 256]
0	0xbe1b34c9	-0.15156855
1	0xbe1521ed	-0.14563723
2	0x3e098ef5	0.1343344
3	0x3e028bcb	0.1274864
4	0x3e144615	0.14479859
5	0xbe20492d	-0.15652914
6	0xbe0b8f5e	-0.13628909
7	0xbe1d9237	-0.15387808
8	0xbe156667	-0.14589845
9	0x3e17bcbc	0.1481809
10	0xbe22d1f8	-0.15900409
11	0xbe17d60e	-0.14827749
12	0x3e0ba4f4	0.13637143
13	0xbe1846ac	-0.14870709
14	0x3e1a6bf4	0.15080243
15	0x3e09442c	0.13404912
16	0xbe1bb903	-0.15207295
17	0xbe1753c0	-0.14778042
18	0x3e0cd267	0.13752137
19	0x3e1258b6	0.14291653
20	0xbe19a4c8	-0.15004265
21	0x3e144eda	0.14483204
22	0x3e104e82	0.14092448
23	0xbe2227a8	-0.1583544
24	0xbe160dfe	-0.14653775
25	0xbe188898	-0.14895856
26	0xbe11a45d	-0.14222856
27	0xbe0a188f	-0.13485931
28	0xbe1541d5	-0.14575894
29	0xbe1b6561	-0.15175392
30	0x3e10adab	0.14128749
31	0xbe190ae8	-0.14945567
32	0xbe1150bd	-0.14190955
33	0x3e12d265	0.14338072
34	0x3e0f244b	0.13978688
35	0xbe1baa4c	-0.15201682
36	0xbe16a9f0	-0.14713264
37	0xbe1c9087	-0.15289508
38	0x3e1080ab	0.14111583
39	0x3df57f58	0.119871795
40	0x3e0f6818	0.14004552
41	0xbe186fad	-0.14886351
42	0xbe073da1	-0.13207103
43	0x3e1b5b39	0.15171517
44	0xbe312d31	-0.17302395
45	0xbe18dc3a	-0.1492776
46	0xbe1e3d84	-0.15453154
47	0xbe155a32	-0.14585188
48	0x3e11bb77	0.14231668
49	0xbe218940	-0.15775013
50	0xbe1d693e	-0.15372178
51	0xbe08e51b	-0.13368647
52	0x3e1b2ae7	0.15153085
53	0x3df6c541	0.12049342
54	0xbe10608e	-0.14099333
55	0x3e1b0a58	0.15140665
56	0x3e1004e1	0.14064361
57	0xbe1149a4	-0.14188248
58	0x3e1ac897	0.15115581
59	0xbe1a885d	-0.15091081
60	0xbe0b880b	-0.13626115
61	0xbe1856e9	-0.14876904
62	0xbe259ead	-0.16173811
63	0x3e159208	0.14606488
64	0x3e104269	0.14087833
65	0xbe1814c0	-0.14851665
66	0xbe1acc70	-0.15117049
67	0x3e05176d	0.12997217
68	0xbe109e26	-0.14122829
69	0x3e13c6ab	0.14431255
70	0x3e0feff4	0.14056379
71	0xbe16eda1	-0.14739086
72	0x3e0f3044	0.13983256
73	0x3e11f311	0.14252879
74	0xbe186a80	-0.14884377
75	0xbe148603	-0.14504246
76	0xbe1eafcf	-0.15496753
77	0x3e0d830e	0.13819525
78	0x3e0619d9	0.13095798
79	0x3e10ca7c	0.14139742
80	0xbe10982a	-0.14120546
81	0xbe25d305	-0.16193779
82	0xbe20dd9f	-0.15709542
83	0xbe25ae39	-0.16179742
84	0xbe1da0e3	-0.15393405
85	0x3e1e2c26	0.15446529
86	0x3e110104	0.14160544
87	0xbe143d7c	-0.1447658
88	0x3e140ed9	0.14458789
89	0xbe253e62	-0.16137078
90	0xbe1595de	-0.14607951
91	0x3e0e38b8	0.13888824
92	0xbe1985af	-0.14992402
93	0x3e0c7c67	0.1371933
94	0x3e16ba9e	0.14719626
95	0xbe12e73c	-0.14346021
96	0x3e184ce8	0.14873087
97	0xbe1865fa	-0.14882651
98	0xbe155a08	-0.14585125
99	0xbe13685b	-0.14395277
100	0xbe294a57	-0.16532265
101	0xbe035472	-0.12825182
102	0xbe128e4c	-0.14312094
103	0x3e0bd895	0.13656838
104	0x3e1cede7	0.15325128
105	0xbe243fde	-0.16039988
106	0xbe1ddac3	-0.15415482
107	0xbe1108a5	-0.14163454
108	0x3e0344ca	0.1281921
109	0xbe134a64	-0.14383847
110	0xbe1bb766	-0.1520668
111	0xbe1409d2	-0.14456871
112	0x3e05e56e	0.13075802
113	0xbe0b8ecc	-0.13628691
114	0xbe2536e9	-0.16134228
115	0x3e12bda4	0.14330155
116	0xbe19ee89	-0.150324
117	0xbe2653da	-0.16242924
118	0x3e0979e4	0.13425404
119	0x3e0c0ec0	0.13677502
120	0xbe150394	-0.14552146
121	0xbe1f0641	-0.1552973
122	0xbe1708e4	-0.14749485
123	0x3e1186f7	0.14211641
124	0x3e139ab1	0.14414479
125	0x3e0f5bc3	0.13999848
126	0xbe1085d4	-0.14113551
127	0xbe0f4ecc	-0.13994902
128	0x3e089876	0.13339409
129	0xbe2f3ce2	-0.17113069
130	0x3e140bf8	0.1445769
131	0xbe2392b2	-0.15973929
132	0xbe0ac80a	-0.13552871
133	0x3e16c1bb	0.1472234
134	0x3e1967f1	0.14981057
135	0xbe20b3fd	-0.1569366
136	0xbe224817	-0.15847813
137	0x3e060278	0.13086879
138	0x3e0f6e2c	0.14006871
139	0xbe190094	-0.14941627
140	0x3e19e929	0.1503035
141	0xbe26aef0	-0.16277671
142	0x3e1eebb7	0.15519606
143	0x3e1274b1	0.14302327
144	0x3e0d9d60	0.13829565
145	0x3e0c0546	0.13673887
146	0xbe1dff8a	-0.15429512
147	0xbe22e016	-0.15905795
148	0x3e06f511	0.13179423
149	0x3e09aa04	0.13443762
150	0x3e0d8fe0	0.13824415
151	0xbe12ca43	-0.14334969
152	0xbe1c8c80	-0.15287971
153	0xbe13dce2	-0.14439729
154	0xbe196ffb	-0.14984123
155	0xbe072899	-0.1319908
156	0xbe17744a	-0.14790455
157	0x3e232347	0.15931426
158	0xbe288a18	-0.16458929
159	0xbe1ccb64	-0.15311962
160	0x3e0af6e6	0.13570747
161	0x3e09e133	0.13464813
162	0xbe1029c6	-0.14078435
163	0x3e17ca57	0.1482328
164	0x3e013c2c	0.1262061
165	0xbe1e30db	-0.15448324
166	0x3e13679e	0.14394996
167	0xbe15b92d	-0.1462142
168	0xbe130749	-0.14358248
169	0xbe1a94ff	-0.150959
170	0xbe1c2359	-0.15247859
171	0x3e06b815	0.13156159
172	0x3e124c4d	0.14286919
173	0x3e17a59e	0.14809272
174	0x3e0ba4ea	0.13637128
175	0x3e16829e	0.14698264
176	0xbe183f0f	-0.14867805
177	0x3e10b206	0.1413041
178	0x3e1c2655	0.15248998
179	0xbe21da90	-0.15806031
180	0x3e18fbb6	0.1493977
181	0x3e09f755	0.13473256
182	0xbe0b731a	-0.13618127
183	0xbe1006db	-0.14065115
184	0x3e04b9ef	0.12961553
185	0x3e1b2a5a	0.15152875
186	0xbe1a9fee	-0.15100071
187	0xbe245f45	-0.16051967
188	0xbe0e67fe	-0.13906857
189	0x3e167961	0.1469474
190	0xbe1cfb30	-0.15330195
191	0x3e10fbc0	0.14158535
192	0xbe1044df	-0.14088772
193	0xbe202f7a	-0.15643111
194	0xbe0c3984	-0.13693815
195	0xbe249148	-0.16071045
196	0xbe1ed3b0	-0.1551044
197	0x3e0a9152	0.13531998
198	0xbe1cd930	-0.15317225
199	0xbe14baa2	-0.1452432
200	0xbe1de43d	-0.15419097
201	0x3e0bb9dd	0.1364512
202	0xbe15eb0a	-0.14640442
203	0xbe1e0d34	-0.15434724
204	0xbe126d15	-0.14299424
205	0xbe056020	-0.1302495
206	0xbe1b70cb	-0.15179746
207	0xbe25f92f	-0.16208337
208	0x3e0fc516	0.14040026
209	0xbe1f8d92	-0.15581349
210	0xbe17dba6	-0.14829883
211	0x3e12e611	0.14345576
212	0xbe1a07c0	-0.15042019
213	0xbe164696	-0.14675364
214	0x3e15648d	0.14589138
215	0xbe1f70a8	-0.15570319
216	0x3e042dc5	0.12908085
217	0x3e14b95d	0.14523835
218	0xbe153e4a	-0.14574543
219	0xbe0e1729	-0.13876022
220	0x3e0e51fe	0.13898465
221	0xbe20868e	-0.15676329
222	0xbe18263b	-0.14858334
223	0xbe1b3539	-0.15157022
224	0x3e161d40	0.14659595
225	0x3e0c3c46	0.13694867
226	0x3e0d0115	0.13769944
227	0x3e16e19d	0.14734502
228	0x3e19fcc5	0.1503783
229	0x3e1308e2	0.14358857
230	0xbe1cab6c	-0.15299767
231	0xbe1a9915	-0.15097459
232	0xbe12f116	-0.1434978
233	0xbe210361	-0.15723945
234	0xbe173ebf	-0.1477003
235	0x3e0441a5	0.12915666
236	0x3e0e0f84	0.13873106
237	0xbe111976	-0.14169869
238	0x3e174e6c	0.1477601
239	0x3e18dc3a	0.1492776
240	0xbe1435f2	-0.14473704
241	0xbe1abaf0	-0.15110373
242	0x3e1f7182	0.15570644
243	0xbe267f87	-0.16259585
244	0xbe08c7b0	-0.13357425
245	0x3e0d2f8a	0.13787666
246	0x3e0d5748	0.13802826
247	0x3e1cefe9	0.15325893
248	0xbe1fb4f9	-0.1559638
249	0xbe102de8	-0.14080012
250	0xbe246ba2	-0.16056684
251	0x3e1b27ee	0.1515195
252	0xbe1ea4b2	-0.15492514
253	0x3e0a545c	0.13508743
254	0xbe214d0c	-0.15752047
255	0x3e028240	0.12744999
